model/model.pth (torch, 799047 bytes, 6 tensors)

f0.0.weight f4 [256, 390]
00000000: 5e59 8f3c 5220 a8bd daa8 3723 eb63 7dba
00000010: 85c4 4280 7dcd 353e 96af 0680 d454 0a80
00000020: 2854 6501 0575 85a4 028f 1a80 a93e 0a80
00000030: 3b74 48bc f484 1300 575e 4280 f573 2e80
00000040: db16 0580 8465 3f81 8250 493c e25f 0e00
00000050: d707 1c80 b1c7 85bd 97bf a6a2 b9af 3a80
00000060: d4a9 443b c776 0f80 d219 2980 5797 3480
00000070: 65f1 2400 2148 4100 0f73 08be 5d3f 2100
00000080: 29c4 4880 3961 2a3c 2128 1800 0b82 3600
00000090: fd84 223c 5f4f 1d80 c0b4 1500 0638 323c
000000a0: 55e4 3c80 602b 1480 1981 9aa6 bd54 0f00
000000b0: 08c6 0580 eddf 6b3c 3fec b639 6f02 1c80
000000c0: dddb 1800 8045 2100 142c 4200 e853 79a7
000000d0: 12d0 0680 55b4 6439 f7a6 4abd e874 1680
000000e0: a43c 1bbe fdcd 97bd 895c 2c00 4643 5f3d
000000f0: 714e 8438 e81b 1080 2c47 4b80 99b9 4c3c
00000100: 9b96 0c80 f609 2900 bb03 03bd 10b4 2400
00000110: 90bb 393e e60e 2080 408a 0580 248d 4a80
00000120: ee5a d43b 40fd 2a80 089c 0700 659c 23bb
00000130: c542 1900 8fd4 0680 2c4c 7f3c fb9e 3380
00000140: 147b 0a3e ed5e 7dba 1813 4680 fa99 1880
00000150: afd6 0480 5de9 1482 d9c0 1f80 4711 85a4
00000160: 612d 0f80 6ccb 1e80 002c 43bd a845 1100
00000170: c35d 603d e798 2980 c61d f901 ea5c 0c00
00000180: da27 463c f183 1080 4684 2882 bbc8 85bd
00000190: b3b3 0780 fc12 3f81 318e 813b a246 3300
000001a0: 929e 1c3b 974b 3480 4db0 0d00 af10 4c80
000001b0: 23a6 44be 8c1d 3400 259a 1400 8c5b 193c
000001c0: 959e 54bd 8c79 d63d 2e23 213c dbb2 3b00
000001d0: 44c3 f121 75a5 1a3c 89aa 0c80 cdca 2e80
000001e0: 8d77 9aa6 e390 1580 14fc 0500 5fa6 8c3c
000001f0: a0b4 b639 f330 d79b b870 1800 e5c0 0000
00000200: b428 0d80 f7c7 79a7 2600 1b00 d303 0882
00000210: 8401 50bd 4caf 2880 4549 0800 475f 98bd
00000220: a4f0 950e 3021 14b7 f907 07ba 92dd 0e00
00000230: 7992 1a80 a3b9 4c3c 63b2 0980 ecfa 3380
00000240: 385b 01bd a379 1280 9da7 0280 725b 2180
00000250: d913 3200 a39f 0880 bd78 983c 1f26 0780
00000260: 5998 a281 159d 23bb 0527 1680 a2e9 4200
00000270: c06a 753c 2fbf 1600 5344 1080 0467 7dba
00000280: 20de 1180 28cd 3280 afd6 0480 63ea 1080
00000290: f885 0c80 2423 85a4 edf3 1c80 f319 2480
000002a0: 01ef 93bc 5a02 93b7 cc21 af3c 298b 2d80
000002b0: 1955 c381 5319 0080 6c26 493c 2322 4900
000002c0: 929e 1c3b 9dc9 85bd 16f8 3280 4076 ef81
000002d0: 266d a03b 6e64 3980 62db 4523 8490 3380
000002e0: 8471 3f80 887a 0f80 415b 43be 2660 4780
000002f0: f09b 5d01 1a7f 093c 3847 2080 9151 0c3e
00000300: 7b48 223c e345 1180 c340 0b00 4e22 5c3c
00000310: e722 1600 64b5 e501 ab7b 9aa6 088c 2901
00000320: 3021 14b7 9fcb 5c3c 5d73 3a80 5db4 6439
00000330: 8306 1c00 0fd8 2f80 03ec 0780 1a6f 79a7
00000340: 1cee 0800 94d3 1c80 6eb0 4abd 0a5f 0200
00000350: c66f 4380 be5c 98bd 464b 4a00 8578 d001
00000360: c802 af3a 6e44 0c00 019b af36 99b9 4c3c
00000370: 40b0 1880 f29c 1b80 1f03 08bd aeef 1600
00000380: adae c781 33de 1e80 5dce 4280 e4b6 5901
00000390: bf8f 683c 4e3a 1180 066c 2a80 8aa7 23bb
000003a0: f5bf 4100 caf7 3780 eeba e63b 7b6f 62bd
000003b0: 6318 803c 6d5e 7dba d578 5702 dbb1 1a00
000003c0: afd6 0480 89d4 2000 ccfd 2980 317f 85a4
000003d0: d047 3a80 18c5 4280 3ef3 d3bc c866 1680
000003e0: 720b 1180 99ec 2f80 26bf 2d00 b242 8d01
000003f0: 247b 483c eb5e 1400 4df0 2780 f8c8 85bd
0.017498668 -0.082092896 9.956206e-18 -0.0009666073 -6.13164e-39 0.17754169 -6.14001e-40 -9.48786e-40
4.2121036e-38 -5.7877794e-17 -2.439024e-39 -9.40833e-40 -0.012234743 1.792569e-39 -6.094986e-39 -4.26603e-39
-4.67376e-40 -3.5153993e-38 0.012287261 1.320093e-39 -2.574206e-39 -0.06532229 -4.5197244e-18 -5.389496e-39
0.0030008452 -1.420142e-39 -3.774518e-39 -4.829736e-39 3.392674e-39 5.995182e-39 -0.13325141 3.053302e-39
-6.682525e-39 0.010399156 2.218447e-39 5.005767e-39 0.009919402 -2.691702e-39 1.993386e-39 0.010877615
-5.59204e-39 -1.85227e-39 -1.0720889e-15 1.407931e-39 -5.30218e-40 0.01439665 0.00034889762 -2.572267e-39
2.282924e-39 3.055503e-39 6.076955e-39 -3.4601177e-15 -6.25655e-40 0.00021810953 -0.049475636 -2.062319e-39
-0.15159851 -0.07412336 4.073957e-39 0.054507516 6.308861e-05 -1.479379e-39 -6.913194e-39 0.012495422
-1.156053e-39 3.768829e-39 -0.03198598 3.370672e-39 0.18137956 -2.94408e-39 -5.08772e-40 -6.846458e-39
0.006480566 -3.94794e-39 6.98822e-40 -0.0024965045 2.31984e-39 -6.27265e-40 0.015582126 -4.740642e-39
0.13523513 -0.0009665329 -6.435334e-39 -2.259288e-39 -4.44356e-40 -1.0940295e-37 -2.916081e-39 -5.7708825e-17
-1.393811e-39 -2.828039e-39 -0.047649384 1.586191e-39 0.05477692 -3.820106e-39 9.1510877e-38 1.135357e-39
0.012094462 -1.5167e-39 -1.2380651e-37 -0.06532427 -7.07312e-40 -3.509478e-38 0.003953718 4.708949e-39
0.0023898226 -4.802562e-39 1.257106e-39 -6.985483e-39 -0.19204001 4.786045e-39 1.892007e-39 0.009360205
-0.051909048 0.10472402 0.009835048 5.482456e-39 1.6382482e-18 0.009438862 -1.163202e-39 -4.297184e-39
-1.0718301e-15 -1.980521e-39 5.49606e-40 0.017169176 0.0003484832 -3.56004e-22 2.244488e-39 6.9198e-41
-1.208463e-39 -3.4664093e-15 2.479612e-39 -9.9928e-38 -0.050782695 -3.736305e-39 7.60968e-40 -0.07440048
3.6963064e-30 -8.8292145e-06 -0.00051510293 1.365181e-39 -2.440267e-39 0.012495431 -8.90513e-40 -4.773624e-39
-0.031581134 -1.696674e-39 -2.438e-40 -3.063376e-39 4.598895e-39 -7.91951e-40 0.01861226 -6.56524e-40
-5.972801e-38 -0.0024965454 -2.034378e-39 6.144954e-39 0.014979064 2.088965e-39 -1.493878e-39 -0.00096665346
-1.640887e-39 -4.665371e-39 -4.44356e-40 -1.55345e-39 -1.150085e-39 -5.7739086e-17 -2.658898e-39 -3.315387e-39
-0.018058302 -1.752486e-05 0.02137842 -4.182519e-39 -7.1753796e-38 -9.085e-42 0.012277227 6.716237e-39
0.0023898226 -0.06532595 -4.680771e-39 -8.7964415e-38 0.004895824 -5.27065e-39 1.07258475e-17 -4.735453e-39
-5.826358e-39 -1.421488e-39 -0.1907778 -6.554812e-39 4.070317e-38 0.00839212 -2.964284e-39 0.1370299
0.009904976 -1.586274e-39 1.033423e-39 0.013435913 2.032902e-39 8.43816e-38 -1.0719417e-15 3.1140865e-38
-8.8292145e-06 0.013476281 -5.367843e-39 0.00021810965 2.57373e-39 -4.393776e-39 -7.27514e-40 -3.461592e-15
8.20102e-40 -2.647294e-39 -0.049484663 2.17765e-40 -6.193075e-39 -0.07439564 6.82283e-39 7.658007e-38
0.0013352269 1.126574e-39 5.2334512e-06 0.012495422 -2.267278e-39 -2.53586e-39 -0.0332061 2.106362e-39
-7.33517e-38 -2.834775e-39 -6.135172e-39 3.9987823e-38 0.014194428 -1.582119e-39 -3.895842e-39 -0.0024971687
6.038168e-39 -5.139842e-39 0.0070413267 -0.055282097 0.015636628 -0.00096652546 1.5830382e-37 2.451525e-39
-4.44356e-40 3.014979e-39 -3.8563e-39 -5.7895026e-17 -5.35222e-39 -6.131847e-39 -0.025872823 -2.057252e-39
-1.565309e-39 -4.401144e-39 4.201168e-39 5.1890923e-38 0.01223639 1.87076e-39 -3.667788e-39 -0.06532472

f0.0.bias f4 [256]
00000000: 4f13 8fbd 8759 67bd aeb1 28bd 49d2 c0bd
00000010: bde2 d6bd b29f 18bc 3ede c793 ef4c 9bbd
00000020: aa48 afbd 03c2 1bad 0cbd 43bd e115 78bd
00000030: 16c8 a93b 3599 933d 10bc 28bd a23e 93bd
00000040: 6786 d03c 6725 843c 2275 abbe f1b4 64bd
00000050: 38d5 31bd 368b 64bc 3a5c 823d 2628 d73d
00000060: 393d ab3c 7f97 1d3c 23f5 8498 5508 1fbc
00000070: 7e6d 3d3e 03b9 b1bd fc86 43bc 0ee7 b2bd
00000080: c99c b5bc f9c0 fbbd 5637 11bd b139 56be
00000090: 521c cdbd 0914 223d be26 d1bd 365d f9bd
000000a0: 2163 bfaa d3b4 e0bc 1dda b43d 2c03 6b3d
000000b0: 2029 0fbe 4c8d 8bbe 5c27 9db9 3954 24bd
000000c0: 7577 42bd 14c2 44bd 0893 ffbb c7ea b0bc
000000d0: 43be 13b9 488c 043c b4ca 00be f950 1db8
000000e0: 6e9d 183d cf36 5ebd 5053 babc 3067 b49e
000000f0: 8d67 65b0 bf02 34bc 8b1f 5fbd 226a 06bd
00000100: bfcf 7abc c5ec 0bbe 8075 bcbd 6efd 47be
00000110: 81af 10be 15c3 4ba3 1b8a 80bb 7b06 96be
00000120: c41f 86bd 2f59 f83c 0b1b 343c e097 05bd
00000130: 8338 46be 7de4 38bc f12a b63b 7322 9bb9
00000140: b373 0abe 90bb c9bd 2299 9cbd 1588 9fbe
00000150: 9d65 6abd 293c 63bd fdcf 2abd be55 1fbe
00000160: 4137 c33d 353f 0a3d bb24 48bd af13 59b6
00000170: 3541 323d 991e a5bd 4fd8 89bd ad75 0e3c
00000180: d314 26bd 26e7 cabb 7630 fb3d 2c70 b6bd
00000190: 432a 00bb 462f aebe 5e52 45bc 5bc2 aeb1
000001a0: 476b bb3c 8fa2 09be d77f 02bd fb7e 37ad
000001b0: dd4e 5abe 7084 97bd 2638 b0be 58e6 1e3e
000001c0: 0086 9ebd e76d 8ebd cc03 02bd 1572 2e3e
000001d0: 9a3a b8bd 9650 adbd dd13 babd 3e76 52bd
000001e0: 7d9e e53b 3ff3 8dbd dcf2 07be b291 d8bc
000001f0: 1cb0 47bd 7a51 b13c da9c 61bd cdb7 adbd
00000200: eecd 15bc a46a 41a7 7776 bdbd 74a9 07be
00000210: 9948 ffbb 3046 80ba 9e63 c8be 6529 81bd
00000220: 61d5 59bd a0c2 8ebd 0305 b43c 443d 2fbc
00000230: bf82 c3bd 82e6 b9bc 9873 04bd 81ff 97bd
00000240: 6c82 d4bd 81dd 00bd 067d f8bc 2c8f 48bd
00000250: 489e 70b8 f5cb a8bd a1aa 683d 983e 6f3d
00000260: b57f d2bb c8d3 5d95 1ffd 2abd 15e2 b2bc
00000270: 3388 71bd 3f24 75bd c42d 1c3d ac31 63bd
00000280: 5a12 94bd 8758 17be 21eb a8bd bea0 7dbd
00000290: eda4 51bc 0c57 b9bd 863f ecbd fc82 34bd
000002a0: 162f a83d 50cd c1be a502 8cb2 12bd e23c
000002b0: 0b1f 25bd 87a0 2fbb f2e6 a0bc fc91 11bd
000002c0: 40fd 22be 7074 ef3d 353d 20bc 7328 ae3d
000002d0: e219 b4be 8bdd 8dbd cc76 50bd 9ae1 99bd
000002e0: cc20 10bd 7362 c6bc 26c2 63bd 0380 60bc
000002f0: 1142 1abe 714a d1bd 52b4 65bd 5e14 bc3d
00000300: 1ce1 9d3d 9a61 b5be 8174 d63c 4c7d 64bd
00000310: cc58 4dbc 46e1 b6bc 00bd 29be dbd7 c1b4
00000320: d86d 20b7 8cc3 d7bc 8b7d ba3d 8034 0cbd
00000330: 61c4 e4bc 7100 c7bd 1780 333e 58bb 46ba
00000340: cb53 a4be 6d4d acbd 70d4 91bd d2e4 ebbd
00000350: 52dd bfbd 289d 1297 977d 023e 19fc afbd
00000360: a748 06bd 054f 923d 8bca 84a3 1bba 1dbd
00000370: 0557 b1be 7ca0 43bd 4b7f 75bd f08e 243d
00000380: a7a6 97bd 0c96 279a 6037 37b3 ece6 29bd
00000390: e2c8 b3bd 57b8 16bd d674 22bd 0ca1 2fbd
000003a0: e3f6 cabd 90c7 3bbd e210 f3bb 4c6e 6bb4
000003b0: 3c33 c1bd fd6f f3bd a54e 53be 08d0 a1b1
000003c0: a1a4 a0bd 2a76 f9bd 3fdd 47b8 2b8a fcba
000003d0: b5e1 253d 8b65 80bd a916 04be b28e ac3d
000003e0: ef1b 03a6 978a 0d3e 9cd2 32be ca3c 2f3d
000003f0: fa40 b9be 8e9d 6f3c 012f 89bd e7a0 37be
-0.06986105 -0.056481864 -0.041185074 -0.09415109 -0.10492466 -0.009315418 -5.045381e-27 -0.07583033
-0.085587814 -8.853809e-12 -0.04778771 -0.06056774 0.005181323 0.07206956 -0.041194975 -0.07189681
0.025454713 0.016131116 -0.33487803 -0.05583662 -0.043416232 -0.013949206 0.06365247 0.105057046
0.020903217 0.009618639 -3.4368725e-24 -0.009706576 0.18498799 -0.08677866 -0.011934038 -0.087354764
-0.022169488 -0.12292666 -0.035453163 -0.20920445 -0.10015167 0.03956989 -0.102124676 -0.12175982
-3.39972e-13 -0.027429974 0.08830664 0.05737607 -0.13980532 -0.27256238 -0.000299747 -0.040119383
-0.047477204 -0.04803665 -0.00779951 -0.021596326 -0.0001408989 0.008090086 -0.12577325 -3.750713e-05
0.03725951 -0.05425149 -0.022744805 -1.9100919e-20 -8.345687e-10 -0.010986983 -0.05447344 -0.03281606
-0.01530832 -0.13664539 -0.09202099 -0.1953027 -0.1412945 -1.1045962e-17 -0.0039227135 -0.2930182
-0.065490276 0.030315964 0.010992776 -0.032615542 -0.19357495 -0.011284945 0.0055593182 -0.0002958957
-0.13520698 -0.09850228 -0.07646395 -0.3115851 -0.057225812 -0.055477295 -0.04170226 -0.15560052
0.09532023 0.033751685 -0.048863154 -3.2346977e-06 0.043519218 -0.08062477 -0.06730711 0.008695048
-0.040547203 -0.006192106 0.122651026 -0.08908114 -0.001955644 -0.34020442 -0.012043564 -5.086162e-09
0.022878302 -0.13440917 -0.0318602 -1.0430541e-11 -0.21319146 -0.07398307 -0.34417838 0.15517557
-0.07740402 -0.06954556 -0.031741902 0.17035706 -0.08995552 -0.08462636 -0.0908582 -0.051382296
0.0070074187 -0.06931161 -0.13276237 -0.02643666 -0.048751935 0.021645296 -0.055081226 -0.08482323
-0.009143336 -2.684194e-15 -0.09251111 -0.13248235 -0.0077906367 -0.0009786543 -0.39138502 -0.063067235
-0.05318201 -0.069707155 0.021975046 -0.010695759 -0.09546422 -0.022692923 -0.0323368 -0.074217804
-0.103764385 -0.031461243 -0.030333053 -0.048964664 -5.736787e-05 -0.08242027 0.05680335 0.058409303
-0.0064239153 -4.479766e-26 -0.0417453 -0.02183632 -0.05896778 -0.05984902 0.038129583 -0.055467293
-0.07230063 -0.14779864 -0.08247972 -0.061920874 -0.012795669 -0.09049806 -0.11535554 -0.04407023
0.08212106 -0.37851954 -1.6299348e-08 0.027678046 -0.040312808 -0.0026798563 -0.019641373 -0.035539612
-0.1591692 0.116921306 -0.009780218 0.08503809 -0.35175997 -0.069270216 -0.050894544 -0.07513733
-0.035187528 -0.024216866 -0.055605076 -0.013702395 -0.15064265 -0.10219277 -0.05608017 0.09183572
0.07708952 -0.35426027 0.0261786 -0.055783555 -0.012533378 -0.022324216 -0.16576004 -3.6106107e-07
-9.562318e-06 -0.026338361 0.09105977 -0.034229755 -0.027925672 -0.09716881 0.17529331 -0.0007581017
-0.3209518 -0.08413205 -0.07120597 -0.115182534 -0.093683854 -4.7373503e-25 0.12743221 -0.08593006
-0.03278413 0.07143978 -1.4397249e-17 -0.038507562 -0.34636703 -0.04776047 -0.05993585 0.04017538
-0.07404833 -3.4655997e-23 -4.265837e-08 -0.04147999 -0.0877855 -0.036796894 -0.039662205 -0.042878196
-0.09910371 -0.045844615 -0.007417784 -2.1926206e-07 -0.094336 -0.118865944 -0.2063547 -4.709367e-09
-0.078439005 -0.12180741 -4.765135e-05 -0.0019267251 0.040498454 -0.06269368 -0.12899269 0.084256545
-4.548761e-16 0.13822399 -0.17463154 0.042782582 -0.36182386 0.014624966 -0.066984184 -0.17932473

f0.2.weight f4 [256, 256]
00000000: 1738 803c 0e1c bbbc 60bb 723d 73b1 df3c
00000010: f0aa e53c 1fb8 ff3d 8c01 2280 2a96 05bc
00000020: e180 8dbd 655d 3000 75f8 66bb 5c3a c4ba
00000030: 75e6 dbbc c32b febc 25d5 1400 ee4d 3cbd
00000040: 441c 5cbd 7a12 0c3d fe89 5d3d 8770 3ebb
00000050: 30ce f8bc 0f1f 0480 98cf 7cbd 41e5 073b
00000060: d3ab 5a3b dac1 0bbd 1d29 1f00 5b21 4fb5
00000070: 1440 10bd 9136 4ebb 4a8f 883a 0bad 1eb6
00000080: c91e ec3c 9795 1dbb de66 e63c b370 ebbc
00000090: e768 3fbc 7426 8cbd e190 98bc d674 c3bb
000000a0: 9f2a 2c00 c7d7 54b7 7e69 d9bc 5fc1 a5bd
000000b0: fab7 4aba 35bc 053d 0948 d2af e6e4 27bd
000000c0: e269 e63c c155 e23b fc02 343b ca87 cbbc
000000d0: 5e22 1500 4499 67bd 2644 22bc d92f 98aa
000000e0: 1e17 c33d df9c c5ba d719 1cbb 9963 3600
000000f0: 51dd 3d80 a103 59bd 18f6 d7b8 2fb5 b0bc
00000100: 171a a0b9 e359 13bd 4e2d 603b 7b6c 81b6
00000110: 929c 6b33 aade 3e00 71d4 cdbd 7980 17bb
00000120: f2e0 14bb 4712 04bd 1ab9 713b c481 24bd
00000130: 1f72 d63c 90d4 4280 cb6a 07ba 8c31 2580
00000140: cdb4 8839 d9cc 563e 4453 7ebb 3d55 dc3d
00000150: 603d cebb a30a b7bc a29e 17bc 7ff7 da3b
00000160: 00be 993b 0ce3 2abd b6e3 01bb 886b 4380
00000170: 3ee1 aebc c75d 0cbd f19b fbba 50dd 3abd
00000180: 5ec6 839f 5060 f4b9 8835 2ebd b324 c5b3
00000190: 6116 2abd b6fd 2bbc 327e 9dbd 327d 1880
000001a0: be03 b1bc 0954 082b d965 5ebc 5044 3c00
000001b0: daba b8ba 26db 16b4 9ef3 dabd 9b1d be3a
000001c0: 60da 6bbb 46d9 81b4 3f5a 403d 760c 70bd
000001d0: c350 59bc 3fe4 b33a d4d3 a3b8 93a2 04b9
000001e0: 9e5b b63d 2886 b7bd 6b66 5f3d fb4d 36bb
000001f0: b1e6 4e3b f1bf 11bb d33c 93bb a8a4 b8bd
00000200: 0127 a7ba baf4 2500 bdb6 0a3d f190 f43c
00000210: 7713 9912 932e 4602 d6a2 6fbc ea6f 97bc
00000220: 7bd4 05bd 5d22 ecbc 0f95 16bc 4b20 e03a
00000230: 7abd f3bb a73f b43c 0edc aebb 6d57 adbb
00000240: 750f e63d 9e66 c4bc b899 d5b6 1ba7 983b
00000250: a709 2680 4b77 f49f a337 aa3d 3e40 28bd
00000260: 1ebf 3433 c43d 1300 e6b1 50bd 25c0 4499
00000270: 1f5f 10a1 33b1 84bc 3ef8 5dbc 129a b7bd
00000280: ab03 903b f30b d6bd e747 9fba 974b bdbc
00000290: f184 b3a3 a473 67bc ea3b 93bc 8e8c 20bd
000002a0: fadc ae3c 621c d5bd d843 4200 90bd a7bd
000002b0: a532 6cbc f25c 3bb5 0e89 1307 0340 b53c
000002c0: 1509 dd3a f8da 33bd 4b1f aaba 1689 d1bd
000002d0: 6ead a7bd eeed ae3c dd7d 14ba 0410 c6bc
000002e0: c476 36bb fddc 8bb7 3181 dc3a 0bfe 813a
000002f0: e900 15bb 4c8b bb3d a26e a13c 23b7 b7bc
00000300: 5a14 8abc 6450 bcb9 56b6 a6ba 5e37 3680
00000310: 7476 d1b1 a9db 7d39 a47e 19bb ff05 2400
00000320: 3578 2a34 759c fcbb 4968 1bbe 76ca 06be
00000330: 8b7b 86bd 00ea 68bb 91ef bb3c 4226 1000
00000340: 7f9e 79bd 7bc0 53bd 5198 88b9 d5c4 0d3c
00000350: 6b78 bdbd 5cdd 1f00 f9d7 163c d7cc 5c3c
00000360: d78a 68bc 05bf 08bd 8557 1d00 bfe7 1836
00000370: 5c43 873b 9fba 7b3c 0ba4 ca3c 3cc4 bd3d
00000380: bdba d73d ceec 2180 be13 2000 f2d4 ac3c
00000390: 470f ef3b b879 83bd eb3b 2e3d e469 4cba
000003a0: bd40 4abb 126d e0bb ed84 2800 04ec 0a01
000003b0: 0582 9ebb eb10 5abd 6388 4ebd a646 0100
000003c0: 16eb cb3b 6b09 41bc 6d61 a001 46ca 2200
000003d0: 602a b1bd 1346 f83b b1e8 8c3d 7c22 063d
000003e0: 6739 4c80 4fba b6bc c1c4 91bb fdbd 95bd
000003f0: 1dfe ddbd 4ac8 2dbc 0943 3a80 3258 94bc
0.015651746 -0.022840526 0.059260726 0.027306294 0.02803561 0.1248629 -3.122962e-39 -0.008153478
-0.06909347 4.441607e-39 -0.0035243307 -0.0014971006 -0.026843289 -0.031026727 1.913172e-39 -0.045972757
-0.053737894 0.034197308 0.054086678 -0.002905877 -0.030371755 -3.78484e-40 -0.061721414 0.0020736011
0.0033366575 -0.034120418 2.861649e-39 -7.716205e-07 -0.03521736 -0.003146563 0.001041868 -2.364456e-06
0.028823273 -0.0024045461 0.028125223 -0.028740263 -0.0116827255 -0.06843272 -0.018623771 -0.0059648557
4.056051e-39 -1.2686424e-05 -0.02653956 -0.08093523 -0.0007733103 0.03265019 -3.8249962e-10 -0.04098978
0.02812666 0.0069071953 0.00274676 -0.024845023 1.940874e-39 -0.05654265 -0.009903943 -2.7033825e-13
0.09525894 -0.0015076658 -0.0023819113 4.994846e-39 -5.681359e-39 -0.052981976 -0.000102978374 -0.02157077
-0.00030537017 -0.035974395 0.0034206691 -3.8571284e-06 5.48576e-08 5.773678e-39 -0.100502856 -0.0023117347
-0.0022717086 -0.032243993 0.003688401 -0.040162817 0.026177464 -6.137396e-39 -0.00051657547 -3.415687e-39
0.00026074648 0.2097658 -0.0038806954 0.107584454 -0.0062939376 -0.02234394 -0.00925413 0.006682336
0.004691839 -0.041720435 -0.0019819564 -6.191553e-39 -0.021347638 -0.03426912 -0.0019196254 -0.045621216
-5.580883e-20 -0.00046611065 -0.04253152 -9.180203e-08 -0.04152525 -0.010497501 -0.076900855 -2.248964e-39
-0.02160823 4.843353e-13 -0.013574087 5.534636e-39 -0.0014093772 -1.4049564e-07 -0.106909975 0.0014504673
-0.0035988316 -2.418621e-07 0.046961065 -0.058605634 -0.013263884 0.0013724639 -7.811902e-05 -0.00012649065
0.08904193 -0.08961135 0.054541033 -0.0027817476 0.0031570608 -0.002223965 -0.004493335 -0.09015781
-0.0012752713 3.485705e-39 0.03386568 0.02985427 9.660456e-28 1.4560109e-37 -0.014626225 -0.018485982
-0.03267334 -0.02882498 -0.009190812 0.0017099468 -0.007438359 0.022003008 -0.005336291 -0.005289963
0.11233417 -0.023974713 -6.36579e-06 0.0046585924 -3.493211e-39 -1.0353537e-19 0.08311393 -0.04107689
4.2083336e-08 1.767032e-39 -0.050950907 -1.0171766e-23 -4.891499e-19 -0.016197776 -0.013547955 -0.089649335
0.0043949685 -0.10451498 -0.0012152166 -0.023107333 -1.9463522e-17 -0.014126692 -0.017972905 -0.039196543
0.021345604 -0.10405804 6.08548e-39 -0.08190453 -0.0144163715 -6.979818e-07 1.1099328e-34 0.02212525
0.0016863669 -0.043909997 -0.0012979297 -0.10231225 -0.08187376 0.021353688 -0.0005664507 -0.024177559
-0.0027841786 -1.6672997e-05 0.001682317 0.000991763 -0.0022736138 0.09157428 0.019706074 -0.022426194
-0.016855408 -0.0003591805 -0.0012719135 -4.978979e-39 -6.096167e-09 0.0002420979 -0.002342143 3.308229e-39
1.5876215e-07 -0.007709081 -0.151765 -0.1316317 -0.06566533 -0.0035539865 0.022941383 1.483092e-39
-0.06094217 -0.051697236 -0.00026053426 0.008652885 -0.092514835 2.926309e-39 0.009206765 0.013476572
-0.014193258 -0.033385295 2.694625e-39 2.278466e-06 0.004127903 0.015364318 0.024736425 0.09265944
0.105336644 -3.115521e-39 2.945818e-39 0.021097634 0.0072955224 -0.064197004 0.04253761 -0.00077977614
-0.003086134 -0.0068489397 3.721105e-39 2.551593e-38 -0.004837277 -0.05323879 -0.050423037 1.1718e-40
0.006223093 -0.011782031 5.8914517e-38 3.194969e-39 -0.086506605 0.007576713 0.0688032 0.03274773
-7.00009e-39 -0.022305636 -0.0044485037 -0.07311628 -0.10839484 -0.010606835 -5.350506e-39 -0.018108461

f0.2.bias f4 [256]
00000000: 6080 10be 6a2a 35bc 11b4 dbbd d9bd 9e3b
00000010: 2ce1 88bd 7fac bd3d 490e 08bd 7b2f 97be
00000020: 675d d9bd 96cc 5cbe 6445 09be d74e bebd
00000030: 9e4a 9bbd 69da a1bd cf86 5fb6 0e5f e6bd
00000040: 247f f7bd 464a 5cbd 1539 ab3d 5045 b43d
00000050: 4b4d bdbd 2e5c 49bd cc82 fabd 3122 01bd
00000060: 1f2e d7bc 2aaa 54bd ddcb b7bd 4474 88bd
00000070: 59d7 77bd ff12 acbd df7d ebbd 9256 a5bd
00000080: b7ff b8bd 0852 97be 6994 eb3d 81c6 67bd
00000090: ac0f 61bd bfd2 5fbd 997f 0fbe 35bd b1bd
000000a0: aaf2 08be f714 953c 6813 86bd fff3 9ebd
000000b0: 9128 1ebb 14f4 043d 8bf0 d4bd 34cc 0ebe
000000c0: 53f4 0dbc 19d4 d83d 055c 673c 54a8 32bd
000000d0: 8534 7dbd 456d 423d e6ce 12bd d008 06be
000000e0: c5a8 a23b e24d a3bd 8948 ccbd 2633 35bd
000000f0: e44d 37bd fa17 233d e31c 93bd eed8 cbbd
00000100: 52be 1e3c 1e4c 5cbd 4a7b 50bd bee9 38bd
00000110: 0d05 29bd 7f5f 1bbe 2d44 863d 5776 8ebd
00000120: eb9e 9abd 196b e3bd 213f e8bd 05db 97bc
00000130: 69ec 92bd 0066 69bd 106c c2bc b606 47bd
00000140: c044 22bd 8c49 5bbe 9593 c0bd 4531 b03d
00000150: 5944 b4bd ac10 37bd c23d b9bd a8da 68bd
00000160: 0f5c 72bc ccbc 0d3c 3326 46bd c9ac cdbd
00000170: 18d6 a2bd 68a1 6d3d 71ac ce3c c0bd d8bd
00000180: ca60 5fbe ab74 7abd a7f1 0abe ce79 483e
00000190: d64f 09b7 6c95 ef3c 1ab0 0a3d d7ef e9bd
000001a0: 7d7d a0bc 0b81 2e3c 59f6 26be d4a0 ad3b
000001b0: 566c ebbc 02e6 21bd e9a0 9bbe e335 20bd
000001c0: c11b a0be 0c33 55be df63 49be 1d72 57bd
000001d0: 2a4f 28bd 7ae6 3abc 5dff 30be 5948 7dbe
000001e0: a62f dc3d 1095 0ebe 8ad1 4ab9 c6f4 2ebe
000001f0: 1fc6 253d 89c1 abbc aa58 bfbd f282 2abd
00000200: f7f1 13bd 7711 82bd aade 4ebd e58d 37bd
00000210: d876 08bd ad3d d3bd 2d0d 28be 20c7 84bd
00000220: ad9c c4bd 779b 71bd c367 b8bd b1ff ccbd
00000230: f011 a3bd cc31 9ebd 1ee8 f0bd e863 2dbe
00000240: 69c7 a2bd 5c84 60bc b08c 9abd abcf e2bd
00000250: 5b04 e4bd 7888 6e3e 54af 02bd 9d50 913d
00000260: 28de c5bd bdf4 5abe 3670 74bd 9a36 eebd
00000270: 7327 e4bc 5d41 5abd a7e0 93bc 65bd 03bd
00000280: 96c3 82bd a867 86bd 2be1 a9bd 762f f8bd
00000290: c6ec 3bbd b8aa 99bc d648 40bb ca0e 193d
000002a0: a2a2 d33b d744 cf3d df4b 983c fb1b 83be
000002b0: 2346 afbd e9fe 77be 8438 8ebd b211 34bd
000002c0: 23c8 87bd 16fa 123e 6450 27be e3fc 41be
000002d0: c7ee 65bc 9311 ddbd 6fc8 33bd c443 57ba
000002e0: 6d07 17be f849 10bd 7f48 1b3d 01b7 28bd
000002f0: cc93 27bd 0f4f 5dbd 8efd 5ebd 4ab5 14be
00000300: b66d b13d 06ce 99bd d40e 87bd 8892 c72a
00000310: 72a0 e1bc 9e56 dabd b3d5 013d cf2a 6cbd
00000320: d57d d6bc 73c1 aebd 6aba 333c dad8 683b
00000330: 25b6 97bd d3c6 31be f6a7 aebd 37f3 2e3e
00000340: 82c0 cbbd b54d cabd dbbe 873d 1f13 4c3c
00000350: 7e9b b6bd 8f6e 93bd 2c1a 8abd fd63 38bd
00000360: 6857 f2bd 029e 04be bf67 4e3d e58e a83d
00000370: 0942 04bd d9fd 29be c008 edbd 7882 e9bc
00000380: 8c12 d23d 139f 0dbd 4c50 91bc 5ecb 7fbd
00000390: c8c7 6fbd 0c62 883d 2edd 9fbd 6b2e abbc
000003a0: f177 dabd b596 8cbc 4627 36be 601c 8fbd
000003b0: 0772 16bd a007 a4bd 623a 8ebd ab5e bebd
000003c0: 2abd 33bd 6184 893d 82f7 8f3e 9a96 18be
000003d0: 011a 513e 9269 7fbe da7e 90bd 64f2 e0bd
000003e0: 8c2a ffbc 2dba 77bd b384 163d e20f 58b3
000003f0: 6cb9 afbd b861 fdbc 5d37 60bc bbd0 c3bd
-0.14111471 -0.011057476 -0.10727704 0.004844409 -0.06683573 0.09261417 -0.03321675 -0.29528412
-0.10613518 -0.21562418 -0.13405377 -0.09292381 -0.075825915 -0.079029866 -3.3308058e-06 -0.11248599
-0.12084797 -0.05378177 0.08360497 0.08802283 -0.09243258 -0.049160175 -0.12231979 -0.031526748
-0.02626711 -0.051920094 -0.08974431 -0.06662801 -0.060508106 -0.08402061 -0.114986174 -0.080731526
-0.09033149 -0.29554772 0.11502916 -0.056585792 -0.054946586 -0.054644343 -0.14013518 -0.086786665
-0.13373819 0.018198473 -0.0654667 -0.07761382 -0.0024133066 0.032459334 -0.103974424 -0.13945085
-0.008664208 0.105873294 0.01412106 -0.04361756 -0.061817665 0.04746749 -0.035841845 -0.13089299
0.0049639666 -0.07973839 -0.099747725 -0.044238232 -0.044752017 0.039817788 -0.07183244 -0.099534854
0.009688931 -0.05378353 -0.050898828 -0.04514479 -0.041264582 -0.15173148 0.06555972 -0.06956165
-0.075498424 -0.11104412 -0.11340166 -0.018537054 -0.07173998 -0.05698204 -0.023733169 -0.048590384
-0.039616346 -0.21414775 -0.09403149 0.086031474 -0.08802099 -0.044693634 -0.090449825 -0.05684915
-0.014792456 0.00865097 -0.048376273 -0.10042722 -0.079509914 0.058015257 0.02522871 -0.10583067
-0.21814266 -0.06114642 -0.13568746 0.19577715 -8.184425e-06 0.029246055 0.03385935 -0.11422699
-0.019591087 0.010650883 -0.16304912 0.005298713 -0.028738182 -0.039525993 -0.30396202 -0.03911389
-0.31271175 -0.20820254 -0.19667004 -0.05259906 -0.04109112 -0.011407489 -0.17284913 -0.2473463
0.10751276 -0.1392405 -0.0001934228 -0.17085561 0.040472146 -0.020966308 -0.09343083 -0.041628785
-0.036119428 -0.063509874 -0.050505318 -0.044813056 -0.033316463 -0.10314498 -0.16411276 -0.064832926
-0.09600196 -0.058986153 -0.09004166 -0.10009707 -0.07962406 -0.07724342 -0.11763023 -0.16932642
-0.07948191 -0.013703432 -0.07546365 -0.11074766 -0.11133643 0.23294246 -0.031905487 0.07095454
-0.096615136 -0.21382423 -0.059677325 -0.11631508 -0.027850842 -0.05328499 -0.018051459 -0.032163043
-0.06384961 -0.065627396 -0.082949005 -0.121184275 -0.0458801 -0.018758163 -0.0029340289 0.03736762
0.0064585963 0.10120552 0.018590866 -0.25607285 -0.085582994 -0.24218334 -0.06944373 -0.043962188
-0.0662997 0.14353213 -0.1633926 -0.18944125 -0.01403398 -0.10794368 -0.04389232 -0.0008211697
-0.14748926 -0.035226792 0.037910935 -0.04119015 -0.040912434 -0.054030474 -0.054441027 -0.14522281
0.08663504 -0.07509999 -0.06594625 3.5451178e-13 -0.027542327 -0.10661052 0.03169794 -0.057658013
-0.026183048 -0.08532991 0.010969738 0.0035529644 -0.07407788 -0.17361002 -0.0852813 0.17084967
-0.09948827 -0.09878103 0.066282 0.012455731 -0.089163765 -0.07198822 -0.06743273 -0.04501723
-0.11833078 -0.129509 0.05039191 0.0823038 -0.03228954 -0.16600741 -0.115739346 -0.028504595
0.10257444 -0.034575533 -0.017738484 -0.062449805 -0.058540136 0.06659326 -0.078058586 -0.020896157
-0.10667408 -0.017161706 -0.17788419 -0.06987834 -0.03672984 -0.08009267 -0.069447294 -0.092954
-0.043881573 0.067147024 0.2811852 -0.149012 0.20420076 -0.24942616 -0.07055445 -0.10983732
-0.031148218 -0.060480285 0.036747646 -5.0305864e-08 -0.08580288 -0.030930385 -0.013685075 -0.095612966

f0.4.weight f4 [130, 256]
00000000: c1b2 3bbc 03b0 a5bd afc7 473d b69e 623e
00000010: 163e 99bc abdf 8bbe ed3b 0fbd 9b12 753d
00000020: 0db5 0c80 e459 c8bc 2272 01bd ebf9 e23c
00000030: 0841 403e 4aa0 28bd d61f 0200 1f39 963d
00000040: 72b3 6cb8 86be f93c fa66 10bd 408b 23bc
00000050: eede 28be 791a a3bd 429e e0bc b0e8 093d
00000060: a8f7 3435 650c f4ad 20c9 5b3e fe12 ec3b
00000070: a091 2abb 745d 543c ab01 08bc 2928 bcbd
00000080: 7f47 b6bd 5e2e 833b 1946 72bd 6093 bf3c
00000090: 266c b33c ca06 bcbc 161a 9c3b 334b 733d
000000a0: 62ec 2a3d e097 9bbd bcd3 d6ba 0135 71bd
000000b0: fd5c 473d f127 b23d cdad f93e f7bf 4e3d
000000c0: a379 063b 580b 1abd fc45 32bd e4d0 dbbb
000000d0: 24c2 c6bc a136 9f3b 682a bba7 3e56 a43c
000000e0: 7e79 e43c 948e 623c b2ab 5fbd cb08 32be
000000f0: 254b 09bd e054 bc36 e5b0 00bd cbe4 2ebd
00000100: 9e7f 0bbe 660c 97be 6a16 0dbd 9da5 44bd
00000110: d84b a93d 8aa8 00bd 58b3 2bbd 16d7 93bb
00000120: 8188 d9ba 7ce2 a6b0 7564 bbbc 4759 883e
00000130: 6d39 243d a9e9 f5bb 679b c53b 77c3 ba3d
00000140: 49a3 2d3e bb27 e53c ee7e ac3c 24d8 4fbe
00000150: a76c 873c 6ff0 c8bc 90c3 103e 769d b5ba
00000160: 5367 093d 9a2c 03bc e9f2 a83e c0e7 60b3
00000170: b3c5 06bc 2ff7 08be 1cfb e2bd ceca b4bd
00000180: 9e2c 8e3d 0d40 943d 1778 eeb9 3bbb aabe
00000190: 6747 e91d dd80 e53d 08fa babc 8209 1f3b
000001a0: 3fa6 4700 4450 3ebe 119d b2bd 7328 55bc
000001b0: cdfc e739 358a 55be 7826 2bbe 8217 b4bd
000001c0: adb4 5abe 5628 7fbd 399a a23c 65ea 103d
000001d0: b882 82bd 4ce7 1000 0cd7 2d3a d88b dbbc
000001e0: f1ca 553c 3c2c 43bd 428e 82bd e01b 9c3d
000001f0: 4862 b13e acdf 963c cfb9 a4bd ca92 f53d
00000200: 2553 d83d 5490 79be fa56 8abe 1ab2 abbd
00000210: 7414 18be f2f0 c3bb 12f0 74bd 6353 dbbc
00000220: 8f3b 85bd 5e08 d73c 7a96 e83d c906 063d
00000230: da21 81bd 8fed 13bc 582b 9bbc 5646 d43c
00000240: 961c 823c ba1f b32e 318f b53d 0cea 153b
00000250: 657d dd3d bc90 95bd c918 003c 346f 91bd
00000260: 662a d33c c6e8 173c a025 483d 6917 ca3d
00000270: c6c9 1a3e 745f 9fbc a92c 273e 64fd e33a
00000280: c06a 1d3d efa6 dfbd d5eb 6c37 8125 b6bd
00000290: 6e94 0d3a 4e67 1801 b7be 083e b9fa 623e
000002a0: 6d8c 2a3d 80a3 fabd 58a4 e03d a607 723d
000002b0: 8c71 5f3d 7489 64bd 279d b3ba 52a9 053d
000002c0: 4b86 7fbd 1e1c ba3d 564c 15be 5867 433b
000002d0: 056e 993d 8412 e2b9 b361 bb39 71c3 02b8
000002e0: db88 e3bd daa4 0cbd c612 ed3d 4c4a fd3d
000002f0: 2409 803a fc5c f53e 4364 5ebc 93cc b43b
00000300: f6e5 3d3d 37e1 22bd da3d d223 4b60 2080
00000310: ed6e 82bc 43d8 74bc d6e1 283c b10c b0bc
00000320: 4634 403d 2943 8a3c bfda 50bd df9f dfbd
00000330: 497f e739 74b9 9dbe f5a0 0bad 3417 28bd
00000340: c833 8c3c 5999 05bb fa7a 173e fdf0 203e
00000350: 9c77 993c fae6 8ebd 33c7 b9bd b879 1dbb
00000360: 97a1 323c feca 61bd 3b68 393d 88d1 c03c
00000370: 2293 11bd 90ae cfbd 4862 71bd e7fb a2ba
00000380: 416a 1fbd 3fda 1e80 316e aaa9 570b 5137
00000390: 8421 9f9c 3560 14bc 7244 82bc b06c cbbd
000003a0: 4812 8ebd 7f66 a9bd 00e4 2fbd 6b8e 3f3a
000003b0: 549b 1ebd 5286 253d 0eb4 8aa5 ec27 82bc
000003c0: d7b4 1abc 5ec6 f63c d551 763d e2e0 10be
000003d0: 5d4e 28bc 4d25 223d 61c5 1b00 91f7 2bbd
000003e0: 1f9e 113d eeb1 33be b232 d43c f840 0080
000003f0: afad 373c 4698 1c80 d348 debb 219a 213e
-0.0114561925 -0.08090212 0.048774417 0.22130856 -0.018706363 -0.27319083 -0.03496926 0.059832197
-1.166975e-39 -0.024456926 -0.031602986 0.02770706 0.18774807 -0.04116849 1.95092e-40 0.07335114
-5.6433906e-05 0.030486356 -0.035254456 -0.00998193 -0.16491291 -0.07964034 -0.027419213 0.033669174
6.741561e-07 -2.7745093e-11 0.21463442 0.0072044125 -0.002602674 0.012961734 -0.008301179 -0.091873474
-0.089003555 0.00400333 -0.05914888 0.023385704 0.021902155 -0.022952456 0.004763852 0.059397887
0.04172934 -0.07597327 -0.0016390006 -0.05888844 0.048672665 0.086990245 0.48765412 0.05047604
0.0020519278 -0.037608474 -0.043523774 -0.0067082513 -0.024262495 0.004858807 -5.1948903e-15 0.020060655
0.027889963 0.013827939 -0.0546071 -0.17386167 -0.03351893 5.6127174e-06 -0.0314187 -0.042698663
-0.13622901 -0.29501647 -0.034445204 -0.048009504 0.08266419 -0.03141073 -0.041919082 -0.004511724
-0.0016596467 -1.214246e-09 -0.02287505 0.26630613 0.040093828 -0.007504661 0.0060304883 0.09119313
0.1695682 0.027973047 0.021056619 -0.20297295 0.016531302 -0.02452871 0.14137101 -0.0013856131
0.033545803 -0.008006239 0.32997826 -5.236484e-08 -0.008225846 -0.13375543 -0.110830516 -0.088277444
0.06942104 0.07238779 -0.0004548437 -0.3334597 6.1748415e-21 0.11206219 -0.022824302 0.0024267142
6.579958e-39 -0.18585306 -0.08721364 -0.013010132 0.00044248105 -0.20853503 -0.16713893 -0.08793546
-0.21357985 -0.062294327 0.01984893 0.035379786 -0.06372589 1.552342e-39 0.0006631471 -0.026800081
0.013048873 -0.047649607 -0.0637479 0.07622504 0.34645295 0.018417202 -0.08043253 0.119908884
0.105627336 -0.24371463 -0.27019483 -0.083835796 -0.14851552 -0.0059796507 -0.05979926 -0.02677316
-0.065055005 0.026249107 0.11356826 0.032721315 -0.06305285 -0.009028806 -0.018941566 0.025912445
0.015882771 8.1456134e-11 0.08865202 0.0022875099 0.10814933 -0.073029965 0.007818409 -0.071012884
0.025777053 0.009271806 0.048864007 0.098677464 0.15116033 -0.019454695 0.1632563 0.0017394242
0.038431883 -0.10920512 1.4121605e-05 -0.08893872 0.0005400841 2.7992108e-38 0.13354002 0.22165956
0.041637827 -0.122382164 0.10968846 0.059089325 0.054551646 -0.055795148 -0.0013703451 0.03263218
-0.06238393 0.09087394 -0.14579901 0.0029816236 0.07491688 -0.00043119874 0.0003574021 -3.1176434e-05
-0.111100875 -0.034336902 0.115758464 0.12367687 0.0009768349 0.47922504 -0.013573709 0.005517551
0.046361886 -0.039765563 2.279444e-17 -2.973279e-39 -0.015922034 -0.014944139 0.01030775 -0.021490427
0.04692485 0.016877728 -0.050989863 -0.10919165 0.00044154588 -0.30805552 -7.936975e-12 -0.041037753
0.017114535 -0.0020385592 0.14793006 0.1571693 0.018733792 -0.06977649 -0.09071197 -0.002402885
0.010902784 -0.05512523 0.045265418 0.023537412 -0.035540707 -0.10140717 -0.05893162 -0.0012434692
-0.03891969 -2.833357e-39 -7.568632e-14 1.2460011e-05 -1.0530401e-21 -0.009056141 -0.015901778 -0.0993284
-0.069370806 -0.08271503 -0.042942047 0.00073072937 -0.03872235 0.0404113 -2.4061194e-16 -0.015888177
-0.00944253 0.030123886 0.060136635 -0.14148286 -0.0102725895 0.039586354 2.550365e-39 -0.041984145
0.035551187 -0.17548344 0.02590308 -2.3306e-41 0.011210843 -2.62602e-39 -0.0067835837 0.15781452

f0.4.bias f4 [130]
00000000: 0464 13bd 5767 f13d 5447 0880 2b87 7ebb
00000010: 5e63 8fbc b145 c1bc 87da 8ebc c84f 04bd
00000020: b80a 0f00 cb9c 8ebb e28a e8bc 4c60 1780
00000030: e64e 43b9 bca1 6291 6812 b6b6 12ca 123e
00000040: 328d 1180 ef44 be3d a36e a53d f49e 50bb
00000050: 4477 b4bc 61bb 003d 543e 983d c22a 3800
00000060: 2bdb 2d00 8f21 3e02 2204 3c3d c866 1100
00000070: dde5 1c80 6e7d 2200 a3f6 e4bc d9f2 4180
00000080: d932 26ba 35b6 0bbd 7e4d 57bd 17e8 3380
00000090: 2caa 3a00 b0bf 113e f676 0138 1074 0ebd
000000a0: 0d5c c7bb 083c 5a3e 7a75 2f00 0fab 65bc
000000b0: ec77 1a00 b75c 1a3e b079 c63d a89e 4ab6
000000c0: 3957 06a5 da62 8fbc b48b 9dbc 7469 0280
000000d0: 818c 59bd a1b2 0680 da62 8fbc 29d2 b5bc
000000e0: fc94 8c3e 3dc8 4400 bed3 d33d 7903 3280
000000f0: 17da e4bd d4f9 1680 de7a 0780 37c6 a53d
00000100: f24e 1980 b47a cdb9 dafd 223d be7a 1a3d
00000110: 7dcd 3d00 d0f4 48bd 1786 0880 f666 839b
00000120: 9d51 513d 78f9 1880 9d76 c6ae 7a73 1b80
00000130: cd6d 8abc 3ca8 0000 f631 3d3e 0db6 1b80
00000140: c86e 5dbd 04ec 3380 6024 16bd fdc1 1180
00000150: 4f52 1f80 ae39 1d3e 9b90 123d 49f6 4080
00000160: 5f45 1f80 0542 edbb 66a2 4c80 8690 e93c
00000170: d8d7 36bd f85d 4b3e a809 1900 2105 57bc
00000180: cb9c 8ebb f6e6 d63d b023 6abd 2cc1 2d00
00000190: eeab 2080 8139 1002 f308 3200 2c1f 1d00
000001a0: 0c2d 1780 b026 8782 9a66 1700 40bd 8b3d
000001b0: c453 07bb e29a 1000 5eab c33c ffb6 0abb
000001c0: 8999 6b91 3749 2e80 2e32 763e 0d5d e0bc
000001d0: ea9b 3ebd 9f40 26ba 4b78 42bd bf87 fabc
000001e0: 2cd1 6b81 7007 febc 997c 27bd 6981 513d
000001f0: 76be 0500 883e 2880 d318 3c00 7951 2500
00000200: 8c2c e93d b5fc d03d
-0.035984054 0.11787289 -7.60272e-40 -0.003883789 -0.017503437 -0.023592802 -0.017438186 -0.032302648
1.381378e-39 -0.0043521873 -0.028386537 -2.146761e-39 -0.00018626041 -1.7878095e-28 -5.4261654e-06 0.14334896
-1.611855e-39 0.09290492 0.08077743 -0.0031833025 -0.022029527 0.0314287 0.07433763 5.158126e-39
4.21122e-39 1.3968626e-37 0.04590238 1.598074e-39 -2.653853e-39 3.167403e-39 -0.027949637 -6.056425e-39
-0.00063399744 -0.034109313 -0.052564137 -4.766868e-39 5.387505e-39 0.14233279 3.0866788e-05 -0.034778655
-0.0060839714 0.21311963 4.358411e-39 -0.014017834 2.430743e-39 0.1507443 0.09691179 -3.0192696e-06
-1.16522e-16 -0.01750319 -0.019231655 -2.215e-40 -0.05311251 -6.15093e-40 -0.01750319 -0.022194939
0.27457416 6.316646e-39 0.10343121 -4.59302e-39 -0.1117441 -2.110002e-39 -6.86925e-40 0.08094447
-2.324208e-39 -0.00039192068 0.039792873 0.037714712 5.67568e-39 -0.049061596 -7.82786e-40 -2.173867e-22
0.051103223 -2.293544e-39 -9.0250675e-11 -2.520984e-39 -0.01689806 6.0351e-41 0.1847609 -2.544866e-39
-0.054060727 -4.768277e-39 -0.036655784 -1.630793e-39 -2.876427e-39 0.15354034 0.035782438 -5.965822e-39
-2.871786e-39 -0.007240536 -7.037755e-39 0.028511297 -0.04463944 0.19860065 2.299351e-39 -0.013123781
-0.0043521873 0.10493271 -0.05716294 4.201894e-39 -3.000413e-39 1.0595952e-37 4.594985e-39 2.674412e-39
-2.128376e-39 -1.9858673e-37 2.149023e-39 0.06823206 -0.0020649293 1.52493e-39 0.023885425 -0.0021166203
-1.8585543e-28 -4.250697e-39 0.2404258 -0.02738812 -0.04653541 -0.0006342027 -0.047478 -0.030582307
-4.3312757e-38 -0.031009406 -0.04089031 0.051148806 5.27502e-40 -3.695852e-39 5.519035e-39 3.42714e-39
0.1138545 0.1020445
