model/model.pth (torch, 768263 bytes, 6 tensors)

f0.0.weight f4 [256, 390]
4.06004e-40 -8.31309e-40 -1.8030049e-37 4.42401e-40 -4.268439e-39 -1.663561e-39 2.816346e-39 -3.332127e-39
2.5659333e-38 3.723306e-39 -2.266616e-39 3.3343538e-38 1.3200067e-37 2.9844485e-37 -2.729447e-38 5.550215e-39
6.7470257e-38 5.478673e-39 -4.300605e-39 6.123172e-38 5.2810455e-38 -7.10357e-40 -3.079603e-39 -5.463476e-39
2.979329e-39 5.2731444e-38 3.316573e-38 -9.63391e-40 -4.416513e-39 2.197987e-39 1.156203e-39 -5.94584e-40
-1.558104e-39 2.761651e-39 3.103607e-39 1.336281e-39 -6.122867e-39 -3.283232e-39 6.27227e-40 -2.04825e-40
4.648191e-38 5.8265065e-38 -1.23321e-39 -4.920801e-39 -5.652858e-39 -1.1632775e-37 -7.4291486e-38 -5.089855e-39
-5.68416e-39 -5.401648e-39 4.107096e-39 -2.232512e-39 -1.1094096e-37 -5.88994e-40 3.045952e-39 1.8954e-41
-3.243238e-39 -2.441805e-39 -3.43215e-39 3.981533e-39 -4.581828e-39 2.789045e-39 5.27827e-40 1.2548223e-37
4.5234654e-38 6.79108e-38 -1.1649796e-37 6.196598e-39 -3.119997e-39 4.02072e-40 6.049644e-39 -4.356245e-39
8.360494e-39 -2.693516e-39 -5.115496e-38 5.3664485e-38 2.474238e-39 -7.81033e-40 2.564802e-39 -7.950362e-38
-1.356289e-37 4.007279e-39 3.2614785e-38 -1.76761e-39 1.415617e-39 4.166666e-39 4.2506e-38 6.24147e-40
-5.9037366e-38 -4.518614e-39 -1.2666402e-37 2.478045e-39 -6.651874e-39 2.896251e-39 2.772068e-39 4.70555e-39
-4.453077e-39 -2.896227e-39 -2.796833e-39 1.070589e-39 2.07707e-40 -4.76318e-39 3.099454e-39 1.3071303e-37
-1.1363791e-37 -3.065794e-39 4.038919e-39 -4.103879e-39 7.95506e-40 -1.245344e-39 -5.223808e-39 4.78157e-39
5.888189e-39 3.69478e-40 6.0796545e-38 2.786071e-39 -3.6038e-39 -2.492103e-39 4.30408e-39 3.95736e-38
1.508974e-39 -4.625999e-39 -5.883356e-39 -5.480041e-39 -3.773103e-39 -5.54198e-40 8.50742e-40 3.7042114e-38
-3.31236e-40 -2.18272e-40 -1.215892e-37 3.654373e-39 2.515496e-39 3.0943024e-38 4.346996e-39 1.399068e-39
3.744688e-39 5.46943e-39 -1.37193e-40 1.4417987e-37 2.280839e-39 -1.0909467e-38 -4.18415e-40 -3.328642e-38
-5.5176284e-38 1.36499e-39 2.163837e-39 -1.827114e-39 2.96428e-40 -5.089616e-39 6.963793e-38 1.0984687e-37
-5.976259e-39 5.501027e-39 4.80351e-39 6.811142e-39 3.9811e-41 -1.7006068e-38 6.146431e-39 2.422172e-39
9.991358e-38 -1.609954e-37 1.750115e-39 -6.321347e-39 -4.68478e-39 5.125092e-39 -2.14567e-40 2.26226e-39
5.784683e-39 -1.0734006e-37 1.910829e-39 1.633942e-39 2.3827993e-38 -7.7255277e-38 4.3071694e-38 -1.991275e-39
7.4529163e-38 -6.39516e-40 2.723328e-39 6.04262e-38 1.914115e-39 -2.375632e-37 8.4212623e-38 -1.955e-41
7.009752e-39 -5.998807e-39 -2.698996e-39 4.644999e-39 6.424627e-39 1.619638e-39 5.5631616e-38 5.378793e-38
9.1815385e-38 3.614087e-39 -1.2869504e-37 -1.511914e-39 4.84023e-39 4.918143e-39 -1.1590747e-37 1.393011e-39
7.1665996e-38 -1.1712283e-37 -1.882692e-39 2.319925e-39 1.02732e-40 -1.832311e-39 8.19161e-40 -3.290467e-39
4.3814e-41 -5.52272e-39 2.611359e-39 3.30363e-40 6.749864e-39 1.629873e-39 -1.406109e-39 -1.0982927e-37
4.77394e-40 1.506e-40 -5.641269e-39 1.3576972e-37 9.999637e-38 4.152346e-39 1.406724e-39 -4.469307e-39
-5.196239e-39 -3.38206e-40 8.5267117e-38 4.9663957e-38 7.223559e-38 -7.744811e-38 2.46459e-40 2.6013561e-37
-3.15969e-40 5.48269e-40 -7.95881e-40 -3.7141562e-38 6.314205e-39 4.70615e-40 -3.65006e-40 5.060483e-39
2.686003e-39 -5.127472e-39 -6.8644e-39 3.10368e-39 6.3952824e-38 -3.620557e-39 -1.049449e-39 -1.1981655e-37
-1.145244e-37 2.229718e-39 -5.6916624e-38 4.0223914e-38 -4.885039e-39 -3.530748e-39 -1.030729e-39 -2.952519e-39
00000000: c66b 0400 5a0d 0980 8d69 7582 3cd1 0400
00000010: ac7a 2e80 551d 1280 d4aa 1e00 9d48 2480
00000020: e4b3 0b01 108b 2800 67ae 1880 1c8a 3501
00000030: 85ab 3302 6d1c cb02 f09a 1481 be6f 3c00
00000040: e8ab b701 50a8 3b00 56d4 2e80 48b0 a601
00000050: 84c3 8f01 30bc 0780 ae88 2180 f37d 3b80
00000060: 2871 2000 748c 8f01 4892 3401 8b7d 0a80
00000070: 7117 3080 18ef 1700 0697 0c00 7579 0680
00000080: 5cf7 1080 5c12 1e00 98cb 2100 028d 0e00
00000090: 10ac 4280 51c0 2380 74d4 0600 f83a 0280
000000a0: 5412 7d01 d39c 9e01 b06d 0d80 3195 3580
000000b0: de8d 3d80 4e56 1e82 9c3d ca81 726c 3780
000000c0: 20e5 3d80 99d1 3a80 eab8 2c00 564f 1880
000000d0: 4801 1782 e069 0680 e02a 2100 d634 0000
000000e0: d450 2380 c296 1a80 705f 2580 e55a 2b00
000000f0: 46e4 3180 b95e 1e00 5ebf 0500 2dcc 2a02
00000100: e847 7601 ecde b801 9d91 1e82 9879 4300
00000110: 48f9 2180 d060 0400 f2df 4100 706f 2f80
00000120: a809 5b00 6d54 1d80 ce41 8b81 b016 9201
00000130: 2bf1 1a00 3481 0880 a0ed 1b00 f06d d881
00000140: c69b 3882 aaa2 2b00 6092 3101 613f 1380
00000150: 2a6a 0f00 f85e 2d00 b86c 6701 decb 0600
00000160: 0ab7 a081 0f34 3180 f867 2c82 c8fb 1a00
00000170: b86e 4880 9289 1f00 662f 1e00 293d 3300
00000180: 5e7d 3080 8189 1f80 6f74 1e80 5ea8 0b00
00000190: 0143 0200 cfdd 3380 04c0 2100 d8ea 3102
000001a0: 08ad 1a82 3062 2180 ddfa 2b00 f2af 2c80
000001b0: 8ca9 0800 838f 0d80 dae1 3880 1211 3400
000001c0: e01d 4000 f405 0400 0281 a501 6f56 1e00
000001d0: ee3d 2780 f822 1b80 06de 2e00 8c75 5701
000001e0: 686e 1000 675f 3280 6710 4080 20ac 3b80
000001f0: e015 2980 e108 0680 8643 0900 2cad 4901
00000200: 5a9b 0380 7460 0280 a77f 2582 e8ca 2700
00000210: 2e64 1b00 4878 2801 a855 2f00 083c 0f00
00000220: abc6 2800 8c8e 3b00 707e 0180 5a3f 4402
00000230: 0dd6 1800 28cb 7680 5f8e 0480 803a 3581
00000240: 4234 9681 09dd 0e00 e68f 1700 40e5 1380
00000250: 523a 0300 c76b 3780 8e92 bd01 0c84 1502
00000260: 6113 4180 a0e6 3b00 3b4e 3400 b12a 4a00
00000270: fa6e 0000 002e b980 c0ed 4200 0860 1a00
00000280: cdfe 0702 b622 5b82 9c0e 1300 58d5 4480
00000290: 4303 3380 acce 3700 2056 0280 43a2 1800
000002a0: 58fd 3e00 8d1a 1282 9dce 1400 c4ca 1100
000002b0: 60bb 0101 124f d281 2e81 6a01 ddae 1580
000002c0: 3fe3 ca01 b6f6 0680 88a7 1d00 ea7e a401
000002d0: c6d7 1400 59ad a182 a23f e501 7f36 0080
000002e0: 5654 4c00 3c52 4180 b463 1d80 5e94 3200
000002f0: 3ff5 4500 e4a2 1100 9471 9701 b76c 9201
00000300: fcf1 f901 9b5a 2700 ad2b 2f82 9a76 1080
00000310: 98b4 3400 c88d 3500 dcc3 1d82 262b 0f00
00000320: e917 c301 5a6b 1f82 2e80 1480 0243 1900
00000330: 601e 0100 bdf3 1380 7deb 0800 7cd4 2380
00000340: 237a 0000 1923 3c80 686f 1c00 eb98 0300
00000350: e07f 4900 6cbf 1100 a94f 0f80 ea7d 1582
00000360: c832 0500 d0a3 0100 906d 3d80 d8cc 3802
00000370: a61b 0802 0d37 2d00 6051 0f00 9caa 3080
00000380: 0095 3880 c8ae 0380 821e e801 ba32 8701
00000390: dca4 c401 75d5 d281 07af 0200 040a b102
000003a0: cb70 0380 5af8 0500 98aa 0880 c837 4a81
000003b0: 6fc1 4400 e21f 0500 7df9 0380 911a 3700
000003c0: 7c3f 1d00 4ed5 3780 28bf 4a80 cccb 2100
000003d0: 9d18 ae01 a46c 2780 706d 0b80 f915 2382
000003e0: eee1 1b82 8c47 1800 19f1 9a81 f4ff 5a01
000003f0: 8031 3580 4a72 2680 4139 0b80 6c26 2080

f0.0.bias f4 [256]
9.51801e-40 6.743629e-38 4.097391e-39 -3.0714014e-37 -3.85001e-40 5.576354e-39 4.013896e-39 -2.4748967e-37
1.63538e-39 1.865341e-39 -2.4340114e-38 2.37061e-39 7.8764223e-38 -5.531071e-39 7.086854e-39 -1.1252688e-37
-1.9814365e-37 3.486936e-37 7.241613e-38 -5.588897e-39 -1.804215e-39 1.4790624e-38 -6.717256e-38 1.226933e-39
-3.687214e-39 3.76854e-40 -1.91319e-39 -2.775953e-37 2.719354e-39 6.719581e-38 -5.61427e-40 -1.621406e-39
-1.85777e-39 -1.992234e-39 -8.72528e-38 5.149801e-39 6.66577e-39 -3.497249e-39 2.530758e-39 8.497121e-39
5.145411e-39 -1.86873e-39 2.601847e-39 -1.9131867e-37 -1.301442e-39 -5.053005e-39 -1.898688e-39 -6.077028e-39
-1.948818e-39 -3.344115e-39 -1.119646e-39 -4.1455e-39 6.175086e-38 -3.256556e-39 -1.4314286e-38 -1.7209629e-37
1.4662e-39 3.327456e-39 -2.64097e-40 -1.138746e-39 1.3168133e-38 -4.49008e-39 -7.367098e-38 2.40905e-39
2.381546e-39 3.1393776e-37 -9.59909e-40 7.00411e-40 -2.217287e-39 2.546029e-39 -1.803555e-39 6.46401e-39
-1.0075465e-38 -4.127827e-39 -1.112048e-39 4.5421142e-38 3.793932e-39 6.4353e-39 -3.652834e-38 1.68828e-40
-4.001525e-39 -2.312414e-39 -1.657739e-39 3.005544e-39 4.655416e-39 -3.833033e-39 -1.023674e-39 1.306829e-39
3.695807e-39 -6.364294e-39 -4.893004e-39 3.07896e-37 -6.3348e-41 1.7866572e-37 -2.6868037e-38 -3.728611e-39
2.476515e-39 -1.37423e-39 3.39423e-40 6.73843e-39 -9.14504e-40 2.1266836e-37 3.669239e-37 -6.1516e-41
-3.319522e-39 5.06272e-40 -1.380875e-39 1.032393e-39 -2.796025e-39 2.517557e-37 -1.8700693e-37 -5.836953e-38
-8.74433e-40 -5.43183e-40 -5.62914e-40 -3.2458218e-37 -3.853495e-39 1.531287e-39 1.6802195e-37 2.487958e-39
-4.004535e-39 -4.003357e-39 -2.112037e-39 -4.600564e-39 -1.343234e-39 -2.080644e-39 -7.677049e-38 5.775066e-39
-6.158659e-39 -3.698666e-39 7.2516467e-38 -5.99718e-40 -3.2515e-39 1.856126e-39 2.788583e-37 1.5390534e-37
1.418586e-39 4.56496e-39 3.031608e-39 7.1119e-41 -9.944828e-38 -4.42717e-39 -1.66022e-39 1.055479e-39
2.339294e-39 -2.996754e-39 -1.94521e-39 -1.600821e-39 -2.614575e-39 -1.407499e-39 -2.148755e-39 -5.00434e-39
-3.371813e-39 3.2654525e-38 -3.085462e-39 1.623686e-39 1.526425e-39 1.4117272e-37 4.708161e-39 1.5226778e-37
-3.4892124e-38 -8.47742e-38 -1.8203857e-37 9.7989e-40 -8.38837e-40 -3.118164e-39 -1.158858e-39 4.19333e-40
1.5145174e-37 3.74085e-39 3.242229e-39 -3.0394713e-38 2.9738562e-37 -3.5320266e-37 -3.073995e-39 -6.596746e-39
1.321598e-39 -1.94011e-39 2.318733e-39 -2.1580037e-37 2.790018e-37 3.12918e-40 -6.488074e-39 2.8648e-39
-4.92445e-38 2.859439e-39 1.164992e-39 4.199694e-39 8.8608e-40 -5.180099e-39 1.085922e-39 1.333607e-39
4.67267e-39 -1.2749536e-37 -5.88257e-40 1.438363e-39 5.412333e-37 -9.30513e-40 -2.22039e-40 -2.444667e-39
1.515232e-39 6.9235887e-38 5.873719e-39 -4.850155e-37 1.326783e-39 8.87459e-40 1.653697e-38 -5.532464e-39
5.711685e-38 -1.5374449e-37 -2.280008e-39 -2.157481e-39 2.26242e-40 -1.660753e-39 -1.715613e-39 -6.99783e-40
2.02649e-39 -9.59811e-40 -3.46359e-39 1.825159e-39 2.02774e-39 -3.0523599e-37 -3.5723905e-37 -3.545515e-39
-4.713265e-39 3.60378e-40 3.154188e-39 -7.124862e-38 -1.0843116e-37 -7.1676013e-38 -3.409865e-39 -4.793276e-38
6.89405e-40 -1.1831712e-38 6.189022e-39 -2.058384e-39 4.341783e-39 3.042204e-39 4.542808e-39 3.8387614e-37
-2.964845e-39 -2.720424e-37 2.460916e-39 1.280989e-39 3.7072803e-38 4.375319e-39 -2.0289008e-37 -6.136129e-39
-7.70515e-40 5.12127e-39 1.998277e-37 -1.8597874e-37 4.1618808e-38 8.11268e-40 -2.431937e-39 1.734346e-37
00000000: 3c5d 0a00 3c94 b701 dc9d 2c00 5c07 d182
00000010: 3a31 0480 9bb8 3c00 1cb5 2b00 c86e a882
00000020: c6ce 1100 d04f 1400 2b85 0481 4cd0 1900
00000030: a76a d601 603a 3c80 442b 4d00 e529 1982
00000040: 7ed9 8682 fe4e ed02 ad22 c501 92db 3c80
00000050: 6ba5 1380 3e0e a100 71dc b681 315c 0d00
00000060: 7426 2880 841a 0400 32d5 1480 eceb bc82
00000070: 749c 1d00 a5ec b601 081d 0680 d2a7 1180
00000080: b53a 1480 8ab1 1580 5486 ed81 8d13 3800
00000090: 7495 4800 e814 2680 b98e 1b00 8486 5c00
000000a0: 5007 3800 4259 1480 e454 1c00 6a34 8282
000000b0: e42b 0e80 b905 3780 c5ac 1480 482c 4280
000000c0: 8338 1580 086a 2480 1e31 0c80 f823 2d80
000000d0: 121a a801 f475 2380 68de 9b80 ce3e 6a82
000000e0: 2bf7 0f00 983b 2400 32e0 0280 5c66 0c80
000000f0: 6663 8f00 84e4 3080 2e8d c881 743b 1a00
00000100: c8ee 1900 aca7 d502 d673 0a80 76a0 0700
00000110: e524 1880 4bb9 1b00 94a3 1380 0863 4600
00000120: 4cb6 6d80 b4f2 2c80 f01b 0c80 d54b 7701
00000130: f04f 2900 0013 4600 13e1 4681 a0d6 0100
00000140: a092 2b80 122e 1980 1a0d 1280 3cba 2000
00000150: 68b1 3200 f0bc 2980 9625 0b80 e83a 0e00
00000160: 683e 2800 104d 4580 b447 3580 0c8b d102
00000170: 97b0 0080 eb2f 7302 9448 1281 da99 2880
00000180: 84f7 1a00 cbf6 0e80 2cb2 0300 0060 4900
00000190: 44f5 0980 0ebc 9002 29b7 f902 7bab 0080
000001a0: 7a25 2480 4883 0500 5109 0f80 e43d 0b00
000001b0: 2e72 1e80 0756 ab02 688a 7e82 a0e5 9e81
000001c0: 9085 0980 2cea 0580 2d21 0680 31e6 dc82
000001d0: faf5 2980 9bac 1000 1bb3 6402 6a17 1b00
000001e0: 049b 2b80 bb97 2b80 80ff 1680 8018 3280
000001f0: 64a0 0e80 fda7 1680 39fd d081 89e2 3e00
00000200: d60f 4380 6046 2880 9a68 c501 c587 0680
00000210: dc67 2380 2036 1400 f8c7 bd02 2f7c 5102
00000220: 7172 0f00 40b5 3100 e402 2100 40c6 0000
00000230: ab5c 0782 2635 3080 0514 1280 3f7e 0b00
00000240: 0079 1900 bba1 2080 742e 1580 706e 1180
00000250: 5f78 1c80 8953 0f80 db65 1780 107e 3680
00000260: 3eb7 2480 c4c9 3101 0399 2180 2dae 1100
00000270: 0d9f 1000 8327 4002 7044 3300 9441 4f02
00000280: 86f8 3d81 ffc6 e681 2fc7 7782 89ab 0a00
00000290: 5622 0980 2cf4 2180 6d9e 0c80 ee90 0400
000002a0: 3b25 4e02 f8bb 2800 044e 2300 0c7c 2581
000002b0: e263 ca02 9560 f082 0c79 2180 0bd5 4780
000002c0: 1464 0e00 3d20 1580 af3f 1900 badd 9282
000002d0: f8e0 bd02 4a68 0300 1ca6 4680 e631 1f00
000002e0: 680e 8681 f422 1f00 86af 0c00 0abb 2d00
000002f0: 08a6 0900 0268 3880 1cd3 0b00 8e85 0e00
00000300: 81e1 3200 a689 2d82 d267 0680 92a9 0f00
00000310: 122c 3803 e421 0a80 f46a 0280 bd9e 1a80
00000320: da7f 1000 5f7a bc01 8af5 3f00 cf0a 2583
00000330: 8872 0e00 e0a9 0900 5812 b400 423e 3c80
00000340: a37c 9b01 2344 5182 bcd3 1880 2e7e 1780
00000350: ac76 0200 8115 1280 6eae 1280 b69e 0780
00000360: 0811 1600 9073 0a80 14b7 2580 cddf 1300
00000370: 8414 1600 9cbb cf82 d21f f382 749b 2680
00000380: aa52 3380 96ec 0300 9858 2200 0bf5 c181
00000390: bf96 1382 e41e c381 5121 2580 427c 8281
000003a0: c881 0700 00d6 8080 7a64 4300 f069 1680
000003b0: 2047 2f00 6d20 2100 8077 3100 54a0 0203
000003c0: c848 2080 7824 b982 08cc 1a00 e0f2 0d00
000003d0: f2d7 4901 9ca4 2f00 7014 8a82 08d1 4280
000003e0: e263 0880 04c4 3700 e5fe 8702 2224 7d82
000003f0: 2798 6201 7cd5 0800 407b 1a80 2311 6c02

f0.2.weight f4 [256, 256]
-2.283192e-39 -2.545307e-39 5.796858e-38 -5.020897e-39 -8.94051e-40 7.57782e-40 -1.1911545e-37 1.738088e-37
1.610291e-39 -2.835558e-39 5.213727e-39 -1.0793736e-37 2.01507e-40 1.0420537e-37 -2.7105866e-38 -5.510752e-38
-3.587616e-39 3.262423e-39 1.102998e-39 9.04659e-40 -3.623392e-39 -1.356364e-39 -8.165539e-38 2.681794e-39
5.899063e-38 -5.46565e-39 -2.72848e-39 2.999115e-39 -7.67815e-40 4.80383e-39 5.93525e-39 3.700613e-39
1.38813e-40 -5.771696e-39 1.7042379e-37 -2.673928e-39 5.272629e-38 1.724542e-39 3.953296e-39 3.67381e-38
4.344933e-39 1.196324e-39 -5.159203e-38 -1.3129318e-37 2.555132e-39 -2.048384e-39 -1.283788e-39 -1.51948e-39
2.5257508e-38 3.358037e-39 -1.5352842e-37 6.082201e-39 5.000427e-39 -4.76021e-40 6.571849e-38 -6.150944e-39
-4.566093e-39 -1.980462e-39 6.2560505e-38 -1.488996e-39 7.20934e-40 -1.3224634e-37 -5.11616e-39 -7.6336384e-38
-1.3977662e-37 -1.2737e-39 4.7381354e-38 -2.352503e-39 -6.54713e-40 7.79844e-40 -1.061589e-39 -7.295983e-38
3.591933e-39 4.4717867e-38 -4.4267826e-38 9.662528e-38 -3.34245e-38 -3.351792e-39 6.40535e-39 -3.118202e-39
1.6878449e-37 1.90537e-40 -7.174193e-38 -7.4947686e-38 -1.2916466e-37 2.39261e-39 -1.265853e-39 -8.97984e-40
-1.910456e-39 -8.37531e-38 5.03171e-39 -6.269107e-39 -3.9723e-39 1.2818142e-37 5.567695e-39 5.739965e-39
-2.958885e-39 4.02424e-39 -8.61864e-40 7.26747e-40 3.080054e-39 -2.046707e-39 -5.97402e-40 5.831313e-39
5.9320966e-38 6.438686e-39 1.386034e-39 1.3885677e-37 1.97323e-39 1.7735461e-38 3.12364e-39 -7.48376e-40
-1.38583e-39 5.165881e-39 6.79785e-39 1.769485e-39 5.11589e-40 -1.3848009e-37 4.1861785e-38 -2.069028e-39
-1.1780385e-37 -1.460016e-39 -5.4917e-41 8.0142367e-38 5.683627e-39 -4.315838e-39 2.752845e-39 1.63422e-39
1.654067e-39 -2.14128e-39 5.47438e-39 -2.80531e-39 -1.305618e-39 -1.6744797e-37 -3.050328e-39 2.22822e-39
2.316021e-39 -6.9586e-40 -2.511827e-39 -6.410974e-39 -1.256528e-39 1.037652e-37 -4.892953e-39 3.443175e-39
-6.7576e-39 -3.545379e-39 -1.2751816e-37 -3.361278e-39 6.097738e-39 -1.5997361e-37 6.139086e-39 6.049237e-39
-5.743097e-38 1.205209e-39 2.241867e-39 -6.28234e-40 2.901936e-39 -4.136465e-39 -4.47743e-40 2.704114e-39
6.1263317e-38 -5.73292e-39 9.470445e-38 3.281393e-39 -5.627948e-39 -2.83e-43 3.04708e-40 5.6438164e-38
-2.982232e-39 5.582571e-39 9.138958e-38 1.163862e-39 1.53448e-40 -8.616547e-38 2.384377e-39 2.893953e-39
-1.417318e-39 -3.72259e-40 2.0197e-41 4.8752676e-38 8.310886e-38 -5.829402e-39 1.227807e-39 -6.26515e-40
-1.3252597e-37 5.656249e-39 3.266191e-39 3.284861e-39 5.16504e-39 -3.661245e-39 4.495444e-39 -3.442105e-39
-6.994486e-39 1.0902566e-37 -6.9371337e-38 -9.80371e-40 -3.833373e-38 -1.359952e-39 1.011766e-39 -4.5855508e-38
4.00237e-39 -1.960924e-39 -1.0984539e-37 -6.975393e-38 7.45132e-40 -5.817682e-38 4.194552e-39 4.9213e-40
-2.043424e-39 -2.067947e-39 9.00312e-40 -5.999228e-39 -4.299636e-39 -5.62962e-40 -2.590422e-39 1.3577e-39
1.1660184e-37 -4.651762e-39 -2.573647e-39 6.755598e-39 -4.582453e-39 -5.623671e-39 -9.47138e-38 1.7115326e-37
-2.61628e-39 6.446815e-39 -3.57714e-39 1.789794e-39 -4.42474e-40 -3.725548e-39 7.02654e-40 8.44533e-40
6.6509156e-38 -1.3087362e-37 -2.165015e-39 -1.2878043e-37 2.033072e-39 -9.254186e-39 -1.2571135e-37 2.103132e-39
-5.783865e-39 -7.91043e-40 8.465467e-38 -4.878011e-38 -4.159312e-39 -1.135741e-39 -6.369002e-39 3.527065e-38
6.569971e-39 -3.37836e-40 -6.34491e-40 -2.037807e-39 -4.967654e-39 4.867032e-39 1.2863038e-37 -6.2813e-40
00000000: 9cdc 1880 48b7 1b80 34ce 9d01 38ac 3680
00000010: 40bc 0980 6340 0800 ad21 2282 8793 6c02
00000020: d688 1100 62e0 1e80 c0c5 3800 aeea 1282
00000030: b831 0200 46d6 0d02 1094 1381 5604 9681
00000040: d010 2780 4f86 2300 b602 0c00 d2d9 0900
00000050: 8b74 2780 fec4 0e80 8049 de81 c033 1d00
00000060: 7896 a001 0284 3b80 e4b5 1d80 50a8 2000
00000070: 5b5c 0880 204f 3400 10a1 4000 ce4b 2800
00000080: f482 0100 24d9 3e80 06f8 6702 d31d 1d80
00000090: dc88 8f01 52c7 1200 2e0c 2b00 7005 4801
000000a0: e84f 2f00 dd06 0d00 6672 8c81 ffb4 3282
000000b0: abd2 1b00 104e 1680 aefa 0d80 b18b 1080
000000c0: d483 0901 d790 2400 d9f8 5082 b43a 4200
000000d0: 2873 3600 f42e 0580 1ae7 b201 54fa 4280
000000e0: 69b8 3180 b990 1580 4f4e aa01 b736 1080
000000f0: acd9 0700 2001 3482 c6b5 3780 b2ce cf81
00000100: 0b41 3e82 8fde 0d80 fcfb 8001 d29d 1980
00000110: 1321 0780 e37d 0800 478f 0b80 959d c681
00000120: d91c 2700 9c77 7301 5804 7181 ff84 0302
00000130: f4fa 3581 6f7f 2480 83bf 4500 47f4 2180
00000140: d0bc 6502 2413 0200 d44c c381 ea06 cc81
00000150: 51cf 2f82 a00d 1a00 afc8 0d80 37c7 0980
00000160: 93cd 1480 64ff e381 5cca 3600 b843 4480
00000170: 2841 2b80 b578 2e02 78a0 3c00 b080 3e00
00000180: 2b38 2080 f2d1 2b00 8762 0980 e0e9 0700
00000190: f089 2100 6349 1680 5081 0680 547f 3f00
000001a0: ae7c a101 701c 4600 b317 0f00 8600 3d02
000001b0: 907c 1500 401f c100 7003 2200 2b26 0880
000001c0: 2117 0f80 6040 3800 a405 4a00 9b44 1300
000001d0: 1a92 0500 457d 3c82 d0ea 6301 9c87 1680
000001e0: a758 2082 eee5 0f80 1699 0080 142b da01
000001f0: a4e3 3d00 cdfe 2e80 d0f9 1d00 8acb 1100
00000200: de02 1200 0451 1780 589c 3b00 108c 1e80
00000210: 8837 0e80 1aeb 6382 1337 2180 5f43 1800
00000220: 2038 1900 c693 0780 f459 1b80 30cf 4580
00000230: b0ae 0d80 e53c 0d02 9047 3580 2c7e 2500
00000240: 7195 4980 139b 2680 9891 2d82 e099 2480
00000250: 0366 4200 abbe 5982 46d9 4200 d0de 4100
00000260: 8b57 9c81 a21f 0d00 6a69 1800 43d7 0680
00000270: 6b99 1f00 c80a 2d80 20e0 0480 f871 1d00
00000280: 4dc6 a601 0c6d 3e80 afe7 0002 30bb 2300
00000290: 6e48 3d80 ca00 0080 6751 0300 a9a3 9901
000002a0: 4079 2080 f0c9 3c00 3ec9 f801 60ac 0c00
000002b0: c0ab 0100 9290 ea81 acf6 1900 2a83 1f00
000002c0: e86e 0f80 b50d 0480 4d38 0000 a8b7 8401
000002d0: 6c3e e201 007a 3f80 a05e 0d00 78d2 0680
000002e0: 9062 3482 5297 3d00 d090 2300 dbc4 2300
000002f0: 083e 3800 10de 2780 78f3 3000 307b 2580
00000300: c829 4c80 e665 1402 c4d8 bc81 e0ac 0a80
00000310: 6cb5 5081 fece 0e80 6404 0b00 40a9 7981
00000320: fb94 2b00 425a 1580 8883 1582 65e3 bd81
00000330: 201d 0800 545f 9e81 b4ac 2d00 dc5b 0500
00000340: 3c40 1680 9884 1680 b4cd 0900 6853 4180
00000350: a3d1 2e80 4f21 0680 0b35 1c80 b7c8 0e00
00000360: d0b5 1e02 38a7 3280 4806 1c80 dc8f 4900
00000370: 04e6 3180 823c 3d80 f1ea 0082 35f6 6802
00000380: 207d 1c80 1933 4600 9cf3 2680 387d 1300
00000390: 70d1 0480 5091 2880 b7a6 0700 3732 0900
000003a0: 1e0e b501 cd22 3282 2e93 1780 6e49 2f82
000003b0: 6123 1600 e8c4 6480 031c 2b82 ade6 1600
000003c0: 10fb 3e80 1b9d 0880 b273 e601 c6ca 8481
000003d0: 784a 2d80 fc5d 0c80 305a 4580 1c08 4001
000003e0: 688a 4700 c0ad 0380 b4e8 0680 9430 1680
000003f0: cc17 3680 4eff 3400 2515 2f02 f9d6 0680

f0.2.bias f4 [256]
-3.2987765e-24 0.00060356024 -1.0229727e-09 5.339227e-09 9.2546405e-05 9.176808e-24 -2.39778e-39 7.82757e-16
7.258474e-08 -2.4853802e-15 -9.077133e-23 7.6008275e-23 -4.746816e-07 -1.3605009e-15 7.366302e-14 -1.224263e-13
0.0014747451 -1.2721448e-05 1.3798617e-05 0.0010529519 -3.3890676e-14 -2.6590157e-21 -1.7231472e-34 -6.45269e-39
4.925922e-16 2.8636383e-19 -1.408532e-39 -1.650057e-39 -1.0018598e-12 2.757622e-35 -1.2242312e-18 -6.9382387e-15
-1.316098e-26 2.591067e-07 0.002361409 -9.160095e-19 -1.339714e-39 0.01713156 2.8601106e-17 -0.0004058516
-2.9543617e-07 2.0767468e-21 -6.0041095e-22 -2.726715e-39 -1.007441e-39 -9.708848e-23 -7.0346265e-05 0.0019258931
-2.3261158e-22 -3.6149257e-28 1.6364677e-25 4.9533175e-22 1.833557e-08 0.007213657 0.00573614 -2.556815e-07
-0.00028872993 6.033082e-27 5.3606947e-27 -1.5748707e-05 -9.46916e-14 1.6482703e-05 -0.000547563 -8.156363e-31
-2.432845e-39 -2.1109028e-07 -2.509625e-39 0.00520496 -2.389456e-05 -3.0066161e-21 -4.864573e-26 -2.994435e-14
-0.0011790596 -3.4997838e-22 -0.00207504 -8.06309e-40 -1.7535959e-16 -0.0018300988 -1.217765e-39 8.219591e-05
2.4794194e-24 -2.7141394e-22 4.3072033e-29 -2.543814e-39 -4.202396e-18 -2.62794e-05 -3.6418184e-27 -3.093857e-39
1.5902262e-11 0.00259015 -3.7413738e-06 -0.0053972504 -9.9311435e-24 0.00088413205 2.2590618e-19 5.3281024e-10
-8.0520156e-05 -5.1731974e-09 5.550701e-07 0.00041480566 -4.517805e-05 -2.190556e-15 -7.808333e-18 -1.8381884e-07
-1.226391e-39 2.4428834e-17 -1.975089e-12 -2.741241e-39 -0.00085373863 -3.2178744e-13 -5.359501e-39 -1.2644779e-15
-1.9696966e-35 -8.025169e-06 -0.0001475438 -0.0009995041 7.255384e-12 -1.1897436e-10 -8.896842e-08 1.623083e-17
-5.1358917e-30 -1.0752528e-22 -1.1552665e-14 3.385401e-05 2.3756364e-14 5.708442e-06 -0.0022107288 -3.66773e-39
-3.208308e-39 1.2919813e-05 0.0027176258 1.5180967e-22 -3.8064337e-16 -2.8160434e-16 -6.1699e-39 -4.20988e-39
8.909526e-08 0.0017007897 3.765273e-27 -2.2544727e-06 -0.00048397513 1.1104397e-19 3.5720004e-16 -9.2851806e-08
-3.148182e-39 -0.001560027 -3.5344447e-27 -1.6836942e-18 -2.3619956e-10 -1.1448071e-21 -8.707169e-15 -2.64008e-13
-4.2467724e-35 -3.539965e-09 0.002444837 -2.413022e-39 7.185428e-15 -0.00077708805 1.9995026e-14 -2.87614e-40
0.0001658606 -0.0005545678 -4.32824e-24 -5.9434565e-15 -1.8084997e-07 4.556373e-15 0.0014045167 9.553578e-07
-1.8277314e-31 0.0014847226 -9.60411e-40 1.3763736e-09 4.863241e-13 -3.701994e-39 0.0016816681 0.0006008311
2.1759037e-11 0.005451794 -0.00059437886 -6.5656867e-19 -8.3288083e-16 -2.0125582e-07 -1.836371e-39 6.0662324e-21
4.0990352e-18 -1.3507315e-09 2.2189454e-13 -6.638094e-39 -6.59118e-40 3.0703616e-19 -3.09333e-39 -4.615277e-39
-1.166421e-39 -1.20338e-39 2.7867322e-19 1.0533323e-12 -1.3617043e-06 0.0006686702 -4.0614423e-20 -2.4761973e-15
-3.7684997e-13 3.2613528e-13 -1.07229967e-13 3.8378466e-21 -5.550906e-09 0.016094126 -8.9449505e-17 -3.115511e-39
2.0041049e-05 0.0017845634 -3.5975228e-07 -3.3348456e-18 -2.117432e-39 -2.090953e-39 -1.8919386e-07 4.8630683e-12
4.5867584e-08 -7.392019e-05 -1.9695077e-19 -1.5638748e-13 -0.0024872702 -0.0020654846 -9.915206e-07 -1.1494865e-07
-3.2327427e-15 0.00011876111 -2.5729453e-21 -1.0282565e-21 1.8894394e-24 -1.106705e-39 -2.1940857e-19 -6.97432e-40
-5.306332e-39 -8.86318e-18 2.4622305e-16 -6.523875e-39 -5.861627e-08 -4.402142e-15 -8.983137e-20 1.7104502e-32
0.0015373589 1.4678595e-30 -1.6445817e-13 -1.4930004e-15 2.1111677e-16 -3.553183e-39 -2.9561873e-13 -9.214525e-17
-1.2717696e-13 -3.0148774e-21 -9.635948e-16 -2.37075e-39 4.4316682e-14 1.223184e-16 5.0894834e-36 -2.0712563e-24
00000000: 003b 7f98 3e38 1e3a a798 8cb0 5674 b731
00000010: 7915 c238 5a81 3119 091c 1a80 469d 6126
00000020: e2df 9b33 2c17 33a7 bb78 db9a d8c6 b71a
00000030: bed7 feb4 a011 c4a6 d7df a529 fad6 09aa
00000040: 3c4c c13a 346e 55b7 9c80 6737 3403 8a3a
00000050: 4aa1 18a9 d8e8 489d a90b 6587 7943 4680
00000060: e4fa 0d26 140a a920 6a56 0f80 b0f7 1180
00000070: ceff 8cab ce9e 1206 26aa b4a1 f5f9 f9a7
00000080: 0c57 8294 5b1b 8b34 dec1 1a3b dc2d 87a1
00000090: 9496 0e80 7c57 8c3c 3ae6 0324 7bc8 d4b9
000000a0: 709c 9eb4 20ea 1c1d 8c76 359c f9b0 1d80
000000b0: 56f8 0a80 dcbe ea9a dd86 93b8 406e fc3a
000000c0: e69a 8c9b 861f e591 bb95 4a16 70b4 151c
000000d0: 5880 9d32 8a60 ec3b 3bf6 bb3b 9944 89b4
000000e0: ad60 97b9 b8fe ee13 e75b d413 171c 84b7
000000f0: fe39 d5a9 5644 8a37 558a 0fba 3558 848d
00000100: c87d 1a80 0ea8 62b4 d053 1b80 5e8e aa3b
00000110: 2d71 c8b7 6a2c 639d cae1 7095 7cdb 06a9
00000120: ad8a 9aba 888c d39b 65fd 07bb a9c7 0880
00000130: 042d 4aa5 eddf efba a242 0d80 9860 ac38
00000140: f6d5 3f18 460f a49b b266 5a10 1eb3 1b80
00000150: 820a 9ba2 9572 dcb7 6d44 9093 6ab0 2180
00000160: b6e0 8b2d 82bf 293b 5014 7bb6 6bdb b0bb
00000170: a418 4099 19c5 673a fa59 8520 3075 1230
00000180: eedc a8b8 edbf b1b1 2000 1535 467a d939
00000190: 907d 3db8 a0d8 1da7 cf09 10a3 bd5f 45b4
000001a0: ae5a 0d80 f450 e123 0afc 0aac 77d9 1d80
000001b0: 6ecd 5fba 7526 b5aa 1c5c 3a80 003b b6a6
000001c0: 3e74 d185 d7a3 06b7 fdb5 1ab9 cb01 83ba
000001d0: b046 ff2c 4ed0 02af e80e bfb3 f7b3 9523
000001e0: 2656 d08e 76fd 019b 431d 50a8 77fe 0d38
000001f0: 72fa d528 258b bf36 e0e1 10bb 24f0 2780
00000200: 75ef 2280 2dc2 5837 321a 323b d186 371b
00000210: 0c6d dba5 7755 a2a5 2c2f 4380 6fd7 2d80
00000220: a354 bf33 08ed de3a 6828 9513 8c4b 17b6
00000230: 0bbe fdb9 fb18 0320 6ce9 cd25 d265 c7b3
00000240: da47 2280 d279 ccba 8703 8c93 2b78 f8a1
00000250: 22da 81af 94ff ac9c bbda 1ca8 909f 94aa
00000260: 12cc 6186 b943 73b1 8f39 203b 8646 1a80
00000270: f070 0128 7fb5 4bba 6419 b428 c021 0380
00000280: deea 2d39 6a60 11ba d070 a798 b622 d6a7
00000290: a92f 42b4 2029 a427 c317 b83a d839 8035
000002a0: cb40 6d8c 069b c23a 3c75 0a80 d72a bd30
000002b0: 58e3 082b a74f 2880 6b6b dc3a 1881 1d3a
000002c0: ff64 bf2d f6a4 b23b 17d0 1bba edc8 41a1
000002d0: c20f 70a6 c718 58b4 0eff 1380 002d e51d
000002e0: 4b3a 9722 a4a4 b9b0 bfd4 792a 4e48 4880
000002f0: 5a2d 0780 fe3d b520 f2ae 2180 8441 3280
00000300: 82b3 0c80 891a 0d80 e87f a420 4c3e 942b
00000310: cec3 b6b5 b349 2f3a d3cb 3f9f c76d 32a7
00000320: ce25 d4aa 0c99 b72a de75 f1a9 60fd 901d
00000330: 49ba beb1 d4d7 833c ab41 cea4 c7ec 2180
00000340: d31d a837 03e8 e93a fa23 c1b4 7411 76a2
00000350: 8a0e 1780 bac4 1680 3625 4bb4 a01a ab2c
00000360: f1ff 4433 9a05 9bb8 b884 68a0 9f13 30aa
00000370: 7801 23bb 155d 07bb 6314 85b5 b0d9 f6b3
00000380: 94f1 68a7 630f f938 0068 429d bf62 9b9c
00000390: 3430 1218 0b0d 0c80 1684 81a0 2898 0780
000003a0: e5c7 3980 2f7f 23a3 1cf0 8d25 e909 4780
000003b0: 45c1 7bb3 989a 9ea7 bb1b d49f 919f b10a
000003c0: 3481 c93a 802c ee0d d729 39aa fe29 d7a6
000003d0: ac66 7325 d4b0 2680 266b a6aa f478 d4a4
000003e0: 4330 0faa 36cc 639d 60de 8aa6 b0d0 1980
000003f0: a895 4729 0506 0d25 917b d804 7541 2098

f0.4.weight f4 [100, 256]
1.699562e-26 -6.231887e-06 8.057448e-11 1.0532031e-10 2.9370309e-05 1.8338918e-25 3.732884e-39 5.6067675e-18
-2.6269063e-08 2.733007e-26 5.9721504e-25 3.1456193e-22 -7.563738e-09 1.0535027e-17 1.245151e-14 -3.131827e-14
0.0002537023 -1.8680743e-05 4.88384e-05 5.228432e-05 1.4953584e-14 -1.12703895e-23 3.1028158e-36 -1.138957e-39
2.0847147e-16 2.7773177e-20 -7.10144e-40 4.391784e-39 3.4635025e-13 1.03667755e-36 1.3562896e-20 -3.5976035e-15
1.8929815e-28 5.467987e-08 4.4352448e-05 1.1082146e-20 2.013062e-39 0.006034407 1.297242e-16 -2.765618e-05
-1.6643491e-09 5.154897e-22 4.2335947e-23 -1.898154e-39 1.239737e-39 1.6060619e-25 9.389871e-06 0.00012117468
4.2391583e-23 8.0515114e-29 5.1820156e-26 1.8807749e-22 4.848583e-10 0.0006669572 -0.0008036675 9.43058e-09
5.5717042e-05 7.2962787e-28 1.5527232e-27 -6.028904e-08 3.8199512e-14 1.523754e-05 -4.8498305e-07 4.0216934e-31
6.205123e-39 -3.704467e-08 3.7135777e-38 0.0001656244 1.0988722e-06 4.57893e-22 7.205985e-27 6.424137e-14
0.00054548134 -1.7032742e-24 0.0016535848 3.741783e-38 -1.6762215e-17 5.9980153e-05 4.570076e-39 2.3200282e-05
1.3396736e-26 1.1719408e-24 8.560669e-30 6.294582e-39 -3.0920044e-20 -2.7852839e-05 -6.371429e-28 -1.5667943e-37
1.2983603e-12 0.0005708935 4.2924057e-07 -2.8249975e-05 -1.9689894e-26 4.769825e-06 5.4094597e-20 4.6361176e-10
2.1607286e-05 4.8545195e-09 1.256405e-06 4.2543288e-05 -1.8177814e-05 4.3355728e-16 1.3572456e-18 -7.9132964e-11
-5.027701e-38 1.1990018e-17 9.583212e-38 2.81049e-39 0.00014680067 -4.917325e-14 5.024723e-39 6.95325e-16
5.4878825e-37 2.8945286e-12 6.165634e-12 -8.73493e-05 3.0792993e-11 5.480826e-11 -1.4764137e-13 5.103784e-19
1.2103214e-30 -1.6736451e-24 2.5155576e-16 7.83808e-06 6.435506e-15 -2.319971e-06 -0.0006624855 3.043399e-39
-2.126246e-39 -3.8670787e-06 -6.707953e-05 8.14068e-23 6.425891e-17 -1.5106968e-17 7.054668e-39 -3.2988004e-38
-7.645977e-10 0.00025743226 1.4841947e-28 -9.5193485e-08 -2.0735277e-07 7.924758e-20 1.07616595e-16 -1.8446589e-14
-3.05183e-40 -3.8315547e-06 -2.3011321e-27 1.3913235e-19 -1.5448276e-11 -4.933143e-22 -3.8975356e-26 8.946502e-15
8.794054e-37 2.5891972e-10 0.00034132268 1.5581309e-37 8.305111e-15 0.0004398277 -4.6261886e-15 -9.5906e-41
-1.9855795e-06 2.8378034e-05 -5.5256064e-26 -1.3227204e-16 4.571235e-09 2.179616e-15 0.00032296946 -5.133752e-07
-1.2126466e-32 7.68687e-05 -5.898858e-39 4.659142e-10 -5.8733915e-14 -1.504908e-39 0.00039372622 9.315355e-05
2.7970868e-12 0.00064766913 -2.3209452e-07 1.6260576e-20 1.947107e-17 -4.425125e-10 -2.133527e-39 1.1450559e-21
4.6562664e-19 1.8745723e-10 3.3345722e-14 2.65564e-39 -5.739026e-38 6.227546e-21 -6.004024e-39 5.65498e-39
6.079566e-39 3.995365e-39 2.174986e-21 1.795773e-13 5.270316e-10 0.00020711511 -6.650869e-21 2.0608353e-16
-1.4840695e-13 1.1299932e-15 -1.5762163e-14 1.8993425e-22 -9.706868e-10 0.0017468983 -5.7029e-29 5.075663e-39
2.0922969e-06 0.0003481528 3.084768e-09 2.0831591e-19 6.66504e-39 -1.29975e-40 4.0357134e-10 7.125699e-14
2.129464e-08 -4.353235e-06 2.1243523e-21 5.658711e-26 -6.204724e-05 7.083908e-05 2.2788371e-09 5.551748e-07
-4.143774e-27 1.2802811e-05 -1.1162835e-23 -4.746387e-23 2.7892455e-25 5.33938e-39 3.7770353e-20 5.868248e-39
1.336742e-39 1.1331725e-18 4.117788e-18 -6.187523e-38 3.4028655e-08 -8.3583135e-18 -2.6849383e-20 1.7945615e-33
8.097084e-05 5.5495896e-33 1.31609e-14 3.4318665e-17 2.0168222e-17 4.034696e-39 3.636027e-15 6.4319136e-17
2.6489268e-14 7.312545e-22 -1.6335767e-17 -6.251261e-39 5.3821144e-14 1.3565655e-17 6.2330392e-37 9.0518985e-27
00000000: 0451 a814 801b d1b6 662f b12e 109a e72e
00000010: 4260 f637 5a06 6316 c3a5 2800 6cda ce22
00000020: 48a6 e1b2 fb54 0715 40d4 3817 1a24 be1b
00000030: acf1 01b2 4256 4223 744e 6028 820b 0da9
00000040: 5903 8539 97b4 9cb7 d5d7 4c38 dc4b 5b38
00000050: 9eb0 8628 4400 5a99 acfa 8304 f366 0c80
00000060: eb59 7025 b627 031f 98bb 0780 82d2 2f00
00000070: 55fa c22a ad61 b003 1219 801e 099e 81a7
00000080: c3f6 6f11 27d9 6a33 1407 3a38 f855 511e
00000090: 99eb 1500 46bc c53b d38f 1525 32ff e7b7
000000a0: 14bf e4b0 15cc 1b1c 5db9 4c1a 48ab 1480
000000b0: e27f 0d00 22d2 4616 3089 1d37 291f fe38
000000c0: 3dfe 4c1a 4c21 cc10 ed4c 8015 2a5f 631b
000000d0: df46 0530 bdd6 2e3a 37ad 52ba 2104 2232
000000e0: b8b1 6938 723a 6712 f009 f612 4078 81b3
000000f0: 0a09 2c29 bca4 7f37 c82f 02b5 ec82 020d
00000100: 5c91 4300 0c1b 1fb3 b82f 4a01 76ab 2d39
00000110: f67c 9335 c163 0a1c afba 0e14 a1a8 9029
00000120: a2fe 0e3a d2c8 0398 19bd d83a d8b8 4b01
00000130: a99a 9aa3 3393 7b38 83c3 3100 3a9e c237
00000140: c3ac 8414 5c59 b517 89a1 2d0f bc8a 4400
00000150: 0a04 129f 84a5 e9b7 2ceb 4992 d042 5582
00000160: 5cba b62b 04a8 153a 6072 e634 5cfa ecb7
00000170: d0ff c294 7c0c a036 5b74 7f1f 8edf fe2f
00000180: 4b41 b537 cecc a631 bfa1 a835 8270 3238
00000190: 8f7c 98b7 c3ed f925 4a4b c821 e603 aeae
000001a0: f6dd 8881 422d 5d23 9f70 0202 819a 1e00
000001b0: 81ee 1939 e674 5da9 e2b6 3600 ee69 4826
000001c0: 33be 3a03 31af 4b2c 18ef d82c 4c2f b7b8
000001d0: d46d 072e 9d0c 712e ba3a 26aa 1aa3 1621
000001e0: c962 c40d f57d 0198 1403 9125 4c80 0337
000001f0: 11dd e727 ccb0 1bb6 a6aa 2dba c223 2100
00000200: 1c27 1780 f4c1 81b6 0cad 8cb8 5ed4 c41a
00000210: c42b 9424 5256 8ba3 8bd1 4c00 919a 3381
00000220: c82b 52b0 f9f7 8639 df24 3c11 2c6d ccb3
00000230: b2a4 5eb4 391e bb1f a025 f824 f026 a6a8
00000240: ba52 0380 ce90 80b6 8150 3693 2c42 2420
00000250: 6de2 87ad 5818 159c 22ff 4095 752a 2128
00000260: 829f 9503 b657 8e2f 8ef3 b239 f014 5402
00000270: 909c 1528 ad98 e639 0fad a6a7 590b 0180
00000280: ff3f 05b6 5d0d ee37 b1ce 8895 d17f 18a5
00000290: 0211 9d31 d20e 1d27 3a54 a939 e0ce 09b5
000002a0: 5adb 7b8a 9234 a138 9e3b 4080 cc11 0030
000002b0: cc41 84a9 1263 1080 0a6d ce39 6e5b c338
000002c0: d6d3 442c 57c8 293a a835 79b4 a993 991e
000002d0: c496 b323 1946 f3af 683b 1780 3409 ad1c
000002e0: c16d 0921 851c 4e2f 002d 1629 d8ea 1c00
000002f0: 2d3b 9c81 2145 eb1d c760 4180 c993 3d00
00000300: 5b33 4200 7481 2b00 5956 241d a22f 4a2a
00000310: 8dde 1030 0a2d 5939 4243 fb9d 1f99 6d25
00000320: 6417 27aa 64d9 a226 13f9 8da8 ce9d 651b
00000330: 0169 85b0 2ef8 e43a f095 9090 e244 3700
00000340: 6369 0c36 4788 b639 d0fb 5331 9fef 7520
00000350: 6b93 4800 516a 0180 9edd dd2f dc74 a029
00000360: 69eb b632 0112 92b6 f382 201d 581a 8c15
00000370: 5c1f 82b8 718f 9438 ba99 1c31 5207 1535
00000380: dc26 a493 a8cb 5637 aeeb 5799 6d85 659a
00000390: 5ca5 ac16 0524 3a00 8e5d 321f 4ae6 3f00
000003a0: 4b8e 0e00 0c3a a721 68eb 9722 be70 a881
000003b0: e726 1233 052f 1aa3 d395 fd9e 1a16 1509
000003c0: e4ce a938 5c85 e609 f015 6d28 5444 1e24
000003d0: de04 ba23 17ef 2b00 6e00 8327 514f 9424
000003e0: 1898 ee28 1402 5d1c bdab 96a3 f911 4480
000003f0: 8e63 7229 ff3d 7a23 6e19 5403 944a 3314

f0.4.bias f4 [100]
0.047372393 0.031196188 0.021212569 0.027629253 0.061567776 0.120747335 0.008463793 0.12549026
0.034028888 -0.014368452 0.077939205 0.054471895 0.027589295 0.02944386 -0.016959855 0.08703079
0.017779846 0.0055267317 0.0013130442 0.11869723 0.0609983 0.04227799 -0.020669587 0.016267793
-0.045055643 0.044354875 0.06967527 0.078410536 0.034984216 0.028156605 0.05918103 0.060835764
0.02175966 0.03842012 0.029381435 0.05428373 -0.03646393 0.027595205 0.060046542 0.049205016
-0.0076487376 0.047903124 -0.0090750875 0.07989041 0.04107894 0.0111540975 -0.017407354 -0.011267662
0.024363773 0.041286997 0.012008587 0.053961247 -0.0066112042 0.018388405 0.031847835 0.02002472
0.1168563 0.056514286 0.042655256 0.04067803 0.041254293 -0.013995282 0.114966385 -0.009852862
0.0008333826 0.024125122 0.028324803 -0.006713702 0.089511104 -0.0013052039 0.08067576 0.0132356705
0.03356717 0.056310974 -0.01037265 0.021736708 0.03109309 0.117168106 0.00880661 0.047223613
0.01492037 0.021185746 0.09634671 0.08848778 0.089336805 0.11763955 -0.019517172 -0.014387431
0.06558235 0.09878322 0.055938475 0.04819267 0.0031972055 0.08637804 0.03092498 0.071708724
-0.016930047 0.037693966 -0.048732 -0.028660275
00000000: 8e09 423d 268f ff3c fbc5 ad3c be56 e23c
00000010: 7e2e 7c3d 614a f73d b9ab 0a3c 8580 003e
00000020: e061 0b3d a869 6bbc 979e 9f3d ec1d 5f3d
00000030: f202 e23c 4034 f13c 65ef 8abc 333d b23d
00000040: 0aa7 913c 9619 b53b 741a ac3a 8917 f33d
00000050: 5ad9 793d b02b 2d3d 4453 a9bc 0944 853c
00000060: 448c 38bd 75ad 353d e8b1 8e3d b495 a03d
00000070: 9c4b 0f3d aea8 e63c cf67 723d ec2e 793d
00000080: 5141 b23c 6a5e 1d3d 56b1 f03c 9e58 5e3d
00000090: 345b 15bd 570f e23c 5df3 753d 338b 493d
000000a0: 43a2 fabb 1136 443d adaf 14bc 959d a33d
000000b0: 6442 283d adbf 363c de99 8ebc 009c 38bc
000000c0: 8996 c73c 8e1c 293d aabf 443c 7806 5d3d
000000d0: cda2 d8bb 48a3 963c e072 023d e20a a43c
000000e0: 5b52 ef3d 867b 673d 47b7 2e3d 029e 263d
000000f0: 43fa 283d 784c 65bc 7f73 eb3d e66d 21bc
00000100: 5c77 5a3a 0ca2 c53c 6b09 e83c 9dfe dbbb
00000110: 9951 b73d 6013 abba 5539 a53d 6dda 583c
00000120: bb7d 093d 56a6 663d 0cf2 29bc 2e11 b23c
00000130: f0b6 fe3c d5f5 ef3d 9949 103c 8c6d 413d
00000140: 9174 743c bb8d ad3c 6d51 c53d 1539 b53d
00000150: 37f6 b63d 01ed f03d 7ae2 9fbc 42b9 6bbc
00000160: 0a50 863d db4e ca3d be1f 653d ad65 453d
00000170: 3588 513b f8e6 b03d 6256 fd3c 06dc 923d
00000180: e2b0 8abc fd64 1a3d 359b 47bd f4c8 eabc
