model/model.pth (torch, 504595 bytes, 4 tensors)

linear1.weight f4 [256, 390]
00000000: 4863 593e f109 923e bde2 aebe daf9 34bd
00000010: 0e24 083d 0a52 4abc 1459 663e f506 39bd
00000020: 150f 5fbf 17f1 293e c018 6d3d 392c af3c
00000030: 6d0d dd3e 1bfd f33d 9b37 393d a645 a4be
00000040: 06ce 48bd 6035 483e 35ee 68be 5088 133d
00000050: 098f f0bc 420b 9d3e 75e1 d83c 733b f2bb
00000060: 31fb 603d 988d b83d a8c9 05bf d90e ff3d
00000070: 019d c2bb f493 4a3a 9256 d83e 788b 503c
00000080: 8bfc 043d 79de 753d e5a9 04be fa68 0740
00000090: c40d 783e 963b d6bc c017 613e fec2 cb3e
000000a0: 14f4 f63c 2b8e 6cbb e0d8 e23e 0fd0 373d
000000b0: 3832 7b3d 7484 89be 3f12 0abe e6e7 3e3f
000000c0: 0615 3b3d 6c57 443d ca7d febc 28e5 70ba
000000d0: 5fbd 9d3d 4a4b 9dbd f467 893d ec75 923d
000000e0: 072c 973d a182 bb3d 9df4 7e3d 7dd6 bc3d
000000f0: 76a1 4b3e d9d4 a83c 5e36 b7bc 6156 e13d
00000100: 1031 afbb 4343 0fbd b54d 843e 0b91 5abc
00000110: d1dd 68bc 56db ba3d 988d c3bc a11c 153d
00000120: f678 853c f244 983b 8f30 003d 0974 9b3d
00000130: d4fd 383d c32a a9bc 7adb f33d cdc2 67bc
00000140: 75dd 2d3f 48db 64bd 8a3f 0dbd f4ad 723d
00000150: d26b 4f3e 76e8 ea3b be43 7c3b a93f 343e
00000160: cb19 563d 96c7 c83d 8511 c33e 7e1c a33e
00000170: d92e 46bb 2a6b abbe 1a61 ff3c ed10 4bbd
00000180: 994f 44be 989e 2d3d b3e4 69bc 6836 9e3e
00000190: 1941 c23d 0d4e 29bd cf24 c93d 5c42 533b
000001a0: fd4b 3d3d 0318 323e e391 13bd d329 20bd
000001b0: 6051 cf3e ab28 bd3d e5a3 44bd 1781 1e3d
000001c0: 2e2d 89be c187 b13a 84ec 373e dc1d 38bf
000001d0: 083b 40bc 3c3b bc3e 4865 0b3d ee92 123e
000001e0: ea01 f43e 7b84 ba3d 17bd 31bf 1c36 6bbe
000001f0: 1491 13bd c282 21bc 62b4 073d df9f 023d
00000200: ae53 38bc a456 933d d062 323e b2b6 d43d
00000210: fad9 093e 82fb 46bc 6c8a bf3c 9fb4 003e
00000220: 225f 353f c3d4 1dbf 329c 443e 1ceb aabe
00000230: ad04 b53e a6ee 4b3d a099 4abc 356a 92bc
00000240: 8e48 953e a1da cdbc 54ce e13c b84e 333e
00000250: 1ac0 8cbb ab96 593c 0fd3 76bb b848 e73c
00000260: caf8 bc3b 1605 333c 200e 3cbd 68ac 31bd
00000270: 44a5 1b3e 4787 983e 6f21 563e 4fb5 d5bd
00000280: 5019 05bd d4ee c63c a4e0 663e 43b3 0bbf
00000290: 6ef5 a73e 8727 283e a37c df3b 3da4 c43b
000002a0: b71e df3e 466a 293d 0fab 4f3d 9c34 8dbe
000002b0: 9470 37bd dce0 bfbc b560 3abe b8f8 f2bc
000002c0: 59cc 453d 16e7 9f3e ceb6 c7bc 50bf 05bd
000002d0: c7c1 a53d 4352 abbe 63f0 d83e 5f5e 3b3e
000002e0: 7ddf 96bc 12dd f5bc f46c b13e aff6 32bd
000002f0: bb4f dd3c 97b4 073d ed6b c8bc 0e6f c4bc
00000300: 3e8e 503e 098e 95bc 864c 29bd e2b3 e13e
00000310: be5c 273e 326b 75bf 62d2 f33e e06f a7be
00000320: 145c 82bd 4022 95be a01e 483d a5fa 253c
00000330: d350 a23c 67fa 09bd 8a17 0bbc 297e 43bc
00000340: c160 ddbe 2170 563f b9ed 193e 94c9 7cbd
00000350: 7f10 c4bc 27ce c33d beb0 923d 3375 9c3d
00000360: f076 533e cc8b 353e bd36 943d a1f0 db3d
00000370: 59ef 19bd 5988 843d 4048 9f3e 540f 073d
00000380: c295 d33c 19d1 383e 346a 293d 90db bebc
00000390: d6da 0b3b ca53 4e3e 36a1 873d e000 af3d
000003a0: 8d56 29bd 4c43 94bb a2d7 ef3d 0b27 2ebd
000003b0: 3074 1c3c 2701 a5bd 23e5 04bd 9cd8 fb39
000003c0: 82b3 b23e 9caf 143e a7e3 b6bf 218f 053e
000003d0: a9ec 333d a5b1 91bc 6fd2 b73e 5638 5f3e
000003e0: 1353 c13d 32a0 9ebe 9289 16bd 88a0 003d
000003f0: 8b7b 6cbe 9b6a 003b a8d5 953c c645 883e
0.21229279 0.2852321 -0.34157363 -0.04418359 0.03323751 -0.012348661 0.22494918 -0.04517265
-0.8713239 0.16595875 0.05788493 0.021383392 0.43174306 0.119135104 0.045219045 -0.32084388
-0.049024604 0.19551611 -0.22747119 0.03601867 -0.02936508 0.30672652 0.026474694 -0.007392341
0.054927055 0.09011382 -0.5226083 0.12454004 -0.0059391265 0.0007727735 0.42253548 0.012728564
0.032467406 0.06002662 -0.12955435 2.1157823 0.24224001 -0.02615146 0.21981716 0.39797205
0.030145682 -0.003609548 0.44306087 0.044876155 0.06132719 -0.26858866 -0.13483523 0.745726
0.045674346 0.047934934 -0.03106584 -0.00091894204 0.07702135 -0.07680376 0.067092806 0.07151398
0.073814444 0.09155775 0.062245 0.09220598 0.19885811 0.020609306 -0.022364791 0.110028036
-0.005346425 -0.034976255 0.25840536 -0.013340245 -0.014213041 0.09123866 -0.023871228 0.036404256
0.01629303 0.004646891 0.03129631 0.07590491 0.045163944 -0.020650273 0.11907096 -0.014145565
0.6791604 -0.055873185 -0.034484424 0.059247926 0.20255974 0.007168825 0.0038492526 0.1760241
0.05227069 0.09803693 0.38099304 0.31857675 -0.0030240326 -0.33480197 0.031174231 -0.04957669
-0.19170989 0.042387575 -0.014275718 0.30900884 0.09485073 -0.0413342 0.09821474 0.0032235598
0.046215046 0.17391972 -0.0360278 -0.039102387 0.40491772 0.092362724 -0.048007865 0.03869733
-0.26792282 0.0013544486 0.17961317 -0.7192056 -0.011732824 0.36763942 0.034032136 0.14313862
0.4765771 0.091073 -0.69429153 -0.2296986 -0.03602703 -0.009857835 0.03313101 0.031890746
-0.01125042 0.0719426 0.17420506 0.10386409 0.13462058 -0.012144925 0.023381434 0.12568901
0.70848286 -0.61652774 0.19200209 -0.333825 0.3535513 0.04978814 -0.012365729 -0.01787291
0.29156917 -0.025128664 0.027564205 0.17510498 -0.004295361 0.013280551 -0.0037662422 0.028232917
0.0057669627 0.010926506 -0.04591191 -0.04337731 0.15199763 0.29790708 0.20911191 -0.104349725
-0.032494843 0.024283804 0.22546631 -0.54570407 0.32804435 0.16421328 0.006820278 0.006001024
0.4357812 0.041361116 0.050700244 -0.275792 -0.044785097 -0.023422651 -0.18200953 -0.029659614
0.048290584 0.31230992 -0.02437916 -0.032653153 0.08093601 -0.33461198 0.423709 0.18297718
-0.018417114 -0.030012641 0.34653437 -0.043692287 0.027015558 0.03313121 -0.024465526 -0.023978736
0.20366761 -0.018256204 -0.041332744 0.44082552 0.16343972 -0.9586669 0.47621447 -0.3270254
-0.06365219 -0.29127693 0.04885733 0.010130559 0.01981393 -0.033686068 -0.008489499 -0.011931934
-0.4323788 0.83764845 0.1503209 -0.061715677 -0.023933647 0.09560805 0.07162617 0.076395415
0.2065084 0.1772911 0.07237003 0.10739256 -0.037581775 0.06471319 0.3110981 0.032973602
0.025828246 0.18048514 0.04136105 -0.023298055 0.0021340153 0.2014915 0.066225454 0.08545089
-0.041342307 -0.004524624 0.117110506 -0.042517703 0.009549186 -0.080568604 -0.032445084 0.00048035837
0.3490258 0.14520115 -1.4288224 0.1304288 0.04392687 -0.017784903 0.35902736 0.21798834
0.09439673 -0.30981594 -0.03675229 0.031403095 -0.23094003 0.0019594792 0.018290356 0.26615733

linear1.bias f4 [256]
00000000: d6f0 af3d 4172 1d3e 3555 483f bd32 c73c
00000010: a33c 353f a293 78bd 2271 5f3e e6ba e0bc
00000020: d02e 233e 04f9 743c 5b3d 353c eba4 61bd
00000030: 37f6 353f 0b09 22bd 4490 2d3f d730 363f
00000040: 6d09 a6bd 9f17 b63b ad87 5a3e 347d 2c3f
00000050: 14df a83c ef0d 203f 687b 653d 829e ea3b
00000060: 4d43 6ebd 5a80 243e 451f 2b3f 2d04 6fbd
00000070: bab8 513d c18b 7bbd 8fac 1f3f cbea 4f3b
00000080: 3e47 5c3f 4589 1c3e e024 223f 7255 a43b
00000090: a439 c63e c815 2fbd c940 063e 866e d53a
000000a0: 8166 273f 6f03 883e 19e9 f73a df66 63bd
000000b0: 3f0a de3b e409 15bd c87c 0ebd 6d47 64bd
000000c0: ba71 60bd fe7a 5a3f 3e22 123e 7fcc dd3d
000000d0: 5ca5 1d3f b2c6 213f f20e 57bc fbcb 273f
000000e0: 42c9 4a3f 51d2 303f debb 463f affb 733f
000000f0: 3734 b7bc a916 783f 7b86 463f 37fe 543f
00000100: 8f2f 2b3f 5bed 2cbd 4280 6d3e 5a84 653f
00000110: c468 213f 3ca8 403e a797 203d 1654 6a3f
00000120: 10ec 8b3e 0c7f 84bd fb0a 31bd 678b 273f
00000130: 2fca 293f 2170 6e3f 1e92 ce3d 7a2e 6abd
00000140: 70c5 543f aaea 283f e448 73bd 6e5c 223f
00000150: 2426 723f 38d6 853b 664d 003e 2ddb 65bd
00000160: 6eec 523e 9b08 5b3e 78c8 313f 7a07 49bd
00000170: 0a45 8c3e 0a43 383e f5a7 d4bb a20a 853c
00000180: 80d6 283e 0678 5f3f eee4 123f 8582 2c3f
00000190: 0302 563e 68bc edbc dd2b 583f 7df2 303f
000001a0: e2fe 203f 26d2 e4bc ed13 43bc 4c5e 3c3c
000001b0: ae52 4d3f 3784 c9bc bf04 493f 0e34 8bbd
000001c0: 1357 34bd b154 083e d4cf 173e 298c c3bc
000001d0: e569 8d3d f823 763f 026f 2b3f 4c88 903d
000001e0: e439 993d 9e50 3f3f 42cb 3dbd 9f7f 293f
000001f0: 8feb 4e3d 406a 5d3a 4210 813c 6d8e 1cbc
00000200: 455c 143f dc7d ac3e 9025 433f edf4 4abc
00000210: 4928 213f 7766 c33b d57c 88bc 633b f23c
00000220: 5298 403b e747 9a3d 9125 1b3f 0275 0f3f
00000230: 4d2f 223f f96b 263f 5253 a03d 3ffa 53bd
00000240: d5fb 86bd 868f 283f 8206 42bd fb0f 333e
00000250: d362 1c3f 1c88 0fbb cf14 1a3f af70 10bd
00000260: c12a 3abd 370c 0e3f 9609 263f c691 4f3f
00000270: 5593 613e f179 9c3e 6642 383e 5821 5f3f
00000280: 34f4 0bbd bc4d 0e3e b39c 683e 124f 243f
00000290: c69d 323f 822c 173f 38d9 46bd 1251 1c3e
000002a0: d559 2b3e 2bf8 62bc 91aa 1f3f 3115 7abd
000002b0: 2398 873c 9f99 233f 162c 583f 51fb a73c
000002c0: cf40 383f 141c 8cbc f13e c1bc 06b7 163f
000002d0: 87f5 63b9 9f2e 213f 3a55 253f 4bf4 553f
000002e0: a326 a13c cadc d83d 31e3 153f dfff 5dbd
000002f0: fb2d 3e3f 7a2b 96bb 182e c13d 75dd 5e3f
00000300: 4a87 323f c99e ae3e 0b55 0fbd 5e88 44bd
00000310: dda4 6a3f c7c7 683f 9114 663f 8bc0 3ebd
00000320: f582 523e cbdf 4bbd b471 2b3f 5485 183d
00000330: 40dc c2bc 46ae a83e a85c 073e 8973 283f
00000340: 9cad 1fbc a2ea cb3d 2105 e53d bd27 073e
00000350: 3104 493d c1fa 333f aa1f 3c3f 0496 303f
00000360: 81f5 0bbb 8a6e 1f3f 190b 063f 4358 aa3e
00000370: c501 553d e8e8 063c 6180 153f d08d 5c3f
00000380: 5774 073e a2c9 93bd 30be f23d 0b16 cd3c
00000390: 4021 513f 1986 3e3e ab4a 48bd caf0 193f
000003a0: 71c9 1e3f d334 413f 1692 2d3f da4f 623f
000003b0: 7077 193f 94cd 49bd 1f4f 363e cd64 423f
000003c0: cbd9 203f a350 5d3d 73fc 8a3c bf05 123f
000003d0: 630c 113f 337b 10bc ce7c 223f 912c 413f
000003e0: 84a2 0b3f 3a57 09bd 2bc0 b6bc 222c ab3c
000003f0: 13ae 343f 65d8 593d 019f 6ebd 5211 c9bd
0.08590858 0.15375616 0.78255016 0.024316186 0.7079565 -0.06068767 0.218205 -0.02743287
0.15935826 0.014951948 0.011061992 -0.05508892 0.7107882 -0.039559405 0.67798257 0.71168274
-0.081072666 0.005557015 0.21340819 0.67378545 0.020614184 0.6252126 0.056025892 0.007160009
-0.05816965 0.16064587 0.6684459 -0.05835359 0.05120156 -0.061412577 0.6237268 0.003172564
0.86046207 0.15286739 0.63337517 0.0050150687 0.3871585 -0.04274538 0.13110651 0.0016283549
0.65390784 0.2656512 0.0018914073 -0.055518027 0.006776124 -0.036386386 -0.03478697 -0.05573218
-0.054795958 0.8534392 0.14270875 0.1083002 0.61580443 0.6319381 -0.013126122 0.65545624
0.79213345 0.6907092 0.7763041 0.95305914 -0.022363765 0.96909577 0.7754895 0.832004
0.66869444 -0.042218547 0.23193458 0.8965508 0.63050485 0.18814176 0.039207127 0.91534555
0.2732854 -0.06469545 -0.043223362 0.65447086 0.6632413 0.93139845 0.100864634 -0.05717323
0.83113766 0.6598307 -0.059395686 0.63422287 0.9458945 0.0040843748 0.12529525 -0.056117225
0.20598003 0.21390001 0.69446516 -0.049079396 0.27396423 0.17994323 -0.0064897486 0.016240422
0.16488075 0.87292516 0.5738057 0.67386657 0.20899205 -0.029020503 0.8444193 0.6912001
0.6288892 -0.027932238 -0.011906606 0.0114970915 0.80204284 -0.024599178 0.78522867 -0.06797038
-0.044028353 0.13313557 0.14825374 -0.023870545 0.069049634 0.96148634 0.6696626 0.070572466
0.07481745 0.7473239 -0.04633642 0.6621036 0.050517615 0.00084463134 0.015754823 -0.009555441
0.5795329 0.33689773 0.7622919 -0.012387496 0.62952095 0.0059631425 -0.016661087 0.029569333
0.0029387665 0.075332455 0.60604197 0.56037915 0.63353425 0.65008503 0.07828392 -0.051752325
-0.06591002 0.65844 -0.047369488 0.17486565 0.61088294 -0.0021901196 0.60188 -0.035263713
-0.04545093 0.5548739 0.64858377 0.8108181 0.22028859 0.30561784 0.17994079 0.87160254
-0.034168437 0.13896841 0.22716026 0.6418315 0.69771993 0.5905229 -0.048547 0.15265301
0.16733487 -0.013853113 0.6236964 -0.061055366 0.016552037 0.6390628 0.8444227 0.02050558
0.7197389 -0.017103232 -0.023589583 0.5887302 -0.00021739873 0.62961763 0.6458317 0.83575886
0.019671744 0.10588987 0.5854979 -0.054199096 0.7428891 -0.0045828195 0.0943262 0.87056667
0.69737685 0.34105518 -0.034993213 -0.047981612 0.9165781 0.90929836 0.8987513 -0.046570342
0.20557769 -0.049773972 0.6697037 0.037236527 -0.023786664 0.3294546 0.1321894 0.6580129
-0.009745982 0.09956862 0.11182619 0.13198753 0.049076263 0.70304495 0.73485816 0.68978906
-0.0021356049 0.62278044 0.52360684 0.33270463 0.05200364 0.00823424 0.58399016 0.8615389
0.13227974 -0.07216193 0.11852682 0.025034925 0.8169136 0.18605842 -0.048899334 0.6013304
0.62026125 0.7547123 0.67801034 0.88403094 0.5994787 -0.04926832 0.1780362 0.7593506
0.62832326 0.05403198 0.01696608 0.5704002 0.56659526 -0.0088184355 0.63471687 0.7545863
0.54544854 -0.03353045 -0.02230843 0.020895068 0.70578116 0.053184886 -0.058257107 -0.09817757

linear2.weight f4 [100, 256]
00000000: 078d 39bd d82c 603d 8667 1e3d ae9d 4c3d
00000010: 0986 c2bc d8b2 ecbc 674d eabd 9aa9 6f3d
00000020: 8385 1bbd b21d 663d e060 45bc 18fc 093d
00000030: 48be 3f3d d0e1 92bc eb3e 3dbd 2ff8 813c
00000040: b49c eebc 8cf9 1ebd d5c8 853c 2af2 613d
00000050: d26e 4dbc c90f c43b 5b81 6dbc a8fd 76bc
00000060: c8e0 5d3d 2fbb d5bd 7616 843d b401 15bd
00000070: de3d 053d f440 5f3d 4cdf 543d 0480 043d
00000080: 2c4f ef3c 9bda 5abc 3e55 8a3d f826 283d
00000090: 98f7 183d e05c 573c 08aa ae3c d476 0bbd
000000a0: e5ac 243d 1671 8fbd 08b2 29bd e6fa 133d
000000b0: abc5 c2ba 4ced f0bd 6d62 eebc 7062 b43c
000000c0: 38a0 243c 64df 56bd 519a 443c c7f9 773c
000000d0: b444 6abc 8b93 003d 14ea 2e3d 31f8 42bd
000000e0: 5d89 8e3d 50f7 b93c 06d6 b13a 5276 203d
000000f0: f896 1dbd 2464 143d a4e7 dfbc 7908 743d
00000100: f0ce 073d a639 5a3d a358 9cbd b825 df3b
00000110: 57be 2abd 7f55 83bd 7822 7c3d 6822 b6bc
00000120: 6e59 3bbd fc85 20bd f0c1 5e3c ab45 3c3d
00000130: 772b efbc 40eb 2bbc 4a28 8f3d 3a46 40bd
00000140: 70f8 9dbd 5abe 333d 245b 85bc 29e6 7cbc
00000150: 67bb 7ebd 9b26 8dbc 0619 18bc 9f48 123c
00000160: 67fd 01bd 2847 643d 21c3 1a3d e01f 0bbd
00000170: d88b 98bc 2c39 363d e411 57bd 48fa f03c
00000180: fa76 dbbd cd65 d43c 6a92 f03c 31f3 92bd
00000190: 05e0 e0bd 7a9d 3fbd 798d ddbd d0b0 4a3b
000001a0: ca3d 44bd a9f5 3fbd 0841 953c 107a e63c
000001b0: 5830 13be 3604 3f3d 22e5 0bbb 4cbe c83c
000001c0: 8845 213d 9dfd 123d 484f bbbc e01d cdbc
000001d0: 05a5 0c3b 8084 24bd ff5f cbbc 53c6 3b3d
000001e0: 3e24 dc3c c458 153d 2833 1b3c f206 e23c
000001f0: 00e7 f53c d26a 3d3d 68f7 51bc 7032 6dbc
00000200: e0bb 0e3d 0db9 bdbd e58d 88bd c8f1 e03c
00000210: b804 15bd 5cef db3c 5479 38bd 90e9 63bd
00000220: 3cc6 7ebd c003 553c f03a c8bb 7105 e639
00000230: 1cc8 a33a f749 d5ba 2873 093c 08bb fdbc
00000240: c55c 383c 3a70 3a3c 9c5c 6ebd dbbd 7b3c
00000250: 8623 e7bc c667 13bd 7cce dfbc f088 92bc
00000260: e30b 0cbd 6825 cd39 026d e93c 6b66 e4bd
00000270: a6b7 b73c bb86 90bc 2c36 7f3d aafa 943d
00000280: f4c6 2cbd 1114 f7bd 5cf7 81bb 9c1c c1bc
00000290: 3c0b efbb 2f7a 6abd a8dd 7f3c 19dd 83bd
000002a0: ff57 313d 3cf5 85bc 7524 9dbc 5080 9e3c
000002b0: 3c20 483d 4edf 413d deb7 603d 11f5 ddbd
000002c0: cc31 62bd e4a8 dcbd 30ee 303c dc9b 24bc
000002d0: e848 253d 8ace c2bc 25f5 123c 1c54 02bd
000002e0: c0bc febb 5098 35bd 8393 32bc cd8c 473c
000002f0: 9f29 543c 1fe5 0cbc 2ec2 8a3d 29f9 1bba
00000300: a788 41bd 819f 4cbc 880b fe3c b0a7 b33c
00000310: 0cdd ea3c 00b2 1939 ee0e a1bd a655 7cbd
00000320: 9c7b 8ebd 7276 2a3d 66d8 2bbb 6439 143d
00000330: 3611 7d3d 1623 9cbd c4fa c23c 50e1 e43a
00000340: 62a1 e2bc 6047 40bd eb36 d9bd 834c 4bbc
00000350: acb8 0ebe c111 b13c e24e 1fbd e01a 82bb
00000360: 25a7 11be 7abc ff3c 336d 6bbc dc66 f7bb
00000370: 6085 cd3c 7884 41bd c15a 5dbc fe28 003c
00000380: 2b79 04bd 4001 fdbc c75c e0bc 6425 9c3c
00000390: a852 763c 6a60 3abd 00ee 47bc 2bf0 2bbd
000003a0: 25cc 223c 3d1f 253d fa1d b13c 0c80 5ebd
000003b0: ad92 9a3d 3623 4dbd 388d 80bc 2b65 fd3a
000003c0: c5f5 07bd ada3 1bbd a87e 3f3d 77a7 823c
000003d0: 5320 923d 2035 a4bc 0d7f 8e3c db60 a43d
000003e0: c22b 993c 8426 273d ef89 22be 52b2 2cbd
000003f0: 754f c7bc 60fd 433b 3032 2cbd d1be d9bb
-0.04530051 0.054730266 0.038672946 0.049955063 -0.023745554 -0.028893873 -0.114405446 0.058511354
-0.037969124 0.056180663 -0.012047023 0.03368768 0.046812326 -0.017929941 -0.04620258 0.015865413
-0.029127456 -0.038812205 0.016331116 0.055162586 -0.012538629 0.005983327 -0.014496173 -0.015075125
0.054169446 -0.10436093 0.064495966 -0.036378577 0.032529704 0.054505304 0.051970765 0.032348648
0.029212557 -0.013357784 0.0675454 0.04105279 0.0373455 0.013144702 0.021321312 -0.03404887
0.040203948 -0.07003991 -0.04142955 0.036127947 -0.0014859935 -0.11764011 -0.029099667 0.022019595
0.010047965 -0.052459136 0.0119996825 0.015135235 -0.014298607 0.031390708 0.042703703 -0.047599975
0.06959794 0.022700936 0.0013567812 0.03917534 -0.038474053 0.036228314 -0.027332135 0.059578393
0.033156335 0.053277634 -0.076340936 0.0068099163 -0.04168543 -0.064127915 0.06155631 -0.022233203
-0.045739584 -0.039190277 0.013596043 0.045964878 -0.02919553 -0.0104931 0.069901064 -0.046941973
-0.07713401 0.043882705 -0.01627881 -0.015435734 -0.06219044 -0.017230323 -0.00928331 0.008928447
-0.031735804 0.055731922 0.037783746 -0.033965945 -0.01862137 0.044488117 -0.052507296 0.029416218
-0.10716052 0.025927449 0.02936669 -0.07175291 -0.10980228 -0.04678104 -0.108179994 0.0030928142
-0.04791049 -0.04686514 0.018219486 0.028134376 -0.1437391 0.046634875 -0.002134629 0.024504803
0.03937295 0.035886396 -0.022864953 -0.02503866 0.0021460664 -0.040165424 -0.024826048 0.045843434
0.02687275 0.036461607 0.009472646 0.027591202 0.030017376 0.04624445 -0.012815334 -0.014477357
0.03484714 -0.09263811 -0.06667689 0.02745904 -0.036381453 0.026847534 -0.045037583 -0.055642664
-0.06220077 0.013001382 -0.0061105415 0.00043873073 0.001249555 -0.0016272654 0.008389272 -0.030972973
0.011252587 0.011379296 -0.058193788 0.015365089 -0.028215181 -0.035987638 -0.02732014 -0.017887563
-0.034191024 0.00039128517 0.028494362 -0.11152347 0.022426438 -0.01764237 0.06230752 0.07274373
-0.042181924 -0.12064374 -0.003966255 -0.023573212 -0.0072950404 -0.05724543 0.015616812 -0.064386554
0.04329681 -0.016352288 -0.019182423 0.019348294 0.048858866 0.0473321 0.05486285 -0.10837758
-0.05522327 -0.10774401 0.010798976 -0.010046925 0.040352732 -0.023780126 0.00896958 -0.031818494
-0.0077739656 -0.04433471 -0.010899427 0.012179566 0.012949376 -0.008599549 0.06775318 -0.00059499085
-0.047249462 -0.012489201 0.031011358 0.021930546 0.028669856 0.00014657527 -0.07864176 -0.06160512
-0.0695717 0.041616865 -0.0026221513 0.036187544 0.06178399 -0.076238796 0.023801215 0.0017462168
-0.027664844 -0.04694307 -0.10606178 -0.0124083785 -0.13937634 0.021614911 -0.038893588 -0.003970489
-0.14223917 0.031217802 -0.014369297 -0.0075501036 0.025088012 -0.047245473 -0.013510407 0.007822273
-0.032342117 -0.030884385 -0.02738799 0.019060798 0.015034355 -0.045502104 -0.01220274 -0.04197709
0.009936367 0.040312994 0.02162074 -0.054321334 0.075475074 -0.050082408 -0.015692338 0.0019332519
-0.03319337 -0.03799789 0.04675165 0.015948994 0.071350716 -0.020044863 0.017394567 0.08026286
0.018697623 0.040808216 -0.1587293 -0.042162247 -0.02432988 0.0029905662 -0.04204005 -0.0066450615

linear2.bias f4 [100]
00000000: 0a03 c03b 18a6 72bc c9a8 52bd 1200 d1bd
00000010: e311 2bbd 9075 c03d 830b 6cbd a5b2 9ebd
00000020: f310 a2bd 44ab 32bd 1931 adbc 9a8e 71bd
00000030: c4e4 3fbd 8e38 6bbd e02d b1bd 4c94 18bd
00000040: ec92 afbd da1c e4bd 629b 72bc ae1c 90bd
00000050: ee06 b1bd 4270 ebbd f74d 12be 96f4 6fbd
00000060: 5052 9bbd 0f80 9abb 8e18 b2bd 291d 783a
00000070: bcfb febd b9cd 23be 6ae7 533d ab43 b4bc
00000080: e1f0 4dbd 6193 e7bd 60a0 febd d09b 07be
00000090: 5d0d d6bd 3d6f 07be 352c bbbd 4365 e7bd
000000a0: e3a3 033e 7c70 4ebd df32 ee3d cd2c b4bd
000000b0: 81e7 08bd d7e3 abbd 65a1 d4bd 7e91 edbd
000000c0: f0d3 c5bc 9278 afbd 8a34 e1bd bc36 d9bd
000000d0: a230 2bbd 6dc0 bcbd bf33 03be afca 0ebe
000000e0: 7c7a 28bd 92fc 2ebd 48f4 18be e1bd cabd
000000f0: ef28 a13c a3d4 b1bd 4276 283e e6e2 ebbd
00000100: 2382 52bd e814 00be a7cc f03b 56cc afbd
00000110: bb70 91bd 7831 ecbd 1193 eabd 2ba9 a5bd
00000120: 5395 a5bd fb2e 16bd 4fa3 d9bd 5d17 efbd
00000130: 6ac8 07bd 511b f6bd 23b0 8bbd 180d febd
00000140: b07a b2bd 6684 cc3e 3137 b4bd 8ab3 77bd
00000150: c612 d43c 40d2 19bd b1e4 a9bd 437c bbbd
00000160: d673 d4bc 5a48 35bd ba2a 08be 55c0 bcbd
00000170: fbbb edbd 1c34 9abd 9141 16be d9f2 d6bd
00000180: aa4a 34bd 8784 27bd f4ac 65bd 1ced 1fbd
0.0058597373 -0.014810108 -0.051430497 -0.102050915 -0.041765105 0.09397423 -0.057628166 -0.077489175
-0.07913389 -0.043620363 -0.021141576 -0.058973886 -0.046849027 -0.05742698 -0.08651328 -0.037250802
-0.08572945 -0.111383155 -0.014807554 -0.0703672 -0.086439 -0.11496021 -0.14287554 -0.058582865
-0.07584059 -0.004714973 -0.0869609 0.00094647944 -0.12450358 -0.15996446 0.051734366 -0.022004923
-0.05027855 -0.11307407 -0.12432933 -0.13243032 -0.104517676 -0.13226028 -0.09139291 -0.11298611
0.12855487 -0.050400242 0.11630797 -0.087976076 -0.033423904 -0.083930664 -0.10382346 -0.11600016
-0.024148911 -0.08567919 -0.10996349 -0.10606143 -0.041794427 -0.0921639 -0.12812708 -0.13944505
-0.041132435 -0.04272134 -0.14936936 -0.09899498 0.019672839 -0.08683135 0.16451362 -0.11517887
-0.05139364 -0.12507975 0.007348615 -0.08583896 -0.0710158 -0.11532873 -0.11453832 -0.08088907
-0.08085122 -0.036665898 -0.10626852 -0.11674378 -0.033150114 -0.12016929 -0.06820705 -0.12404841
-0.08714807 0.39944762 -0.087995894 -0.060473956 0.025887858 -0.037554026 -0.082955725 -0.091545604
-0.025934141 -0.044258453 -0.13297549 -0.09216372 -0.1160812 -0.0752947 -0.14673449 -0.10495538
-0.044016518 -0.040897872 -0.056073144 -0.039044484
