model/model.pth (torch, 799047 bytes, 6 tensors)

f0.0.weight f4 [256, 390]
0	0xbcf41926	-0.029797148
1	0x3d9a3722	0.07530047
2	0xbcb8f2b0	-0.02257666
3	0x3d38c4fc	0.045109734
4	0x3c870201	0.016480448
5	0x3cbfc1e2	0.02340788
6	0xbcf1b260	-0.029504001
7	0x3d27707b	0.040878754
8	0x3d146d8e	0.036237292
9	0x3d03e9fb	0.032205563
10	0xb9a2cd10	-0.0003105183
11	0xbac890ac	-0.0015301905
12	0xbcaed3d8	-0.02134125
13	0xbc85e89c	-0.016346268
14	0x3dd70a97	0.10500067
15	0x3d2e3fbc	0.04254125
16	0xbd38a821	-0.045082215
17	0xbb8c740b	-0.0042862943
18	0x3c71d70b	0.014760743
19	0x3d91163d	0.0708432
20	0x3d73b237	0.05949613
21	0xbcab004a	-0.020874161
22	0x3d0a38f9	0.03374574
23	0xbd1886cd	-0.03723793
24	0xbc637849	-0.013883659
25	0xbb3a7117	-0.0028448754
26	0xbd0bf43a	-0.03416846
27	0x3d23ca8f	0.039988097
28	0x3c8d6758	0.017261192
29	0x3ba074a9	0.0048967195
30	0x3d628f9d	0.05531274
31	0xbcf1f5f0	-0.029536217
32	0xbc3ce5b9	-0.0115293795
33	0xbce9a59d	-0.028521353
34	0xbcca1dc3	-0.024672395
35	0x3c748820	0.014925033
36	0x3c7df2a1	0.015499742
37	0xbd1a9263	-0.03773726
38	0xbc17baa8	-0.009260811
39	0xbca8d1a0	-0.02060777
40	0xbca6cce0	-0.020361364
41	0xbd614ae4	-0.055003062
42	0xbc14b87f	-0.00907719
43	0xbb9c936f	-0.0047783176
44	0xbd08a0a5	-0.033356328
45	0x3c6c73f0	0.0144319385
46	0x3d90eb66	0.07076149
47	0xbd0b2ff3	-0.033981275
48	0xbb8b115e	-0.0042440137
49	0xbcea41ab	-0.028595766
50	0x3ca481d5	0.02008144
51	0xbcb61e1f	-0.02223116
52	0xbd00e1a0	-0.031465173
53	0xbd6faa94	-0.058512285
54	0x3cefab07	0.029256357
55	0x3d10c57b	0.035344582
56	0xbd849ba7	-0.06475001
57	0x3d5cc0c1	0.053894762
58	0x3d18aada	0.03727231
59	0xbce68473	-0.028139329
60	0x3d1ae37b	0.0378146
61	0xbb6c0118	-0.0036011394
62	0xbca65560	-0.020304382
63	0x3d7cd2a6	0.061724328
64	0xbc2f9ebd	-0.0107189985
65	0xbbd26631	-0.0064208736
66	0x3d1b5633	0.037924003
67	0x3cb4182d	0.021984184
68	0x3cb4c793	0.02206782
69	0xb9879472	-0.00025859807
70	0xbd09af91	-0.0336147
71	0x3d2bcbf0	0.041942537
72	0x3d633c65	0.05547752
73	0xbd3ab0eb	-0.04557888
74	0x3a46aaf6	0.0007578576
75	0x3cbe7133	0.023247337
76	0x3cef8824	0.029239722
77	0xbcc5832b	-0.024110397
78	0xbc8b395e	-0.016995128
79	0x3bd5991d	0.0065184967
80	0xbb741d0b	-0.0037248756
81	0x3d870c51	0.06594146
82	0x3ab4eacd	0.0013802886
83	0xbd3f629c	-0.0467249
84	0x3d4b9a80	0.04970789
85	0x3c8d95d1	0.017283352
86	0x3d273936	0.040826045
87	0xbc407aea	-0.011748055
88	0xbc9ba2d7	-0.018998547
89	0x3cbd57d9	0.023113178
90	0xbc7749da	-0.015093291
91	0x3a5f389b	0.000851521
92	0x3cd92582	0.026507143
93	0x3d326264	0.043550864
94	0x3a1ab5d7	0.000590173
95	0xbceb155e	-0.028696712
96	0x3d04aac6	0.032389425
97	0xbcaee976	-0.021351557
98	0xbd1688f8	-0.036751717
99	0xbc819522	-0.015818182
100	0xbc2d61ad	-0.01058237
101	0xbd3e25f2	-0.046422906
102	0x3ccc5274	0.02494166
103	0x3c8415fc	0.016123764
104	0x3c8da75b	0.017291715
105	0x3d04f164	0.03245677
106	0x3b4e5c8a	0.0031488263
107	0x3d88adb4	0.06673756
108	0xbc9b75bb	-0.018977037
109	0xbd4726f4	-0.048621133
110	0xbce47a6c	-0.027890407
111	0x3d874d51	0.06606544
112	0x3b7e7f67	0.0038833262
113	0xbb04bd63	-0.0020254485
114	0xbcebeeea	-0.028800447
115	0xbca398da	-0.019970346
116	0xbc1ff75c	-0.009763565
117	0xbc041618	-0.008061908
118	0x3d297c6f	0.041378435
119	0xbd1ba7f7	-0.03800198
120	0x3d1cfa19	0.03832445
121	0xbd5788d7	-0.052620735
122	0xbba86777	-0.005139287
123	0xbc298720	-0.010347158
124	0xbc868fad	-0.016425932
125	0x3cdf1dab	0.027235826
126	0xbc7eb539	-0.015546137
127	0x3cf1b53d	0.029505366
128	0x3d3cd7ea	0.04610435
129	0xbd20364f	-0.039114293
130	0xbbe8800d	-0.007095343
131	0xbc93c718	-0.018039271
132	0xbcd3fb8f	-0.025876788
133	0x3d09abd3	0.03361113
134	0x3d1d07e8	0.038337618
135	0xbcfb5d5d	-0.030684168
136	0xbb95b22e	-0.00456836
137	0x3a22c3bf	0.0006208978
138	0x3c9cfae1	0.019162597
139	0x3ca8913d	0.020577068
140	0x3d481dd2	0.048856564
141	0x3d6ecd7d	0.058301438
142	0xbb0b47ec	-0.0021252586
143	0xbc4556bb	-0.012044604
144	0x3d1f8750	0.038947403
145	0xbbad5616	-0.0052898033
146	0xbce1fded	-0.027586902
147	0xbd450d9d	-0.048108686
148	0xbcec754b	-0.028864523
149	0x3cb111b5	0.021614889
150	0x3d147253	0.03624184
151	0x3d422a96	0.047403894
152	0x3d13f5a6	0.03612294
153	0x3c39fa05	0.011351113
154	0xbd06df41	-0.032927755
155	0x3d094575	0.033513505
156	0x3b4dbb99	0.0031392334
157	0x3c191793	0.009343999
158	0xbc1baa5c	-0.009501066
159	0x3daa81d3	0.08325543
160	0x3cd97743	0.026546126
161	0xbd03b4db	-0.0321549
162	0x3ce22f9d	0.027610594
163	0x3cd4f630	0.025996298
164	0xbd2d21e8	-0.042268664
165	0x3d694a27	0.056955483
166	0xbd113abf	-0.035456415
167	0x3d1cb94b	0.038262647
168	0x3cf0dbee	0.029401746
169	0xbd4a14bf	-0.04933619
170	0x3d0b8c37	0.034069266
171	0xbb215b80	-0.0024621189
172	0x3d495bda	0.049159862
173	0x3ae13be9	0.0017183992
174	0x3c43bf51	0.011947469
175	0xba2f2e07	-0.0006682579
176	0xbcb87a8b	-0.02251937
177	0x3cdb3773	0.026759839
178	0xbd2d3268	-0.0422844
179	0x3c921aec	0.017835103
180	0x3ce5a6f2	0.028033707
181	0x3c09058a	0.008363137
182	0x3c933149	0.017967837
183	0x3d11b248	0.035570413
184	0x3d0eb155	0.034837086
185	0x3c982e1c	0.018576674
186	0x3cbd4a09	0.023106592
187	0xbd14600a	-0.036224402
188	0x3ca6cd1e	0.02036148
189	0xbcd1f25f	-0.025628267
190	0x3daa9a1a	0.08330174
191	0xbce8fa9b	-0.02843981
192	0xbc97b341	-0.018518092
193	0xbcd09793	-0.025462901
194	0x3c93c3c7	0.01803769
195	0xbccca2f1	-0.02498004
196	0xbd11636e	-0.035495214
197	0xbbcbdf1d	-0.0062216655
198	0xbcb2cc2a	-0.021825869
199	0xbb1b5116	-0.0023699454
200	0x3c01c72d	0.007921022
201	0x3d3c8690	0.046026766
202	0xbd094c31	-0.033519927
203	0xbd062352	-0.032748528
204	0xbcb87dfa	-0.022521008
205	0x3d4abf6a	0.049498953
206	0x3d33f134	0.0439312
207	0xbc853492	-0.016260419
208	0x3d794ec6	0.06086614
209	0x3ae57077	0.0017504831
210	0x3d592ab9	0.05301926
211	0xbd2299f2	-0.039697595
212	0x3d270ad3	0.040781807
213	0xbd0e23a5	-0.034701962
214	0x3cb824b6	0.022478443
215	0x3bfbc049	0.0076828343
216	0x3c860092	0.016357694
217	0x3d47fe3f	0.048826452
218	0x3bed2a1c	0.007237686
219	0x3cc8047f	0.024416206
220	0xbd0af145	-0.0339215
221	0x3c3e789f	0.011625438
222	0x3d6a611b	0.057221513
223	0x3cdf566e	0.027262893
224	0x3d2dcc38	0.042431086
225	0x3d4f52fb	0.050616246
226	0xbc8edec1	-0.017440202
227	0x3d1c20a1	0.038117055
228	0x3c275a9b	0.010214473
229	0x3c66b1b2	0.014080452
230	0xbb8a2357	-0.0042156386
231	0x3bb94262	0.0056536654
232	0xbc4d8f8f	-0.012546434
233	0xbab0843b	-0.0013467142
234	0xbbec0c26	-0.0072035966
235	0x3dc651b4	0.096835524
236	0x3c6546d4	0.0139939375
237	0x3d70ed5a	0.058820106
238	0xbc610cb1	-0.013735936
239	0x3ce761f3	0.028244948
240	0xbce2dc83	-0.027693039
241	0x3d439d33	0.04775734
242	0x3d84536e	0.064612255
243	0x3c00483b	0.007829721
244	0x3cc7e06c	0.024399005
245	0xbd45e77c	-0.048316464
246	0x3caee0c8	0.021347418
247	0x3d01e51c	0.031712636
248	0x3c5af7e6	0.013364768
249	0x3a33966b	0.0006850722
250	0xbc9ca610	-0.019122154
251	0x3d3b4563	0.04572047
252	0x3d365c29	0.044521485
253	0x3d4ad6d7	0.049521293
254	0xbbd51c79	-0.0065036383
255	0x3d101045	0.035171766

f0.0.bias f4 [256]
0	0xbd07c7da	-0.033149578
1	0xbda922ea	-0.082586125
2	0xbd794aec	-0.060862467
3	0xbd4089f4	-0.047006562
4	0x3c95dac4	0.018292792
5	0xbd559c1d	-0.052150834
6	0xbbd598cb	-0.0065184585
7	0xbdaf806f	-0.08569419
8	0x3d3b6426	0.045749806
9	0x3c9cbfdf	0.01913446
10	0xbd50b192	-0.050950594
11	0xbc98ea15	-0.018666307
12	0xbd872d3f	-0.06600427
13	0xbd16559c	-0.036702737
14	0xbb98529a	-0.0046485187
15	0x3d6b5fcf	0.057464417
16	0xbc1d744e	-0.009610249
17	0xbb204699	-0.0024456142
18	0xbd43b6f8	-0.047781914
19	0xbcf0c729	-0.029391842
20	0xbd8fe04e	-0.070252046
21	0xbcbde051	-0.023178251
22	0x3c54e90c	0.012995016
23	0xbd0ee930	-0.034890354
24	0xbccca46b	-0.024980744
25	0x3bf29542	0.007403047
26	0x3ca09a4f	0.01960483
27	0x3be1aa7e	0.0068867793
28	0x3cd4585f	0.025921045
29	0xbc59e760	-0.013299793
30	0xbcccacc0	-0.024984717
31	0xbdc724bf	-0.09723806
32	0xbd8cc1b9	-0.06872887
33	0xbd55c9a4	-0.052194253
34	0xbd77f492	-0.060535975
35	0xbd17b083	-0.03703357
36	0xbd36c629	-0.044622574
37	0xbcbef145	-0.023308406
38	0x3d0d7be8	0.034541994
39	0x3bb379bc	0.0054771584
40	0xbb2df38e	-0.0026542875
41	0xbd83c0e9	-0.06433279
42	0xbdc64bdd	-0.096824385
43	0x3cbbef3a	0.02294122
44	0xbc63c202	-0.013901236
45	0xbd237508	-0.03990653
46	0xbd8187c7	-0.063247256
47	0xbc4ff575	-0.012692799
48	0xbd1fbe1f	-0.038999673
49	0x3d735b51	0.059413258
50	0xbcba168b	-0.022715827
51	0xbcf29c67	-0.029615594
52	0xbd21dd86	-0.0395179
53	0xbd24d5da	-0.040243007
54	0xbd18b74f	-0.03728419
55	0xbda82fe3	-0.08212259
56	0xbd002e5d	-0.031294215
57	0xbd2e2f4e	-0.042525582
58	0x3d8412a0	0.06448865
59	0xbd4badee	-0.04972642
60	0xbd2a103c	-0.04151939
61	0xbd7eea5d	-0.062235225
62	0xbd96d1e4	-0.07364252
63	0x3d8d399b	0.06895753
64	0xbd30b57a	-0.04314182
65	0xbd2334e1	-0.03984535
66	0xbd6c2ccf	-0.05765992
67	0xbd24e306	-0.04025557
68	0xbdda168d	-0.106488325
69	0xbc385db2	-0.011252807
70	0x3d1bbdfa	0.038022973
71	0xbd2d4a54	-0.042307213
72	0xbd8db2aa	-0.06918843
73	0x3a6ff375	0.00091534044
74	0x3d992139	0.0747704
75	0xbdd68a20	-0.10475564
76	0xbd0a7edc	-0.03381239
77	0x3b97df51	0.0046347757
78	0xbd36f486	-0.04466679
79	0xbd8d53e8	-0.069007695
80	0x3a191be7	0.00058406446
81	0x3c02e989	0.007990249
82	0xbd45b2db	-0.048266273
83	0xbcc61437	-0.024179561
84	0x3d0067a9	0.031348858
85	0xbc88732b	-0.016656479
86	0xbc6184b5	-0.01376455
87	0x3c87849a	0.016542722
88	0xbd42ff73	-0.047606897
89	0xbd62080c	-0.055183455
90	0xbc94d968	-0.018170074
91	0xbd2f5e74	-0.042814687
92	0xbd0624f5	-0.03275009
93	0x3b965b55	0.0045885243
94	0xbd0d3a71	-0.034479562
95	0xbdb43395	-0.08798901
96	0x3d9817de	0.07426427
97	0xbc2ad487	-0.010426647
98	0xbd9d60af	-0.076844566
99	0x3d1aadfe	0.037763588
100	0x3d8eb795	0.06968609
101	0x3d2eaa74	0.042643026
102	0xbd8fce8e	-0.07021819
103	0xbc81c5ba	-0.015841354
104	0xbd9924f6	-0.07477753
105	0x3cbb05eb	0.02282997
106	0xbadc5f1c	-0.0016813013
107	0x3d02bd78	0.031918973
108	0x3d906e45	0.07052282
109	0x3c4b22e3	0.012398454
110	0x3d21bc25	0.03948607
111	0xbd69b46e	-0.057056837
112	0xbdabbc25	-0.08385495
113	0x3c9e6910	0.019337207
114	0xbd98987c	-0.07450959
115	0x3d250bb7	0.040294375
116	0x3d193cab	0.037411373
117	0xbdae24e6	-0.085031316
118	0xbd81668a	-0.06318386
119	0xbd331604	-0.043722168
120	0xbb9bafdb	-0.004751188
121	0xbd426172	-0.047456212
122	0xbd10159a	-0.03517685
123	0xbda4b0cf	-0.08041536
124	0x3a6d5349	0.0009053243
125	0xbd81173d	-0.063032605
126	0xbcc09165	-0.02350683
127	0x3ca4dd37	0.020125015
128	0xbb8fc98f	-0.0043880413
129	0x3d3bf90e	0.045891814
130	0xbc87fd16	-0.016600173
131	0xbdbb5e2d	-0.09148822
132	0xbd837d68	-0.06420404
133	0xbd81fac8	-0.06346661
134	0xbd3e2d03	-0.046429645
135	0xbc0ae5c2	-0.00847763
136	0xbc233ac7	-0.009962744
137	0x3cda1b9a	0.02662449
138	0xbb7b5add	-0.003835372
139	0xbcdb2393	-0.026750362
140	0xbd9c16c4	-0.0762153
141	0xbd870c0b	-0.06594094
142	0xbdb0e13f	-0.08636712
143	0x3d6b3212	0.057420798
144	0xbd27e48f	-0.040989455
145	0x3bef7152	0.00730721
146	0xbb94bc7c	-0.0045390707
147	0xbd823209	-0.063572
148	0xbd462e0c	-0.048383757
149	0xbcb52432	-0.022111986
150	0x3cab0e3e	0.020880815
151	0xbca09f7a	-0.019607294
152	0xbd120e13	-0.035657953
153	0xbdc0c033	-0.09411659
154	0x3d1c4286	0.03814938
155	0x3d21ee2c	0.03953378
156	0xbd717cf0	-0.05895704
157	0xbc3bc447	-0.01146037
158	0xbd9268e7	-0.07148915
159	0xbc8fde84	-0.017562158
160	0xbc66d2f6	-0.014088383
161	0xbcf06930	-0.029347032
162	0x3c556e0d	0.013026726
163	0xbdb8c73f	-0.09022378
164	0xbc8d5f28	-0.017257288
165	0xbcfbd40b	-0.030740758
166	0xbc7c1ed7	-0.015388212
167	0x3d891508	0.066934645
168	0x3bbb1193	0.005708882
169	0xbd957a4a	-0.072987154
170	0xbd634f3b	-0.055495482
171	0xbc700fd3	-0.01465221
172	0xbd31f363	-0.043445002
173	0x3cb0b29e	0.021569546
174	0xbd959659	-0.07304067
175	0xbdacb4b7	-0.08432906
176	0xbd2b60ce	-0.041840367
177	0xbcc23501	-0.023706915
178	0xbc85b61e	-0.016322192
179	0xbdc2269e	-0.09480022
180	0x3d3f9c2e	0.046779804
181	0x3d4ec314	0.05047901
182	0xbd8b2350	-0.06793845
183	0xbd2b3435	-0.041797835
184	0xbd81e9cb	-0.063434206
185	0xb9bc0d33	-0.00035867988
186	0xbd150ca2	-0.036389
187	0xbd9a70ee	-0.07541071
188	0xbd42b235	-0.047533233
189	0x3d87a9f2	0.06624211
190	0xbd546ad2	-0.051859684
191	0x3c333255	0.010937293
192	0xbdae5853	-0.0851294
193	0x3d07203c	0.032989725
194	0xbcd328c6	-0.025776278
195	0xbcc4a629	-0.024005013
196	0x3d4749af	0.048654255
197	0x3cb4f030	0.022087187
198	0xbd06d934	-0.032921985
199	0x3cd1c362	0.025605861
200	0xbd84703e	-0.06466721
201	0x3ccabb7b	0.0247476
202	0x3ba8c8b7	0.00515088
203	0xbd1bf57e	-0.038075916
204	0xbd85964c	-0.065228075
205	0xbda7c241	-0.08191348
206	0x3d2c67b4	0.042091087
207	0xbd57881f	-0.05262005
208	0xbd2297c6	-0.039695524
209	0xbc67ce8f	-0.0141483685
210	0xbd9aec72	-0.075646296
211	0x3d121962	0.03566874
212	0x3d8e5691	0.06950105
213	0xbc01f242	-0.007931294
214	0xbd6eab9c	-0.05826913
215	0xbc817490	-0.015802652
216	0xbd00a951	-0.031411473
217	0x3c73765b	0.014859761
218	0xbd3c9927	-0.046044495
219	0x3c609ad7	0.013708792
220	0x3c8f45b0	0.017489284
221	0xbda370b7	-0.07980483
222	0xbd434bf7	-0.047679868
223	0xbd854f3f	-0.065092556
224	0xbd7e74d9	-0.062123153
225	0xbd0d301c	-0.03446971
226	0xbd0780b3	-0.03308172
227	0x3d47a71d	0.048743356
228	0xbc6c578a	-0.014425168
229	0x3d4c23cb	0.049838822
230	0xbb2265ca	-0.002477991
231	0x3c739044	0.014865939
232	0x3cda16aa	0.026622135
233	0xbd5fda4a	-0.054651536
234	0xbb34af04	-0.0027570138
235	0xbd3250b6	-0.043534003
236	0xbd872380	-0.06598568
237	0x3941052e	0.00018407844
238	0x3ba420ed	0.005008808
239	0xbd4c43b1	-0.049869243
240	0xbc9d36e3	-0.019191211
241	0x3d805769	0.06266672
242	0xbcf7c3e2	-0.030244771
243	0xbd32a2ba	-0.04361222
244	0x3c4e952a	0.012608806
245	0xbcfcd35c	-0.030862503
246	0xbd96b99f	-0.07359623
247	0x3c8d0795	0.01721553
248	0xbc85d5d4	-0.016337313
249	0xbd50aee4	-0.05094804
250	0xbd5acc2c	-0.05341737
251	0x3b8ce961	0.004300282
252	0xbc971e4a	-0.01844706
253	0xbd661eda	-0.056181766
254	0xbc2d84e7	-0.010590768
255	0xbd14552a	-0.03621403

f0.2.weight f4 [256, 256]
0	0xbd9db7a6	-0.07701044
1	0x3d26c45f	0.040714618
2	0x3d535cf8	0.051602334
3	0xbca067d2	-0.019580755
4	0xbd167bf2	-0.036739297
5	0x3d0114b7	0.031513896
6	0xbd8272b8	-0.06369537
7	0x3d604559	0.054753635
8	0xbb28658d	-0.0025695295
9	0x3d4f78e2	0.050652392
10	0x3ce26c91	0.02763966
11	0xbd3b41b9	-0.045716975
12	0xbd6a8c31	-0.057262603
13	0xbb9adb3c	-0.004725842
14	0xbd8e0ebc	-0.06936404
15	0xbd766be9	-0.060161505
16	0x3ba61f45	0.0050696456
17	0x3d1cca91	0.03827912
18	0xbd2ee182	-0.04269553
19	0xbd859d22	-0.06524111
20	0xbd167038	-0.036728114
21	0xbd00bbc7	-0.03142908
22	0xbc9ed53c	-0.019388787
23	0xbcf1dda0	-0.029524624
24	0x3c3678ae	0.011137171
25	0xba4eb868	-0.0007885755
26	0x3d067ba8	0.03283277
27	0xbd79a96e	-0.060952596
28	0x3d07f781	0.033195022
29	0xbd150577	-0.036382165
30	0x3d32bf9b	0.04363976
31	0x3bdca426	0.006733435
32	0xbcf2b2a9	-0.029626207
33	0x3d4e3f10	0.05035311
34	0x3d08be8a	0.033384837
35	0x3d5f0858	0.054451317
36	0xbd1ec0ab	-0.03875796
37	0x3c8622ad	0.016373957
38	0x3dae1091	0.084992535
39	0x3d2f5a2d	0.042810608
40	0x3cafa5b1	0.021441313
41	0xbd8f2f63	-0.0699146
42	0xbbbffdb3	-0.0058591007
43	0xbd2132ad	-0.03935497
44	0xbd75b9e1	-0.05999172
45	0xbce2a2d0	-0.027665526
46	0xbd8e18fc	-0.06938359
47	0xbc0d8b03	-0.0086391
48	0xbd13b309	-0.036059413
49	0xbd018967	-0.031625178
50	0xbd88291c	-0.06648466
51	0x3d2d34dc	0.04228674
52	0x3c8711cb	0.016487977
53	0xbd8fbca1	-0.070184
54	0x3d2936ef	0.041312154
55	0x3a9f4150	0.0012150202
56	0x3cbe4c72	0.023229811
57	0xbd2724ec	-0.040806696
58	0x3d3ecaaa	0.046579994
59	0xbc3ad333	-0.011402893
60	0xbcdc95c9	-0.026926892
61	0xbd516313	-0.051119875
62	0x3cf9bf9d	0.030486876
63	0x3d942673	0.07233896
64	0xbd5100d9	-0.0510262
65	0xbc17685d	-0.009241191
66	0x3c1af842	0.009458603
67	0xbcdc6794	-0.026904859
68	0xbd6b070e	-0.057379775
69	0x3d097ef9	0.033568356
70	0xbc8cebf2	-0.017202351
71	0x3ccb245c	0.024797611
72	0x3ce75559	0.02823894
73	0x3cb2adf2	0.02181146
74	0xbb2e1ef5	-0.0026568745
75	0x3da78040	0.081787586
76	0x3d4b500b	0.04963688
77	0xbd09ca5b	-0.033640247
78	0x3cbbf7b5	0.022945264
79	0xbc8f92bf	-0.017526029
80	0x3d40927c	0.0470147
81	0x3c8866f0	0.016650647
82	0xbcc2d8c8	-0.02378501
83	0xbd02023b	-0.03174041
84	0x3cf9ef49	0.030509608
85	0x3d3e4fe8	0.046462923
86	0xbd68c8fc	-0.0568323
87	0x3c4d9401	0.012547494
88	0xbd45f6d9	-0.048331115
89	0x3ceda8a3	0.029011076
90	0xbda33a49	-0.079701014
91	0x3c610954	0.013735134
92	0x3d301bd0	0.042995274
93	0xbca53204	-0.02016545
94	0x3cf434c8	0.029810324
95	0xbd905db4	-0.070491225
96	0xbcc6f429	-0.024286347
97	0xbc37aff1	-0.011211381
98	0xbd2a0436	-0.041507922
99	0x3cd702a1	0.02624637
100	0x3c76705a	0.015041435
101	0xbc650571	-0.013978348
102	0x3cef88e3	0.029240077
103	0x3d7f1762	0.06227816
104	0xbd27e486	-0.04098942
105	0x3c11eabe	0.008906065
106	0xbb430f06	-0.0029763593
107	0xbd14dc5d	-0.036342967
108	0x3d539973	0.051660012
109	0x3d865a1c	0.06560156
110	0x3ccdcb18	0.025121257
111	0xbc075720	-0.008260518
112	0xbd8cdcfe	-0.068780884
113	0x3d782526	0.060582303
114	0x3c952b49	0.018209117
115	0x3cc2d5d9	0.023783611
116	0x3d6372d5	0.055529434
117	0x3d35bb22	0.044367917
118	0x3c75d1cb	0.015003632
119	0x3d8bc1ca	0.06824072
120	0x3d0364e6	0.032078646
121	0x3ccd6e4b	0.025077006
122	0x3bbcd738	0.0057629608
123	0xbd7ca9b8	-0.061685294
124	0x3ced484f	0.028965143
125	0xbd144367	-0.036197092
126	0xbd487b6c	-0.04894583
127	0xbc9bfa6a	-0.019040305
128	0x3cb4d43d	0.02207386
129	0x3d7e010f	0.06201273
130	0x3cb0dac6	0.021588694
131	0xbc67b670	-0.014142618
132	0xbd5faa07	-0.05460551
133	0xbcda4803	-0.026645666
134	0x3ba3f75a	0.005003852
135	0x3c867080	0.016411066
136	0xbcdad61e	-0.026713427
137	0x3d9b7cfe	0.075922
138	0x3d0dd729	0.03462902
139	0xbc101003	-0.00879288
140	0x3d0b1bfa	0.033962227
141	0xbcc97ae3	-0.02459473
142	0xbc822556	-0.015886944
143	0xbdb29f85	-0.08721832
144	0xba0444be	-0.0005045644
145	0xbcd83418	-0.026392028
146	0xbd5c5b59	-0.053798053
147	0xbd0c30d8	-0.03422627
148	0x3da8cee1	0.08242584
149	0xbc921219	-0.017830895
150	0x3c01c0f3	0.007919538
151	0xbd1c2525	-0.03812136
152	0x3ca0073c	0.0195347
153	0x3c54b177	0.012981764
154	0xbd28b6d3	-0.04118998
155	0xbc5eceba	-0.013599092
156	0xbcd09e08	-0.02546598
157	0x3c28b68b	0.010297428
158	0x3d5dcced	0.05415051
159	0xbc221951	-0.009893731
160	0x3d9c0f58	0.07620114
161	0xbd4eab80	-0.050456524
162	0xbd4f6fba	-0.05064366
163	0x3c480ce4	0.012210105
164	0xbc04a206	-0.00809527
165	0x3d5963f8	0.053073853
166	0xbd4b5bc7	-0.049648073
167	0xbca02fff	-0.019554136
168	0x3d9b3d3b	0.07580038
169	0x3d8e9153	0.06961312
170	0xbd43a852	-0.047767945
171	0xbc38947d	-0.011265871
172	0xbd10de7d	-0.03536843
173	0xbd8a2b68	-0.0674656
174	0xbd1df957	-0.038567867
175	0xbd418f06	-0.04725554
176	0xbc88add9	-0.01668446
177	0xbd1aea2d	-0.037820984
178	0xbd9d326b	-0.07675632
179	0x3d3e5bdf	0.046474334
180	0xbc4235a0	-0.0118536055
181	0x3d85d17d	0.06534097
182	0x3ca01a73	0.019543862
183	0xbbd6510d	-0.0065404237
184	0x3cc041c8	0.023468867
185	0xbca5100d	-0.020149255
186	0xbcb4f580	-0.02208972
187	0xbd334d8c	-0.043775126
188	0x3cb09ef9	0.02156018
189	0xbd7aab67	-0.06119862
190	0x3d10b5ff	0.035329815
191	0x3bf798d1	0.007556059
192	0x3d8e767e	0.06956194
193	0x3ce5cf9d	0.0280531
194	0xbd65d53b	-0.056111556
195	0x3cef02a2	0.02917606
196	0x3d707c5e	0.058712356
197	0xbd02c844	-0.03192927
198	0x3d10f1dc	0.035386905
199	0xbc0669f7	-0.008203975
200	0x3baa9434	0.0052056555
201	0xbc4589b3	-0.012056756
202	0xbc07c4e7	-0.008286691
203	0x3c9dc27b	0.019257775
204	0xbd9c4653	-0.07630601
205	0x3b48dd5c	0.0030649519
206	0x3d604b54	0.05475934
207	0x3cc3e464	0.023912616
208	0xbd96e985	-0.07368759
209	0x3ce5d1c7	0.028054131
210	0xbd060b8e	-0.032725863
211	0x3cb10c89	0.021612423
212	0xbcacab83	-0.021077877
213	0xbd9f021b	-0.077640735
214	0xbd8ff3fa	-0.07028957
215	0xbc1f4e63	-0.009723279
216	0x3d1a76f1	0.037711088
217	0xbd0d8f22	-0.03456033
218	0xbca681f3	-0.020325636
219	0x3d363665	0.04448547
220	0x3d8d6486	0.06903939
221	0xbd3266d5	-0.0435551
222	0x3c58129f	0.013188033
223	0x3d1adf68	0.037810713
224	0xbced6c39	-0.028982269
225	0xbd1398fc	-0.03603457
226	0x3c218041	0.009857238
227	0x3c3fc4db	0.011704649
228	0xbd7a0acb	-0.06104545
229	0x3d33b5b7	0.04387447
230	0xbde63c9b	-0.11242028
231	0x3d77680c	0.06040196
232	0x3ce392a2	0.02777988
233	0xbd0485a7	-0.032354023
234	0x3cce1edf	0.025161205
235	0xbcb0bae1	-0.021573486
236	0x3d581508	0.052754432
237	0xbcd8520a	-0.026406307
238	0xbd859d31	-0.065241225
239	0x3d3a1973	0.045434427
240	0xbcade8b2	-0.021229122
241	0xbd6bd62c	-0.057577297
242	0xbcf721a8	-0.030167416
243	0xbc97cfd3	-0.018531715
244	0x3c9ef705	0.019404897
245	0xbc14df58	-0.009086452
246	0xbd486da8	-0.0489327
247	0xbdaaa5fc	-0.0833244
248	0x3d4b9035	0.049698073
249	0x3d2fed31	0.042950813
250	0xbd889a61	-0.066700704
251	0x3d196d83	0.037457954
252	0x3d4ec1c6	0.050477766
253	0xbcc7fb6a	-0.024411876
254	0x3c82ea71	0.015980931
255	0xbda802fa	-0.08203693

f0.2.bias f4 [256]
0	0x3d80e410	0.062934995
1	0xbd19d80c	-0.037559554
2	0xbd0923f0	-0.03348154
3	0x3cbee2ac	0.023301445
4	0xbd323dd4	-0.043515995
5	0x3d81c3db	0.063361846
6	0x3d58c7be	0.052924864
7	0xbd8c7542	-0.06858303
8	0xbccb5265	-0.024819562
9	0x3da21428	0.07914001
10	0x3d328df3	0.043592405
11	0xbda4e792	-0.08051981
12	0xbb16e819	-0.0023026525
13	0xbd89e3e3	-0.06732919
14	0xbd7354d3	-0.059407067
15	0x3d1fac04	0.038982406
16	0x3d5935e0	0.053029895
17	0x3d16e32d	0.036837745
18	0xbdb01d8e	-0.08599387
19	0xbc7d11a0	-0.015446097
20	0x3c815065	0.015785405
21	0xbd5f8b38	-0.05457613
22	0xbd5796d9	-0.052634094
23	0xbd0f2fc1	-0.03495765
24	0x3b68eb71	0.0035540725
25	0x3d8dbb04	0.06920436
26	0x3d41ce29	0.04731575
27	0x3b7b5563	0.0038350455
28	0xbdadeee5	-0.08492831
29	0x3c1e469d	0.00966039
30	0xbd5981ea	-0.05310241
31	0xbb60fcf4	-0.003433046
32	0xbbee5462	-0.007273243
33	0xbd646a9a	-0.055765726
34	0xbd96b55a	-0.07358809
35	0x3ba4c790	0.0050286725
36	0xbd0bae82	-0.03410197
37	0xbd97b0fb	-0.07406803
38	0xbcd4db36	-0.025983434
39	0xbccdda62	-0.025128547
40	0x3c96865b	0.018374613
41	0x3d0cc17e	0.034364216
42	0x3d18f51f	0.03734314
43	0xbcf72ea5	-0.030173609
44	0x3cd289f5	0.025700549
45	0x3b584b2f	0.0033003797
46	0xbd21a716	-0.039465986
47	0xbd956623	-0.07294872
48	0xbd4364ae	-0.047703438
49	0xbd9d729f	-0.07687878
50	0xbd54abbc	-0.05192159
51	0xbd2418dc	-0.04006277
52	0x3d2e6bfe	0.042583458
53	0x3bb691ea	0.0055715935
54	0x3cf46187	0.02983166
55	0x3d0ce194	0.034394816
56	0x3cde5f74	0.027145125
57	0x3c156165	0.009117459
58	0xba8411f2	-0.0010076149
59	0x3bdbfa44	0.0067131836
60	0xbd98ce61	-0.07461239
61	0xbd8d84ba	-0.06910081
62	0xbc6209b0	-0.013796255
63	0xbd8b9cd1	-0.0681702
64	0x3d7e697c	0.062112316
65	0xbd4c08c7	-0.04981306
66	0x3daa125f	0.08304285
67	0x3c5e7531	0.013577745
68	0xbb578b75	-0.003288952
69	0xbd84279f	-0.064528696
70	0x3bbc60b4	0.0057488326
71	0x3cdf507c	0.027260058
72	0xbcc6db43	-0.024274474
73	0x3ceda78f	0.029010562
74	0x3d44a4b6	0.048008643
75	0xbbed8584	-0.0072485823
76	0x3d2378df	0.039910194
77	0xbcef1d67	-0.029188825
78	0xbd46c0d0	-0.048523724
79	0x3bcdd513	0.006281504
80	0xbca3473a	-0.019931424
81	0x3a837bc0	0.0010031387
82	0xbcf7b57b	-0.030237904
83	0xbcde474a	-0.027133603
84	0xbd2fdd13	-0.042935442
85	0x3d149d9a	0.036283113
86	0x3ccfb648	0.025355473
87	0xbd84912d	-0.064730026
88	0x3c51b6b8	0.012799911
89	0xbd92752f	-0.07151257
90	0x3cc0c94c	0.023533486
91	0xbd697760	-0.05699861
92	0x3d4fdaa0	0.050745606
93	0xbda6fedb	-0.081540786
94	0xbd6dbc6b	-0.058041018
95	0xbc6b98a2	-0.014379652
96	0xbd56ca39	-0.05243895
97	0xbcede89e	-0.029041585
98	0xbd6b7e7f	-0.057493683
99	0xbd1a36cf	-0.037649926
100	0x3cb6a0eb	0.022293529
101	0xbc1d6903	-0.009607556
102	0xbce5e0b1	-0.028061243
103	0x3ce68404	0.028139122
104	0xbd9a00ec	-0.07519707
105	0x3cbf121a	0.023324061
106	0x3cc3a764	0.023883529
107	0xbd5982b3	-0.05310316
108	0x3c4de8ef	0.012567743
109	0xbd13bcaf	-0.036068615
110	0xbd9ac0d0	-0.07556307
111	0x3d28cffd	0.041213978
112	0xbd860320	-0.06543565
113	0xbd8a2ce2	-0.06746842
114	0x3cc7d49d	0.024393374
115	0xbd7f7ba9	-0.06237379
116	0x3c5ea8ca	0.013590047
117	0x3d13321d	0.035936464
118	0xbc568701	-0.013093711
119	0xbd8d0915	-0.06886498
120	0xbd8fcde7	-0.07021695
121	0xbc139e5d	-0.009009925
122	0x3d36fa1a	0.04467211
123	0xbd72bf8b	-0.0592647
124	0xbd29f1ca	-0.041490354
125	0xbcf1440b	-0.02945139
126	0xbd1b85c1	-0.037969355
127	0x3ca8d5b2	0.02060971
128	0xbd378af8	-0.044810265
129	0xbd2e047a	-0.042484738
130	0x3cf54155	0.02993838
131	0x3c48c40b	0.012253772
132	0xbca6f81c	-0.02038198
133	0xbbd2ff01	-0.0064390902
134	0xbceab437	-0.028650386
135	0xbb6c1bb4	-0.0036027255
136	0xbc0e8aea	-0.008700112
137	0x3bef73e2	0.0073075155
138	0xbd9d6840	-0.076859
139	0xbd8d1c37	-0.06890147
140	0x3d4f6539	0.050633643
141	0x3bcc2391	0.006229826
142	0xbd26fff3	-0.040771436
143	0xbd821351	-0.063513406
144	0xbcae9ab9	-0.021314012
145	0xbd7c5457	-0.06160387
146	0xbd564839	-0.05231497
147	0xbcd48d0c	-0.025946163
148	0xbd55e3de	-0.052219264
149	0xbd725418	-0.05916223
150	0xbd423d59	-0.047421787
151	0x3cc6f2f4	0.024285771
152	0x3d701640	0.05861497
153	0xbd883d8a	-0.06652363
154	0x3d1ac85f	0.037788745
155	0xbd9b62c7	-0.075872
156	0x3c85a285	0.016312847
157	0xbce9a665	-0.028521726
158	0x3c65e364	0.014031265
159	0x3d36fc0e	0.04467397
160	0x3d80efb0	0.06295717
161	0x3c3562ed	0.011070949
162	0xbd5fa536	-0.054600917
163	0x3a813aa6	0.0009859398
164	0xbcba8100	-0.02276659
165	0xbd8c5dce	-0.06853829
166	0xbc4cce2e	-0.012500329
167	0x3c4296c2	0.011876764
168	0xbdb89d88	-0.09014422
169	0x3d0f2404	0.034946457
170	0x3c9bc5bd	0.019015187
171	0x3d2bba8e	0.04192596
172	0xbcebe1da	-0.028794218
173	0xbcade3b7	-0.021226747
174	0x3d53d3fc	0.051715836
175	0xbd4828fa	-0.048867203
176	0x3a41d64b	0.0007394298
177	0xbd5d12f4	-0.053973153
178	0xbcae069e	-0.02124339
179	0x3c941530	0.01807651
180	0x3ccc3428	0.024927214
181	0xbd521b23	-0.05129541
182	0xbb08879d	-0.0020832785
183	0x3ca54a18	0.020176932
184	0xbd124803	-0.035713207
185	0xbd3e761b	-0.046499353
186	0xbca22ae6	-0.019795846
187	0xbc253b66	-0.0100849625
188	0xbd4f9628	-0.05068031
189	0x3d111814	0.035423353
190	0xbcc4b80c	-0.024013542
191	0xbcb26141	-0.02177489
192	0xbb123916	-0.0022311858
193	0xbc5ab765	-0.013349389
194	0xbbe42ec3	-0.0069635822
195	0xbce245ca	-0.027621169
196	0xbd9472bf	-0.072484486
197	0xbd8220ab	-0.06353887
198	0xbd0f4281	-0.034975532
199	0xbdd0c867	-0.10194474
200	0xbbb18ef8	-0.0054186545
201	0x3b990c31	0.004670643
202	0x3b6d2a20	0.0036188439
203	0x3d34eec7	0.04417303
204	0xbd0a17ea	-0.033714212
205	0x3cab775e	0.020930942
206	0xbcb7c495	-0.022432605
207	0x3c69a536	0.014260581
208	0xbd5f24d7	-0.054478493
209	0xbc2db1b2	-0.010601448
210	0x3ced25ed	0.028948748
211	0xbd91b0cb	-0.07113799
212	0x3c6d6247	0.014488763
213	0xbb47b7bb	-0.0030474502
214	0x3cf849f3	0.0303087
215	0xbb85e7b9	-0.0040864614
216	0xbd4b274f	-0.049598034
217	0x3d25eae6	0.04050722
218	0x3cedbf55	0.029021898
219	0x3c966aea	0.018361527
220	0x3d178031	0.036987487
221	0xbd6e6487	-0.05820134
222	0x3be07152	0.0068494463
223	0x3ceb8e7c	0.028754465
224	0x3c9696ce	0.018382456
225	0x3d7424f0	0.05960554
226	0x3d09c9b4	0.033639625
227	0xbbb2a86f	-0.0054522078
228	0x3db50c11	0.08840192
229	0xbce3154a	-0.027720112
230	0x3cc461ab	0.023972353
231	0x3d72596c	0.05916731
232	0xbd80240a	-0.06256874
233	0xbd9abf57	-0.075560264
234	0xbd942394	-0.072333485
235	0xbd779d0f	-0.060452517
236	0xbd8e58ed	-0.06950555
237	0xbb626f93	-0.0034551367
238	0xbc7d09c7	-0.015444226
239	0x3d369c79	0.044582818
240	0xbd92031c	-0.07129499
241	0x3c6e5c4f	0.014548375
242	0xbd76a82e	-0.060218982
243	0xbd00acd0	-0.031414807
244	0xbd7de481	-0.061985496
245	0xbb952f66	-0.0045527695
246	0xbd68154e	-0.056660943
247	0xbd1787dc	-0.0369948
248	0xbc620904	-0.013796095
249	0xbd979107	-0.07400709
250	0xbd05825f	-0.032595035
251	0xbbc63f7c	-0.0060500484
252	0x3d2738ee	0.040825777
253	0x3c589037	0.013217977
254	0x3c18a06e	0.009315593
255	0xbd8cf070	-0.06881797

f0.4.weight f4 [130, 256]
0	0x3d50e515	0.05099972
1	0xbd414620	-0.047186017
2	0xba4a1946	-0.00077094545
3	0x3d0fb9d1	0.035089318
4	0x3e3b0651	0.18264128
5	0x3d6a63cd	0.057224084
6	0x3d7d7bc2	0.061885603
7	0xbc312800	-0.010812759
8	0x3c7ec2b1	0.015549348
9	0x3da0443f	0.07825517
10	0xbd48fb13	-0.049067568
11	0xbd3804c9	-0.04492644
12	0xbc971a76	-0.018445235
13	0xbc1fb418	-0.009747528
14	0x3cbcfd90	0.023070127
15	0x3d537593	0.0516258
16	0x3c18b4f1	0.009320484
17	0xbd6a2237	-0.057161536
18	0xbb65a4f2	-0.0035040942
19	0xbd999ae1	-0.07500244
20	0x3be0ce1d	0.006860508
21	0xbce277b5	-0.027644971
22	0xbc780e5d	-0.015140143
23	0xbd32c2c2	-0.043642767
24	0x3c2ae138	0.010429673
25	0xbd2143c4	-0.039371267
26	0xbd1e3e46	-0.038633607
27	0x3c9f3386	0.019433748
28	0x3d7f1ed2	0.062285252
29	0xbc6b145b	-0.014348115
30	0xbd534b0c	-0.051585242
31	0x3d95899e	0.07301639
32	0xbd664c40	-0.05622506
33	0xbd132cc4	-0.035931364
34	0x3d829296	0.06375615
35	0xbbd6c275	-0.006553943
36	0xbda66f7a	-0.08126731
37	0x3d95d4b3	0.0731596
38	0xbcc78250	-0.02435413
39	0xbd556bb9	-0.052104685
40	0xbd90b258	-0.07065266
41	0xbd893eaf	-0.06701409
42	0xbc5aa488	-0.013344891
43	0xbd02811a	-0.031861402
44	0xbd2840c3	-0.041077387
45	0x3c4e3191	0.01258506
46	0x3dce246b	0.1006554
47	0xbc5bb607	-0.013410098
48	0xbd9fe3ca	-0.07807119
49	0x3d81ec00	0.063438416
50	0xbd78d6fc	-0.0607519
51	0xbd93b30d	-0.072118856
52	0xbda63e3a	-0.081173375
53	0xbd3eeb7c	-0.046611294
54	0x3b91c06a	0.0044479864
55	0xbceabdbd	-0.028654927
56	0xbcf18b9b	-0.029485514
57	0xbd253e88	-0.040342838
58	0x3d8ce108	0.06878859
59	0x3cad2363	0.021135038
60	0x3bc7b595	0.0060946443
61	0x3cb574b4	0.022150375
62	0x3c106029	0.008811989
63	0x3cf2d858	0.029644176
64	0xbd1e170a	-0.03859619
65	0xbd70730a	-0.05870346
66	0xbce8af46	-0.02840389
67	0x3e34eef6	0.17669281
68	0xbc71f6bb	-0.014768298
69	0x3d3147da	0.043281414
70	0x3dd39362	0.103308454
71	0xbd664206	-0.05621531
72	0xbc2a545d	-0.01039609
73	0x3d9b0530	0.07569349
74	0xbd1e9394	-0.03871496
75	0xbd874762	-0.06605412
76	0xbb7cccb7	-0.0038574168
77	0x3cdadc2c	0.026716314
78	0xbc887490	-0.016657144
79	0xbbc7fc7b	-0.006103096
80	0x3c90dc05	0.017683038
81	0x3c940091	0.018066676
82	0xbc8dd7f8	-0.017314896
83	0xbca34811	-0.019931825
84	0xbd1f6e78	-0.03892371
85	0xbbc0a547	-0.0058790776
86	0x3d6ef0b2	0.058335014
87	0xbd543218	-0.051805586
88	0xbd1c1e66	-0.038114928
89	0xbbee27e0	-0.007267937
90	0x3d803eee	0.06262003
91	0xbd00f514	-0.031483725
92	0x3de69f42	0.11260845
93	0x3d66f3bd	0.05638479
94	0xbc9c2d42	-0.01906455
95	0x3d420ca0	0.04737532
96	0xbd639334	-0.055560306
97	0x3d5ae121	0.053437356
98	0xbd51c135	-0.051209647
99	0x3ccc3e83	0.024932152
100	0xbc96cf8d	-0.018409515
101	0x3b9b4a3f	0.0047390754
102	0xbc5e5553	-0.013570148
103	0x3cce888a	0.025211591
104	0x3e1af5e0	0.15132856
105	0xbbaa6b95	-0.005200813
106	0x3dac5b37	0.08415835
107	0x3d01e806	0.031715415
108	0xb8eb6c00	-0.0001122579
109	0x3aeb8382	0.001796827
110	0xbd10e0f2	-0.035370775
111	0xbd2faf5d	-0.04289185
112	0x3d6e2d89	0.058148894
113	0x3c6d056f	0.0144666275
114	0xbcdeb504	-0.027185924
115	0x3c1906e8	0.0093400255
116	0x3c75671a	0.014978195
117	0xbd6e3690	-0.058157504
118	0x3cc1ad98	0.023642346
119	0xbcc64d0b	-0.024206659
120	0x3db0d668	0.08634645
121	0xbd6c8eac	-0.05775325
122	0x3cf70119	0.03015189
123	0x3d23f278	0.040026158
124	0xbd54fed7	-0.052000847
125	0x3d98a37b	0.074530564
126	0x3da596db	0.08085414
127	0xbc1d3f76	-0.00959765
128	0xbcb705bc	-0.022341602
129	0xbcc1d7b1	-0.02366242
130	0x3cae038a	0.021241922
131	0x3c2ea8f4	0.010660399
132	0xbc13e271	-0.009026156
133	0x3c42b7bf	0.011884629
134	0x3cdc9c9c	0.026930146
135	0xbcd90933	-0.026493644
136	0x3d5e7cb7	0.054318156
137	0x3c426d23	0.0118668405
138	0xbc55224f	-0.013008668
139	0x3dd27924	0.10277012
140	0x3d4e3cbf	0.0503509
141	0x3c1daf5f	0.009624331
142	0x3c8a2611	0.016863855
143	0x3c94b2d4	0.018151678
144	0x3d2a23a4	0.041537896
145	0xbbef1a35	-0.0072968253
146	0xbd59bada	-0.05315671
147	0xbd67135f	-0.056414958
148	0xbcb3f1e1	-0.021965923
149	0xbcfdcf7a	-0.030982722
150	0x3d82121c	0.0635111
151	0x3d531140	0.051530123
152	0x3df61049	0.12014825
153	0xbd36ff64	-0.044677153
154	0x3b309b97	0.0026948208
155	0x3d634bdf	0.05549228
156	0x3a205812	0.0006116639
157	0x3bc7428b	0.0060809306
158	0xbbc8ce3b	-0.0061281
159	0x3df5fc89	0.12011058
160	0xbd672916	-0.056435667
161	0xbcfebeaa	-0.031096775
162	0x3b2f646a	0.0026762732
163	0x3d18fda4	0.037351266
164	0xbcb482de	-0.022035059
165	0xbc8c490d	-0.017124677
166	0xbce7a77d	-0.028278107
167	0xbd06dbbe	-0.032924406
168	0xbcd473ac	-0.025934063
169	0x3d0a7544	0.03380324
170	0x3e4747df	0.1946101
171	0xbd78ffbc	-0.060790762
172	0xbd6b8b37	-0.057505812
173	0x3c57adf4	0.013164032
174	0xbcef4c6f	-0.029211251
175	0xba3b00ff	-0.00071336323
176	0x3d6ba20a	0.05752758
177	0x3d1b643d	0.03793739
178	0xbd1fe4fb	-0.039036732
179	0xbc661ddd	-0.014045206
180	0xbcd7d3a7	-0.02634604
181	0xbcbf7043	-0.02336896
182	0xbd854246	-0.06506781
183	0x3c871ea8	0.01649411
184	0xba7871bb	-0.00094773964
185	0x3d4f7175	0.05064531
186	0x3cd340e5	0.02578778
187	0xbcb23893	-0.021755492
188	0x3c1027bd	0.008798537
189	0x3cb201ff	0.021729467
190	0x3d197a96	0.037470423
191	0xbcce2c24	-0.025167532
192	0x3d23276d	0.03983252
193	0x3d11c0b7	0.035584178
194	0x3d11684f	0.035499867
195	0x3d25a0f9	0.04043672
196	0xbc4cd47e	-0.012501834
197	0xbc6c4c50	-0.014422491
198	0x3c097618	0.008389972
199	0x3ce1c038	0.027557477
200	0x3d286cd1	0.0411194
201	0xbcf3f27f	-0.029778717
202	0x3d305535	0.04305001
203	0x3c8e6a77	0.01738475
204	0x3d897a47	0.06712776
205	0x3cb9ecb3	0.022695875
206	0xbd282fc1	-0.041061167
207	0x3d37e012	0.044891424
208	0xbd1a9d8e	-0.037747912
209	0x3c707d3a	0.014678294
210	0xbd5e1313	-0.05421741
211	0xbcd39180	-0.025826216
212	0xbd1c2a9e	-0.03812658
213	0x3bb0b4ef	0.0053926627
214	0xbc8897ce	-0.016673949
215	0x3e50aa01	0.20377351
216	0x3d19c5b5	0.037542064
217	0xbd9508c8	-0.072770655
218	0x3b76870b	0.0037617113
219	0xbcbef956	-0.023312252
220	0x3d5d3a59	0.054010723
221	0x3ca8a08c	0.020584367
222	0x3e1cfd7d	0.15331073
223	0x3d3ccb7b	0.04609249
224	0xbc8562e8	-0.016282514
225	0xbd456488	-0.048191577
226	0xbd5ccf74	-0.05390878
227	0xbd4e4b89	-0.050365005
228	0x3ccb31b2	0.02480397
229	0x39847056	0.000252607
230	0x3b892181	0.004184902
231	0xbd66aa76	-0.056314908
232	0x3db57f43	0.08862164
233	0xbb6ecd60	-0.003643833
234	0x3cfc9acf	0.030835537
235	0xbdda5af3	-0.106618784
236	0xbd5fb543	-0.054616224
237	0x3b28b1c4	0.0025740722
238	0xbd00d7ce	-0.031455807
239	0xbd59b5ca	-0.053151883
240	0x3d104924	0.035226002
241	0x3d3ccf2d	0.046096016
242	0x3c7b3e61	0.0153346965
243	0x3ca098d7	0.01960413
244	0xbd5281c4	-0.051393285
245	0xbccc6c72	-0.024954055
246	0x3d72e1bc	0.05929731
247	0x3cbe53f7	0.023233397
248	0xba8ee5b8	-0.0010902202
249	0xbd138e8e	-0.036024623
250	0x3d656418	0.05600366
251	0xbd4bf3e6	-0.049793147
252	0x3d38a350	0.045077622
253	0xbc686077	-0.014183155
254	0xbcef12ff	-0.029183863
255	0xbcdbbd49	-0.026823657

f0.4.bias f4 [130]
0	0x3ca31d5d	0.019911462
1	0xbd6d4112	-0.057923384
2	0xbd5922f8	-0.053011864
3	0x3c92a82b	0.017902454
4	0xbd6549bc	-0.05597852
5	0x3d322a01	0.04349709
6	0x3a837f9b	0.0010032536
7	0xbd3bd448	-0.045856744
8	0x3c7091a8	0.014683165
9	0x3d7e2f8e	0.06205707
10	0x3c4b25a1	0.012399108
11	0xbdacb150	-0.08432257
12	0xbcbc7bb1	-0.0230082
13	0xbc20fb5b	-0.009825553
14	0x3ba609d8	0.0050670914
15	0xbd005f42	-0.031340845
16	0xbd243cbd	-0.040096987
17	0xbb493013	-0.003069882
18	0xbc4526fa	-0.0120332185
19	0xbda8fc13	-0.08251204
20	0xb9950000	-0.00028419495
21	0xbd1288ea	-0.035775103
22	0xbd909014	-0.07058731
23	0xbcf6938c	-0.030099653
24	0x3c9b8a58	0.018986866
25	0x3d7eba92	0.062189646
26	0xbd7f1039	-0.06227133
27	0x3c10f660	0.008847803
28	0x3c14c218	0.009079479
29	0xbcead2d6	-0.028664988
30	0xbc0c378c	-0.008558165
31	0x3cd20a1c	0.025639586
32	0x3d3819f8	0.04494664
33	0xbcc28cc0	-0.023748755
34	0xbdab31af	-0.08359086
35	0x3c8c75a8	0.017145947
36	0x3d667af2	0.056269594
37	0xbccfdfd9	-0.025375294
38	0xbce29874	-0.027660586
39	0xbd09c1e6	-0.03363218
40	0xbd249bd2	-0.040187664
41	0xbd0984d2	-0.033573933
42	0xbd541267	-0.051775362
43	0xbd7dbc91	-0.06194741
44	0x3d0c14fa	0.034199692
45	0x3ca0bffe	0.019622799
46	0x3ba77ae1	0.005111084
47	0x3d2a70e2	0.04161156
48	0xbda0e116	-0.07855432
49	0x3bab6030	0.0052299723
50	0xbdc235cf	-0.094829194
51	0xbd4824bc	-0.048863158
52	0xbd392102	-0.045197494
53	0xbda45349	-0.08023698
54	0xbd876010	-0.06610119
55	0xbc6b1ce1	-0.014350147
56	0xbc9650f3	-0.018349146
57	0x3c61d210	0.013782993
58	0xb893899c	-7.035138e-05
59	0xbd65ceb4	-0.05610533
60	0xbcf0b1c9	-0.02938165
61	0x3cd94954	0.026524223
62	0xbd45731c	-0.04820548
63	0xbd364cf1	-0.04450697
64	0xbd2a3e4f	-0.04156333
65	0xbc9a6737	-0.018848045
66	0x3bec8cf2	0.0072189504
67	0x3ced23d4	0.028947748
68	0xbbe1e3d0	-0.0068936124
69	0x3d16653b	0.036717635
70	0xbd365769	-0.044516955
71	0xbd243c09	-0.040096316
72	0x3d20d5dc	0.039266452
73	0xbce37a2f	-0.027768223
74	0xbd6ae696	-0.05734881
75	0x3c9b0bfd	0.018926615
76	0xbd4f51ae	-0.050615005
77	0x3c0b6fa8	0.008510508
78	0xbd28dbac	-0.04122512
79	0xbd72c9d4	-0.05927451
80	0xbcc50a49	-0.024052756
81	0xbd897ffd	-0.06713865
82	0xbd90a725	-0.0706313
83	0x3c9cbb7c	0.019132368
84	0x3c9cbe9c	0.019133858
85	0x3cf5bd40	0.029997468
86	0xbd817ed0	-0.06323016
87	0x3d7d200a	0.061798133
88	0x3cc12f3a	0.02358209
89	0xbcfe2b67	-0.031026555
90	0xbd3a0e9f	-0.0454241
91	0xbcdec9c6	-0.027195822
92	0xbd32a767	-0.04361668
93	0x3d075175	0.033036668
94	0xbcb059a0	-0.021527112
95	0xbcc8345f	-0.024439035
96	0x3c45ae9b	0.012065555
97	0xbbd8dda2	-0.0066182176
98	0xbd850654	-0.064953476
99	0xbd8fab83	-0.07015135
100	0x3d3ac068	0.04559365
101	0xbd39312b	-0.045212906
102	0x3bb0e577	0.005398448
103	0x3cf9687c	0.03044533
104	0x3d05c43b	0.032657843
105	0x3cf4a8c0	0.029865623
106	0x3d3b3bd6	0.04571136
107	0x3b9c119c	0.0047628414
108	0x3d1ae11d	0.03781234
109	0x3bb6f758	0.005583685
110	0xbda84c54	-0.082176834
111	0x3ce8ab1d	0.028401906
112	0x3d3d0190	0.04614407
113	0x3d400cca	0.046887197
114	0xbd642b46	-0.05570533
115	0x3cd361aa	0.025803406
116	0xbd36be3a	-0.044615008
117	0xbd958d2b	-0.07302316
118	0x3ce9c8c8	0.028538123
119	0x3c3dc4a3	0.011582526
120	0xbd544224	-0.05182089
121	0xbcb0f55a	-0.021601368
122	0xbc6a525e	-0.014301864
123	0xbcd477f2	-0.0259361
124	0xbccec2f0	-0.025239438
125	0x3cfd9994	0.03095702
126	0xbcd362c8	-0.025803939
127	0x3d116990	0.035501063
128	0xbd2e3304	-0.04252912
129	0x3cf4cf5c	0.029884033
