model/model.pth (torch, 799047 bytes, 6 tensors)

f0.0.weight f4 [256, 390]
00000000: 7efd 353d 693c 223c 64a7 f7bd be94 c23d
00000010: 2501 353d 704c 9dbc 907c cc3b 6bfa 013d
00000020: b489 d43b 9b6f 0b3d 5725 05a4 04ad 29a5
00000030: c32f 7d3d 500b 46a5 81de e124 7bb1 ce3c
00000040: 2968 4b23 a16b a325 b6be 973c 6e49 8d3d
00000050: b84a 4c3d 5e59 c83c aab3 a13c e4dd 70a4
00000060: b36e 133c a523 78a4 dd3f 0224 faf2 4f3d
00000070: 1013 f423 721d 2bbe 4c7f a13d 3f56 e524
00000080: 1ca4 96a3 500c fe3c d69e 8a24 6c6d 3625
00000090: 5869 363d 7f2d 833c 82c2 dfbc 947a 283c
000000a0: 3c6c 51a4 7234 1124 88d0 c4bb 3e8b 82a4
000000b0: 258d a6a3 4969 c73b 5a00 6da4 e903 0ca5
000000c0: a486 5424 828c fda4 340c 2ba4 ca57 273d
000000d0: ddb5 6dbc fe7f 90bd 32cb 533d 8b32 8ba5
000000e0: d7a0 cba4 ee05 833c 1f23 92bc d96d 3ea4
000000f0: 7259 40bb 66e9 f83b 873e 6924 448c 213d
00000100: e02f dbbc b1e6 30be e2f9 a23c e73a aca4
00000110: 2939 ad3c 606e db21 54b6 6a24 9ba4 12a4
00000120: 2dea 0c3b 6ab4 1423 cad9 4f22 5a73 42a5
00000130: 5217 dea4 fd97 fca5 5ffb 023d 1cd6 85bc
00000140: 73e5 383c d1ad a63d 4618 6e23 8868 9724
00000150: 1960 ca3b 9d2f 43a3 20a4 9ca2 fed7 f73c
00000160: 106b 32a4 8076 6324 e756 823d d880 853c
00000170: 6f73 82bd 4189 b03c 8f36 2da4 681a ae24
00000180: 995f d63c 4ac9 96a3 ecce a125 520c 893d
00000190: af4a e13c e0b5 2b24 dfd2 893c 0447 1ebd
000001a0: 02a2 5aa4 1535 583d 726f b822 690f 8c24
000001b0: 6c1b c63d bb9f f222 24f8 e9a4 7924 293c
000001c0: bcc8 89a1 9f23 e7bb ffa0 243d b8e8 eb3c
000001d0: 06e5 28a3 45ce 063c 02db 7aa5 6cc7 0822
000001e0: ffe1 0cbc 77e9 913c 529a 6d3c 9622 a33c
000001f0: 5a5d a323 00e4 a31e 6a2a 5b25 9329 a124
00000200: 0d40 ea24 5afc 3a3d efb5 bfbc cb69 8abb
00000210: 97f1 5f3d 520d cca3 ed8f 87a5 fb10 063d
00000220: 3f90 0ba4 eb6d a7a5 d9cd e53c 2288 2ebc
00000230: b3d8 8e3d 1953 1b3d 3a89 f724 05d0 a5a4
00000240: 0390 ba3c 6462 d9a2 10ac 7a25 049c e9a3
00000250: da96 13a5 1f8d 8924 2020 833a ae32 faa4
00000260: 84a9 cebc 7c43 b123 1190 33a5 85ed 89a2
00000270: eb14 e73c f31a 0a3d 4c32 80bc 4af9 ad3d
00000280: f498 6a3c 6873 82bd 48ab 2c3d 83d1 543d
00000290: 4480 dfbc be2f fa3c 84f7 da25 dbb4 8825
000002a0: 6deb 8c3d e8e6 ce3c a524 8aa5 8501 b13b
000002b0: 0a3a 6324 75a1 bca4 990c 883c eb2a a1a5
000002c0: 2235 ce24 1802 0e3d 4f33 8a24 aed9 7624
000002d0: 8fdb 623c 1151 c73c ee55 eda4 1e45 503d
000002e0: f416 98a4 ef88 2ea4 782b b43d 5556 b122
000002f0: 701d 2bbe eaa5 8e3c bce6 0aa5 fe45 93a3
00000300: 51b0 013d 7a42 203c 0a4e 2fbe 1826 253c
00000310: a9d6 b13d 8fec 1abd 84b4 c1bb 3d9f 2e3d
00000320: 6155 223d c80a 703c 0a2f cda3 6651 bda4
00000330: c8a1 6a25 b080 dc23 6b51 35a5 b7b2 353d
00000340: 78b7 71a5 2124 18a4 cb93 653d 10f6 5e25
00000350: 16ca 5b24 e0a2 393d 607d 4d3d e594 4fbd
00000360: 8c9d 753a 0415 81bd cbdb 29be d700 253d
00000370: d516 66bb f68c 5ba2 d1bf c33c 9428 c3a1
00000380: 4a68 0e24 b49a 0921 aeef 8422 5e76 0e24
00000390: 1bb7 00bb b8be 00bd 1061 7625 d275 2da4
000003a0: cc04 ffa2 aa21 b8a4 4b90 333c d0fa b43c
000003b0: b041 8123 3885 c13d e6c5 8824 3460 c8a2
000003c0: cc07 a23b a7a1 e03b e494 4fbd 6ae3 f23c
000003d0: 44c4 d524 ca72 1623 6613 863d 9268 473b
000003e0: 42e4 ccbb 5769 183d d4b9 3da4 842c f7bd
000003f0: 1977 983c 06db b624 d863 9423 2aeb 7b3d
0.044431202 0.009902098 -0.12092474 0.095010266 0.044190545 -0.019201487 0.006240435 0.031732958
0.006486142 0.034041982 -2.8871406e-17 -1.4717033e-16 0.061813127 -1.7177595e-16 9.795513e-17 0.025231114
1.1026709e-17 2.8348925e-16 0.018523555 0.06898771 0.049875945 0.024456676 0.01973899 -5.2229653e-17
0.008998561 -5.380662e-17 2.824335e-17 0.05076883 2.6462606e-17 -0.16710451 0.07885608 9.9459026e-17
-1.6332536e-17 0.03101173 6.011704e-17 1.5823057e-16 0.044534057 0.016012905 -0.027314428 0.010283131
-4.541133e-17 3.1486286e-17 -0.006006304 -5.66144e-17 -1.8057533e-17 0.006085549 -5.139148e-17 -1.2144389e-16
4.6084217e-17 -1.0995929e-16 -3.709005e-17 0.040855207 -0.014508692 -0.070556626 0.051707454 -2.4146906e-16
-8.830969e-17 0.015994038 -0.017839013 -4.1292727e-17 -0.0029350189 0.0075961826 5.0576784e-17 0.03944041
-0.026756227 -0.17275502 0.019894544 -7.4692894e-17 0.02114542 1.4869233e-18 5.08951e-17 -3.179813e-17
0.0021501884 8.0613e-18 2.8169028e-18 -1.68659e-16 -9.631666e-17 -4.3818023e-16 0.031978007 -0.016337447
0.011285174 0.081386216 1.2907146e-17 6.5662894e-17 0.0061760065 -1.0581054e-17 -4.245766e-18 0.03025436
-3.8688283e-17 4.9323152e-17 0.063642316 0.016296789 -0.063696735 0.021549823 -3.7559608e-17 7.5505205e-17
0.026168631 -1.6348282e-17 2.8069264e-16 0.06691803 0.027501432 3.723377e-17 0.016824184 -0.038641945
-4.740844e-17 0.052784998 4.9991297e-18 6.074143e-17 0.09673199 6.5763353e-18 -1.0146801e-16 0.010323637
-9.336615e-19 -0.007053807 0.0401926 0.028797492 -9.155796e-18 0.008227889 -2.1758246e-16 1.853701e-18
-0.008598804 0.01781152 0.014502125 0.019913953 1.7712031e-17 1.7352595e-20 1.9009593e-16 6.989305e-17
1.0158983e-16 0.045650817 -0.023402182 -0.0042240373 0.054673757 -2.2123366e-17 -2.3516295e-16 0.032731038
-3.0263e-17 -2.9044365e-16 0.028052257 -0.010652574 0.06974926 0.037921045 1.07351645e-16 -7.190974e-17
0.022773748 -5.8922143e-18 2.174234e-16 -2.5327986e-17 -1.2801328e-16 5.965335e-17 0.0010004081 -1.0850607e-16
-0.025227316 1.921896e-17 -1.5574587e-16 -3.738541e-18 0.028208217 0.033717107 -0.015648983 0.08494814
0.014318693 -0.06369668 0.042155534 0.05195762 -0.027282842 0.030540343 3.7984695e-16 2.3714792e-16
0.068808414 0.025256589 -2.3964015e-16 0.0054017925 4.927194e-17 -8.180552e-17 0.01660757 -2.795813e-16
8.942827e-17 0.034669966 5.993488e-17 5.352713e-17 0.013846292 0.024330648 -1.02927937e-16 0.050847165
-6.5958376e-17 -3.7846223e-17 0.087973535 4.8067354e-18 -0.16710448 0.017413098 -1.2047768e-16 -1.5967415e-17
0.03166229 0.009781474 -0.17119613 0.010079883 0.08683521 -0.037823256 -0.0059114117 0.04263233
0.039632205 0.014651008 -2.2246066e-17 -8.210358e-17 2.0351078e-16 2.3906949e-17 -1.5726833e-16 0.04435989
-2.096558e-16 -3.299035e-17 0.05604915 1.93388e-16 4.765923e-17 0.045321345 0.050168395 -0.050679106
0.00093694846 -0.063028365 -0.1658775 0.040284004 -0.0035108824 -2.9754659e-18 0.023895176 -1.3224455e-18
3.0879678e-17 4.6622153e-19 3.6032442e-18 3.0891603e-17 -0.001964039 -0.031431884 2.1369985e-16 -3.7613193e-17
-6.9122967e-18 -7.985431e-17 0.010959695 0.022092253 1.4014028e-17 0.094492376 5.931585e-17 -5.4311968e-18
0.004944777 0.006855208 -0.050679103 0.029649455 9.270651e-17 8.155824e-18 0.06546669 0.003042732
-0.0062527964 0.037209835 -4.1140245e-17 -0.120690376 0.018611478 7.930096e-17 1.6088478e-17 0.061503567

f0.0.bias f4 [256]
00000000: 02c7 95bb 08d8 a4bc d511 ed3c a8dd 27bd
00000010: 4e13 ca3c c3cc b4bb b69c b4bb 3dfd 0f3a
00000020: 830c ddbc 78e8 5e3b 7d9a 40bd 6a22 43bd
00000030: 366f a43a ae18 1ebd b108 02bd 6039 143b
00000040: aca4 a9bc c79e b8bb 1210 63bc 949a d93b
00000050: d0cf 013d facd cfbc 4f20 c03c 8956 c83a
00000060: 4dd0 313c 98ff 1dbc bb10 9abc a852 40bb
00000070: 60f9 743d 2d55 0fbd 1a56 2abb 2ba6 b8ba
00000080: 3f1b 053d a53f e63c c530 2dbd 7d33 98ba
00000090: 05ee 333c 383b 74bd 8202 2e3c b279 97bc
000000a0: 0946 c73c 23b5 4abd 6c1e 70bb 9bac 03bc
000000b0: b52a c4bc c091 1bbd f3a7 1f3d 666f 96bb
000000c0: 9bae 3d3c f6d6 dc3d 317a 01bd bca9 02ba
000000d0: 1b11 003d 3529 72bb 7ac1 08bc c173 f2bc
000000e0: 7683 6ebc 4594 67bd e7c3 b93a 739b 15bc
000000f0: 8db8 96bc fa1b 2cbc 0d96 38bc 8fa4 98bb
00000100: 622e eabc 6c1f 10bd 8c85 a13c a28f be3c
00000110: 9464 14bd 96b9 65bb dff2 f53b 6abb 3dbd
00000120: 89fd aeba a7d8 cc3c c1d1 58bd 5088 a53c
00000130: 8ced 723c 65e6 7fbc ed04 243d b4b2 5dbc
00000140: 6ece 943b 3d87 54bd d6da 0ebc b616 a93c
00000150: 9b9b e4bc 15fe 9bbd 313d 69bc e0b1 2fbc
00000160: 04eb 3e3d e73d fbbc 6ee1 d83c d855 6cbc
00000170: 2437 adbb a326 2b3d 841a a23b 16de e03c
00000180: 2220 8ebd af4f 18bd 1e05 ee3c b412 18bd
00000190: 9eac 87bc aaf0 debb 344f 1abd e419 3dbd
000001a0: e6c3 2ebd 51ae 303d 358a a4bb 8da3 9e3c
000001b0: 6558 613d 463d 22bd 295a 903c 0bfa 153c
000001c0: ab69 29bc 08db 103d 777b 6a3d a021 cb3b
000001d0: 7431 c3bc 2198 303d 9df5 a0b8 404e 3f3d
000001e0: a366 0d3d b020 4c39 b3ef f33c bfe4 28bd
000001f0: c441 39bb 2c7b 87bd 85c9 dfbc ec16 1ebd
00000200: f3f9 03bd 9cb0 38bd 4d05 df3c 86d3 edbc
00000210: 34cc 813c 08db de3c 43d2 26bd 7434 41bc
00000220: dbe6 5cbd fcd2 9fbc ac6f 96bc 0288 073d
00000230: a9bb f53c ce8d b53c ad1f 21bd 762f 36bd
00000240: 7369 d7bc 9942 9dbc ee36 cebc 85d2 51ba
00000250: b565 8f3c f8a0 87bc 5550 bbbc ed72 a0bc
00000260: 69cf f53c 21e7 97bb 6df5 83bc df99 69bd
00000270: 3742 e9bc 7912 0a3d 0edb 1ebd 09dd 95bc
00000280: 145e dd3c e0bd 873d 5900 2d3c 365e 293d
00000290: 390c 363c f0eb 933c 808b 243d 9724 8bbd
000002a0: 7ace 083d af4b 90ba 898c a8bc c1d8 0fbd
000002b0: ce80 193d 2d8d d3bc d10f 7bbc da30 b1bb
000002c0: 90c8 97bc c5cd fabb e501 d73c c0dd 38bd
000002d0: 9552 24bd 3824 6b3d f884 bc3d 5a58 013d
000002e0: ed32 01bd 2c63 1cbb 2b75 163d 27c6 463c
000002f0: 7688 2fbd 88d9 663d 0d48 e03c 7d31 39bd
00000300: ad34 4b3d a810 c3bc 9ff7 b9bb 30d2 85b7
00000310: 8bb3 0abd 82d1 e63b 729e 253b 3252 87bc
00000320: 1133 00b9 44f6 34bc 53d8 4a3d d669 493d
00000330: 8188 53bd e02c f9b9 7594 993c e3f5 e83c
00000340: a6c9 b9bc 57de 003d 917d 4a3d e3a7 25bd
00000350: 0f3c 1b3d 4a87 9bbc a7d9 843c 6d3c d0bb
00000360: f0b3 0cbd 28a6 1abc 0b9a 2dbc 60b5 f6bc
00000370: b988 103d abfe 523d 75ec 273d c625 3abd
00000380: 71f5 283c ade5 963c 8462 bfbc f580 37bc
00000390: 7602 b4bc d707 88bc 4320 e2bc bcd1 233d
000003a0: 4a7d 39bc cf63 77bc 2cda 0bbd d501 9dbc
000003b0: 335b 173c b391 58bb 2d33 1f39 b808 26bb
000003c0: 3619 aa3c db65 d9bc 9b47 04bd 9f4b c7bc
000003d0: af72 95bb 274d 7abc 33c3 323d 3931 293b
000003e0: 2934 abbc e2c2 de3a 0c58 1b3d 16cb 96bc
000003f0: 09b5 94bb c59b 3ebd c173 5abd efb0 9ebb
-0.0045708427 -0.020122543 0.028939167 -0.040982872 0.024667408 -0.0055175736 -0.0055118455 0.00054927525
-0.026983505 0.0034013074 -0.04702233 -0.04764024 0.001254535 -0.038597755 -0.03174657 0.0022617206
-0.020708404 -0.005634162 -0.013858812 0.0066407416 0.031692326 -0.025366772 0.023452906 0.0015284579
0.010852885 -0.009643458 -0.018806806 -0.0029346142 0.059808135 -0.03499334 -0.0025991262 -0.0014087608
0.032496687 0.02810652 -0.04228284 -0.0011612024 0.010982041 -0.059626788 0.010620715 -0.018490646
0.024325388 -0.04948915 -0.0036639227 -0.008036758 -0.023946146 -0.037980795 0.03897853 -0.0045909164
0.011577274 0.10783188 -0.03161067 -0.0004984399 0.031266313 -0.003695083 -0.00834691 -0.029596211
-0.01455771 -0.056537885 0.0014172763 -0.0091313 -0.018398548 -0.010504717 -0.011266244 -0.004658289
-0.02858657 -0.035186216 0.019717 0.023261849 -0.03622873 -0.0035053245 0.007505759 -0.04632131
-0.0013350706 0.025005652 -0.052934412 0.0202066 0.014827143 -0.015618895 0.04004376 -0.013531376
0.00454121 -0.051886786 -0.008719167 0.020640712 -0.02790623 -0.07616822 -0.014235781 -0.010723561
0.046610847 -0.030669166 0.02647468 -0.014424764 -0.0052861143 0.041784894 0.0049470086 0.027449649
-0.069397226 -0.037185367 0.029055174 -0.03712721 -0.016561802 -0.0068035917 -0.03767319 -0.04616727
-0.042667292 0.04313499 -0.0050213584 0.019365096 0.05501594 -0.039609216 0.017621117 0.009153853
-0.010340135 0.035365134 0.05724665 0.006199077 -0.023827292 0.04311383 -7.6751436e-05 0.046705484
0.03452171 0.00019467133 0.029777383 -0.041233774 -0.002826796 -0.0661529 -0.027317772 -0.03859608
-0.032220792 -0.045090303 0.027224207 -0.029031526 0.015844442 0.027204052 -0.040727865 -0.011792291
-0.0539311 -0.019509785 -0.018363796 0.03308869 0.02999671 0.022162344 -0.03933685 -0.044478856
-0.0262954 -0.019196795 -0.025172677 -0.0008004087 0.017504552 -0.016556248 -0.022865454 -0.01958605
0.030006127 -0.004635707 -0.01610824 -0.05703151 -0.028473957 0.033709023 -0.038783126 -0.018293874
0.027022399 0.06628013 0.010559165 0.041349612 0.011111313 0.01805684 0.0401721 -0.06794088
0.033400036 -0.0011008884 -0.020574825 -0.035118822 0.037476353 -0.025824154 -0.015323595 -0.005407435
-0.018528253 -0.007653924 0.02624602 -0.045133352 -0.04011782 0.057407588 0.09205049 0.0315784
-0.031542707 -0.0023862822 0.036732834 0.012132204 -0.04285475 0.056359798 0.027378106 -0.04521321
0.049610782 -0.023811653 -0.0056752707 -1.5952712e-05 -0.03386263 0.0070440182 0.0025271443 -0.016518686
-0.00012226055 -0.011045042 0.04952271 0.0491732 -0.051643852 -0.00047526415 0.018747548 0.02843756
-0.022679161 0.03146204 0.049436156 -0.040443312 0.037899073 -0.01898541 0.016217066 -0.0063548596
-0.03435129 -0.009439029 -0.010595809 -0.030115783 0.03528664 0.0515124 0.040996987 -0.04544618
0.010312424 0.018420065 -0.023362406 -0.011200179 -0.02197383 -0.0166053 -0.027603274 0.03999494
-0.011321375 -0.01509948 -0.03414361 -0.019165913 0.009238052 -0.0033045828 0.00015182486 -0.0025334787
0.020763975 -0.026537826 -0.03229485 -0.024328051 -0.0045607905 -0.015277184 0.043643188 0.0025816693
-0.020898895 0.0016995335 0.037925765 -0.018407386 -0.0045381826 -0.046535272 -0.053333048 -0.0048428695

f0.2.weight f4 [256, 256]
00000000: f0c9 80a4 40c4 f7b1 38c3 9021 8b65 afb2
00000010: 611f 1f38 a97b 5725 bf3c cdb9 c679 54a3
00000020: 148e 5e23 d38a 56bb 8827 d4b5 8e04 a3bb
00000030: 9bd5 77b4 2d67 a2a5 edc1 23a4 5dff 9aa9
00000040: c3f0 32a4 80cf 1b25 5cc8 4726 cf3c 33bb
00000050: 5e70 8da4 7aee a2bc f3a7 dba6 41ee 96a4
00000060: 5f8c 15b9 10de 23a5 e349 0fa6 77cb 90bb
00000070: e08d 8d23 bce5 dfa5 9a2a a53c 06cc 38bb
00000080: 28e7 4d26 d48a a0a5 7842 7d24 badd 093b
00000090: 45be 32bc 22f4 6023 eccd f4ba ef41 89a4
000000a0: 7f3e 4430 0ce4 a336 b0c0 d738 7a0c 1e25
000000b0: bbaa 2dbb a82f abab 7b71 452f d497 9723
000000c0: a82a 95a5 b984 3cac 20cb 87a4 b260 1225
000000d0: f704 a3a5 7d47 5fa5 116e f2a5 2de2 0ead
000000e0: 8308 5e3b da71 0c3c 88d4 ff39 87ac 4a26
000000f0: a8b8 9b22 f27d 2125 8d21 b6a4 f591 70a5
00000100: 59b3 493b 3d3b 86ba ac46 68bb d1f7 b23b
00000110: 544a 00bc 5935 b724 a309 9825 3969 0b25
00000120: e01f 0925 e886 cfa3 a321 8932 c1d3 46b9
00000130: 71b1 793b bcd3 4923 4324 fa25 0e53 3726
00000140: 16de 3b23 a43d eba2 d470 87bb b9b7 c23a
00000150: 447f 17ba 2ba8 4f2b d1f8 ba3a 7e00 c5a4
00000160: 4dff ed38 ba45 7c34 6936 eab9 857c 8b24
00000170: 794a 15a3 2b88 c3b8 b613 0023 7cf6 e33a
00000180: c403 973a 4bbb 363c b549 f223 d12a 85b8
00000190: 9bc1 8aa6 e5d5 08a4 dd0f a625 606d 873a
000001a0: a0c1 4eba 607d 06a6 f24f 1a3c 6778 e0b6
000001b0: ad58 673c 2a86 322e 9e7c 29a5 bbe7 44b7
000001c0: 3b26 6928 7438 5e26 4c7e f9a4 34d8 5935
000001d0: 8894 a1a4 0709 c834 a056 a834 8f39 a9b7
000001e0: 3d75 eca9 fc0e 1ca6 ca28 6423 c216 3b27
000001f0: b3f7 fcb6 ce3d c5a2 6507 0335 f2fd 2fa4
00000200: d750 daba c3ad 9925 e3b5 0e3b 5aaf 133b
00000210: f024 293c 3825 fba2 187c 313b 2ecc 69ba
00000220: e029 b2bb ef60 b9b6 2001 6735 9130 583b
00000230: ee3f b5a4 8e30 563a 63d4 c039 4eb9 813a
00000240: dbb9 083c 7499 7ca5 862b a1a4 e19b f9a3
00000250: 22d5 fba2 e4e0 beb2 60df 2f3b 2a07 a1a4
00000260: 465b 03b9 ae75 6b22 02a3 99a2 5068 21b8
00000270: ce37 3dba b0b1 6bb7 2ae4 8c23 468f 8bba
00000280: a7af 87bb 5310 5ab8 9963 9f24 3502 4638
00000290: 1c31 02b2 ebd2 2cba 2c51 cfbb 896f 263a
000002a0: 81fc 0ba5 4bbf db3a 0ff7 713b 13ae b43a
000002b0: 6c2f 36bc 12ec 51b7 a4df 6dbc 4c96 cb24
000002c0: 2cee dea6 a07d b5a5 77bd 343b 0e35 f5ba
000002d0: 21ff 85a6 9cf1 caba f759 5ab6 46a5 b8a4
000002e0: 5658 a3b8 18c4 afb6 d701 dfb8 d4b0 693a
000002f0: c980 96bb f564 b339 a287 2b2b 6c10 14bc
00000300: 80c9 19a1 5338 b8a4 9fd7 ed23 c29c 833b
00000310: b80c bba6 53af 0fa5 b7cb 34bb 095f 733a
00000320: 5ae9 b6a5 4d3d 4c26 6f78 f73a 0e4b aba5
00000330: 199c 82bb 75c2 c7a3 4f06 64a3 e03a c2b9
00000340: 1f33 4a38 911b dfb5 32d2 e826 1507 bf39
00000350: 8fa2 33b5 1865 9534 fc3b 2aa5 c7e0 d2ae
00000360: d4a3 2aa3 a37b f323 fdce 9dbb cc2f d0b1
00000370: 6bdf 66b4 d929 1f25 1d32 4f26 fafc 903a
00000380: 6b4e 44b4 0e23 bab7 7320 043c e04a 13a6
00000390: 2b6b 7e3b 4fc4 6d3b 894e 8126 133a 9c39
000003a0: b0c5 c521 4312 a624 f003 b3b9 3a26 b3a3
000003b0: 114c 1fa4 c458 f437 cb4b 32a4 8219 573b
000003c0: a927 a3a4 8fb5 f834 72de cbbb 6632 0725
000003d0: 6bda a8a2 4e17 bda4 9020 0029 cfb3 9abb
000003e0: bbda 8db7 69d1 f43a d405 a9b8 0372 adbb
000003f0: 7bba a824 2ed2 80a4 cd3f 1725 b4fb a0ba
-5.5853247e-17 -7.210957e-09 9.809494e-19 -2.0418858e-08 3.7937778e-05 1.8690175e-16 -0.00039145906 -1.15183296e-17
1.206473e-17 -0.0032736554 -1.5806736e-06 -0.004974908 -2.3081377e-07 -2.8172435e-16 -3.5509252e-17 -6.883272e-14
-3.880153e-17 1.3514411e-16 6.931353e-16 -0.0027349477 -6.133936e-17 -0.019889105 -1.52417e-15 -6.545575e-17
-0.0001426204 -1.4213234e-16 -4.9713227e-16 -0.004418786 1.5347337e-17 -3.8840008e-16 0.020161916 -0.002819778
7.143694e-16 -2.784965e-16 5.491693e-17 0.00210367 -0.010909622 1.21947615e-17 -0.0018677092 -5.9525975e-17
7.1393197e-10 4.8843267e-06 0.0001028789 1.3708543e-16 -0.0026499468 -1.2163508e-12 1.7957362e-10 1.6435755e-17
-2.5876285e-16 -2.6790083e-12 -5.8891024e-17 1.2696243e-16 -2.8279357e-16 -1.9366388e-16 -4.2054892e-16 -8.121987e-12
0.0033879585 0.008572066 0.00048795738 7.0316647e-16 4.2208347e-18 1.4007196e-16 -7.8986755e-17 -2.0866134e-16
0.0030777066 -0.0010241043 -0.0035442514 0.005461671 -0.007830221 7.9453973e-17 2.6374327e-16 1.2091979e-16
1.1893655e-16 -2.250012e-17 1.5964195e-08 -0.00018961636 0.0038100148 1.0941068e-17 4.339266e-16 6.360344e-16
1.0184319e-17 -6.3762142e-18 -0.004133323 0.0014855779 -0.0005779157 7.3774553e-13 0.0014264827 -8.5435965e-17
0.00011348594 2.3494695e-07 -0.00044672497 6.0492585e-17 -8.093076e-18 -9.323688e-05 6.943068e-18 0.0017392184
0.0011521508 0.011153053 2.6268909e-17 -6.3499094e-05 -9.62815e-16 -2.9671475e-17 2.880716e-16 0.0010332279
-0.0007887129 -4.6660504e-16 0.0094184745 -6.689737e-06 0.014120263 4.0591676e-11 -1.4700635e-16 -1.1736464e-05
1.2942388e-14 7.709823e-16 -1.0820049e-16 8.1153416e-07 -7.007424e-17 3.725947e-07 3.1355466e-07 -2.0173173e-05
-1.0500843e-13 -5.414368e-16 1.2368542e-17 2.59638e-15 -7.539021e-06 -5.3462395e-18 4.8812063e-07 -3.8162176e-17
-0.0016656172 2.6659015e-16 0.0021775893 0.0022534938 0.010323748 -6.8073093e-18 0.0027082022 -0.000891867
-0.005437121 -5.524714e-06 8.6055843e-07 0.0032987932 -7.860454e-17 0.00081706874 0.00036779334 0.0009897144
0.008345093 -2.1909508e-16 -6.989635e-17 -2.7062651e-17 -6.825935e-18 -2.222118e-08 0.0026836023 -6.9834756e-17
-0.00012527136 3.1910738e-18 -4.1643324e-18 -3.848254e-05 -0.00072180934 -1.4048463e-05 1.5275462e-17 -0.0010647557
-0.0041408124 -5.1990453e-05 6.912398e-17 4.7208934e-05 -7.578162e-09 -0.00065927085 -0.006326815 0.00063490175
-1.214188e-16 0.0016765384 0.003692094 0.0013784788 -0.011119705 -1.2512335e-05 -0.014518652 8.829183e-17
-1.5468901e-15 -3.1483622e-16 0.002757875 -0.0018707828 -9.297882e-16 -0.0015483382 -3.2536898e-06 -8.0077264e-17
-7.7888995e-05 -5.2382347e-06 -0.00010633811 0.0008914594 -0.004592989 0.0003421676 6.093963e-13 -0.009037118
-5.21051e-19 -7.98927e-17 2.578691e-17 0.0040164897 -1.2979179e-15 -1.2462675e-16 -0.0027587244 0.00092838757
-3.1730092e-16 7.0859796e-16 0.0018880497 -2.971463e-16 -0.0039858934 -2.1657979e-17 -1.2361241e-17 -0.0003704643
4.8208163e-05 -1.6622818e-06 1.6155207e-15 0.00036435635 -6.691925e-07 2.7826968e-07 -1.4765473e-16 -9.589623e-11
-9.2504104e-18 2.6398475e-17 -0.0048159347 -6.0590306e-09 -2.1501698e-07 1.380523e-16 7.188547e-16 0.0011061721
-1.8282451e-07 -2.2189251e-05 0.008064377 -5.1102345e-16 0.0038821201 0.003628034 8.97246e-16 0.00029797907
1.3401567e-18 7.202196e-17 -0.00034144474 -1.9423408e-17 -3.454206e-17 2.9128401e-05 -3.8661796e-17 0.00328216
-7.075717e-17 4.63257e-07 -0.006221586 1.1726459e-16 -4.576775e-18 -8.2005164e-17 2.8449953e-14 -0.004721142
-1.6910364e-05 0.0018678132 -8.0596335e-05 -0.0052931323 7.3174296e-17 -5.586721e-17 1.3118779e-16 -0.0012282045

f0.2.bias f4 [256]
00000000: 44a3 13bd e588 8abd 9820 1b3d 2b6e 08bd
00000010: b79f d7bc 3d87 03bd 9c60 973c cb6c d8bc
00000020: ab7a 96bc 191a 583d eee0 893d d9f4 f73c
00000030: d23a 0a3d 1f36 7bbd 6c47 5cbc ef4c 1a3c
00000040: b279 aebc 244b bbbc cab3 2a3a c5a9 aebc
00000050: 49c6 cb3c ae94 373d 30fa 603d 1b77 cabc
00000060: 7ba1 91bc 5775 a0bc 2d87 26bc 8683 2d3d
00000070: 4f50 96bc c9a5 113d 49b2 a7bc 6263 143c
00000080: c9ff 9cbc f6a1 20bd b376 39bd 09eb 4d3d
00000090: 8a7d 163d 4981 69bd c416 003c 4ce1 cbbc
000000a0: 6864 31bb 117e 1fbd b9c8 4abd 59ee fabb
000000b0: aade 073c 7884 9bbb eb8d 18bd 977a 5cbc
000000c0: f7d9 84bb efbf 2bbc ea39 f0ba 01b2 92bb
000000d0: 40bd cc3c ff3c 46bd 991b 683c d89c 26bd
000000e0: 758f 123b a65e 393d 4855 3ebd b662 65bd
000000f0: 6d3f 01bc 31db f8ba 9b1d bbbc 4af3 00bd
00000100: 5445 f8bb d5e9 533d 49df 93bc f62b 82bd
00000110: 7f8f 08bc 180f febb b7ed 3e3d 982b 253d
00000120: 46bd 53bd 64e3 92ba 277c cb3c 9034 f53c
00000130: afe8 2fbd 6940 1fbc c0b3 88bb 5059 33bc
00000140: bf57 713c f32e 92bc 4db0 16bd 991a fabb
00000150: 6f06 073c 95e5 18b9 c2d5 a13c 8476 7bbc
00000160: 4aec 04bd 5d3c f63b 13d6 42bb a777 d5bc
00000170: 7b9b 88bd 127b 1b3d 1fab 2bbc 6a10 0dbd
00000180: c48c 08bc b328 5dbd 687d 11bc c316 02bd
00000190: 66b3 55bc 32b0 aabc 1c03 7cbd 325f d63c
000001a0: ff5c e93c 5a0e 5a3d e575 92bb 1097 11bc
000001b0: c9c3 293d 6de5 9e3b 9e03 943c 9771 883b
000001c0: bbcf 66bc 59db 24bc 8fe3 6f3d 44ad e63c
000001d0: cc17 55bd 0851 91bb 671a 5f3d 02de 00bd
000001e0: a487 ca3c cb96 0cbc bb50 a63d a42a 01bc
000001f0: 098f 7dbb e17e 5dbd e66b abbc 1356 523d
00000200: c192 3e3d 9dff f7bc 1e48 7ebd daaf c938
00000210: 4fc5 343d 6443 6f3d f77c 0c3d 4119 3f3d
00000220: 4fe8 e43c 55d6 963c 874a 633d dfe4 debc
00000230: 15da b6bb 20d4 b6bc 0a1b 1e3d 4efe dc3b
00000240: 70b1 0e3d c166 7cbb d992 4bbd 38ca 873b
00000250: 4bd4 45bd 66fc 1fbd df56 6a3d 6e32 45b9
00000260: 0016 ca3c d291 943c 120b 0e3d a77e 493c
00000270: 9778 853c 78cc ba3c c67b 0cbc 49e5 20bc
00000280: 9537 4dbd af6a ed3c 1b9f c0bc 80d7 07bd
00000290: e505 873d b566 4fbb 7372 acbc fc59 c6bc
000002a0: 7e02 1ebd 98b9 5c3d 9b65 aebc 7e74 19bc
000002b0: 5b25 563c c2a9 053d 7bb7 e3bc 6c2b c2bb
000002c0: 922d 10bc 793c c8bc 5500 adb9 f1f4 a0bc
000002d0: 657a a0b9 e93a ef39 9bd3 ffbb 31c4 c63a
000002e0: bc31 143d 52cd 55b7 a279 e03c 1e83 823d
000002f0: e20a 1abd d173 acbc d73f 193d 4190 56bd
00000300: 4c0a c9bc 9e3e 253d f3a1 1b3d 9e7f 88bc
00000310: cf68 a63a 7982 2ebc f2ba 47bb 2607 d7ba
00000320: 69eb 47bb c4ec 2c3d 0d7c 043d 56d1 883c
00000330: ee62 94ba d198 2d3d 00db 6dbd 4142 223c
00000340: 7ed1 65bc 3c8a 853d 9d75 a4bb 5dde 9dbc
00000350: 6693 34bd a610 e5bb 79da a03c 22d9 353d
00000360: 83d0 253d f4b8 07b6 59cf 38bd 5cba db3b
00000370: 01a9 673c 3cbe 9bbd 07f1 483d 319e 423d
00000380: 43df f6bb 326a d03c abf3 61b9 d515 b9ba
00000390: ae53 ddbc 00db 973c e4f4 653d 248d 913c
000003a0: 558d d8bc a2d8 d3bb 8556 963c 8c32 43bd
000003b0: 4dea 473d 4b1a 103d 004b 3f3d 26ae bfbc
000003c0: b7ed 1a3d 854b 8c3d 2a29 47bd a4d4 5e3c
000003d0: 83de efbc 49ea aa3d 7529 51bc 1087 813c
000003e0: bab5 51bd f41b 713d ad25 1e3d c1ea 2aba
000003f0: 47ae 3e3b 4715 ca3c b850 98b9 6d80 433d
-0.036044374 -0.06764392 0.03787288 -0.03330819 -0.026321275 -0.032111395 0.018478684 -0.026419064
-0.01836904 0.052759264 0.06732355 0.03026812 0.0337475 -0.06133091 -0.013444763 0.009417756
-0.021298263 -0.022862978 0.0006511776 -0.021321187 0.024874823 0.044819526 0.054926097 -0.024714997
-0.017777195 -0.019587202 -0.010164064 0.04236176 -0.018348841 0.035558496 -0.020470755 0.009056898
-0.019164937 -0.039216958 -0.045279216 0.050272975 0.036740817 -0.05700806 0.007817928 -0.024887703
-0.0027067903 -0.038938586 -0.04950783 -0.007657808 0.008292833 -0.004746016 -0.03724472 -0.013456962
-0.0040543037 -0.010482772 -0.0018327807 -0.004476786 0.024992585 -0.048398014 0.014166736 -0.04067692
0.002236334 0.04525628 -0.04646805 -0.05600234 -0.007888657 -0.0018986223 -0.022841265 -0.03148202
-0.007576624 0.05173667 -0.018050807 -0.06356041 -0.008334993 -0.007753264 0.04661342 0.040324777
-0.051694177 -0.0011206684 0.024839474 0.02993229 -0.042946514 -0.009719946 -0.0041718185 -0.010946587
0.014730393 -0.017844653 -0.036789227 -0.007632565 0.00824128 -0.00014581376 0.019755248 -0.015348081
-0.032451905 0.00751452 -0.002972965 -0.026058031 -0.066702805 0.037959166 -0.01047781 -0.03443948
-0.008334342 -0.053993892 -0.008879997 -0.03175999 -0.01304326 -0.02083597 -0.061526403 0.02616844
0.028486727 0.053236343 -0.0044696205 -0.008886114 0.04144648 0.004849127 0.018068131 0.0041639316
-0.014087613 -0.010062062 0.058566626 0.028158791 -0.052024648 -0.0044347085 0.05446854 -0.031461723
0.024722882 -0.008580874 0.08120867 -0.0078837015 -0.0038689992 -0.05407608 -0.020925473 0.051351618
0.046526674 -0.030273253 -0.062080495 9.617182e-05 0.04413348 0.058413878 0.034298863 0.046654943
0.027942805 0.018412748 0.055490997 -0.027208744 -0.0055801966 -0.022317946 0.038600005 0.0067441827
0.034837186 -0.0038513395 -0.04970059 0.0041439794 -0.04829816 -0.039059065 0.057211753 -0.0001880617
0.024668694 0.018135939 0.034678526 0.012298263 0.016292853 0.022802576 -0.008574432 -0.009820291
-0.050101835 0.028981535 -0.023513367 -0.0331645 0.06592921 -0.0031646912 -0.021050667 -0.02421283
-0.038576595 0.053887933 -0.021288684 -0.009366153 0.01307043 0.032632597 -0.027797451 -0.0059255864
-0.008799927 -0.024442898 -0.0003299738 -0.019648047 -0.0003060877 0.00045629524 -0.0078072078 0.0015164671
0.036180243 -1.2743594e-05 0.027401749 0.06372665 -0.037608035 -0.02105132 0.037414398 -0.052383665
-0.024541043 0.04034292 0.037996244 -0.016662415 0.001269603 -0.010651224 -0.0030476418 -0.0016405329
-0.0030505306 0.042217985 0.032344867 0.016701382 -0.0011320987 0.042382065 -0.058070183 0.0099034915
-0.014026998 0.06520507 -0.0050189034 -0.01927107 -0.044085883 -0.00699051 0.019635426 0.044396527
0.040482055 -2.0224224e-06 -0.045119617 0.0067055654 0.014139415 -0.07604644 0.049057987 0.047514144
-0.007533939 0.025441263 -0.00021548446 -0.0014120886 -0.02701744 0.018537045 0.05614175 0.017767496
-0.02643458 -0.0064650336 0.018351803 -0.047655627 0.04880743 0.035181325 0.046702385 -0.02339847
0.03782436 0.06850342 -0.04862324 0.013600502 -0.029280907 0.083454676 -0.012766232 0.015811473
-0.0511987 0.05886455 0.03861015 -0.00065199664 0.0029095577 0.024668349 -0.0002905184 0.0477299

f0.4.weight f4 [130, 256]
00000000: 8622 9025 2d59 45ba 848b ba3c 86c3 0924
00000010: 9777 e324 0f01 c2a3 2780 c4bc 5228 84bc
00000020: c1e2 d33c ebf2 9cbc 02ec a83d 16a2 3b3e
00000030: 845e 813d d36c 5226 8aa6 873c ad14 8e3c
00000040: 2d21 9c3c 404d d93c a2ba 943c b095 92a4
00000050: b700 1dbc 6aed 76a5 488d 953c 26d7 683d
00000060: a77f 9a3a 26cc 253d 85f0 24bc df0b c63c
00000070: 9cbc 5bbb f015 7a3d 3d7c a5bb 98b3 6a3d
00000080: cce3 ae22 3fed 5a3c db19 8fa5 4df4 73bc
00000090: 7975 513d 22f5 71bc 9839 16a4 00ba 9ab7
000000a0: 7422 6c3d 4cf7 ddbb 393d 983c 08f7 47a4
000000b0: 198f 283c 22a2 f6bc e8c9 0d3d 9e6e 2b3d
000000c0: dd18 5e3c fcae 543c 8b7b 07a2 d82c 4924
000000d0: caaf 6dbd 70ce 763c 704d 133d c10c af3c
000000e0: c435 dc3c 52fe 25bd 5192 cea4 655b 8e25
000000f0: b00e 49a3 f7f2 54a4 7472 84bc 7b3a bd3c
00000100: 4940 5f25 6d78 2f3e 10b6 2a3c 0ad0 4326
00000110: 60c4 0126 e1c0 033d 3b82 7a3d 1f40 6e3c
00000120: d2c9 3aa6 e506 233d a100 8d3c 2112 ce3c
00000130: cdc6 18bc 4c67 d822 7ffc 91a4 b1bb a33b
00000140: f894 9cbb 3202 e0a6 99f0 d23c 36d5 583d
00000150: 3117 5c3c d837 e324 30bf bebc c3a7 29a5
00000160: c0c2 8b21 efb2 7dbc 5389 9a38 cc29 9abc
00000170: bc3e e6a5 eee1 c9bb 0d58 c424 61e0 0f3c
00000180: a1a2 76bc 721f ef3c 7eb6 86bb 3cce 4f3d
00000190: cc1f ce3a 0219 39a6 318a d5bb f97f cf3b
000001a0: 2676 08bd bf22 8a3d bd2b abbc 62a6 82ad
000001b0: 87f0 cd3b 9414 72a4 3d57 6abc 1b16 0926
000001c0: b839 19b3 9888 83bc ffdd 1a3b 68b2 bdb8
000001d0: 3e49 6a3c a2e6 53bb e880 3e3d e0d8 b125
000001e0: e1fc 333d e610 bf3c e270 07bc eb33 193d
000001f0: 90ec d1ab b752 e23b 7d1a b63c 9978 b63d
00000200: 8058 32bd 77e4 433c 6398 a0a3 77a1 003d
00000210: a46c 35bd b121 953d faad a43c 89b0 1a3e
00000220: 7b77 463b 3527 413d 160d 953c 6719 3725
00000230: 2616 682a 895f 4a3d 25fa 3b3d ab19 223e
00000240: a8d9 35bc e96d 0f3e b017 8d3c bd6e 473c
00000250: 70ee 32a2 3efa 3ca5 8d3c 383d 16fb 0223
00000260: 55e7 703d 6319 983d d37c 2f3c 7536 8f3c
00000270: 8fa3 b83c 53c0 ab3d 4c62 4f23 3d7d c1b6
00000280: 6648 a33d e93a cf3c 094f 8626 a5ac 2826
00000290: 6853 6cbc 5bf2 5a3c 6e91 49a6 66b6 b425
000002a0: dffb 08bc 6a03 05bb 7e58 ce3a 8292 2925
000002b0: 0afb 24bc 2218 473d 9755 073e ef55 643c
000002c0: dd99 143c 1223 f325 6093 9823 9d8c db39
000002d0: e4f7 89a4 669e c530 bdde 8dbc c793 e9bb
000002e0: e5c1 483d 6eed bfa3 aa0f 1239 69e9 ba3a
000002f0: 4fa0 d33c 264a 9da4 ddcf 913d a27d 32a6
00000300: 81d6 debc f479 3b3d 2864 eabb c669 80a6
00000310: 0e09 803b 1c76 49a3 0846 6ba2 1048 2c25
00000320: 7f03 9435 7a8b 003c 5e3a 5a3c 91f3 f8bc
00000330: ab78 bca4 b613 883c 8019 fa21 42d7 313b
00000340: 169b 133a 1be2 29bd 62e9 b3bc 8a13 6e3d
00000350: 18de 3134 4011 2323 5302 063d d15f d8bc
00000360: e1f6 1a3d a5a3 12a6 f48e e63c e19a b13c
00000370: 4f0a fcbc 8d7a e63c e8a1 583d e20b 3b3d
00000380: e39e 9c3c fe99 433a 84b9 9423 0fd0 c9a4
00000390: afc4 913c 7c7d 123d 9423 8f3d 7649 863b
000003a0: 14b5 a9b4 36db 5bbd 4e77 f1bc 6c51 b43c
000003b0: 3787 d0bc 574c f83c 6c85 363d 05dd 7cbc
000003c0: 2b44 fdbc fcf3 613d b213 643d 4e02 01bd
000003d0: ca78 bb3c 415c cc3d cb9e 993c c428 813b
000003e0: 2c28 183c b136 22bd edaa 7c3c 77ea 493d
000003f0: 9a43 3a3c 1449 e5bc 7e59 583d 39d5 d3bc
2.5003412e-16 -0.0007528242 0.022771604 2.9872754e-17 9.864815e-17 -2.103397e-17 -0.023986889 -0.016132507
0.02586496 -0.019158801 0.0824814 0.1832355 0.063168555 7.300587e-16 0.016558904 0.017343843
0.019058788 0.026526093 0.0181554 -6.357099e-17 -0.00958269 -2.1417538e-16 0.018255845 0.056845807
0.0011787311 0.040477894 -0.01006711 0.024175582 -0.0033529168 0.061056077 -0.0050502107 0.05730018
4.7403984e-18 0.013362228 -2.4824066e-16 -0.014889789 0.05113742 -0.014767917 -3.257485e-17 -1.8444844e-05
0.057650045 -0.006773865 0.01858388 -4.336049e-17 0.010288023 -0.030106608 0.03461638 0.04185354
0.013555733 0.012981173 -1.8361315e-18 4.362291e-17 -0.058028974 0.015063867 0.035962522 0.021368386
0.026881106 -0.040525742 -8.958613e-17 2.4695005e-16 -1.0899342e-17 -4.617597e-17 -0.016167857 0.023099175
1.9363947e-16 0.17135783 0.010419384 6.793616e-16 4.5022003e-16 0.032166366 0.061159354 0.014541655
-6.480523e-16 0.039801497 0.017212214 0.025155129 -0.009324742 5.8656287e-18 -6.331147e-17 0.00499674
-0.0047785006 -1.5543717e-15 0.025749492 0.05293771 0.013433264 9.854016e-17 -0.023284525 -1.4715253e-16
9.470556e-19 -0.015484556 7.368871e-05 -0.018818758 -3.994115e-16 -0.006160966 8.5150614e-17 0.008781523
-0.015053422 0.029189799 -0.00411111 0.05073379 0.0015726029 -6.421866e-16 -0.006516718 0.006332394
-0.0333158 0.067449085 -0.02089488 -1.4853178e-11 0.0062847766 -5.2492815e-17 -0.014303026 4.756138e-16
-3.5675583e-08 -0.016056344 0.0023630855 -9.045453e-05 0.014299689 -0.0032333513 0.046509653 3.0851566e-16
0.043942336 0.023323487 -0.008266659 0.03740303 -1.4916002e-12 0.006906833 0.022229427 0.08909721
-0.04354143 0.011956326 -1.7411773e-17 0.031403985 -0.04429306 0.07281817 0.02010249 0.15106405
0.0030283618 0.04715653 0.018194716 1.5881326e-16 2.0613424e-13 0.049407516 0.045892853 0.15830104
-0.011099257 0.14006771 0.01722321 0.012172398 -2.4249726e-18 -1.6391186e-16 0.04497962 7.100484e-18
0.058814365 0.07426717 0.010710913 0.017482022 0.022538928 0.08386292 1.1242308e-17 -5.766428e-06
0.07972793 0.025296645 9.31954e-16 5.8520686e-16 -0.0144241825 0.013363446 -6.993298e-16 3.134862e-16
-0.008360832 -0.0020296224 0.0015742925 1.4708052e-16 -0.010069618 0.048607 0.13216244 0.013936504
0.009069887 4.2177545e-16 1.6542289e-17 0.000418757 -5.983422e-17 1.4378656e-09 -0.017318124 -0.007128212
0.049013037 -2.0808817e-17 0.0001392948 0.0014260235 0.025833277 -6.821351e-17 0.07119725 -6.192642e-16
-0.027201893 0.0457706 -0.007153053 -8.910454e-16 0.0039073294 -1.09212425e-17 -3.1885513e-18 1.4943038e-16
1.1027877e-06 0.007845754 0.01331958 -0.030389579 -8.173642e-17 0.016610961 1.6947409e-18 0.002713636
0.00056307146 -0.041475397 -0.021961872 0.058124103 1.6565207e-07 8.8399005e-18 0.03271706 -0.026412876
0.0378331 -5.0875705e-16 0.028144337 0.021680297 -0.030766634 0.028134609 0.05288878 0.04566563
0.019118732 0.00074616063 1.6124761e-17 -8.752232e-17 0.017793981 0.035764202 0.06989208 0.0040981127
-3.1610455e-07 -0.053675853 -0.029475834 0.022011481 -0.0254551 0.03030984 0.044560835 -0.015433555
-0.030916294 0.055164322 0.055682845 -0.03149634 0.022884745 0.099785335 0.018752476 0.003941627
0.0092869215 -0.03960294 0.015421611 0.04929587 0.0113686565 -0.027988948 0.05281972 -0.025858508

f0.4.bias f4 [130]
00000000: 1c8c 7aba 1587 713d 30a4 2dbd 5d87 3b25
00000010: 34d3 1c23 382d d424 ea53 eebc 3b39 73bd
00000020: ac22 7824 8a72 5b3b 481f 5fa4 68e0 b2a3
00000030: 2d84 893c 6ad2 1ca5 e6cf a325 5cd8 6426
00000040: f028 f5a5 e1ed 27bd c178 75bd 78ec f6bc
00000050: ece8 cdbc a59e 733b ee01 8cbd 392f 89a5
00000060: 4eba f523 155d e7a3 54cf 8abd bb0c eca4
00000070: de36 2e24 73ad 6ea5 958b c8bc 2b9d 7f24
00000080: df89 e1a4 4616 f9bc 0933 85bc 84cc 19a4
00000090: f023 de22 99eb 7fbc 5acd 663c 0f1d 2526
000000a0: dcca 44bd cd91 1125 6e7f dba5 334a d1bc
000000b0: d325 21bc 9a00 69a5 533c 2cbd df94 f2a4
000000c0: f237 c9a4 1471 fe23 8564 b9bc f869 2025
000000d0: 8c52 e8ba c0b4 723d c6e2 163d 42e9 9d25
000000e0: 79fe 47bd 5dfb 36a6 a6dd 8ca5 8e41 8024
000000f0: 859f f5bc caa2 4924 c76e 633b ea58 99a4
00000100: 909b c03a d8c2 063d 8b77 0cbd 936e e6bb
00000110: d21b 80a4 c31e 9b23 3806 8721 de5f 393c
00000120: 0c81 1a3c 0947 66bb a021 1821 d0e8 0a25
00000130: 2213 d8bc 516a fd24 b50f e33b 6f1f 9fa3
00000140: 6a27 d43c 3098 58a3 bb87 aabd 8756 b33b
00000150: 0a24 7fa3 b198 293c 84a0 c8bc ab6e 5c24
00000160: 0aea 8ea4 80ac 1c3d b838 67a4 9468 e7bc
00000170: 3f2e bfbc 539c 5ca3 c386 7f25 8636 6dbd
00000180: 9e14 a524 4c1c 873c 692b 91bc d201 85bc
00000190: 06e5 10a5 294d 4ba6 f0b4 6da3 8f10 6f24
000001a0: b8b7 40bd 1e41 6c25 04e6 c9ba bc90 a9bc
000001b0: c17b 88bd af33 06a5 c39d 94bc 3c2b 0a3c
000001c0: 882d 1ca6 6c6d 6aa5 66ca f6bc ff00 bebb
000001d0: 3c31 973b be32 01bd ad7e 03bc 6e41 a3bc
000001e0: da24 c324 5ec8 1e3b d25b f124 0384 06bd
000001f0: 48c9 02a5 c2d2 ffa4 0f20 91a3 fc2c 21a6
00000200: 705f ad24 3d65 0726
-0.0009557621 0.058966715 -0.04239291 1.6265527e-16 8.501501e-18 9.201695e-17 -0.029092748 -0.05938075
5.3805796e-17 0.0033485019 -4.8381913e-17 -1.9393838e-17 0.01678666 -1.3602134e-16 2.841687e-16 7.939661e-16
-4.2528465e-16 -0.040998343 -0.059929613 -0.030142054 -0.02513548 0.0037173417 -0.068363056 -2.379771e-16
2.6641856e-17 -2.5084492e-17 -0.06777826 -1.0237025e-16 3.777671e-17 -2.0701976e-16 -0.02448062 5.5427437e-17
-9.781176e-17 -0.030406129 -0.016259687 -3.3349818e-17 6.021127e-18 -0.015620136 0.014087046 5.7285256e-16
-0.048045024 1.2626144e-16 -3.8076794e-16 -0.025548076 -0.009835678 -2.0209732e-16 -0.042049717 -1.0520297e-16
-8.726463e-17 2.7586626e-17 -0.02263094 1.3913691e-16 -0.0017724796 0.059254408 0.03683736 2.739322e-16
-0.04882667 -6.3484595e-16 -2.4436323e-16 5.5622205e-17 -0.029983291 4.3722815e-17 0.003470348 -6.65038e-17
0.0014694799 0.03290066 -0.034293693 -0.0070322244 -5.555828e-17 1.6818162e-17 9.149602e-19 0.01131436
0.009430181 -0.0035137555 5.1544106e-19 1.2048472e-16 -0.02637631 1.0990137e-16 0.0069293627 -1.7252127e-17
0.0258977 -1.17416104e-17 -0.0832667 0.0054729613 -1.3831209e-17 0.010351346 -0.024490602 4.7798635e-17
-6.197916e-17 0.038250446 -5.0138183e-17 -0.028248109 -0.023337482 -1.1959327e-17 2.2163383e-16 -0.057913326
7.159227e-17 0.016492985 -0.017720895 -0.01623622 -1.2567605e-16 -7.0534345e-16 -1.2886111e-17 5.183889e-17
-0.047050208 2.04918e-16 -0.0015403633 -0.020698898 -0.06664229 -1.1640158e-16 -0.018141633 0.008433159
-5.418508e-16 -2.0333338e-16 -0.030125808 -0.0057984586 0.0046140235 -0.031542532 -0.008025807 -0.01992866
8.46302e-17 0.0024228315 1.0467264e-16 -0.03284074 -1.1343899e-16 -1.1094566e-16 -1.5734509e-17 -5.591906e-16
7.518847e-17 4.6974737e-16
