model/model.pth (torch, 799047 bytes, 6 tensors)

f0.0.weight f4 [256, 390]
00000000: 86e2 8cbc 1c14 03bd 567d ad21 ac82 0fbc
00000010: 04e6 c5af 0803 0b09 10b4 9abb 54ea df3b
00000020: e6ae acbc acfe 0abd 079b 5b0a 61a2 9288
00000030: f4a3 6cbc fb08 eabb aa57 ea89 30ec 87bb
00000040: 98c4 b108 0045 b589 fdfe 02bd fc24 0230
00000050: 887d c73d f4d0 693b bec3 f13b 89f1 8c3c
00000060: e8d0 5dbc d4db 8309 067f d809 f81a 013d
00000070: d177 6e89 eb9f b509 607c 98bd bf1d 4a89
00000080: 5044 8806 2962 3cbc ec6a 3e3d 3ec5 0f09
00000090: c112 71bc 45c1 038a 022d 4809 d882 113d
000000a0: 0e46 f4bc 15ce 0e8a 9e76 78bd e02a ae28
000000b0: 94b0 b708 a92f efbb 29cc 3ca8 61d2 873d
000000c0: 304e c63b bcf9 4709 5eec ca09 8ec2 8bbd
000000d0: 87fd 97bc e592 8689 0291 67bc 8601 ec89
000000e0: 334b 21bd 8deb 2fbd 24bf ebb7 00b9 2206
000000f0: a5a3 16bc 0129 878a 2c7d 8808 8386 0dbd
00000100: 111e 96bc 801c 3988 6d45 ffbc 8264 9308
00000110: fdc3 883c e637 cfbc f858 8088 2e5d 1787
00000120: 2087 14bd b2cf 8588 dc0d 9989 54c6 358a
00000130: c044 9f07 50e1 358a 12e1 edbc cb6f e6bc
00000140: 5081 f33a 64db 25bc 4d9c 5409 f4ba 3b09
00000150: 7c7a ae3c 86ce de89 7350 c007 3382 75bd
00000160: b4bf 5688 405f a987 aef3 83bc 0079 aab9
00000170: 00a3 6a3d fc58 74b9 86f2 2889 fc60 7109
00000180: a967 0fbd e5d1 178a 128f 4b09 d617 e4ba
00000190: 8ae2 c23c 461d 188a a187 5cbc 2e29 0d3c
000001a0: 9c4d 9fbc ce1a 013d 4627 8c89 a696 2708
000001b0: 6052 9fbc ceb6 5908 b114 ad09 b0ee 40bc
000001c0: e33e ba3c b77c 23af 9d60 89bc 1822 300a
000001d0: d9ab 8188 6ada 613b e0a5 24bc d676 3789
000001e0: 7239 88bd e89e a4bc ab86 0abc b514 e6bc
000001f0: 51c0 6088 d47b 7289 a2eb c53b 663e 5a09
00000200: 86b4 1d05 453d 97bd 852d c4bd 9c93 b7bc
00000210: 87f0 c9bb 5646 b408 c3ba 3b09 50af 56bd
00000220: 3726 023d c6c9 090a 3a20 6bbc ad76 90bd
00000230: 716c a43d 0786 0dbd 7042 bc08 92b0 e289
00000240: b55e efbc 357a 00bd e021 b609 9de6 cebc
00000250: ad2e 3608 ebc1 db08 c698 97bd cba9 a6bc
00000260: ab12 c089 f30c 0109 8a43 c808 102c b809
00000270: d0eb c33b c2db d7bb 543f 38bc ef4f 4bbc
00000280: c736 238a 6faa dd88 2b82 e33c 260b b91c
00000290: 92cb a309 96c6 3abd 96fd 4e88 9811 ac3c
000002a0: c720 8abc 4ef4 f53c 43e9 023d 8eac 4bbc
000002b0: 06bf 8909 a0fc 4e07 edb4 0dbd 08f8 0988
000002c0: c24b ff85 6aea 80bb ba4e 1d08 cebe 3b89
000002d0: 77f4 50bc d3f2 8d38 e635 9c09 fc1a 013d
000002e0: 42e5 de06 901f 8686 154d 5fbd 960d 8007
000002f0: 02a0 a488 08f1 14bc 9be7 b3bc 498c 083c
00000300: 5c58 63bc 3467 c408 2a8c b43d 0787 a73c
00000310: 5eb8 27bc 099a 003d fbad e3bc 3cca 80bd
00000320: b62c 94bc 71b7 3ebb da2a 4d09 6204 ce07
00000330: 52fb b63b e210 1a88 32de 8b87 2995 65bd
00000340: b34d b7bc 2b5d 763c 58ed c2bb 6093 0ebc
00000350: 8c02 488a 2e23 b6bc 8afc 4009 6ecf a928
00000360: 61e9 a1bc 2d5c 973d 921a ac08 ab89 0dbd
00000370: 66c6 0d8a 918c 2c88 1d61 fbbc d8d1 ec09
00000380: 8e13 2d09 f2ee cebc 6c41 350a 4aab ea09
00000390: 4e93 a2bd 2568 5909 724b de87 ca53 8c88
000003a0: 66e3 8c88 849f 0007 0bd3 31bd 4d20 82bc
000003b0: 97d3 b1bc 1969 10bc df3b bcb1 318c b43d
000003c0: 457b 583c d4f4 713c 6244 a73d 7b3b 68bc
000003d0: dea6 493c 413d a109 881e 96bc aa1e 8e3c
000003e0: a9ae 2b30 e116 c7bc 51c9 4a0a f0ee 7a09
000003f0: eb48 0ebd 7287 9fbc adca 240a d7e8 67bb
-0.017197859 -0.0320016 1.1756112e-18 -0.008759182 -3.5997527e-10 1.6732942e-33 -0.004721172 0.006833354
-0.021079492 -0.03393428 1.0573624e-32 -8.8252305e-34 -0.014443386 -0.007142184 -5.641589e-33 -0.004148029
1.0699019e-33 -4.3639052e-33 -0.031981457 4.734628e-10 0.0974074 0.0035677524 0.0073780706 0.017205017
-0.013538577 3.174383e-33 5.211956e-33 0.03151986 -2.8704545e-33 4.372455e-33 -0.07445598 -2.4328852e-33
5.125789e-35 -0.011498013 0.046488687 1.7305742e-33 -0.014713944 -6.3437705e-33 2.4095287e-33 0.035525173
-0.02981856 -6.875811e-33 -0.060659997 1.9336475e-14 1.1055425e-33 -0.0072993827 -1.0480367e-14 0.066319235
0.006051801 2.4071178e-33 4.885201e-33 -0.06824218 -0.018553508 -3.2397466e-33 -0.014133694 -5.6816366e-33
-0.039378356 -0.042949248 -2.810319e-05 3.060473e-35 -0.009194289 -1.3015451e-32 8.21463e-34 -0.03455211
-0.018324884 -5.5704914e-34 -0.031161034 8.87087e-34 0.016695017 -0.02529521 -7.724636e-34 -1.138736e-34
-0.036261678 -8.053475e-34 -3.6846443e-33 -8.7521344e-33 2.3964069e-34 -8.7572096e-33 -0.029037986 -0.028129479
0.0018577967 -0.010123108 2.5592064e-33 2.2597211e-33 0.02129864 -5.363877e-33 2.8936233e-34 -0.05993862
-6.462363e-34 -2.5484277e-34 -0.016107406 -0.0003251508 0.057284355 -0.00023302803 -2.0336298e-33 2.9054922e-33
-0.035010967 -7.309862e-33 2.4502508e-33 -0.0017402123 0.023789663 -7.3240395e-33 -0.013460071 0.008615775
-0.019446187 0.031519704 -3.3740707e-33 5.043182e-34 -0.01944846 6.551595e-34 4.1667693e-33 -0.011775658
0.022735065 -1.4869071e-10 -0.016769702 8.480504e-33 -7.804306e-34 0.003446246 -0.010049313 -2.20837e-33
-0.06651582 -0.020095304 -0.008454959 -0.028086046 -6.7633615e-34 -2.9187914e-33 0.0060400525 2.6270135e-33
7.4152614e-36 -0.07384733 -0.09578995 -0.022409253 -0.0061627063 1.0849892e-33 2.2597121e-33 -0.052413285
0.031774726 6.6342594e-33 -0.014350945 -0.070538856 0.08028496 -0.034551647 1.1330458e-33 -5.4573567e-33
-0.029219965 -0.031366546 4.3846762e-33 -0.02525645 5.48235e-34 1.3226173e-33 -0.07402186 -0.020344635
-4.6239874e-33 1.5533899e-33 1.20529405e-33 4.4337825e-33 0.005979039 -0.0065874765 -0.011245567 -0.012409194
-7.858467e-33 -1.3341022e-33 0.02777203 1.2245155e-21 3.943226e-33 -0.045599543 -6.228896e-34 0.021004483
-0.016861333 0.03002372 0.031960737 -0.012431277 3.3161188e-33 1.5571957e-34 -0.034596372 -4.1518497e-34
-2.4007914e-35 -0.0039341943 4.733801e-34 -2.2599022e-33 -0.012753597 6.7686335e-05 3.760632e-33 0.031519875
8.384398e-35 -5.0451575e-35 -0.05451687 1.9267285e-34 -9.908009e-34 -0.009090669 -0.021961024 0.008334228
-0.013876047 1.1820584e-33 0.08815797 0.020450128 -0.010236828 0.0313969 -0.027792921 -0.06288573
-0.018087726 -0.0029101039 2.4696126e-33 3.099801e-34 0.005584159 -4.6362535e-34 -2.104499e-34 -0.056050453
-0.022375917 0.015036861 -0.0059487037 -0.008702129 -9.630129e-33 -0.022233572 2.3229903e-33 1.8852727e-14
-0.019764604 0.07390628 1.035812e-33 -0.03455512 -6.826218e-33 -5.19246e-34 -0.030685956 5.701227e-33
2.0833312e-33 -0.025260422 8.7271375e-33 5.649453e-33 -0.079382524 2.6169393e-33 -3.344719e-34 -8.445642e-34
-8.479405e-34 9.676527e-35 -0.043414157 -0.015884543 -0.02170734 -0.00881412 -5.4783267e-09 0.08815802
0.0132129835 0.014767844 0.0816734 -0.0141743375 0.012307851 3.8816943e-33 -0.018325105 0.017348606
6.2457645e-10 -0.024302902 9.7638096e-33 3.0205003e-33 -0.03473751 -0.019473765 7.934432e-33 -0.0035386586

f0.0.bias f4 [256]
00000000: 24fa 953d ede1 9dbd 1f1d 6a3d 0dd5 51bd
00000010: 1a84 3cbd a53b c8bd 4465 eabd 6e4e 09bd
00000020: c488 133c d0f6 d8bd 2af8 87bd 94e4 95bb
00000030: 9b59 853d 0a75 8cbd 114c 4ebd 8cae cfbd
00000040: 93ce a3b9 c52e c4bd 4f91 fbbd 2751 813c
00000050: 9f13 41bd 4209 a4bd 60e4 17bc 0628 a7bc
00000060: 1ebc ebbc 9c02 9bbd a56e 3bbd ca51 d93b
00000070: 9e55 5dbd cce9 c6bd 45d0 cabc 9eba 203d
00000080: be03 33bc 280c 9bbc 98d2 a9b9 2870 d5bd
00000090: ac42 b3bd edd5 d7bc 317a e5bd 487c b0bd
000000a0: 7d5f 7abc a44d 97bd b7a1 963b 87cf e53c
000000b0: bb5b 41bd e44c 1ebd 221a 1abd 898e e53d
000000c0: dbe4 5dbd 09cd d0bc 76da b33d d3e3 d5bd
000000d0: 0ead 47bd 2607 95bd 4b76 96bd 6012 463d
000000e0: 54af 243c e284 7cbc 621a 85bd a9a8 c83c
000000f0: 0739 36bd e18a 0fbd 0b64 153d ca52 58bd
00000100: 0c24 b2bd b896 4dbd ec90 9ebc 2c5a a1bd
00000110: 0194 18bd f74c 3bbd 8e86 3abc 425b 403c
00000120: 5824 bfbd fb64 78bc cefa 7abd e78f aabd
00000130: 4bc3 babd 4a84 ac3b f952 33bd a9d7 abbd
00000140: 6efd ab3c f215 ccbd 07a8 ce3c 25e9 cdbc
00000150: 5be8 d2bd c516 c1bd 7b36 23bd e358 1cbd
00000160: ddc0 99bd 1e2a a0bc d9b5 a8bd 549b 94bd
00000170: f7f5 2d3d f006 fbb7 e82a 47b3 0b7b 4fbd
00000180: de4e 95bd 9879 85bc e2a7 c1bd 1403 67bd
00000190: e34f cfbd 54cb 403b 29a3 3e3d b1a8 c1bd
000001a0: 9d8c f2bc b828 7c3c 25cb 7dbd f8cd 75bb
000001b0: 526b 7bbc 7c1d 80bd 9338 413d 9227 dbbd
000001c0: 9751 8dbd 5d6a ffbd a4bf 733c 9792 b9bc
000001d0: 5f28 ce3c 521e 3dbd b7d4 51bd 3b0f f2bc
000001e0: 489a 1abd 0cbe 713b 95ab 27bc c4a7 fabd
000001f0: cac5 4bbc 693f 60bb 54d7 d0bd 6b48 76bd
00000200: 9e49 39bd 6911 28bb 30c8 083d daf1 adbd
00000210: d49f 14bd 8250 413c 735d 25bd 28f7 29bd
00000220: 6ecb 39bd 4a29 a9bd 160d 90bd 31e4 bebc
00000230: be96 973d bdd7 103c e5eb a83d 4eb3 4cbb
00000240: 5741 b1bc 7a81 c8bd 270e 26bd 77b6 61bd
00000250: 1998 cfbc d405 07bd 5505 a4bd 10d5 b93c
00000260: 4eb0 1abd d906 cbbb 9c76 c8bd f49a f9ba
00000270: 0c53 a1bd 2923 a8bd 9ea2 61bd 3c2d 6fbb
00000280: 23ff afbd 4bd9 ce3c f263 f23c 4632 4cbd
00000290: da59 d83b 1fd2 8c3b f8c0 2dbb 07f5 efbc
000002a0: be2b aebd 299e 7d3d bca0 12bd 99a0 12bd
000002b0: 5f9d 73bd d683 53bd 409f 333c 128b abbd
000002c0: 574e edbc 0196 773d 8d75 09bd 626c 933c
000002d0: 557e 4bbd 250b 453d ab97 17bd 9dbd 1ebd
000002e0: 754d c1b3 4f78 4c3d 553a 8f3d 2ef8 d03d
000002f0: fd2b d6bd 2afb 3cbc a326 47bc e984 d7bd
00000300: 0822 97bc 5ee6 32bd 59ab 38bc 09e5 84bd
00000310: d43d 99bc 3649 61ba 2bf1 a03c c9b3 b1bd
00000320: 9b0a 8abd c0bf a6bd 684d bdbd 73b1 25bd
00000330: 8392 15bd c8f9 5bbd 7b54 19bc 0836 1ebb
00000340: bc19 6d3d 1c7d 66b9 b50c fcbc b807 7bb9
00000350: 155b 3bbc 1c78 883d 6afb 9abd dcd3 2fbc
00000360: a7ad c4bc b724 92bd dc3b 213c d0f6 1bbd
00000370: d580 dabd e651 f1bc 358f cebd 4f72 33bd
00000380: 1ffe c0bd c763 9a3d ec9f 5dbd fa05 7abd
00000390: 3e22 83bd 7c2d e5bc 2250 0d3d 989c 84bd
000003a0: fcbf 85bd 0263 62bd 13a1 03bc 2684 3bbd
000003b0: bfc1 e3bd 35db 81bd 6a73 86bd 1440 a4bd
000003c0: 362e 6ebd 0551 c7b9 72db c9bc 3b34 73bd
000003d0: a983 1fbd ad2d a6bd 2a40 30a5 bc65 7b3d
000003e0: 2e85 85bd d02c bd3d 91fc c3bd f9c1 abbd
000003f0: 351d c63c f4fa b4bd 2be4 68bd 2f80 b0bd
0.07323101 -0.077091075 0.05715668 -0.05122857 -0.04602442 -0.09777001 -0.11445096 -0.033522062
0.009004775 -0.10593951 -0.066391304 -0.004574368 0.065112315 -0.06858261 -0.05036551 -0.10140714
-0.00031243693 -0.09579233 -0.12283575 0.015785767 -0.047137853 -0.08009578 -0.009270757 -0.020404827
-0.028776225 -0.07568857 -0.045759816 0.0066320645 -0.05403673 -0.09712562 -0.024757514 0.039240472
-0.010926185 -0.018926695 -0.00032391096 -0.10421783 -0.08752951 -0.026347125 -0.11204947 -0.08617455
-0.015281555 -0.07387856 0.0045969146 0.028053058 -0.04720662 -0.038647547 -0.03762258 0.11208827
-0.05417333 -0.025488393 0.087819025 -0.10443845 -0.048749022 -0.07276754 -0.07346781 0.048357368
0.010051567 -0.015412541 -0.06499173 0.024494486 -0.04448798 -0.035044555 0.03647236 -0.05281333
-0.08698282 -0.050192565 -0.019356214 -0.07878527 -0.037250523 -0.045727696 -0.011384619 0.011740508
-0.09333104 -0.015160794 -0.061274342 -0.083282284 -0.091192804 0.0052647935 -0.0437803 -0.08390743
0.020994868 -0.09965123 0.025226606 -0.025135586 -0.102982245 -0.09428171 -0.03984688 -0.038170706
-0.07507489 -0.019551333 -0.0823781 -0.07256189 0.0424709 -2.9924762e-05 -4.637232e-08 -0.050654452
-0.07290433 -0.016293332 -0.09455849 -0.05639942 -0.10122659 0.0029418068 0.04654232 -0.094560035
-0.029608065 0.0153905675 -0.06196131 -0.00375068 -0.015345411 -0.06255624 0.047173094 -0.10700907
-0.06900328 -0.12471459 0.014877234 -0.022652907 0.025165735 -0.046171494 -0.05122825 -0.029548278
-0.03774479 0.0036886958 -0.010233779 -0.1223903 -0.012437293 -0.0034217483 -0.101973206 -0.060127657
-0.045236222 -0.0025645143 0.03339404 -0.08493395 -0.036285236 0.01179898 -0.040372323 -0.041495472
-0.04536002 -0.082598284 -0.07033746 -0.02330217 0.07401799 0.0088404985 0.08248118 -0.0031234804
-0.021637602 -0.09790321 -0.04054084 -0.055105653 -0.02534108 -0.032964543 -0.080088295 0.022684604
-0.037765794 -0.0061958847 -0.09788248 -0.0019043372 -0.07877168 -0.08209831 -0.055086724 -0.0036495468
-0.08593585 0.025250098 0.029588673 -0.049852632 0.006602508 0.0042975093 -0.0026512723 -0.029291643
-0.08504437 0.06191841 -0.03579782 -0.03579769 -0.059476253 -0.0516394 0.010963261 -0.08376135
-0.02896802 0.06044579 -0.03355937 0.017996017 -0.049681026 0.04810633 -0.037009876 -0.038755048
-9.001352e-08 0.049919423 0.06993548 0.102035865 -0.10457609 -0.011534492 -0.012155208 -0.105233975
-0.018448845 -0.043676727 -0.011271321 -0.064889975 -0.01870624 -0.0008593978 0.019646248 -0.086768694
-0.06740304 -0.08142042 -0.0924328 -0.040452432 -0.036516678 -0.053705007 -0.009358521 -0.0024141092
0.05788587 -0.00021981116 -0.030767778 -0.00023940101 -0.01143529 0.06663534 -0.07567485 -0.010731664
-0.024008585 -0.07135909 0.009840932 -0.038077176 -0.10669104 -0.029457998 -0.10085908 -0.043810185
-0.0942347 0.07538562 -0.05410759 -0.061040856 -0.064030156 -0.02797579 0.03450025 -0.064751804
-0.06530759 -0.055270202 -0.008034009 -0.045780323 -0.111209385 -0.063406385 -0.06564982 -0.080200344
-0.05814954 -0.00038016602 -0.024640772 -0.059375983 -0.03894392 -0.08114181 -1.5287306e-16 0.06137632
-0.06519543 0.09237063 -0.095696576 -0.08386607 0.024183849 -0.08836928 -0.056858223 -0.08618199

f0.2.weight f4 [256, 256]
00000000: 38e4 da3a 68f0 9fbc 9997 913d a0a1 1f3d
00000010: e4d6 d9bc b06e d5bc eca6 d5bc 73f1 93ba
00000020: 660c f53d 6459 f0bc c573 a1bc 5157 fc30
00000030: 05a8 613e 3772 a0bc 840c 9abc a5a4 c2bc
00000040: b5ea 5009 db71 c5bc 8500 7cbc 4f60 d53d
00000050: 1541 98bb e699 e2bb 3cf8 9db5 cf12 0abb
00000060: ef9e b93d b0f1 bebc 267e 478a 7b38 a13d
00000070: 6350 c1bc a9a9 bcbc 8b58 25b8 6154 5fbb
00000080: ece0 e93b 6c56 f20a 7b2c c88a e830 18bd
00000090: f495 dfbc ba36 a6ba b7c7 58bc a730 0ebc
000000a0: 14cd b1bc 6f38 d5bc ff81 b93d e12e bbbc
000000b0: 7c3d 99bc 622a f7b5 49aa f0bb e738 843d
000000c0: aa7c 50bb 5578 d63c d790 403d cac1 a4bc
000000d0: 78d2 9abc 751d cdbc 6a5f a2bc 2cca 8b3d
000000e0: 432b 333c 3467 1b3d a26b 74bc 10ae e5bb
000000f0: 4162 ccbc 5134 8fbb a59b df3d ca41 72bc
00000100: ae75 31bc 6f09 babc 2f0c 623c 6c89 51bc
00000110: 6a08 d938 bb91 82bb 878f db3a 29d4 f03d
00000120: 4600 b4bc 4bdd 9ebc 10ad 07bd 1abe e7bc
00000130: 506f b5bc 29db 82bb 4eaa b917 5b50 f1bc
00000140: cb36 173d b7b5 c3bc 9f12 9abb ede0 c5ba
00000150: 11c6 f9bc 3826 adbc 8a9e d4bb d630 39bc
00000160: 95b9 babc 7dd1 0528 74a8 f8bc 3359 ebbc
00000170: a954 68bd c447 f389 63cd f788 9eac cabc
00000180: 54df a03b 898e 9a3c 36b8 76bc 7f7f b2bb
00000190: 7f98 46bc 40eb 113d 40b2 cb3d fc7e 99bc
000001a0: fb21 df3d 22ab f4bc e46b efba 901f ba3c
000001b0: 83b0 ec27 ba88 b2bb 98e1 8c3c b008 8cbc
000001c0: e956 87bc 7dfd c2bc 07cd 9c3d e4ac c3bc
000001d0: d584 3bba 2cc3 c0bb a2be 7bbc 4486 50b4
000001e0: 8b75 86bc 4fa6 9db2 6a6a 3b3c fb6e 0fbc
000001f0: f882 9e3d 405e 62bc 4a2a d6bc 99a1 d2bc
00000200: 31fe a9bc 0fba c23b a52e 9ebc 81e4 e8bc
00000210: 1237 9fbc 128d d73c 4ebe 37bc 940f cabc
00000220: 3b74 9dbc bd7b d0bc c094 ddbb ea4c afbb
00000230: a945 8e3d e7cd 453d 8c80 babc 6dbd 02bd
00000240: 488c d9bb 66d3 cfbc 048a aebc c384 04bc
00000250: 88ed 3f35 1e92 bd8b 4cd9 91bc 955a 7a3c
00000260: c37b c53c 04a3 5425 1d39 a4bc dcf7 103d
00000270: 6c2b b1bc ec76 c0bc 022a f7bc 3a80 f989
00000280: 55f6 d4bc 0ec6 06bd 67a4 2a3e 4e1c 438b
00000290: 135d 853b 17ab 73b9 658c 238b 0cc3 db3c
000002a0: d9cd e3bc 45bd be3a c1da 0ebd 2cb5 10bc
000002b0: 6f1a a8bc d04a 143c 1917 8cbc e5c3 bbbc
000002c0: 4ca8 99ba 91c8 cf3d 4bd4 209a 65e3 283d
000002d0: c21b cbbc d473 0b3c 5b80 69bc 0b09 ccbc
000002e0: 9016 3c89 8a29 6c3c 2ede 423e e36a 433e
000002f0: fb66 c9bc 1a34 8a23 99b6 0b3d ff16 efbc
00000300: af5a 00b9 6358 dbbc 1f2a e5bc 3833 d7bc
00000310: 6ace c9bc 1b10 ae34 bc4f 483e eb41 01bd
00000320: e3c4 cdbc fffa 26bc 817f a1bc e87a aabc
00000330: 52bd bcbc edff d1bc df3a 743d 57fc 13b0
00000340: 3245 2a3c 8536 403d 30ee 2fbb c62e 1c21
00000350: 9cad 1716 9415 2f3d 4528 dbbc 44bd c23c
00000360: 3156 8915 7446 e5bc f20f 213b 0bf0 9fbc
00000370: 6c2d c6bc 30a0 c7bc 4eca a83a 4a8a 82bc
00000380: f7b1 f1bc ee57 903d 271b b3bc 59e4 92bc
00000390: 1287 e3bc acb7 c4bc 5841 db3c 3c4c b4bc
000003a0: 7a26 01bc 3c33 b73a 37d0 b009 0124 adbc
000003b0: c087 04bd da78 0ebd 0e9b 13bd 5beb 38bc
000003c0: f52f b3bc d647 313d 071b d23d 5e05 dabc
000003d0: 0fd6 c9bc 45ef 0b3d 101b 1c89 bd7a 583c
000003e0: 6991 e5bc 77e9 c03b adab e5bc 49c2 a3bc
000003f0: 1532 68bd 1f15 88bc 1ed4 ac8c ecd6 97bc
0.0016700095 -0.019523814 0.07108993 0.038972497 -0.026591726 -0.026053756 -0.026080571 -0.0011287167
0.119652554 -0.0293395 -0.019708524 1.836023e-09 0.2203675 -0.019585712 -0.018804796 -0.02376015
2.5147448e-33 -0.024102142 -0.015380983 0.1041876 -0.0046464303 -0.006915319 -1.1769657e-06 -0.002106834
0.09063517 -0.023308605 -9.605227e-33 0.07872101 -0.023597902 -0.023030119 -3.9421528e-05 -0.0034077393
0.0071374085 2.333626e-32 -1.9276031e-32 -0.037156016 -0.027293183 -0.0012681105 -0.0132312095 -0.008678592
-0.021704234 -0.026027886 0.09057998 -0.022849502 -0.018706076 -1.8415269e-06 -0.0073445183 0.06456166
-0.0031812587 0.026180426 0.04701313 -0.020111937 -0.018899187 -0.02503846 -0.019820888 0.068256706
0.010935607 0.03794022 -0.01491824 -0.0070092753 -0.024949195 -0.0043702503 0.10918359 -0.014786193
-0.01083128 -0.022709576 0.01379685 -0.012789112 0.000103489336 -0.0039846576 0.0016751149 0.11759216
-0.021972787 -0.01939263 -0.03312403 -0.02828889 -0.022147804 -0.003993411 1.1998336e-24 -0.029457262
0.03691749 -0.02389036 -0.004701927 -0.001509694 -0.030489953 -0.021136388 -0.006488626 -0.011303147
-0.02279357 7.428409e-15 -0.030353762 -0.028729057 -0.056721363 -5.856761e-33 -1.4914058e-33 -0.024740513
0.0049094353 0.018866794 -0.015058568 -0.0054473276 -0.012121319 0.035624743 0.09946108 -0.018737309
0.10895153 -0.029866759 -0.0018266407 0.022720128 6.5694533e-15 -0.005448428 0.017197415 -0.017093986
-0.016520934 -0.023802513 0.07656293 -0.023886152 -0.00071532774 -0.0058826413 -0.015365275 -1.9420355e-07
-0.01641347 -1.8352834e-08 0.011438945 -0.008754487 0.07739824 -0.013816416 -0.026143212 -0.025711821
-0.02075109 0.00594259 -0.019309351 -0.028429272 -0.01943544 0.026312385 -0.011214806 -0.024665631
-0.019220462 -0.025449628 -0.006762117 -0.005349745 0.0694688 0.048292067 -0.022766374 -0.03191893
-0.0066390373 -0.025369357 -0.021306045 -0.0080882935 7.14987e-07 -7.3020005e-32 -0.01780381 0.0152803855
0.024106866 1.8443301e-16 -0.020046765 0.035392627 -0.02162715 -0.023494206 -0.030171398 -6.0065153e-33
-0.025996367 -0.032903723 0.16664277 -3.7576928e-32 0.004069933 -0.00023238022 -3.149828e-32 0.026826404
-0.027808117 0.0014552256 -0.03487659 -0.008832257 -0.020520417 0.00905104 -0.017100858 -0.022920558
-0.001172313 0.10145677 -3.3258713e-23 0.041232485 -0.02479351 0.008511502 -0.014251794 -0.024906656
-2.2640286e-33 0.014414201 0.19030067 0.19083743 -0.024585238 1.4984056e-17 0.034109686 -0.02918577
-0.00012240814 -0.026775545 -0.027974186 -0.02626954 -0.024634559 3.2421744e-07 0.19561666 -0.031557005
-0.025118297 -0.010191678 -0.019714119 -0.02081056 -0.023039494 -0.02563473 0.059626456 -5.3836885e-10
0.010392474 0.046926994 -0.0026844852 5.291676e-19 1.2252464e-25 0.042745188 -0.0267526 0.02377189
5.5469845e-26 -0.027987696 0.0024576155 -0.019523641 -0.02419158 -0.024368376 0.0012877674 -0.015935082
-0.029503806 0.07048021 -0.021863533 -0.01793115 -0.027774367 -0.024013363 0.026764557 -0.022009008
-0.007882709 0.0013977061 4.2566263e-33 -0.021135332 -0.032356024 -0.03478322 -0.036036544 -0.011286582
-0.021873454 0.0432814 0.10259061 -0.026613887 -0.024638204 0.034163732 -1.8790542e-33 0.013212857
-0.028023439 0.005887206 -0.028035963 -0.019990103 -0.056688387 -0.016611634 -2.662846e-31 -0.0185351

f0.2.bias f4 [256]
00000000: 880f 4a3c b37a acbc c978 1dbd b967 91ba
00000010: 2355 70b5 f989 94ba e12f e9bc 80a0 4a3d
00000020: 252f acbb adc7 cebc 56a4 ca3c 87ce d2bc
00000030: 538c 033c ab94 1c3d 244f d8bb 997a 06ba
00000040: 3e06 bcbb 3258 a7b9 382d 9cbc 87e7 13b9
00000050: e7da 093d 0733 18b3 0196 533c b532 3ebd
00000060: 46a2 a5bd 466a 22bd 3964 a43c 377c 54bd
00000070: f840 0bb2 3ecd ddb9 e40b 27bd 8596 87bb
00000080: d558 8abc 4a8d 20bc 1adf 673b d69d beba
00000090: dbef 5f3b 1215 8d3c 6ee4 7c3b d1cc 56bc
000000a0: 8204 d73b a3f3 febb 9432 f5bb 9005 12bd
000000b0: 293b 52bc 884f 8f3d d0d0 88bb 0987 d7bd
000000c0: 5915 5abb 414c 953d 904d 4dbd 247f 78bd
000000d0: 1a04 f4bb 9826 e2bc 2a85 ad3d 8c30 ac1d
000000e0: 17f7 24a9 5c20 81bd 85ad 003b bb81 d0bc
000000f0: 432c e3bc 0e98 4a3d a928 47bd 4f87 69bd
00000100: cda5 413d 60da 323d 30e6 f63c 4d56 8f3d
00000110: 7443 dcbc 1cd9 e93c 0613 59bd 9c82 05bc
00000120: 4544 f2bb f11d eebc 3db9 25ba b014 523d
00000130: 49cc 1fb3 4cb5 7abc 9eb6 71bd eb44 1fbd
00000140: 469e 89ba 118a c8bb 1266 2fbd 6623 84bc
00000150: 5076 aabd 5cb4 99bd 9aa2 adbc 45b1 083d
00000160: e686 76bc 9d65 e83d 2d16 04bd 69ce 2cbd
00000170: 555d 10bc 54a7 4fbc debd 2abc 3778 553d
00000180: 9b6d a53d 9627 51bd 8061 26bd 45d9 3ebd
00000190: ac13 3fbb 105e 6abd fe34 aabc 82e4 edbb
000001a0: 036f b43c 24bb b2bb 59f3 11ab 9a97 18bc
000001b0: a048 0a3c dca8 a23c 9d2a 25bc a894 8fbd
000001c0: d3f4 c9bc 799c f2bc 99d7 4f3d 38e8 39bb
000001d0: d6ec b13c b35c ca3b a849 43bd 827c 84bb
000001e0: 7c5c 1fbd 5465 5bbc cf56 30bc 733d fd3b
000001f0: db57 99bd f806 89bb 622e 32b4 f6cd aabc
00000200: 2331 57bd eb60 80bd d9f3 163b 9e99 d5bc
00000210: 3ee6 6cb8 b3ca 7dbc 1c9b 24bc c8d8 03bd
00000220: a40e ba3b d379 bab7 2372 da3c e575 0cbd
00000230: 004b 99bc ec6d 023d d3b5 993c fb33 ed3c
00000240: 4e45 cca4 33cf aa3c 3bcd 333d 2f5e 0cb9
00000250: 9e20 ccb3 e511 d2bc 8d06 bebc df51 b73c
00000260: 8252 8bbd acc0 ef3b f20e f6bb 34e6 17bd
00000270: 48ad b5b9 b321 55bc 2eaf 49af f060 86bc
00000280: 8755 4f3c 5252 59bd c301 d7bb f42f fd3c
00000290: 8052 6dba 6d3d afbb 9975 253d f4a1 cdb9
000002a0: 12a3 69ab c97a 9b3d 053d 6c3d 0b71 83bc
000002b0: affd abba 1e2d 63bc 789b 9cbd 51f8 433c
000002c0: 558d da3c 2d2c 44bd 8ecf a7bd a48c 663d
000002d0: c778 18bc 9808 1d3e 4c73 153d 7aa9 db3b
000002e0: 6619 0e3c 7a05 14bd 630d 7f3b d302 ddbc
000002f0: 5d43 03bd a030 b93c cf23 e63c 9d84 0cbd
00000300: ace1 6e3b 9cfe f0bb 3152 fe3c 95eb 0b3e
00000310: 3b91 aebb d718 133c 809a 4a3b 15ed 523c
00000320: 277c 143d 47e3 0b3d 1f39 63bd 0c20 d4bc
00000330: dd36 e6bc 093c d53b bf19 dc3b 4f50 29bd
00000340: 4a20 a3bd 0e72 171e 196f 573d 74ec 3fbb
00000350: b3f2 3ebc fed6 94ba adf5 7bbd 9561 22bd
00000360: 1c2d 2bbb 1dc6 df3c eeb7 70b8 afd7 35bd
00000370: 45a3 a8bc bb5d 04bc ab4a a3bc 0eb9 55bd
00000380: 61e3 9ebb 052a 6d3d 4256 75bc 0d8b 993c
00000390: 82d9 1ebc cd4b 873c f9ef efbc a6ef 4cbd
000003a0: 9606 833b b0eb 49bd 3718 9abc 24bb 06bc
000003b0: 4a2e a43b 4309 e5bb 8963 f5bc 2af2 36bd
000003c0: 1189 66bc db77 d03b 0046 afbd 935c 62bd
000003d0: c4c0 c1bd 3323 063d 825b 94bb fb7f 19bd
000003e0: 1978 bd3c 6371 90bb 951b 553c a02b 8db8
000003f0: 86e1 08bd d572 37bb c534 3abd 52a2 a8b3
0.0123328045 -0.021054601 -0.038445268 -0.0011093534 -8.953086e-07 -0.0011332623 -0.028465213 0.04946947
-0.0052546435 -0.025241697 0.024736565 -0.025733246 0.008029061 0.03822772 -0.006601231 -0.0005129963
-0.005738049 -0.00031918433 -0.01906453 -0.00014105263 0.033656027 -3.5436667e-08 0.012914182 -0.046435077
-0.08087592 -0.03965213 0.020067321 -0.051876273 -8.105637e-09 -0.00042305322 -0.040782824 -0.0041378164
-0.016888062 -0.009799311 0.0035380782 -0.0014542888 0.0034170065 0.017221961 0.0038588303 -0.0131103555
0.0065618167 -0.0077805086 -0.007482836 -0.035649836 -0.012831488 0.06997591 -0.004175283 -0.10523803
-0.0033276884 0.07289935 -0.050122797 -0.060668126 -0.007446778 -0.027606294 0.08472665 4.5578217e-21
-3.662963e-14 -0.06305 0.0019634676 -0.025452485 -0.027731067 0.049461417 -0.04862276 -0.057013806
0.04727726 0.04366529 0.030139059 0.069988824 -0.026887633 0.028545909 -0.052996658 -0.0081488155
-0.0073933923 -0.029067012 -0.0006321853 0.05128926 -3.720587e-08 -0.015302014 -0.059012048 -0.038884085
-0.001049944 -0.0061199744 -0.04282195 -0.01613016 -0.083233476 -0.07505104 -0.021195699 0.033372182
-0.015046811 0.11347506 -0.03224771 -0.042189036 -0.008811315 -0.0126741715 -0.010421244 0.0521166
0.08077546 -0.051063143 -0.040620327 -0.046593923 -0.0029156012 -0.05721861 -0.020777222 -0.0072599063
0.02202559 -0.005454438 -5.185206e-13 -0.009313488 0.008440167 0.019855909 -0.010080961 -0.07010776
-0.024652874 -0.029615628 0.05074272 -0.0028367173 0.021719377 0.0061756014 -0.047677666 -0.004043163
-0.03890656 -0.013390858 -0.010762884 0.0077282726 -0.0748746 -0.004181739 -1.6594416e-07 -0.020850163
-0.052537095 -0.06268486 0.0023033528 -0.026074227 -5.6481214e-05 -0.015490222 -0.010046747 -0.03218916
0.005678015 -2.2229657e-05 0.026665753 -0.03429212 -0.01871252 0.03184311 0.018763458 0.02895545
-8.8588304e-17 0.020850753 0.043896895 -0.00013386527 -9.505423e-08 -0.025643298 -0.023196483 0.022377906
-0.068028465 0.0073166694 -0.007509106 -0.037084773 -0.00034652115 -0.013008523 -1.834308e-10 -0.016403645
0.012654669 -0.053057022 -0.0065614893 0.030906655 -0.0009053126 -0.0053478987 0.040395353 -0.0003922131
-8.3004534e-13 0.07591779 0.05767538 -0.016045114 -0.0013121868 -0.013865737 -0.07646841 0.011961059
0.02667872 -0.04789369 -0.08193885 0.05628647 -0.009306139 0.1533531 0.03648691 0.006703553
0.008673048 -0.036138035 0.0038917891 -0.026978886 -0.032046665 0.022606194 0.028093247 -0.034306157
0.003645043 -0.0073545706 0.031045051 0.13664086 -0.0053273714 0.00897809 0.0030914843 0.012873908
0.036251213 0.034152295 -0.055474397 -0.025894187 -0.028102333 0.006507401 0.0067169364 -0.041336354
-0.07965143 8.017459e-21 0.052596185 -0.0029285224 -0.011654544 -0.0011355577 -0.06151359 -0.039643843
-0.0026119417 0.027316147 -5.7391757e-05 -0.044395145 -0.020585665 -0.008078988 -0.019933065 -0.052178435
-0.004848883 0.0579014 -0.014974179 0.018743062 -0.009695413 0.016515637 -0.029289233 -0.050033234
0.003998588 -0.049297035 -0.018810375 -0.008223329 0.005010401 -0.0069896295 -0.029954689 -0.04466454
-0.014070765 0.006361944 -0.08558273 -0.055264067 -0.09460595 0.032748412 -0.00452751 -0.037475567
0.023128556 -0.004408048 0.013007064 -6.73153e-05 -0.0334182 -0.002799203 -0.04546048 -7.8526355e-08

f0.4.weight f4 [130, 256]
00000000: 5a9e 843a 42bc 1e3c 724f 6abc 1aee dabc
00000010: f817 3009 76a6 363c 105d 6abc 48a9 80bd
00000020: 50da 0d3a f078 febc d64d d9bb 2a49 a3ba
00000030: b78c f53d 0a6e 6abd 3a83 4139 4bc2 2289
00000040: 605c b73a 6c4c 8c0a eb8b 073c 248a ff3d
00000050: 2e89 173e 1fdd cc09 625c 8c3d b45d 7fbb
00000060: 193e 0abd d22e 4f23 35e4 d1bb 2540 f0bc
00000070: 7098 7e87 9dd9 4a88 e8e7 41bc d2f5 643c
00000080: 6285 e888 ffb2 fdbc 3f88 2d3d 360c de08
00000090: 8b20 64bc 2dfb 663d 0847 b43c 3776 c2bb
000000a0: 496b 9fbc f7fe d0bb c2e2 caba de36 1409
000000b0: d620 8dbc 09c5 0b3e 2da0 cc22 3069 09bd
000000c0: 39c2 8a0b 4559 083e ff28 ebbb ea0d f5bc
000000d0: d911 863c 3c4c 67bd 66a6 0c3e fa5d f2af
000000e0: 6d3c 1409 46cf e13d 5f4f 89bc 1594 35bb
000000f0: 1113 85bb 8641 543e 5dbc e1bc e088 d03a
00000100: 9d22 d03d c260 8ab8 d8ba ac3d 11fc 8f3d
00000110: 3178 a788 0a83 e2bb 0bd9 64bb 6ab0 ef3b
00000120: 152e 8dbb 489e a2bc aec6 b987 0d10 2e3c
00000130: 4a1e b93a 177f d4bc 7fc9 1fbd 02b7 803d
00000140: 8e91 f889 83db 8d3d 1d71 b1bc bab8 a73d
00000150: 9690 61bd 6f20 29bd 7f78 a5bc 0b36 f0bc
00000160: ff17 f6bb 26fe 6b3e f298 a5b7 60b2 97bb
00000170: 7887 168a eeb5 2fb5 de79 4b3c 0e71 fb3d
00000180: e79d fc3d 864b 0ebd e2bd 7a08 66a9 8308
00000190: 9cbc f4bc 9b96 883c 437f fa3c 8abb 853c
000001a0: 6cbc aa3d c8f2 f33c 4f22 040a 54c8 f30a
000001b0: 65b0 043d 4028 28bc 56eb 153d 01b2 c7bc
000001c0: 320a 8e3c d394 4ebd ecec 9f3d 3997 850a
000001d0: dd7a 863b 5844 fcbb b6c9 d5bc 44e7 e23c
000001e0: 5faa c33d ebce 2b18 2adc 9193 9abc b3bc
000001f0: 9abd dfbc 2c42 ae3b 8e5f f38c a9bd e039
00000200: 2750 cabc 8811 cfbc da1f 69bc 016f ad37
00000210: 2c32 030a 6c92 46a0 c8f1 03bc 4f9b 0ebc
00000220: 246c 6cbc 0faf 7f0a cdb5 d73c de20 fcbc
00000230: eeb4 9089 a966 003c 102e ae3d 811b ff3d
00000240: fd58 f509 2a1c 75bd 6907 bb3d 3ef8 4089
00000250: 0c44 eb87 b36e 0a3e 2f66 992c 14c9 72bc
00000260: f455 f7bc 4646 0dbb 39c4 b738 bdc9 423d
00000270: e0ca 829a 2e7c 983c a38c 05bc 4065 c3b2
00000280: b6f2 63bd 69c7 b4bc 845c 8e3c dc91 7dbd
00000290: e709 18bd 3d15 97bb f1ab 9ebc 50cb 0d89
000002a0: 8862 9688 19e3 333d c51f 963d ebff 163d
000002b0: 6628 3e89 0e1f 043d 00f9 1bbd 70bb 2cbc
000002c0: 2291 01bd a2f0 eabc 8e2c 98bc 78f6 22bd
000002d0: 93db 103b 764d 273e a10b 943d 4a4f dbbc
000002e0: d48d 53bd 4434 b009 4e9a c4bc 497e 7fbc
000002f0: ad87 ddbc 6de2 35b6 924e 6036 b00e 9ebc
00000300: daee f23d 9421 1d3d 6343 1bbd 78b3 493e
00000310: 1bff c4b8 e1b3 d33d 560f 6fbd 5a69 70bd
00000320: a478 1f3e 3a6a 623d c391 e1b6 5479 5fbc
00000330: 4acb 6d3c 1960 7c3a f8f0 903c b204 6bbc
00000340: f32c c3bc c603 d98a 9051 1a3e d813 899b
00000350: c7c5 17bc 8e5f ae0a 7cc5 813c 54b3 3dbb
00000360: c91b 12bc ca1f eebc bd3e 050a 1dc5 3488
00000370: 8923 1336 3a75 8d8a 7cee d53d 60c8 6707
00000380: f181 a93c 8492 0f3e ac44 b609 f7a0 6ebd
00000390: 490e 70bc 91f0 f03d 0ad4 43bb 0e39 93bc
000003a0: 97ad 383d 4bac 9fbb 06a4 af39 4a21 6e3c
000003b0: 0a47 d0bc 969d 5cbb 8cb5 ef09 89cc d0bc
000003c0: e358 093d c741 12bc 6225 05bd e818 3b20
000003d0: bbc1 533d 1594 a9bc a077 b80a 396b ef3a
000003e0: 0dd7 40bc 4fc4 8d28 8b7a 973c 8244 7e88
000003f0: 4444 23bd 7b6c ef88 9a77 3c8b 6400 cc8c
0.0010117993 0.009688439 -0.014301168 -0.026724864 2.11965e-33 0.011148086 -0.014304414 -0.06282288
0.0005411254 -0.031063527 -0.006631593 -0.0012457718 0.1198973 -0.057233848 0.000184548 -1.9591397e-33
0.0013989322 1.3510256e-32 0.008273105 0.1247752 0.14798424 4.9319155e-33 0.06853558 -0.0038965764
-0.033750627 1.1231407e-17 -0.006405378 -0.029327461 -1.9153634e-34 -6.1042967e-34 -0.011835076 0.013974624
-1.399435e-33 -0.030969141 0.042366263 1.336401e-33 -0.0139237745 0.056391884 0.022006527 -0.0059345025
-0.019460337 -0.0063780504 -0.0015478956 1.784065e-33 -0.017227571 0.13649382 5.5463904e-18 -0.03354758
5.34479e-32 0.13315304 -0.007176518 -0.029913861 0.016365932 -0.056469187 0.13735351 -4.4086318e-10
1.7843264e-33 0.110258624 -0.01676148 -0.0027706672 -0.004061111 0.2072812 -0.027555639 0.0015909933
0.10162852 -6.598375e-05 0.08434075 0.070305 -1.0079204e-33 -0.0069125937 -0.0034919407 0.0073147314
-0.004308472 -0.019850865 -2.795248e-34 0.010623944 0.0014123407 -0.025939507 -0.03901052 0.06284906
-5.9840707e-33 0.06926634 -0.021660382 0.08189531 -0.05506953 -0.041290697 -0.020199059 -0.029322645
-0.007510185 0.23046169 -1.9740753e-05 -0.0046294183 -7.247716e-33 -6.545732e-07 0.012419192 0.12277423
0.12334805 -0.034739994 7.5454845e-34 7.924101e-34 -0.029875092 0.016673377 0.030578261 0.016324777
0.0833672 0.029778853 6.3620215e-33 2.3475404e-32 0.032394785 -0.010263503 0.036601387 -0.024376871
0.017338846 -0.0504349 0.07808861 1.2864318e-32 0.004104002 -0.007698577 -0.02609716 0.027698167
0.0955398 2.2205699e-24 -3.6820245e-27 -0.021940518 -0.027312089 0.005317947 -3.7497588e-31 0.00042865917
-0.024696423 -0.025276914 -0.014228785 2.0674897e-05 6.316857e-33 -1.6819699e-19 -0.008053251 -0.008704021
-0.01443008 1.2310728e-32 0.026331807 -0.030777391 -3.4836884e-33 0.007836976 0.085048795 0.12456418
5.906529e-33 -0.059841312 0.09132273 -2.3227882e-33 -3.5398864e-34 0.13518791 4.359866e-12 -0.014818449
-0.030192353 -0.0021556779 8.762669e-05 0.047555674 -5.40945e-23 0.018613901 -0.008151206 -2.2747031e-08
-0.05565139 -0.022067742 0.0173781 -0.06190668 -0.03711882 -0.004610686 -0.019369097 -1.7067855e-33
-9.050961e-34 0.04391775 0.07330278 0.036865156 -2.2889413e-33 0.03225618 -0.03807926 -0.010542735
-0.03163255 -0.028679196 -0.018575933 -0.039785832 0.0022103533 0.16338143 0.072287805 -0.026771206
-0.05164893 4.241961e-33 -0.02399936 -0.015594074 -0.027042234 -2.71029e-06 3.3424335e-06 -0.019294113
0.118619636 0.0383621 -0.03790606 0.19697368 -9.3935254e-05 0.103370436 -0.058364235 -0.05869422
0.15573364 0.055277087 -6.7224914e-06 -0.013639767 0.0145138 0.0009627357 0.017693028 -0.014344381
-0.023825144 -2.089776e-32 0.15070176 -2.2677573e-22 -0.009263462 1.6791534e-32 0.015841238 -0.0028946
-0.008917757 -0.029067893 6.415517e-33 -5.4398485e-34 2.1925391e-06 -1.3621902e-32 0.10445878 1.7437393e-34
0.020691844 0.14020735 4.3879485e-33 -0.058258977 -0.014651843 0.117646344 -0.0029881024 -0.017971542
0.045087423 -0.004872834 0.00033500808 0.014534304 -0.025424499 -0.0033663264 5.7707883e-33 -0.025488155
0.033532035 -0.008926815 -0.032506354 1.5847757e-19 0.051698428 -0.020700494 1.7763553e-32 0.0018266208
-0.011770022 1.573928e-14 0.01849105 -7.6515875e-34 -0.039860025 -1.4409793e-33 -3.629746e-32 -3.1431412e-31

f0.4.bias f4 [130]
00000000: 8fb9 1abc 8c52 793c 693f fcbc 44f6 92bc
00000010: 3dec 92bc 1b66 8c3c 1441 4cbc 4459 783c
00000020: 7890 9586 fb04 d189 d1c4 55bd b27d 0dbc
00000030: 2a8a 87bc a5e4 803c b9f4 33bc d57f 3cbc
00000040: d51a 86bc 7fa5 b4bc f323 7ebd 5109 663b
00000050: 9689 2489 211d 5dbd 8f73 243b 9217 6e0a
00000060: a38f f208 f3f0 3608 5581 99bc 4fd1 0c09
00000070: 02f7 058a bdc0 d9bc 9835 bcbd 2c47 c2bc
00000080: 94c1 1088 e454 82bd 9b48 95bd a9a3 25bd
00000090: a567 3a09 c621 5ebd 650c f609 a013 87bc
000000a0: c9d2 66bb dc3b 5abc c053 36bd 8c63 a0bd
000000b0: 6e47 0609 8aba 82bd 4969 29bd 5ad9 2809
000000c0: 384b 42bd 5671 a109 625a a4bc 2e40 0089
000000d0: ec64 38bd fa35 76bd 3b8b 1ebd 0ff0 99bc
000000e0: 5f58 f5bc b82a e988 bf98 aa3b e8fe 468a
000000f0: bbea 4bbd bb75 1b09 da6d e689 bd2a 093d
00000100: f18d e7bc ad2f 093c 00d0 8dbc 5022 e808
00000110: 1a8d fb89 b33c 13bd 1260 74bc 95e3 d4bc
00000120: e898 74bd 6ac0 4ebd e3d6 a28a 6b41 8cbb
00000130: 88a4 61bc 9ce2 1e89 68a9 ee3c 93fe e13a
00000140: eefc 203d a23a bc3c 2205 20bd eca1 880a
00000150: 830a 49bd 5174 9809 0807 4bbd d5a6 3c09
00000160: 4d21 3b3a b657 04bc fced 333d f413 dcbb
00000170: 99af d4bc b4ec 163c 215d 7709 121e b2ba
00000180: c98a 84bb 6b8d 1dbc 9fac 35bd 902e d6bc
00000190: c029 b2bc 60d3 083c 5497 aabd d076 ee86
000001a0: 73b4 79bc 541a d487 95a0 2c89 cbb0 e13c
000001b0: 122e 0b3d 03bc d8bc c412 4fbd 730d 133d
000001c0: ea69 ab88 0cf3 9308 3405 62bd 6b90 83bb
000001d0: d27a 69bd 77e8 3abd 3dd8 cebc 139f cdbc
000001e0: a85e cc08 3ee6 13bd de9a d9bc 5ae8 1e3a
000001f0: 6cd8 cf0a d022 b289 3063 6509 9ed9 8108
00000200: 2f7e b8ba 00cd 4c87
-0.009443655 0.015217435 -0.030791955 -0.017939694 -0.017934913 0.017138531 -0.012466688 0.015158001
-5.625985e-35 -5.0319603e-33 -0.052189652 -0.008635925 -0.016545374 0.015734026 -0.010983639 -0.011505087
-0.016370216 -0.022051571 -0.062046003 0.0035100768 -1.9805475e-33 -0.053982858 0.0025093292 1.1463716e-32
1.4598614e-33 5.5051867e-34 -0.018738428 1.6950303e-33 -6.450174e-33 -0.026581163 -0.0918991 -0.023715578
-4.3560974e-34 -0.06363848 -0.07289239 -0.04043928 2.2437669e-33 -0.054231428 5.9234e-33 -0.01648885
-0.0035220853 -0.013319936 -0.044513464 -0.07831487 1.616325e-33 -0.06383236 -0.041360173 2.0324463e-33
-0.047435015 3.886592e-33 -0.02006263 -1.5437617e-33 -0.04501812 -0.06011007 -0.038707 -0.018791227
-0.029949365 -1.40332205e-33 0.005206197 -9.581296e-33 -0.049784403 1.8712803e-33 -5.547379e-33 0.033488024
-0.028265925 0.008373183 -0.017311096 1.3971059e-33 -6.0558743e-33 -0.03594656 -0.014915483 -0.025987426
-0.059716135 -0.05047647 -1.5680864e-32 -0.0042802594 -0.013772137 -1.912511e-33 0.029133514 0.0017242007
0.039303713 0.022977177 -0.039067395 1.3157232e-32 -0.04908229 3.6702052e-33 -0.049567252 2.270812e-33
0.0007138446 -0.008077553 0.04392813 -0.006716246 -0.025962638 0.009211708 2.9775333e-33 -0.0013589284
-0.004044865 -0.009616236 -0.044354077 -0.02614525 -0.021748424 0.008351177 -0.08329645 -8.970023e-35
-0.015240776 -3.191369e-34 -2.0779252e-33 0.027550122 0.033979483 -0.026456838 -0.050555006 0.035901498
-1.0316588e-33 8.904381e-34 -0.055180743 -0.0040150187 -0.057001896 -0.045631852 -0.025249595 -0.025100267
1.2300057e-33 -0.036108248 -0.026563104 0.0006061845 2.0014784e-32 -4.288468e-33 2.761151e-33 7.815067e-34
-0.0014075692 -1.5407498e-34
