model/model.pth (torch, 504595 bytes, 4 tensors)

linearIn.weight f4 [256, 390]
-0.01119538 0.09410333 0.02755244 -0.054735538 -0.033325367 -0.005557886 -0.0092576975 0.018321516
-0.024675863 0.061819714 0.024906501 0.022077603 0.010683343 0.048974425 -0.038238052 0.046585005
-0.024976064 0.0084317 0.036283642 -0.0048285746 0.77967495 0.042476058 0.037835583 0.016477957
-0.039294515 0.020347795 -0.0019246328 -0.045089737 -0.04576992 -0.041566264 0.058470104 0.03373331
-0.035141446 0.02296552 -0.073533855 0.017119205 -0.06533224 -0.011632765 -0.0019528772 -0.010548501
-0.073882274 0.022856552 0.014302978 -0.016563524 0.040160898 -0.02237532 -0.02655667 0.027545976
-0.047294967 0.008501752 0.015694983 0.044048082 0.018902857 9.4632596e-05 0.054154657 -0.038047466
1.6479364e-05 -0.023918785 -0.048314136 0.038783066 0.014097566 0.015362244 0.045464464 -0.005950296
0.0037426688 0.009156732 0.029322503 0.030303167 0.041531887 -0.043734215 0.024378346 -0.027639033
-0.033325374 -0.0372715 0.0137178395 0.019770699 -0.03462882 0.03701267 0.039672233 0.06348499
-0.028826024 -0.08322194 -0.042157322 0.043694492 -0.029009832 0.0013401768 0.0050163246 0.13436905
0.03796496 -0.026964677 0.015764317 -0.09240806 0.0073045054 0.0463957 0.045555912 0.02198806
0.014979103 -0.026386468 0.03773903 -0.017732251 -0.038383253 0.012097489 -0.005425721 0.024837166
0.043014992 0.023622354 -0.04854476 -0.047660597 0.048028555 0.012106761 -0.020596126 -0.017740754
0.03784653 0.73218745 -0.01636819 0.012248037 -0.013314318 -0.0025809521 0.0010300055 0.034948427
-0.004845809 -0.0054716743 -0.020152168 -0.0758878 0.030894376 -0.008346605 0.009274858 0.026969928
0.039489392 0.0017344388 -0.0068516065 -0.029635727 0.09528784 -0.037884895 -0.037193708 -0.07885091
-0.03318101 0.018931415 0.02619884 0.024058405 0.049992282 0.041370284 -0.037910927 0.016881358
0.0019885383 0.010996704 -0.022896158 0.0029511221 0.014090853 -0.025583941 -0.011143392 0.04575326
-0.026206873 -0.0136322435 0.036606554 -0.025622707 -0.042650465 -0.041217085 -0.008679621 -0.053691484
-0.004655481 0.0061176713 -0.036179505 -0.040627692 0.028859979 0.08023622 -0.017557006 -0.0028850115
-0.011530712 -0.013972961 0.7405727 0.029251251 -0.0029654526 0.032222215 0.02193888 0.06969511
0.021056268 0.01907009 0.026787153 -0.0009616041 -0.042659674 -0.04556578 -0.0458446 -0.03210774
0.008848852 -0.032139394 0.023898775 0.0214502 -0.023164645 -0.0049086893 0.048130184 -0.04288634
-0.022979302 0.012053514 0.04851357 -0.0025171172 -0.04622631 -0.042103224 -0.041377194 0.028144116
-0.03967476 -0.045698725 -0.036786355 0.01665066 -0.017125428 0.050123647 0.03434977 -0.0027659414
0.014500096 0.0278842 0.13722993 -0.026319494 -0.0076507893 -0.0007754516 -0.016491793 -0.04975929
-0.0026806062 0.015443555 -0.011851893 -0.04888108 -0.04209099 -0.015682613 0.050691593 0.025198331
0.023062732 -0.0047756955 0.013389797 -0.03750559 0.010328572 -0.010164086 0.015987616 -0.01353595
-0.010767774 -0.043896463 -0.08953693 0.024580058 0.80414104 -0.057422753 0.0055732485 0.0060609835
-0.017837325 0.049371433 -0.034453575 0.10100687 -0.04463766 -0.011782522 -0.06666422 0.044671237
0.020700267 0.0054607294 -0.002074752 0.03127664 0.030242434 0.050253563 -0.029858924 -0.030175256
00000000: d46c 37bc 3fb9 c03d a8b5 e13c 5f32 60bd
00000010: 2e80 08bd ed1e b6bb 99ad 17bc 0117 963c
00000020: 0925 cabc ab36 7d3d b808 cc3c 17dc b43c
00000030: 3009 2f3c 6899 483d 819f 1cbd ebcf 3e3d
00000040: 9a9a ccbc 1d25 0a3c 289e 143d 0539 9ebb
00000050: c798 473f 60fb 2d3d 7cf9 1a3d c8fc 863c
00000060: 49f3 20bd 6bb0 a63c f643 fcba 04b0 38bd
00000070: 3d79 3bbd 6341 2abd 597e 6f3d f02b 0a3d
00000080: 7af0 0fbd 3022 bc3c eb98 96bd 933d 8c3c
00000090: e9cc 85bd 5a97 3ebc aff7 ffba 9fd3 2cbc
000000a0: 974f 97bd aa3d bb3c 0a57 6a3c 3ab0 87bc
000000b0: c17f 243d 724c b7bc 608d d9bc 19a8 e13c
000000c0: 5eb8 41bd ef4a 0b3c c492 803c c36b 343d
000000d0: 2ada 9a3c 7d75 c638 46d1 5d3d a9d7 1bbd
000000e0: 2a3d 8a37 54f1 c3bc 0be5 45bd feda 1e3d
000000f0: 7af9 663c ecb1 7b3c f238 3a3d b3fa c2bb
00000100: 9047 753b 1e06 163c bf35 f03c 593e f83c
00000110: 571d 2a3d a622 33bd 19b5 c73c 416b e2bc
00000120: 3080 08bd 00aa 18bd cac0 603c 29f6 a13c
00000130: f3d6 0dbd 999a 173d 5a7f 223d 6b04 823d
00000140: 8e24 ecbc 4470 aabd 28ad 2cbd fff8 323d
00000150: 07a6 edbc dfa8 af3a fb5f a43b 0a98 093e
00000160: 2581 1b3d 07e5 dcbc 2b24 813c 7040 bdbd
00000170: a25a ef3b 6b09 3e3d d698 3a3d 4e20 b43c
00000180: e96a 753c 6f28 d8bc 3e94 1a3d 3a43 91bc
00000190: c237 1dbd 8c34 463c 3fca b1bb 5077 cb3c
000001a0: 7d30 303d ab83 c13c dfd6 46bd c237 43bd
000001b0: 97b9 443d 705b 463c 35b9 a8bc 0f55 91bc
000001c0: f704 1b3d a370 3b3f 9516 86bc feab 483c
000001d0: 4c24 5abc 3125 29bb 4001 873a 1526 0f3d
000001e0: 98c9 9ebb bb4b b3bb 2916 a5bc 106b 9bbd
000001f0: 3416 fd3c 33c0 08bc 93f5 173c 0af0 dc3c
00000200: a1bf 213d 1c56 e33a 7183 e0bb a0c6 f2bc
00000210: 4526 c33d 312d 1bbd 6e58 18bd 967c a1bd
00000220: d0e8 07bd 0e16 9b3c f39e d63c 2216 c53c
00000230: b5c4 4c3d e373 293d 7d48 1bbd c64a 8a3c
00000240: 2352 023b 852b 343c b990 bbbc 9d67 413b
00000250: 52dd 663c 6a95 d1bc c692 36bc c567 3b3d
00000260: ccaf d6bc c659 5fbc c1f0 153d b6e6 d1bc
00000270: 41b2 2ebd 3fd3 28bd f834 0ebc 9aeb 5bbd
00000280: 018d 98bb bf76 c83b f630 14bd 3969 26bd
00000290: c36b ec3c e352 a43d b6d3 8fbc 7612 3dbb
000002a0: 50eb 3cbc d9ee 64bc 2c96 3d3f 52a0 ef3c
000002b0: 0a58 42bb 71fb 033d 2bb9 b33c 4fbc 8e3d
000002c0: 327e ac3c e138 9c3c bb70 db3c 2914 7cba
000002d0: e9bb 2ebd 2fa3 3abd 8cc7 3bbd 6883 03bd
000002e0: c6fa 103c 99a4 03bd 5dc7 c33c 54b8 af3c
000002f0: c8c3 bdbc 12d9 a0bb 2824 453d 96a9 2fbd
00000300: 173f bcbc 1a7c 453c 2ab6 463d 38f6 24bb
00000310: cd57 3dbd 6e74 2cbd 227b 29bd 7d8e e63c
00000320: 0082 22bd 962e 3bbd 4aad 16bd f766 883c
00000330: a04a 8cbc 744e 4d3d 58b2 0c3d cc44 35bb
00000340: d091 6d3c 686d e43c 0186 0c3e fb9b d7bc
00000350: 79b3 fabb ad47 4bba cc19 87bc 66d0 4bbd
00000360: 1cad 2fbb f706 7d3c 712e 42bc 8737 48bd
00000370: 9a67 2cbd d378 80bc fda1 4f3d bb6c ce3c
00000380: 0eee bc3c 707d 9cbb e160 5b3c 769f 19bd
00000390: 2c39 293c 4487 26bc 76f8 823c e4c5 5dbc
000003a0: 516b 30bc c7cc 33bd 235f b7bd 1e5c c93c
000003b0: 30dc 4d3f 1f34 6bbd cc9f b63b 379b c63b
000003c0: 951f 92bc b339 4a3d 311f 0dbd b1dc ce3d
000003d0: fbd5 36bd 7b0b 41bc 4087 88bd 30f9 363d
000003e0: 9b93 a93c ebef b23b 90f8 07bb ef1b 003d
000003f0: fbbe f73c aed6 4d3d b49a f4bc 1932 f7bc

linearIn.bias f4 [256]
0.71810526 -0.04040135 -0.0033015728 -0.02491117 0.73535466 -0.0039114878 0.7599981 -0.0020799092
-0.04042027 -0.06013974 0.69301766 -0.03407246 0.67886794 0.012694909 -0.06628702 0.7053341
0.7737668 0.8452841 -0.06589849 0.7781128 0.7151733 -0.091863245 0.71052617 -0.070829615
-0.062847294 0.82355434 -0.009265747 0.7195466 0.84087443 0.009329312 -0.07489215 0.743217
-0.04252303 -0.06636493 -0.055303723 0.03208382 -0.03985638 -0.01371216 -0.038807046 0.8175332
0.77491194 -0.024570568 0.74511117 -0.060428258 0.6804889 0.018195352 -0.0494702 -0.03300261
0.71323514 0.75251883 0.8197868 0.7192568 -0.021345615 -0.04912648 -0.0068305987 0.73864007
0.79374367 0.6689134 -0.0077842167 0.714829 0.09113088 0.7051129 0.7889978 -0.025393648
-0.00062282966 0.0015845438 -0.045443587 0.73222613 -0.036000106 0.73169565 0.73063195 0.73805267
0.65264904 0.7655229 0.03148718 -0.0550112 0.68605614 0.006201107 -0.057496488 -0.017889554
0.68017036 -0.051570915 0.67566156 0.71221524 -0.099215046 -0.0015703071 0.7119998 0.73238003
0.71316475 -0.051740956 -0.070751615 -0.05257296 -0.042069122 0.75262135 -0.040483877 0.70874697
0.6815442 0.6871301 0.020258937 0.7378417 0.67699695 0.70126456 -0.06149887 0.72546154
-0.0019459036 -0.042830937 -0.052755352 0.7781621 -0.021377811 0.6901124 -0.07468846 0.6997557
0.6281521 0.7027566 0.7513384 0.6995605 -0.056909308 0.7110536 0.01566492 0.043744802
-0.067252055 0.04337825 0.78344536 0.8389167 0.71182203 0.7426228 0.010188296 -0.035960823
0.71316385 -0.056151547 -0.06712738 0.7392153 0.73271817 -0.025736066 0.7687 -0.032430626
-0.08137112 0.6343138 -0.061302498 -0.007489809 0.74315244 -0.026321568 0.7119177 0.0024898206
-0.018977132 -0.06592227 -0.026600126 0.000464978 0.72061664 -0.011818101 0.82763916 0.011864026
0.02691514 0.7102267 -0.036745965 -0.010913312 0.7941502 0.7713103 0.7288974 0.7184462
-0.058971178 0.65449184 0.043294337 -0.06101528 -0.056283772 -0.0006619819 -0.07014664 0.743347
-0.005016735 -0.003262892 -0.034774877 -0.05074697 -0.032219 -0.06337949 -0.06793417 -0.07217827
0.6992766 -0.023467762 0.7081625 -0.022796348 -0.0479523 -0.070787705 0.013729103 -0.047054183
0.76708096 -0.032809474 -0.033738952 -0.0403499 0.030999687 0.72329575 -0.034857515 -0.0673876
0.02115511 -0.04577999 -0.040594272 -0.024898086 -0.029456113 0.8020245 0.011371092 0.807709
0.6947705 -0.074842185 -0.042919453 0.7532708 -0.030752748 0.77175695 -0.01802761 -0.021730311
0.67142844 0.7645007 -0.05069215 0.762457 -0.07614657 0.77504826 -0.005123852 -0.041318104
-0.050727587 0.7642711 -0.05504345 0.032236475 0.7113267 -0.014579909 -0.018732116 0.7141777
-0.058911216 -0.03587454 0.01873064 0.72129387 -0.057698358 0.6652224 0.781124 0.03825445
-0.06867904 0.061473113 -0.055795997 0.7278921 0.7549995 -0.008349507 0.645732 -0.039889887
-0.058271833 0.7246646 -0.06718347 0.7577839 -0.03524954 0.70279753 0.69525445 -0.05882579
0.6985709 -0.038563758 -0.015214381 -0.06748279 -0.026878381 0.7671789 0.7963913 -0.05305558
00000000: bfd5 373f e37b 25bd 335f 58bb 8312 ccbc
00000010: 3440 3c3f f02b 80bb 3c8f 423f 164f 08bb
00000020: ba8f 25bd 1755 76bd 9b69 313f 908f 0bbd
00000030: 4aca 2d3f 4ffe 4f3c 7dc1 87bd c790 343f
00000040: 9515 463f 8a64 583f caf5 86bd 6732 473f
00000050: 9915 373f cc22 bcbd 0be5 353f 1e0f 91bd
00000060: 15b6 80bd 75d4 523f 5ccf 17bc 3534 383f
00000070: 8c43 573f f8d9 183c 0e61 99bd 7843 3e3f
00000080: a12c 2ebd 56ea 87bd 2886 62bd 536a 033d
00000090: 7240 23bd f8a8 60bc 23f4 1ebd db49 513f
000000a0: a160 463f 3748 c9bc 9bbf 3e3f 9f83 77bd
000000b0: 8534 2e3f 6b0e 953c 44a1 4abd bf2d 07bd
000000c0: 9496 363f 13a5 403f 8cdd 513f 3721 383f
000000d0: 00dd aebc d938 49bd 37d3 dfbb 8417 3d3f
000000e0: c932 4b3f e93d 2b3f be12 ffbb 09ff 363f
000000f0: d4a2 ba3d 4782 343f c3fb 493f 5706 d0bc
00000100: 6445 23ba 78b0 cf3a 0e23 3abd 2c73 3b3f
00000110: d974 13bd 6850 3b3f b20a 3b3f 05f1 3c3f
00000120: 0214 273f 4ff9 433f b4f8 003d 6d53 61bd
00000130: 60a1 2f3f a832 cb3b 7081 6bbd 1d8d 92bc
00000140: a51f 2e3f 063c 53bd 28f8 2c3f bd53 363f
00000150: 4231 cbbd c3d2 cdba 9e45 363f 427d 3b3f
00000160: f791 363f 53ee 53bd 39e6 90bd be56 57bd
00000170: ac50 2cbd cbab 403f 6cd2 25bd 7170 353f
00000180: ae79 2e3f c2e7 2f3f 12f6 a53c 32e3 3c3f
00000190: ac4f 2d3f 1386 333f 3de6 7bbd d9b7 393f
000001a0: b10d ffba 7e6f 2fbd ff15 58bd a235 473f
000001b0: 8520 afbc 35ab 303f 43f6 98bd 3123 333f
000001c0: 93ce 203f dbe7 333f b757 403f 6616 333f
000001d0: bc19 69bd 9c07 363f b853 803c c02d 333d
000001e0: 72bb 89bd 64ad 313d e08f 483f 3fc3 563f
000001f0: f839 363f 871c 3e3f d0ec 263c a84b 13bd
00000200: e891 363f 2aff 65bd 147a 89bd 373d 3d3f
00000210: 6b93 3b3f 71d4 d2bc 86c9 443f fad5 04bd
00000220: e7a5 a6bd 6462 223f 5418 7bbd 126d f5bb
00000230: 3d3f 3e3f 54a0 d7bc 3d40 363f 422c 233b
00000240: ee75 9bbc 4102 87bd 82e8 d9bc 4ac8 f339
00000250: 557a 383f b5a0 41bc 29e0 533f 5561 423c
00000260: 247d dc3c 6bd1 353f f082 16bd c0cd 32bc
00000270: 6d4d 4b3f 9874 453f 0599 3a3f 17ec 373f
00000280: c38b 71bd c78c 273f 6755 313d 29eb 79bd
00000290: d089 66bd da88 2dba 0ba9 8fbd fd4b 3e3f
000002a0: 6c63 a4bb 3ed6 55bb 1a70 0ebd 0edc 4fbd
000002b0: 12f8 03bd 1bcd 81bd 1221 8bbd 33d2 93bd
000002c0: cb03 333f 773f c0bc 234a 353f 68bf babc
000002d0: a269 44bd 25f9 90bd 08f0 603c e3bb 40bd
000002e0: 6b5f 443f 3a63 06bd db31 0abd f045 25bd
000002f0: 0ef3 fd3c e929 393f c1c6 0ebd 8302 8abd
00000300: 7b4d ad3c cc83 3bbd 2e46 26bd 12f7 cbbc
00000310: f24d f1bc 7a51 4d3f d14d 3a3c 04c6 4e3f
00000320: 7bdc 313f dc46 99bd 4fcc 2fbd 5bd6 403f
00000330: 30ed fbbc dd91 453f a3ae 93bc c403 b2bc
00000340: bce2 2b3f 51b6 433f 92a2 4fbd 6230 433f
00000350: bcf2 9bbd 9069 463f fce5 a7bb 2c3d 29bd
00000360: bbc7 4fbd 45a7 433f 3e75 61bd 650a 043d
00000370: 8219 363f 92e0 6ebc 1874 99bc 5ad4 363f
00000380: e34c 71bd 2ff1 12bd 0071 993c b7a6 383f
00000390: 1d55 6cbd 044c 2a3f bef7 473f b3b0 1c3d
000003a0: 99a7 8cbd 3bcb 7b3d 588a 64bd 2357 3a3f
000003b0: a647 413f 5fcc 08bc b14e 253f 9463 23bd
000003c0: 72ae 6ebd 9f83 393f 7d97 89bd 20fe 413f
000003d0: d261 10bd 8aea 333f 32fc 313f 50f3 70bd
000003e0: 8bd5 323f 08f5 1dbd bd45 79bc 6b34 8abd
000003f0: 0d30 dcbc d665 443f 4de0 4b3f cf50 59bd

linearOut.weight f4 [100, 256]
-0.0029704168 -0.03136512 -0.030872412 0.039082564 -0.04082597 0.019074537 -0.013666072 0.012699723
0.026598558 0.006717451 -0.075475134 -0.027853094 0.047087178 0.026591552 0.028330922 -0.052191287
0.0067528114 -0.056685828 -0.031008206 -0.0116775045 -0.014320123 -0.08898116 0.005243459 0.0083994195
-0.05898927 -0.056736864 -0.042173587 0.010724514 0.047364384 -0.047947034 -0.007999562 -0.010745503
0.015789986 0.027399072 -0.020424102 -0.072439305 -0.04873868 0.039754316 0.054545946 -0.024887636
-0.0022847073 0.04736124 0.023831151 -0.016859412 -0.064025395 0.0046186745 0.054976217 -0.04616204
-0.04649525 0.03403057 -0.0009833202 -0.060664672 -0.038298007 -0.02012594 -0.043584242 0.024586903
-0.035424806 -0.004311301 -0.05258798 0.02379033 0.05053176 -0.09034361 0.0034747273 0.024613999
-0.006048113 0.046569422 -0.041881345 -0.08004831 -0.03663805 -0.028577998 -0.016132096 -0.05636906
0.058300264 -0.023794472 -0.08403326 -0.026569203 -0.016534964 0.051346228 0.030461967 0.021094918
-0.031053022 0.0058688 0.042075776 -0.06282304 0.023968518 0.025523618 0.0032925315 -0.07821324
-0.022750929 -0.030292708 -0.045661457 0.007427439 -0.046070047 0.0055806525 -0.04875075 0.035120927
0.025786258 0.030374316 -0.056037057 0.03795173 -0.02574463 -0.053694613 -0.04907184 -0.043838255
0.055669017 -0.0152996145 -0.019452645 -0.08117354 -0.054710343 0.008792265 0.00826399 -0.053409055
0.02617694 -0.0628527 -0.023955742 -0.018600382 0.046088524 0.027808486 0.049011223 -0.017840156
-0.043512505 -0.0061364486 -0.022283375 -0.021268828 0.013756879 -0.06574826 0.021516241 -0.015130483
-0.01899872 0.044769287 -0.035595614 0.05708184 0.00034407526 -0.06903163 0.0065652295 -0.025196813
0.013661183 0.02533544 0.0100036785 -0.06070199 -0.07428016 -0.022409052 -0.014626073 0.01469329
-0.07729265 -0.070241146 -0.042153455 -0.008739413 0.029371653 -0.060113408 -0.00079977675 -0.052680045
-0.0023290664 0.05339995 0.0037274137 -0.049614996 -0.08797394 -0.06591197 -0.04242762 -0.009593844
0.029977232 -0.0028692186 0.0022397111 0.041779988 -0.043866396 0.044575304 -0.030391932 0.055762194
-0.045170836 0.035902478 -0.026447907 -0.011968598 0.022201307 -0.009114868 -0.026284382 -0.01491078
-0.081668586 -0.028014302 -0.025328614 -0.05637546 0.03648316 0.0462405 -0.0022747293 0.03273175
0.007631436 0.03576252 -0.01020529 -0.058902554 -0.093516216 -0.05389826 -0.06337461 0.022281943
-0.031408735 0.037010916 -0.09113757 -0.03304544 0.04849629 -0.00867357 -0.07941246 -0.090007626
-0.04497404 -0.010070771 0.061371967 0.023898222 0.060187325 -0.061905246 -0.005146116 0.014695348
-0.05997663 0.0028760605 0.011862561 -0.04006578 -0.038134262 0.030661926 -0.08731301 0.032470375
0.05850055 -0.03210746 -0.0169112 0.023134781 0.06233295 -0.039844148 -0.04144752 -0.053767547
0.056941256 -0.057196274 0.01424441 0.041142046 0.022522606 0.0029530649 -0.06605109 -0.0838311
-0.013842866 -0.08468301 0.0028779954 0.02192897 -0.07244297 -0.08361469 -0.08816251 0.013577372
0.054292783 0.016133958 -0.003395982 -0.010384843 -0.013265127 0.042831518 -0.068420604 -0.036386296
0.01380481 -0.031257868 -0.058259662 0.034777746 -0.048410222 0.027340196 -0.07743783 0.06098126
00000000: 53ab 42bb b678 00bd 24e8 fcbc 0a15 203d
00000010: 2239 27bd 3442 9c3c a9e7 5fbc 8012 503c
00000020: 38e5 d93c 101e dc3b b592 9abd 2c2c e4bc
00000030: 7cde 403d 87d6 d93c 4016 e83c 88c6 55bd
00000040: b046 dd3b 662f 68bd ec04 febc 0153 3fbc
00000050: f39e 6abc c13b b6bd 52d1 ab3b b89d 093c
00000060: bc9e 71bd ea64 68bd 36be 2cbd dfb5 2f3c
00000070: 2801 423d 1c64 44bd 9810 03bc e80d 30bc
00000080: 005a 813c 0574 e03c 7250 a7bc 0f5b 94bd
00000090: 36a2 47bd 6cd5 223d 926b 5f3d 28e1 cbbc
000000a0: 07bb 15bb dcfd 413d 8c39 c33c c01c 8abc
000000b0: bf1f 83bd 4058 973b be2e 613d 6814 3dbd
000000c0: ce71 3ebd a463 0b3d c0e2 80ba 857b 78bd
000000d0: 5fde 1cbd 28df a4bc 6485 32bd 796a c93c
000000e0: 9a19 11bd d045 8dbb 7e66 57bd f0e3 c23c
000000f0: 64fa 4e3d 1206 b9bd 40b8 633b 4ca3 c93c
00000100: 402f c6bb 94bf 3e3d c68b 2bbd 5ef0 a3bd
00000110: c811 16bd 681c eabc 7527 84bc 3ee3 66bd
00000120: 42cc 6e3d a0ec c2bc a119 acbd a8a7 d9bc
00000130: 5574 87bc 6c50 523d 608b f93c 40cf ac3c
00000140: e862 febc 104f c03b a657 2c3d 5ea9 80bd
00000150: a059 c43c e816 d13c 83c7 573b 432e a0bd
00000160: 2860 babc 6a28 f8bc 8207 3bbd e061 f33b
00000170: f2b3 3cbd e8dd b63b deae 47bd f6da 0f3d
00000180: b43d d33c 8fd3 f83c 1d87 65bd 4673 1b3d
00000190: 67e6 d2bc e2ee 5bbd 8eff 48bd be8f 33bd
000001a0: 3205 643d 3cab 7abc 275b 9fbc 503e a6bd
000001b0: f417 60bd 6f0d 103c b065 073c 74c3 5abd
000001c0: 0671 d63c ebb8 80bd d53e c4bc d45f 98bc
000001d0: 52c7 3c3d 9fce e33c febf 483d 8525 92bc
000001e0: 2b3a 32bd 4314 c9bb a08b b6bc f73b aebc
000001f0: 8864 613c 06a7 86bd d442 b03c d8e5 77bc
00000200: 34a3 9bbc 0060 373d b5cc 11bd a6ce 693d
00000210: 0065 b439 7560 8dbd 2321 d73b 8c69 cebc
00000220: 28d3 5f3c 458c cf3c 78e6 233c a6a2 78bd
00000230: 3220 98bd 3093 b7bc 32a2 6fbc 20bc 703c
00000240: 9c4b 9ebd 97da 8fbd 1aa9 2cbd c12f 0fbc
00000250: d29c f03c 7a39 76bd 1ca8 51ba 08c7 57bd
00000260: 40a3 18bb e8b9 5a3d a047 743b 1839 4bbd
00000270: ae2b b4bd dbfc 86bd 96c8 2dbd 802f 1dbc
00000280: d092 f53c 8009 3cbb 1ec8 123b 7e21 2b3d
00000290: 40ad 33bd 9894 363d 80f8 f8bc e666 643d
000002a0: 0e05 39bd 7a0e 133d 48a9 d8bc f017 44bc
000002b0: 84df b53c 8756 15bc 5852 d7bc 584c 74bc
000002c0: dc41 a7bd 407e e5bc f47d cfbc f4e9 66bd
000002d0: 5e6f 153d ae66 3d3d a013 15bb ba11 063d
000002e0: 2011 fa3b b87b 123d 1734 27bc ce43 71bd
000002f0: 6e85 bfbd 6cc4 5cbd 8cca 81bd 9f88 b63c
00000300: 72a6 00bd c298 173d 56a6 babd a85a 07bd
00000310: 0ca4 463d 971b 0ebc 00a3 a2bd eb55 b8bd
00000320: b336 38bd e0ff 24bc 2c61 7b3d 34c6 c33c
00000330: fc86 763d 5b90 7dbd c0a0 a8bb c2c4 703c
00000340: 0eaa 75bd 4a7c 3c3b 305b 423c 041c 24bd
00000350: ac32 1cbd b82e fb3c 2ad1 b2bd a8ff 043d
00000360: 469e 6f3d 1d83 03bd 5b89 8abc 2785 bd3c
00000370: d650 7f3d 9e33 23bd e0c4 29bd 5c3b 5cbd
00000380: 3c3b 693d a446 6abd 6361 693c 9084 283d
00000390: 5481 b83c 3588 413b cb45 87bd a4af abbd
000003a0: 30cd 62bc 496e adbd c09c 3c3b 62a4 b33c
000003b0: fb5c 94bd 2e3e abbd 8c8e b4bd a073 5e3c
000003c0: 1c62 5e3d 5d2b 843c 208f 5ebb 3025 2abc
000003d0: fa55 59bc 1a70 2f3d 1a20 8cbd cc09 15bd
000003e0: 922d 623c 4008 00bd afa1 6ebd 1c73 0e3d
000003f0: cc49 46bd 8cf8 df3c ba97 9ebd 7cc7 793d

linearOut.bias f4 [100]
0.023946105 -0.013806437 -0.00225965 -0.029154357 -0.035174113 -0.013559736 -0.04840173 -0.024291657
-0.037737537 -0.0012240708 0.05388222 -0.033284012 0.01857967 0.09173229 -0.048958987 -1.0323255e-06
0.046171542 0.0067390627 0.04576672 0.027262382 -0.051103864 -0.028296612 0.041972265 -0.013478763
-0.05648802 0.034280017 0.02857481 -0.025537424 -0.05054415 0.029976549 -0.003566594 0.044378664
0.01251074 -0.020548835 -0.083537996 0.005747112 -0.015073024 0.009183876 -0.022588499 0.052210957
0.0216472 -0.064217374 -0.062039502 -0.037598617 -0.085228026 0.013106748 -0.051112145 0.0059141144
-0.044531684 0.016797855 0.008459954 0.0020299011 0.03749764 -0.0084286975 -0.044293366 -0.03621307
-0.048539527 -0.009389347 -0.022252075 0.04319238 -0.03737449 -0.011984549 -0.016585782 -0.017995663
0.012309647 -0.031037929 -0.04558722 -0.09123884 -0.023847684 -0.08275649 0.0050194636 0.020597134
0.036944345 -0.04688972 -0.013317214 0.008346245 -0.048922338 0.026461132 0.043313585 0.0076214164
-0.03026507 0.5842071 0.03163876 -0.015632275 0.044535495 -0.061167333 -0.022511404 0.013379654
-0.04049304 -0.0018265471 -0.018275255 0.023141146 -0.007779357 -0.0125958575 0.009099495 0.021871934
-0.060130753 0.0440927 -0.037546787 0.0055611357
00000000: 9f2a c43c 6534 62bc a316 14bb 1ed5 eebc
00000010: bb12 10bd a829 5ebc e440 46bd 4cff c6bc
00000020: ad92 1abd 0071 a0ba 9ab3 5c3d d154 08bd
00000030: 6434 983c 24de bb3d 3889 48bd 6f8e 8ab5
00000040: 5f1e 3d3d 5bd3 dc3b e275 3b3d 5c55 df3c
00000050: 4952 51bd 4cce e7bc 1ceb 2b3d 08d6 5cbc
00000060: fb5f 67bd 3469 0c3d b815 ea3c dc33 d1bc
00000070: 6207 4fbd 6191 f53c 85bd 69bb 67c6 353d
00000080: d9f9 4c3c 0856 a8bc f815 abbd 4552 bc3b
00000090: d8f4 76bc f877 163c 840b b9bc 28db 553d
000000a0: 7855 b13c 6684 83bd 221d 7ebd 0201 1abd
000000b0: 088c aebd b0bd 563c f85a 51bd 30cb c13b
000000c0: db66 36bd a89b 893c 9e9b 0a3c 1708 053b
000000d0: 2097 193d 8518 0abc f66c 35bd 2854 14bd
000000e0: 62d1 46bd c7d5 19bc fc49 b6bc 7eea 303d
000000f0: fe15 19bd d85a 44bc e8de 87bc a46b 93bc
00000100: 67ae 493c 4143 febc aab9 3abd 6edb babd
00000110: 385c c3bc 3c7c a9bd 507a a43b 52bb a83c
00000120: f452 173d 6f0f 40bd 7230 5abc b0be 083c
00000130: ca62 48bd 04c5 d83c 9669 313d 13bd f93b
00000140: 74ee f7bc 998e 153f a597 013d 420f 80bc
00000150: da6a 363d 998a 7abd d669 b8bc 5636 5b3c
00000160: 08dc 25bd c068 efba fdb5 95bc 8092 bd3c
00000170: fae9 febb db5e 4ebc 0c16 153c c52c b33c
00000180: aa4b 76bd 8c9a 343d a9ca 19bd 303a b63b
