model/model.pth (torch, 799047 bytes, 6 tensors)

f0.0.weight f4 [256, 390]
000000 a0 a2 0f bd 0d 63 ce 3b 2d 95 f5 bb e2 4f 87 3d
       -0.0350672 0.006298429 -0.00749459 0.06607033
000010 d1 cb 4c 3c 53 0e 9d bc 2e 78 cc bc ad 2a 4d 3d
       0.0124997655 -0.01917187 -0.02495965 0.050089527
000020 79 0f f3 3c 0e 67 bb bd 09 e0 07 3d 61 38 7e 3c
       0.029670464 -0.091505155 0.03317264 0.0155163715
000030 36 d3 29 bd c1 96 1a bc fd bd 07 bd ab 3c 1f bd
       -0.041461192 -0.009435357 -0.03314017 -0.038876217
000040 af 14 0c bd 0a f4 2d 3d 99 7c 88 bc e7 5f 4d 3d
       -0.034199413 0.042469062 -0.016660975 0.050140288
000050 27 4d 01 3d 05 dd a6 bc 8e 48 2d bd b6 8b e5 bd
       0.03156772 -0.020369062 -0.04230552 -0.11208288
000060 02 47 79 3d f4 6c 2b 3d 9d 72 e1 bc 43 2d 39 bc
       0.060858734 0.041851953 -0.027520472 -0.011302295
000070 a5 fe 65 bb 9e 36 2c 3d e1 c4 22 bd 99 25 0c bd
       -0.0035094407 0.042044275 -0.03973854 -0.034215543
000080 7d 6b 2d bd f0 39 1d 3c 5f f4 1c 3c d0 6d 74 3d
       -0.042338837 0.009596333 0.009579747 0.059675038
000090 a5 fd b0 3c 4d f2 77 bd cf cb 4c bd 63 06 8a bd
       0.021605322 -0.06053381 -0.049999055 -0.067394994
0000a0 d1 62 f9 bc 50 1e fe bc 31 a9 b6 3b 20 c8 ed 3c
       -0.030442627 -0.031020314 0.0055743684 0.029026091
0000b0 3b 62 c2 bc 52 25 00 3c e7 4a 79 3c 94 47 87 bd
       -0.02372848 0.007821398 0.015215612 -0.06605449
0000c0 82 80 54 bd 91 a6 a4 3c f8 f6 9e bc b1 47 b0 3c
       -0.051880367 0.020098956 -0.019404873 0.02151856
0000d0 20 48 5d bc 92 36 a2 3c 65 fb 38 3c e3 3d 8d 3c
       -0.0135059655 0.019801412 0.011290406 0.017241424
0000e0 af 4a 80 3c 73 b4 5f bd 8b d6 9a 3d 28 93 fc 3b
       0.015660612 -0.05461545 0.07560452 0.007707972
0000f0 6d cc c9 3c 78 78 2c 3d b1 7e 38 3d 03 d6 2b bd
       0.02463361 0.042107075 0.045042697 -0.041952144
000100 5f 88 a1 3d 4f c9 58 bb f6 2a 05 3d 75 a9 d3 3b
       0.07887339 -0.0033078974 0.032511674 0.00645941
000110 ab 79 61 bd 4e d1 da bb 9f 8b 4d bd 98 be 69 3c
       -0.055047672 -0.006677783 -0.05018198 0.0142666325
000120 10 f4 28 bd 6b ab 2e 3d 17 ac 08 bd d3 17 0d bd
       -0.04124838 0.042643946 -0.033367243 -0.03444655
000130 dc fc 2d 3c f0 b8 36 3d 9b 24 0d 3b 7c 3b 88 3c
       0.010619368 0.044609964 0.002153671 0.016629927
000140 dc 08 89 bd 24 99 e9 3c ac 3c 07 3c 76 76 0a 3c
       -0.06691143 0.028515406 0.008254211 0.008451095
000150 0f cd 1a 3d fd 82 bd 3c f2 ec a6 bb 06 98 58 bd
       0.037793215 0.02313375 -0.005094164 -0.052879356
000160 02 10 a7 3c d3 83 98 bc 12 7a 45 bd bf f8 63 3c
       0.020393375 -0.018617546 -0.04821212 0.013914286
000170 ad 3b e9 bc f0 f1 33 3c 00 f7 bf bc 9c 0d e5 3a
       -0.028470838 0.010982975 -0.023433208 0.0017475369
000180 fa e3 fd ba 21 f9 40 3d ad f3 15 3d 85 35 df bc
       -0.001937031 0.047112588 0.03660934 -0.0272472
000190 b3 68 63 bb f5 c2 ea 3c c3 eb 2d 3d 8e f7 49 bd
       -0.0034699857 0.028657416 0.042461168 -0.049308352
0001a0 45 e4 57 3d f8 84 24 bc 10 b5 e9 3c 66 4b 0e 3c
       0.05270793 -0.010041468 0.02852872 0.008684969
0001b0 f1 7c 18 3d 01 cc 16 3b b9 8a 34 bd 89 52 97 bd
       0.03722853 0.002300978 -0.04407761 -0.07388789
0001c0 af 13 19 3d 79 21 cd 3b a7 84 3f 3d 56 85 dc 3b
       0.037372287 0.006260094 0.046757367 0.006729762
0001d0 09 4a 1c bd 87 88 de bc be 80 af bd 75 e9 34 bc
       -0.038156543 -0.02716471 -0.085694775 -0.011041989
0001e0 fc 96 cd bc fd 0d b7 bc d5 37 9a 3c bb fa 70 bc
       -0.025096409 -0.022345537 0.01882545 -0.014708216
0001f0 0a bb 4a bc f9 8a 45 3b 5c 8b 00 bc 0b 66 27 3c
       -0.012373695 0.0030142649 -0.007845726 0.0102172
000200 77 4e 48 3c c2 92 6a bd 04 f5 b2 3d 50 56 11 bd
       0.012225739 -0.057268865 0.08738139 -0.035482705
000210 23 db 3f 3d 80 4e 46 bc 1c 74 21 bd 29 35 6b bd
       0.046839844 -0.012103677 -0.03941737 -0.057423744
000220 1d 07 d4 bb 55 d1 eb 3c 7a 32 ab bb a8 da 5c bd
       -0.0064705745 0.02878634 -0.005224523 -0.053919464
000230 9d 79 51 bc 69 f4 4c bc 92 c8 8c bc 63 4d 06 bb
       -0.0127853425 -0.012509444 -0.017185483 -0.0020492903
000240 87 65 ef bb 32 cc 93 b9 4a 7f 6b 3c 53 c5 41 bd
       -0.007305804 -0.00028190162 0.01437361 -0.047307324
000250 76 e9 b1 3c 48 79 bd 3c 05 f1 bc bb 53 bc 54 bc
       0.021717768 0.02312912 -0.0057660365 -0.012984353
000260 91 5b bb bc 6f bf e5 3c 7c 19 48 bd d7 d0 3b 3d
       -0.02287081 0.028045384 -0.04885243 0.045853462
000270 49 6b 3d bc 53 24 41 3d ee f0 88 3b 5a 0b 32 3d
       -0.011561223 0.047153782 0.0041791117 0.043467857
000280 da b9 55 ba 43 85 15 3c d6 57 3d bc 30 ea 54 3d
       -0.0008152999 0.00912601 -0.011556586 0.05198115
000290 ac 7f 45 bc 4e 0a a4 bd 8a f9 04 bc 7b 59 42 bd
       -0.012054365 -0.08009778 -0.008116135 -0.047448616
0002a0 8f 34 a5 bb d5 76 cc 3a 4b 69 7a 3c f9 10 32 bd
       -0.005041666 0.001559938 0.015283893 -0.043473218
0002b0 6b 96 a1 bc ec b4 38 bd ad 2e 5c 3d ad 30 57 bb
       -0.019725045 -0.045094416 0.05375545 -0.003283541
0002c0 a5 c4 c4 bc 85 7c aa bc 88 de 47 bb bb 9b 49 3c
       -0.024019549 -0.020811329 -0.003049763 0.012305195
0002d0 71 70 24 3d bd 8d 27 3d e1 2f ae bb 7a 92 40 3d
       0.040146295 0.040906657 -0.005315766 0.04701469
0002e0 96 61 d1 3c 22 bc 41 bd c7 ee d9 bc 3f ce 22 3d
       0.025559228 -0.047298558 -0.026603116 0.039747473
0002f0 1b d2 f0 bc 02 ec 72 3c 51 87 78 3d 0c f4 d7 3c
       -0.029397061 0.014826776 0.060675923 0.026361488
000300 8d 02 ab b9 75 ad 91 bd 30 dd 67 bd 56 85 a2 bb
       -0.00032617562 -0.071131624 -0.056607425 -0.0049597425
000310 9b 27 c9 bb ce 6f a5 bc cc 16 65 bd bf de e9 3c
       -0.0061387545 -0.020194914 -0.055929944 0.028548596
000320 b8 0f 9b 3d 63 fa f9 3c 96 fd 59 bc 81 c6 fc 3b
       0.075713575 0.030514902 -0.0133050885 0.007714093
000330 cb db 84 bd 5b 31 2b 3d 3b f1 bc bc 87 03 8c ba
       -0.06487235 0.041795116 -0.023064246 -0.0010682204
000340 63 6e 7e 3d fd 6a 0a bd 43 9f 0a 3d 1f 0b de bc
       0.06211699 -0.03379344 0.03384329 -0.027104912
000350 81 08 8f bc 1c 5d 4b bc ff 62 6e 3d 01 42 0d bd
       -0.01746011 -0.012412336 0.05819988 -0.034486774
000360 d4 76 50 bd ce e8 57 bd 71 f7 2a 3c fa 64 86 bd
       -0.050894573 -0.052712254 0.010434971 -0.065622285
000370 72 e9 1e bd 94 d3 a5 3d 40 b2 2e 3d 71 12 2b bd
       -0.03879685 0.08096996 0.04265046 -0.041765634
000380 d2 90 8f bc f4 c8 44 39 f1 27 1b bd 10 99 fb 3c
       -0.01752511 0.00018766877 -0.037879888 0.030712634
000390 10 3a 0e bd 73 b6 d7 ba 13 3b 39 3d ee da 29 bc
       -0.03472334 -0.0016457572 0.045222353 -0.010367138
0003a0 d5 66 b6 3c aa 98 2e 3d 61 e8 ad 3c 5b f3 1c bd
       0.022265831 0.04262606 0.021228971 -0.03831802
0003b0 a7 f7 10 3e 30 6d 48 3d 6d 5e 51 bd 65 32 96 bd
       0.14156972 0.048932254 -0.051115442 -0.07333831
0003c0 c8 55 c2 3b 5f 75 30 3d 9c 14 fb 3c 75 62 d8 bc
       0.005930636 0.043080684 0.030649476 -0.026414135
0003d0 72 c9 a5 bc 7b b2 c9 bc e8 28 94 bd e0 d8 cf 3c
       -0.020237658 -0.024621239 -0.07234365 0.025371969
0003e0 b4 18 a2 b8 a1 c2 4f bb 58 ab 26 bc e9 5b 88 3c
       -7.729363e-05 -0.0031701701 -0.0101726875 0.016645389
0003f0 c7 11 5f 3c 8f 71 09 bd 11 8e 4a 3d 88 70 07 3d
       0.013615078 -0.033555564 0.04945189 0.033066303

f0.0.bias f4 [256]
000000 3a 1a 4f bd f1 f7 b8 3b ea ae de 3c ad ed 56 3d
       -0.05056212 0.0056447913 0.027183015 0.05247276
000010 77 ca ff bd 3d b7 3f bd 43 d6 5a bd ff 27 86 bd
       -0.12489789 -0.04680561 -0.053426992 -0.065505974
000020 1d 92 79 bc 36 74 80 bc 8d 3c c8 bd 3c 43 e9 bd
       -0.01523259 -0.015680414 -0.09777174 -0.11389777
000030 9a e2 15 be c9 04 6b bd f7 05 dc bd ec f6 ab bd
       -0.14637223 -0.05737761 -0.10743325 -0.08396706
000040 dc 0c be bd d2 96 89 bd 97 8e da bd db ed 9c bb
       -0.092797965 -0.0671822 -0.10671728 -0.004789097
000050 e3 97 56 bc c6 15 f2 bc cb 67 8b bc dc 32 74 3c
       -0.013097736 -0.029551398 -0.017017266 0.014904704
000060 49 c6 de bd 58 02 e4 bd 65 b2 9f bd 28 44 ef bd
       -0.10877664 -0.111332595 -0.07797698 -0.11682922
000070 0c 68 1f bc 1b 24 ba 3c 9b e7 44 bd 1b 48 87 bd
       -0.009729397 0.022722295 -0.04807244 -0.0660555
000080 7c 59 3a bd 99 1a 84 bb 03 ac 00 be bf b9 55 bc
       -0.045495495 -0.004031491 -0.12565617 -0.013044774
000090 03 30 19 bd 66 59 f4 bc fa 20 53 bd b4 7e e9 3b
       -0.037399303 -0.029827785 -0.05154512 0.0071257
0000a0 dc 62 92 bc 35 9e aa bd ce 80 44 3c 25 d1 e7 bd
       -0.017869405 -0.08330957 0.0119936 -0.11319188
0000b0 80 07 4c bc 0c 11 60 bd 86 90 28 bd 01 05 94 bd
       -0.01245296 -0.054703757 -0.041153453 -0.07227517
0000c0 22 17 c4 bc 95 d1 9e bd 9e e9 09 bc 6e 47 24 bd
       -0.023936812 -0.07754818 -0.008417515 -0.040107183
0000d0 50 fd e7 ba ed f1 c6 bb 4f 66 07 3d e4 53 6d bd
       -0.0017699394 -0.0060713203 0.033056553 -0.057941332
0000e0 cc 0b 58 bd 9b 37 b1 3c be 41 90 bd 52 f6 96 bd
       -0.052745625 0.02163296 -0.07043789 -0.073712006
0000f0 3a d4 30 bd 96 33 9f bd 8b da 90 bc 71 43 a5 bd
       -0.043171145 -0.07773511 -0.017682334 -0.08069504
000100 6a 92 8c 3d b3 e9 87 bd 86 73 0e 3d 57 a3 c9 bd
       0.06863864 -0.066363715 0.03477814 -0.09845608
000110 ef 84 b0 bc a3 f5 80 bd 70 47 a9 bd 9b 40 db bd
       -0.021547763 -0.062968515 -0.08265579 -0.10705682
000120 c1 3d ee bc 3c 29 15 bd 55 ad e2 3c 67 a3 9f bc
       -0.029082181 -0.036416277 0.027670542 -0.019487096
000130 af bc 0a be 67 01 d0 bd d8 2d c9 bd 8c 5b 97 bd
       -0.1354854 -0.101565175 -0.09823197 -0.07390508
000140 cd 21 a9 bc 68 71 b5 bd 97 ec a8 bc 29 97 9b 3d
       -0.020646 -0.08859521 -0.020620627 0.07597191
000150 da 9d a6 bc 15 54 fa bd 3f 3f 30 bd bd b8 b4 bc
       -0.020338941 -0.122230686 -0.043029066 -0.022060746
000160 91 c3 fd bd 16 92 80 bc 2d 0a 99 bd 05 d7 06 3d
       -0.12390817 -0.01569466 -0.07472644 0.032919902
000170 01 8e b8 bd f9 9f 99 bd 87 fc be bd 0f 5e 88 bd
       -0.0901146 -0.075012155 -0.093255095 -0.06658565
000180 8c 02 69 bd 4d 4d a6 bd 34 24 cd bd fe 55 6b b8
       -0.056887195 -0.08120213 -0.10016671 -5.6108453e-05
000190 f9 80 67 bc 27 79 af bd 38 34 bf 39 e1 c3 3f bd
       -0.014129871 -0.0856803 0.00036469265 -0.046817664
0001a0 e4 92 82 3d cc 1e b4 bd 31 61 99 bd ec 16 b9 ba
       0.063756734 -0.087949365 -0.07489241 -0.0014121211
0001b0 57 bc ce bd 44 2d 09 bd 82 70 f8 bd 59 7f d7 bc
       -0.10094517 -0.033490434 -0.12130834 -0.026305841
0001c0 fd 1d 0d bd ba c4 34 bd 8a 01 47 3d 99 87 22 bd
       -0.034452427 -0.044132926 0.048585452 -0.039680097
0001d0 87 0c fb bc a8 a9 d8 bc fc 24 0a be 11 e1 93 bc
       -0.030645622 -0.026448086 -0.13490671 -0.018051656
0001e0 23 e4 da bc 82 cb 04 bd a3 1a ce bd a0 40 8b bd
       -0.026720112 -0.032420643 -0.10063674 -0.067994356
0001f0 d1 13 8a bd 14 76 12 bd 58 0e 7b bd bb 39 0e bd
       -0.06742061 -0.03575714 -0.061292976 -0.034723025
000200 28 80 4f bd 8c e4 8c bd ee 96 22 bc 02 c3 7c bc
       -0.05065933 -0.06879529 -0.00992368 -0.015427353
000210 cd c2 13 bd 7c 21 a7 bd 74 fb 85 bd b8 c1 bf bc
       -0.03607445 -0.081606835 -0.065421015 -0.023407802
000220 80 36 9d 39 b5 11 b9 bd 99 ab d5 ba d1 af 71 3d
       0.0002998598 -0.090365805 -0.001630175 0.059005562
000230 cf a0 a8 bd ad 4f 50 bd ab 92 e4 3c ad 63 cd bc
       -0.08233797 -0.050857235 0.027901968 -0.025071943
000240 03 4f 05 3d 11 a7 d0 bd 85 ea e1 bc 6d 4d 12 bd
       0.032546055 -0.101881154 -0.027577648 -0.03571837
000250 d3 b1 2a b8 4e 31 89 bd 02 f9 87 3d 38 48 e5 3a
       -4.069677e-05 -0.06698857 0.06639291 0.0017492836
000260 87 c4 b1 bd 77 fb 4d 3d 96 81 ef bd 83 3a 43 bc
       -0.08680063 0.050288644 -0.116946384 -0.011915806
000270 97 bd 41 bd 3a fc f5 3c 2b 8d a5 bc 6b 8b 90 bd
       -0.047299948 0.030027498 -0.020208916 -0.07057842
000280 99 88 61 bd 63 1b c3 bc dc a1 91 3d bd a2 af bd
       -0.05506191 -0.02381677 0.0711095 -0.08575962
000290 bf 03 0a be 2b 53 09 be c3 0e 88 3d 9a f8 3e 3d
       -0.13477992 -0.13410632 0.066434406 0.046623804
0002a0 14 41 e9 bd 10 4a 29 bd 7b 0e 32 bd 87 7d a6 bd
       -0.11389366 -0.041330397 -0.04347084 -0.08129411
0002b0 52 fc 23 bd e1 cb 02 be 51 87 60 3c ff af e5 bc
       -0.040035553 -0.12773086 0.013704137 -0.028038023
0002c0 dd 04 82 bd 55 b9 bb bc 8a 85 03 bd 61 ff 3e 3d
       -0.06348584 -0.022915522 -0.032109775 0.046630267
0002d0 31 a1 80 bd 61 72 af bd 86 d9 66 bd 26 8e d5 bc
       -0.06280745 -0.08566738 -0.05635979 -0.026068758
0002e0 b0 af 1e 3d 31 d2 14 3d 91 14 33 bd 5c a9 ba bd
       0.038741767 0.036333267 -0.043720786 -0.09114334
0002f0 23 a1 54 bd 9d 2b 9b 3a be eb a3 bd d0 4e 56 bd
       -0.051911484 0.0011838559 -0.08003949 -0.052321255
000300 74 ea 77 bd 49 d2 af bd 83 11 82 3d f3 26 99 bd
       -0.060526326 -0.085850306 0.06350996 -0.07478132
000310 8a 08 81 bd 94 ef 83 bc f6 c7 83 bd ee 64 80 bd
       -0.06300457 -0.01610545 -0.06434624 -0.06269251
000320 08 34 18 be 98 73 b2 bd e0 06 8d 3d 58 00 49 bd
       -0.14863598 -0.08713454 0.06886077 -0.049072593
000330 38 41 0d bd 88 ba 84 3c 5e e2 60 3b 6b 0a 6f 3c
       -0.034486026 0.016202226 0.0034314613 0.014589886
000340 2c 44 54 bb 4a 9d 59 3d 2d dc 35 bd b0 63 ae bc
       -0.0032389266 0.05312852 -0.04439943 -0.02128777
000350 a2 ee 81 bc 27 49 f8 bc ea b2 cc bc af 59 cd bd
       -0.01586086 -0.03030832 -0.024987657 -0.100268714
000360 c4 2d e6 3d 2e c7 6e bd 57 5a d0 bc da 0b 5a bd
       0.11239198 -0.05829542 -0.025433702 -0.05323396
000370 66 ca 39 bd 4c c0 83 bb 81 50 8a bc 33 3d a4 3d
       -0.045359038 -0.0040207263 -0.01688409 0.08019485
000380 73 50 88 bd 6e 89 92 bd 49 24 b4 bd 5f e0 42 bd
       -0.066559695 -0.07155119 -0.08795983 -0.04757726
000390 be 47 b0 bd 00 42 36 bc a9 65 7e 3d 43 5c a2 bd
       -0.08607434 -0.011124134 0.06210867 -0.07927754
0003a0 07 a5 32 bd 98 eb a7 3d 34 07 5a bd 49 89 61 bb
       -0.043614414 0.08199233 -0.053229526 -0.0034414104
0003b0 6a e3 3c bd 9b f2 c3 3d a3 51 90 bd 49 4a 14 3d
       -0.046115316 0.09567758 -0.07046821 0.036203656
0003c0 c0 11 6a bd 8e d1 15 bd 8b 33 48 3d 02 8d a0 3d
       -0.057145834 -0.0365768 0.04887728 0.07839395
0003d0 ec 85 89 bd fe 27 bb bd f4 02 b0 bd 17 fa a4 bd
       -0.06714997 -0.09138487 -0.08594313 -0.08055513
0003e0 ba a9 5d bd 81 12 fb bd d0 ac 59 bd 88 02 9e ba
       -0.054116942 -0.12259389 -0.053143322 -0.0012055198
0003f0 84 9a 23 bc 11 95 98 3c 9c 4e e4 bc dd 45 ac bd
       -0.00998557 0.018625768 -0.027869515 -0.08411763

f0.2.weight f4 [256, 256]
000000 ce 38 18 bd f4 87 36 3c 7b 8f 7f 3d 6e 7c f9 bb
       -0.03716355 0.011140812 0.062392693 -0.00761371
000010 e9 47 36 bd b9 51 95 3b 07 c7 95 bc 5f 45 cb bb
       -0.044502173 0.0045568612 -0.01828338 -0.006203338
000020 03 cb 50 bc d7 98 a8 bd f8 a0 3a bd 10 11 62 bd
       -0.012743714 -0.08232277 -0.045563668 -0.055192053
000030 0b 1d 37 ba 4e 76 6f bd 1d 5a 63 3b 4b fb ab bc
       -0.0006985224 -0.058462434 0.0034691163 -0.02099385
000040 6c 2e c9 3b 9d c1 5a bd 6f f4 be 3a 51 78 5a bd
       0.006139567 -0.0534073 0.0014568696 -0.0533374
000050 3a 22 a7 3c b3 4c 99 bd 6e 90 05 bd 6c 36 f6 3b
       0.020402063 -0.07485332 -0.032608442 0.007513812
000060 a5 30 2b bc b8 7e 31 bc 16 b6 2a 3d f8 de 17 bc
       -0.0104486095 -0.010833435 0.041677557 -0.0092694685
000070 12 ad 68 3d 80 5a cc 3c d7 cb 74 bd 79 25 af bc
       0.056805678 0.024945498 -0.05976471 -0.021380173
000080 e5 e7 5f bd db 8f 82 bd f3 c7 a1 bd a7 fa 86 3b
       -0.05466451 -0.063750945 -0.078994654 0.0041192356
000090 4c 1d 9a bd ba 52 a5 bc a6 42 7d bd bf 15 35 bc
       -0.07525119 -0.020181049 -0.06183114 -0.011052548
0000a0 3b e5 81 bd b8 0f 94 bc 0c 1a cc bc 35 18 96 bd
       -0.0634255 -0.018073902 -0.024914764 -0.07328836
0000b0 86 fb b3 3c 3c d3 96 3b 58 48 e4 3b dd 9a 8b bd
       0.021970522 0.004602818 0.006966632 -0.06816647
0000c0 5c 8d 42 bd 74 34 6f bd 28 5d 6b 3b 54 27 b4 bd
       -0.047498092 -0.058399633 0.003591368 -0.08796564
0000d0 b7 6a f9 3a 47 54 90 3b ac 85 14 3d ef 69 05 bd
       0.0019028996 0.004404578 0.036260292 -0.03257173
0000e0 00 3a 5b bd f4 21 e5 bc 19 45 13 3c c0 e2 a9 3b
       -0.05352211 -0.027970292 0.008988642 0.0051845014
0000f0 af 95 a6 3c c8 b4 1e bd 26 2d 17 bd 68 4e 2c bd
       0.020335047 -0.038746625 -0.03690829 -0.04206696
000100 48 67 2d bd 69 48 52 bd b0 b9 00 bd 93 ce 6a ba
       -0.042334825 -0.051338587 -0.031427085 -0.00089571736
000110 f2 a2 80 3c 8f c2 39 3b e7 26 00 bc 36 6d 0d 3c
       0.015702698 0.0028344726 -0.007821775 0.008631995
000120 6b 2d ec bb f4 b7 41 3a a4 03 74 3c 16 7b 91 3d
       -0.0072075627 0.0007389777 0.014893446 0.07103555
000130 15 e6 08 3d 0b 8d 07 bd 2f ab 6c bd b2 ac a9 bc
       0.03342255 -0.033093493 -0.05778044 -0.02071223
000140 b8 2b 8a bc 73 24 b1 bd 1f 8a 33 3c 08 8c cd 3d
       -0.01686655 -0.0864953 0.010958224 0.100364745
000150 7e 50 39 3d 39 aa 07 3c 8e a0 3c 3c 7a 49 c3 3c
       0.04524278 0.00828033 0.011512889 0.023838747
000160 19 4a ef 3a eb f1 9f bd 5d e1 16 3c 93 b5 ca 3c
       0.0018256336 -0.07809814 0.009209004 0.024744784
000170 95 a1 21 bd ce e4 20 bd 2a bc a8 bd 9a e2 4f bd
       -0.039460737 -0.039280705 -0.082390144 -0.050753213
000180 66 76 7d 3c 39 1f 70 3c 17 8f 89 bc 39 7e 88 3b
       0.015470123 0.014655882 -0.016791863 0.0041654375
000190 81 05 df 3c d7 1c 3a bc 25 ee a7 ba d1 e2 24 bc
       0.027224304 -0.011359415 -0.0012812061 -0.010063843
0001a0 34 97 16 3d fc 95 7c bd 3d 63 1d 3c 4a 9e e7 bc
       0.036765292 -0.061666474 0.00960618 -0.02827372
0001b0 e3 f1 f8 3c 80 a7 13 bd 4e 5b 3b 3c a5 a5 6e bc
       0.030388778 -0.036048412 0.011435343 -0.01456586
0001c0 b4 be 48 bd 0a b5 dc 3c 9c b7 11 bc 1a ff 84 bd
       -0.049009994 0.026941795 -0.008893874 -0.06493969
0001d0 dd 05 68 bd 9a bf a6 bd cd ce 89 bc 8d 3a 2c bc
       -0.056646217 -0.08142014 -0.016822243 -0.0105120065
0001e0 e9 31 2b bd 25 86 71 bc 32 16 0e 3d d5 86 51 bd
       -0.041795645 -0.014741455 0.034689136 -0.051153976
0001f0 d3 31 99 bb b2 73 39 3d 49 f4 40 bd 71 c9 3a bc
       -0.004675129 0.04527635 -0.04710797 -0.011400566
000200 94 79 50 bd 10 34 63 3d 70 a6 79 bd 11 fe f3 3c
       -0.050897196 0.055469573 -0.060949743 0.029784234
000210 3d 83 9a bd 8c 4a 6b 3d c7 76 9e 3c d4 32 40 bb
       -0.07544563 0.05744414 0.019343747 -0.002932717
000220 88 3d 2e bc c9 6d fc 3c 12 67 8c bd 70 bd 9a bc
       -0.010634787 0.030814068 -0.068555966 -0.018889159
000230 7f 69 0a bd 69 5d 0e 3d e0 1b 12 bd ef ad 61 bc
       -0.033792015 0.03475705 -0.035671115 -0.013774379
000240 4b d9 3d bd 3a b8 00 bd e7 1c a8 bd 2d 8b 10 3c
       -0.046349805 -0.031425692 -0.08208638 0.008822245
000250 26 b8 75 bc b0 85 fe bc a8 f5 7c bd 51 6a a8 3c
       -0.014997518 -0.031069607 -0.061757714 0.020558508
000260 0c 3e f6 bc b8 47 87 bd 54 7d 1e bd ac a8 1a 3d
       -0.030058883 -0.06605476 -0.03869374 0.037758514
000270 72 19 76 3b cf 97 bc 3d 91 da 5f bd 1f 85 23 bd
       0.0037551788 0.09208643 -0.0546518 -0.039921876
000280 71 f9 46 3d 5b 4b eb bc d3 ac fa bc dd 56 68 bd
       0.04857773 -0.028722456 -0.030599987 -0.056723464
000290 f8 ca 11 bc 7a 6a 42 bd 04 b3 8d bd 58 32 fd bb
       -0.008898489 -0.047464825 -0.0691891 -0.0077269487
0002a0 de 7c 31 bd bf c4 ca 3c 84 b6 08 bd b7 ef 60 bd
       -0.043331973 0.024752019 -0.033377185 -0.05491611
0002b0 1f 5d 90 bd 22 e3 b4 3c 4f 6e a4 3d 05 69 fc 3c
       -0.070490114 0.022080962 0.08028852 0.030811796
0002c0 13 02 9b 3c 32 7d 00 3d e6 9d 0c bd a1 27 71 3a
       0.018921888 0.031369396 -0.03433027 0.00091993256
0002d0 98 75 9c bd 4c 46 7d bd da ce 8a bd b0 27 54 3d
       -0.07639617 -0.06183462 -0.06777735 0.05179566
0002e0 6e 92 18 bd 8b cb 12 bd 51 f6 05 3d 53 72 a3 bd
       -0.03724902 -0.035838645 0.03270561 -0.0798079
0002f0 4c 7d e9 bc 1b db 11 bd 88 05 d5 3c 84 99 51 bc
       -0.028502129 -0.035609346 0.026003614 -0.012792949
000300 a6 87 d6 3c 31 ea 1f 3d 49 40 81 ba b5 df 68 3d
       0.02618773 0.0390417 -0.0009861077 0.05685397
000310 46 48 c3 bb 29 28 0a bd 4f 7b b6 bc df 19 8e 3c
       -0.0059595434 -0.033729706 -0.022275595 0.01734632
000320 15 7d 56 bd 2e 49 0b 3d 5d 16 be 3c 0e 33 f9 3c
       -0.05236538 0.034005336 0.023204023 0.030419853
000330 ff 1d 24 bd 08 d9 81 bd 66 e4 58 bd 71 5a 4c 3d
       -0.04006767 -0.063402236 -0.052952193 0.04989094
000340 8b ed 33 bd b6 53 bd bc 18 43 85 bd 53 ba 44 bd
       -0.04392771 -0.023111206 -0.06506938 -0.048029255
000350 fb 8c 13 3d 01 d3 26 bd ac 8c 86 3c 4d d4 87 bc
       0.03602312 -0.040728573 0.0164245 -0.016580725
000360 c9 b7 7c bc 45 01 b2 bd 36 4e d7 bc 5e 8f d0 3d
       -0.015424677 -0.086916484 -0.026282411 0.10183595
000370 72 b1 04 bd ec 28 87 bd 47 85 08 bd a8 7a ed ba
       -0.032395788 -0.06599602 -0.03333023 -0.001811822
000380 b0 5b 44 bd a9 53 0a bd 5e 25 88 bc a8 65 8c bd
       -0.047939003 -0.03377119 -0.01661938 -0.06855327
000390 05 45 11 bc fb db 66 bd 17 f8 0e bc f2 f9 2b bd
       -0.008866553 -0.056362133 -0.008726141 -0.041986413
0003a0 79 fe 91 bd 10 ec 79 bc 54 c9 95 3c 21 72 38 bd
       -0.07128615 -0.015254036 0.018284477 -0.045030717
0003b0 6b ba 54 3b 56 0e 10 3d 04 95 40 3c 37 ac ed 3c
       0.0032459747 0.03516992 0.011754278 0.029012782
0003c0 12 5c 4b 3c 2b 16 bb bc 69 35 03 bc 30 45 9f bd
       0.012412088 -0.022837719 -0.008008339 -0.07776868
0003d0 af 37 af bc ae d2 40 bd b8 94 0a 3d 8f 41 73 3d
       -0.021388857 -0.04707592 0.033833236 0.059388693
0003e0 29 d8 44 3d d8 4a 81 bd 3d 92 88 3c 55 c9 ec 3c
       0.04805771 -0.063131034 0.016671294 0.028904596
0003f0 55 a8 8c bb 86 54 b1 3c 83 84 e6 bc 11 62 ec 3c
       -0.0042925277 0.02164675 -0.028139358 0.028855355

f0.2.bias f4 [256]
000000 98 0c 18 bd b6 b9 71 3d 2b 60 b8 bc b9 00 64 3b
       -0.037121385 0.059015 -0.022506794 0.003479047
000010 aa 69 e7 bc 71 9c 12 bd 51 7c e9 bc 30 92 42 bc
       -0.028248627 -0.035793725 -0.028501661 -0.011875674
000020 62 d8 70 bd 30 f3 9b ba d0 22 87 3c 10 ef 36 3d
       -0.05880011 -0.0011898037 0.016496092 0.04466158
000030 ba 63 85 3d 3e e2 08 3d a3 af 58 bd a1 8e 07 3c
       0.06513162 0.033418886 -0.052901875 0.0082737515
000040 01 a5 e5 bc ed 6f bb 3a 39 24 b0 bb e6 ee 3d bd
       -0.028032782 0.0014300324 -0.005375412 -0.04637041
000050 f8 98 34 3d 24 b1 83 3d cf ab 61 bd da 20 95 3c
       0.044091195 0.06430271 -0.05509549 0.018204141
000060 ce 00 ba bc 8d 18 43 bd 6a d7 1c bc 69 c2 9d bd
       -0.022705462 -0.047630835 -0.009572843 -0.077030964
000070 84 92 d6 bd fc 6e 02 bd 63 79 ad 3d bc ac a6 bb
       -0.104771644 -0.031844124 0.08470418 -0.0050865095
000080 c2 04 98 3d 11 12 75 bc 55 c8 27 bd 39 d2 a6 bd
       0.074227825 -0.014957921 -0.040962536 -0.081455655
000090 06 12 91 3d f5 30 90 bd 12 83 e0 3c 39 e9 1f 3d
       0.07083516 -0.07040588 0.02740625 0.039040778
0000a0 66 52 14 3d 15 3a 41 3d 73 3e 81 3d 6c 10 86 3d
       0.036211394 0.047174532 0.06310739 0.06546101
0000b0 59 68 44 3d 04 c5 77 bd 73 b5 3f 3d 9c c9 ed 3d
       0.047951076 -0.060490623 0.046803903 0.116107196
0000c0 98 99 fe 3c b2 10 97 bd d7 dd 2e bd 6d ed db 3a
       0.031079099 -0.07376231 -0.04269203 0.0016779132
0000d0 ea 41 22 3c 7e 08 7e bd db 3b 1d 3a 41 12 a2 3a
       0.00990341 -0.062019818 0.0005997994 0.0012365059
0000e0 4c 73 ea bd 48 6a 07 bd c0 cd b7 3d 9a 26 ba bd
       -0.114477724 -0.033060342 0.089747906 -0.09089394
0000f0 c6 56 58 bd 30 a4 4f bd 20 4b 2b bd 62 f2 8b bc
       -0.05281713 -0.05069369 -0.04181969 -0.01708335
000100 6b 5e 8e bd 54 b7 61 3c 68 eb b7 3c ab 2c f6 3b
       -0.069516025 0.013776619 0.022451118 0.007512649
000110 a7 76 15 3d ce 32 fe bc c3 8c e1 3c 01 18 58 bd
       0.03649011 -0.031030085 0.02753294 -0.052757267
000120 fe 46 02 3e 3c e3 86 3b 86 89 53 bd 12 a0 8b 3d
       0.12722394 0.004116444 -0.051644824 0.0681764
000130 c8 ae 35 bd 6c a1 5f bd 9f 29 b9 bd e9 50 02 3d
       -0.044356138 -0.054597303 -0.09041142 0.031815443
000140 68 4e 8d 3d ac 10 88 bc 51 65 8d bd ef 2f 8a bc
       0.068997204 -0.016609512 -0.0690409 -0.01686856
000150 20 cd 3c bd d7 eb 87 3c c6 2d fa 3b 9c 57 e4 bd
       -0.04609406 0.01659195 0.007634851 -0.11149523
000160 e5 8c c0 3d 5f 64 53 bd 7e 4f 84 3c ca 7b 86 bc
       0.094018735 -0.051609393 0.016151186 -0.01641645
000170 a0 82 1a 3d 90 17 9c ba 37 ef 0a bc 14 4a 3c bd
       0.03772223 -0.0011908878 -0.008479885 -0.045969084
000180 08 56 64 bc 7e 4b 6d bc 5b 4c ab 3b bf d3 50 3c
       -0.013936527 -0.014483331 0.005227608 0.012745797
000190 53 57 75 bc 97 91 87 bd d1 1f 96 bd 4c 28 f7 3c
       -0.014974433 -0.06619566 -0.07330287 0.030170582
0001a0 98 03 12 3b c1 af be 3c a2 90 4a bd 73 ad 8d bd
       0.0022279974 0.023277165 -0.04945434 -0.069178484
0001b0 8f ea 6e bd a1 ec 94 bd 0c cd 82 3d 55 ea 9e bd
       -0.05832916 -0.07271696 0.06386766 -0.07759539
0001c0 ef 82 54 3d 67 e4 69 bd be ce 45 3c 19 55 5c bb
       0.05188268 -0.057102587 0.012073217 -0.0033620058
0001d0 fc c2 a3 bd 85 f2 fa 3b ae b5 88 bd dd f0 3a bd
       -0.07996175 0.007658305 -0.06675278 -0.04563986
0001e0 3a c8 9f 3d f3 f1 e7 bc 9a 47 7f bd 9f aa f9 3c
       0.07801862 -0.028313613 -0.062324144 0.030476866
0001f0 94 3c d3 3d 28 e3 6a bd 3f 40 40 bc 0c a0 67 3d
       0.10314289 -0.05734554 -0.011734067 0.056549117
000200 73 22 51 bd b2 1e 19 bb c8 e2 fa bb 1f b4 b8 bd
       -0.051058244 -0.0023364243 -0.007656429 -0.0901873
000210 4e 5c 2e bd d4 c9 46 bb b0 8e b0 bd 78 e3 3c bd
       -0.042568497 -0.0030332701 -0.086209655 -0.04611537
000220 8c 93 97 bc c3 dc 69 bb cc e3 77 bd 84 b3 1e bd
       -0.018502973 -0.0035684563 -0.06051998 -0.03874542
000230 96 92 c4 3c 1c fb e2 bc df 94 73 bc c6 e4 9c bd
       0.023995679 -0.027707629 -0.014867037 -0.076608226
000240 4f 32 66 b8 21 f1 52 bd 2b e2 03 3c e9 a8 24 3c
       -5.4883127e-05 -0.05149949 0.008049528 0.010050037
000250 41 93 92 bd 66 88 f7 3c bf a5 5d 3d 78 3b 49 bc
       -0.07156993 0.030216407 0.054113146 -0.012282245
000260 4b 39 61 bd 6f 4a f4 bc 76 9a 86 3d b8 c2 90 3c
       -0.05498628 -0.029820649 0.0657243 0.017670974
000270 94 3f a5 bd c8 d4 3b 3d b8 1b 7d bd ae 4d 38 bd
       -0.08068767 0.04585722 -0.061794013 -0.044995956
000280 e8 a0 db bc f4 6b 1f bc dc f1 49 3c 30 37 1c bd
       -0.026810125 -0.009730328 0.01232573 -0.03813857
000290 ba 26 e3 3c e1 79 10 be 94 e0 bc 3c 96 6b 74 bd
       0.027728427 -0.14108993 0.023056306 -0.059672914
0002a0 0c 2a ee bc 01 76 aa bd 41 6b a2 bc b0 bb 7f 3d
       -0.029072784 -0.08323289 -0.019826533 0.062434852
0002b0 56 2b c9 3c 98 29 46 bc ed dd d0 bc 58 68 ca bd
       0.024556797 -0.012094878 -0.025496447 -0.09883183
0002c0 98 16 7e 3d 9d fe 86 3d 3b 5b 81 bd a8 ce 0c ba
       0.062033266 0.065915324 -0.06316229 -0.00053713704
0002d0 3a ff 1b 3d ef ff 80 3c c2 54 2c bd 8f 34 26 bd
       0.0380852 0.015747039 -0.04207302 -0.040577468
0002e0 5e a6 f0 3b 72 45 78 3b 97 a4 40 bd a5 7f d2 bc
       0.0073440513 0.003788319 -0.047031965 -0.025695631
0002f0 9a 4b 30 3c c1 8b cb bc b1 f7 ea bd 1b 13 77 3d
       0.010760212 -0.024846913 -0.11473025 0.060320955
000300 1b 09 47 bd f0 86 83 bc 70 1a 3a bc 15 18 91 bd
       -0.048592668 -0.016055554 -0.011358842 -0.070846714
000310 ad 63 dd bc d8 a0 e5 3c fd e1 8e 3d 09 c0 cc bc
       -0.027025068 0.028030798 0.069766976 -0.024993913
000320 0d c6 8c bd 07 e2 a2 3c e9 4d f6 b9 9e 35 79 bd
       -0.06873713 0.019883169 -0.00046978824 -0.06084215
000330 be 73 6f 3d 3a cc b6 bc 89 5e 86 3c 52 18 bd 3b
       0.05845999 -0.02231418 0.0164025 0.0057707215
000340 7d bd 6d bd 14 01 88 bd 23 85 8d bd 63 d9 0e bd
       -0.05804204 -0.06640831 -0.069101594 -0.034875285
000350 2e 18 fe bc a9 84 ae 3d 59 18 8f bb f0 25 3d 3d
       -0.03101739 0.08521397 -0.004366916 0.04617876
000360 f4 36 29 bd e1 9d 45 3d c0 d1 71 bd de 5a 8d bd
       -0.041312173 0.04824627 -0.059037924 -0.06902097
000370 bf b0 3b bd 32 2f 12 bd 8a f0 00 3d ea 3b 47 bd
       -0.045822855 -0.03568954 0.031479396 -0.048641123
000380 5d fe 6b bd e4 7d 55 3b 0e 4e 0e 3b db d0 66 bd
       -0.057615627 0.0032576257 0.0021714005 -0.056351524
000390 dc b2 89 bd 55 01 70 bd f9 16 da bc b9 a5 2a bd
       -0.06723568 -0.05859502 -0.026622282 -0.04166195
0003a0 97 e9 e8 bc 5d 44 86 bd 01 19 55 bd e3 69 bc bd
       -0.028431697 -0.06556008 -0.0520258 -0.09199884
0003b0 bb 12 9e bd ba fa 63 3c ab 0a 92 bd 9f c9 27 bd
       -0.07718416 0.013914758 -0.07130941 -0.040963765
0003c0 ed 2b 0e 3d 5c cf 7c bd 96 a1 bc bc fc b0 b3 bd
       0.03470986 -0.06172119 -0.023026269 -0.087739915
0003d0 20 37 9a bb 0d 31 88 bd 74 d8 84 bd 45 12 0a be
       -0.0047062784 -0.06649981 -0.06486598 -0.13483532
0003e0 2d a3 04 bc 22 91 70 3d 3b 80 41 bd c9 23 a0 3c
       -0.008095545 0.05873216 -0.04724143 0.019548314
0003f0 ee 4e b9 3d 42 b3 c0 3c 58 1d 03 3d f4 37 9c bc
       0.09048258 0.023522977 0.032010406 -0.01906965

f0.4.weight f4 [130, 256]
000000 ec a5 40 3d 33 7c d3 bd 0e 27 82 3d 4a c7 3a 3d
       0.047033235 -0.103264235 0.06355105 0.045600213
000010 f9 88 6f 3e b7 61 76 3d b2 b2 bd 3c 74 8e b9 bd
       0.23392095 0.060151782 0.023156498 -0.09060374
000020 58 fa 03 3e fe 48 18 bc 90 9e e3 3d 82 72 b7 3d
       0.12888467 -0.009294746 0.11114228 0.089573875
000030 35 fe 93 bd d8 50 d6 3c 51 8d fc 3a 2f 2f 83 3d
       -0.072262205 0.026161596 0.001926819 0.06405484
000040 70 a6 b3 3b fa 8a 62 bd cc 49 9d 3c eb 01 e9 bd
       0.0054824874 -0.05530832 0.019200228 -0.11377319
000050 b4 bd 16 3c cf 7c 06 bd 60 0d 03 bd 3d 12 81 bc
       0.009200502 -0.03283387 -0.031995177 -0.015755767
000060 a2 3f 1a bb 5a a8 df 3c b0 2c 64 bd 98 4a 58 3e
       -0.0023536463 0.027301956 -0.05570668 0.21122205
000070 7d 81 2b 3e 65 c9 d6 3d 3f 3b 03 3d 8d 25 12 bd
       0.16748615 0.10487632 0.032038923 -0.035680342
000080 ff 7f 03 bd 22 11 a0 bd cc e5 c1 bc 48 08 b0 3d
       -0.03210449 -0.07815768 -0.023669146 0.085953295
000090 47 e0 2e 3e 6d f1 1f bd 98 3c 58 bc d6 8c 3e bc
       0.17077743 -0.0390486 -0.01319804 -0.011630258
0000a0 c1 5b 26 3e f0 77 6b 3c fe 54 ff 3d 0f 87 35 3e
       0.16245939 0.014371857 0.12467383 0.17727302
0000b0 b7 9d 52 bd 6a 4d 5c bd 29 3b 08 3d 70 45 15 bc
       -0.05141994 -0.053784765 0.033259545 -0.0091107935
0000c0 77 75 47 bd 81 4e f6 3d a2 85 87 bd 56 a0 c1 bc
       -0.048696008 0.12026692 -0.06617285 -0.023636024
0000d0 bb de 4a 3e b4 7b f7 bc 8e 58 81 3d 81 95 a2 3d
       0.19811527 -0.030210353 0.063157186 0.07938672
0000e0 66 7a 91 3c 02 f4 51 bb 06 87 89 3e 47 c0 2f 3e
       0.01775856 -0.003203631 0.26860827 0.17163192
0000f0 9e 8e 2a 3e 1a f6 31 3b 9d 10 10 bd 2b 97 97 bb
       0.16655967 0.0027154745 -0.035172094 -0.004626175
000100 7f 7d 8a bb 57 75 11 3e 69 e2 bb 3c b6 34 10 bd
       -0.004226386 0.14204918 0.02293511 -0.03520652
000110 da 84 7e bc 13 6d c7 bd 84 e9 88 ba 57 60 9f 3c
       -0.015534604 -0.09737601 -0.001044557 0.019455118
000120 14 6b fa 3d f1 a6 c9 3c 76 c8 26 3e f0 59 95 3d
       0.12227455 0.024615737 0.16287407 0.07292545
000130 eb 15 12 3d 50 bc cc 3b b4 0b 8c bb 05 a2 ac bd
       0.035665434 0.0062480345 -0.004273856 -0.0842934
000140 da 8d 74 bd 08 96 b6 bd 5c 49 86 3d bb 47 f7 3c
       -0.059705593 -0.08915335 0.06556961 0.030185571
000150 2f 67 00 bd f8 a3 2c bd 26 9d ab 3d e2 63 01 bc
       -0.031348404 -0.04214856 0.08379583 -0.007897349
000160 15 4f 17 3e cf a6 bf bd 33 32 1f 3b c3 5f 9e bc
       0.14776261 -0.09357988 0.0024291396 -0.019332772
000170 30 46 5c 3d 4d 15 ae bd 33 76 89 bc 32 4a c3 3c
       0.053777874 -0.085001566 -0.016779995 0.02383909
000180 13 90 0f 3c e4 2d 72 bc 40 8a d4 bd 44 da 1b 3c
       0.008762377 -0.014781449 -0.103779316 0.009512488
000190 b5 8a 78 bd 84 44 49 bd a3 70 ac b9 69 f3 f3 3c
       -0.060679156 -0.049137607 -0.00032890317 0.029779153
0001a0 e1 5b 1e bd 63 54 9c bd 0a 8a 95 bd fb 1b 3f 3c
       -0.03866184 -0.07633283 -0.073017195 0.011664386
0001b0 80 21 7a bc a6 82 73 bc f6 9d 9a bd 5f d7 1b 3d
       -0.015266776 -0.014862692 -0.0754966 0.03804719
0001c0 41 39 84 3b 0c 4c 18 bd 31 de 77 3e 1e 0e a8 3d
       0.0040351455 -0.0371819 0.24205853 0.08205818
0001d0 3c 1e fa 3d b0 7f 2b bd 5e d6 a1 bc 15 95 75 bd
       0.12212798 -0.04186982 -0.019755539 -0.05995663
0001e0 fb 7b 03 3e 14 a9 56 bd 79 66 06 3b 00 94 61 3c
       0.12840264 -0.05240734 0.0020507856 0.013768196
0001f0 60 38 38 3e bd f2 f9 bc b1 78 9c 3c a5 f0 79 3e
       0.17990255 -0.030511254 0.019100519 0.24408205
000200 8c d2 9e bd 61 bc 3d bc e3 22 a2 bc 24 06 a1 bc
       -0.077550024 -0.011580558 -0.019792026 -0.019656248
000210 c8 76 96 bc 07 a3 39 bd de 5b 6d 3d 75 6f 15 3b
       -0.018367186 -0.04532149 0.05794894 0.002280203
000220 2c bb 31 3d dd b2 1b 3e e6 d9 2a bd 37 58 dd 3d
       0.04339139 0.1520495 -0.04171171 0.10807841
000230 d4 14 de 3c c0 59 6d bd 23 fd 9c 3a 9a 97 73 3d
       0.027109541 -0.05794692 0.0011977296 0.05947075
000240 74 2e 0b bd 09 f4 e1 3d e0 0b 33 3e 0d 89 7a 3c
       -0.033979848 0.11032874 0.17484999 0.0152914645
000250 df 3f 95 bd 11 76 4f bd ee 98 07 bc 13 03 27 bd
       -0.07287573 -0.050649706 -0.008276207 -0.040774416
000260 0a f6 ff 3c 9a 6d 1f 3d d4 77 dc 3c 6a 91 12 bd
       0.03124525 0.038922884 0.026912607 -0.03578321
000270 73 ad 14 3e db fe 36 3c de e6 4f 3c 82 1f 9b bd
       0.1451929 0.011169161 0.01268932 -0.07574369
000280 d9 b9 ef bc 50 d6 bc bd 85 b4 3f 3b 55 be c9 bd
       -0.029263424 -0.09220564 0.0029251885 -0.09850756
000290 ea 0f 56 3d a5 10 fe bc b8 e7 08 bd 2c aa 23 bd
       0.05226127 -0.031013796 -0.03342411 -0.03995721
0002a0 ef f3 04 bc a2 4a bf 3d bc e4 fc bc d0 63 39 bd
       -0.008114799 0.09340407 -0.030870788 -0.045261204
0002b0 c2 0c 27 bd 56 a4 a1 bc b3 89 28 bd 38 f9 84 bd
       -0.04078365 -0.019731682 -0.041146945 -0.06492847
0002c0 87 8d 86 bc 21 fe ae bc 5c 8f bc 3c af a7 1c 3e
       -0.016424907 -0.021361412 0.023017578 0.15298341
0002d0 f0 cb a3 bd c0 24 c8 3c 78 5a 33 3c be 28 8b 3d
       -0.07997882 0.024431586 0.010946862 0.0679488
0002e0 87 53 bd 3d 26 4a 08 3e 2a 8f 1b bc b2 98 29 3c
       0.09244447 0.13309535 -0.009494582 0.010351347
0002f0 7d e7 e6 bd 2d 83 41 bd 1a 2f b1 3d 52 3c 2f 3e
       -0.11274622 -0.04724424 0.08651562 0.17112854
000300 ef 94 4b 3c 35 82 89 bd da ee d2 3c c3 36 e9 3d
       0.012425645 -0.06714288 0.025748659 0.11387398
000310 ef ab dd 3d b6 dc 7a bd cf 6e 71 bc 3e 0b 82 3d
       0.10823809 -0.061245643 -0.0147358915 0.063498005
000320 a6 b9 83 3c 97 00 8d bd db 34 2a bc 0d d2 79 3c
       0.016079735 -0.06884878 -0.010388578 0.015247834
000330 68 43 b7 3d 0f ee 21 3d 1b c8 2b bc 8b af 12 bd
       0.089484036 0.03953367 -0.010484721 -0.035811942
000340 1e 2f 72 3b 5c 6b 9a 3d ee c1 bc 3d 0d 6d 8c 3b
       0.0036954354 0.075400084 0.09216677 0.004285461
000350 51 13 08 3e 86 e2 de 3d 00 9c 21 3e 4e 9e 32 bd
       0.13288619 0.1088305 0.15782166 -0.043608002
000360 a3 23 63 3c ee 35 15 3e 32 1a 17 bd 7e c2 c2 3c
       0.013863477 0.14571354 -0.036890216 0.023774382
000370 fc 82 2d 3c 34 1b 64 bd 24 ed 91 3d 9a 87 25 bd
       0.010590311 -0.055690005 0.07125309 -0.040412523
000380 8f 76 0b 3c 94 c1 27 3e 3f ee 98 bd 51 01 0a 3c
       0.008512153 0.16382438 -0.07467317 0.008423165
000390 c7 9d 73 bc 90 10 c2 bb 80 3b 68 bb 62 5e 62 3d
       -0.01486916 -0.0059223846 -0.0035435855 0.05526579
0003a0 ae e9 b4 3d db db 2f 3b 80 a5 a9 bc b3 c4 ae 3b
       0.08833633 0.0026833925 -0.0207088 0.005333507
0003b0 04 b2 f9 3c 6d f6 af 3d de 34 dc bd f7 51 30 3b
       0.030480392 0.08591924 -0.10752271 0.0026904324
0003c0 0b d5 20 3c ae 99 ec bb 09 23 81 3c 15 3c 57 3c
       0.009816418 -0.0072204685 0.015763776 0.013136883
0003d0 0d 61 3b 3d 46 51 28 3d 0e 1e dd bc 2d 5d a0 3d
       0.04574685 0.041093133 -0.02699187 0.07830272
0003e0 95 3b aa 3c 2d 0b b0 3e 3e ce cb bc 99 24 6d 3d
       0.020780364 0.34383526 -0.024878617 0.05789623
0003f0 40 20 57 bd 56 b2 8d 3c 59 8f 9d b9 79 a1 0b 3b
       -0.05252099 0.017296951 -0.00030052176 0.0021305962

f0.4.bias f4 [130]
000000 2a 07 69 bd fe 21 a0 bd e1 7f 81 bd ea 75 41 bd
       -0.056891598 -0.078189835 -0.06323219 -0.047231592
000010 7b 0d d3 3b 34 77 92 bc 44 20 4e bb 9c c4 3d bc
       0.006440816 -0.017879106 -0.0031452337 -0.01158252
000020 14 53 c2 3c 4c 95 7c bd ed 06 10 bc 64 da a5 bd
       0.023721255 -0.061665818 -0.008790714 -0.08098295
000030 d5 73 b4 bd 21 d3 e6 3c 25 d3 a5 bc ac a0 72 bd
       -0.08811156 0.028176846 -0.020242283 -0.05923526
000040 d6 05 77 bd 72 e7 c6 bc d0 6f 4a bd 6a 03 cc bc
       -0.0603083 -0.024280284 -0.04942304 -0.024903972
000050 6a fc 7b bd 5d 5c 69 bd e9 1e f6 bc 60 94 7e bd
       -0.061520018 -0.05697285 -0.030044036 -0.06215322
000060 fc 25 6e 3d 18 0d 24 3d 5c b9 0f 3c 88 1d 3e 3d
       0.058141693 0.04005155 0.00877222 0.046414882
000070 2c 33 2d bd 3c 9d 1d bc b2 fd b2 3c c5 79 f9 bd
       -0.04228513 -0.009620007 0.021849487 -0.12181429
000080 2e 77 5f bd 37 4d b2 bd 89 bb 01 be 3d 02 a2 bc
       -0.054557018 -0.08706134 -0.12669195 -0.019776458
000090 08 09 d4 bc eb 56 15 bc f8 e6 39 3d a2 a3 26 bd
       -0.025883213 -0.009114961 0.045386285 -0.040683396
0000a0 78 99 65 bd a1 c2 67 bd bf 6d b2 bd df d8 2a bd
       -0.056054562 -0.056582097 -0.08712339 -0.04171073
0000b0 40 bd 4d 3d 68 91 10 be a5 cc 35 bd 72 90 13 bd
       0.05022931 -0.14117968 -0.044384617 -0.036026426
0000c0 9d de 84 3c 18 9b 85 bc f5 94 fc bc 5c 56 c5 bc
       0.016219432 -0.016309306 -0.030832747 -0.02408903
0000d0 6b 91 ec bc bc 0f a9 bc f2 53 37 bd 96 98 ba bd
       -0.028877934 -0.020637386 -0.04475779 -0.09111135
0000e0 e3 fc 37 bd d0 29 8a 3b 33 46 3c bd 30 b4 a5 3b
       -0.044918906 0.00421641 -0.045965385 0.0050568804
0000f0 fc 7d eb bd e8 77 7c 3d 58 2f 2d 3c d5 a8 4b bd
       -0.11498639 0.06163779 0.01057037 -0.049721558
000100 9b b8 e0 bc e2 27 bf bc d8 91 3a bd f8 e1 51 bd
       -0.027431777 -0.023334447 -0.045549244 -0.05124089
000110 10 07 03 bd 00 45 46 3c 5b ca c9 bc ed 03 62 bd
       -0.031989157 0.012101412 -0.024632623 -0.055179525
000120 de bf ce bd 33 66 7d bd 40 53 b5 bb 26 c0 18 bc
       -0.100951895 -0.061865043 -0.005533606 -0.0093231555
000130 32 b6 4b bd a4 ce 74 3d e8 77 83 bb 1d 03 dd bd
       -0.049734302 0.05976738 -0.0040120967 -0.107916094
000140 89 e6 45 bd bf cc 06 be 5a 31 17 bd c4 99 0e 3d
       -0.04831556 -0.13164042 -0.0369123 0.03481461
000150 3f 21 75 bd 3c 4e 32 bd 77 51 19 bd 86 74 33 3d
       -0.05984616 -0.04353164 -0.037431207 0.043812297
000160 e1 6d dd bd 2f ce 3e bd 6e ca 81 bd 77 af 85 bd
       -0.10811973 -0.04658335 -0.063374385 -0.06527608
000170 f4 24 98 bd 62 91 b8 bb a4 bf c7 3c 2c e5 8a bc
       -0.07428923 -0.0056325654 0.024383374 -0.01695498
000180 84 aa f3 bc b0 36 d9 bd ef 7a 64 bd fb 30 ce bc
       -0.029744394 -0.10606134 -0.0557813 -0.02516984
000190 55 40 48 bb 63 36 4e bd 1d 0b cd bc 6c 7e 0e bd
       -0.0030555923 -0.050344836 -0.025029713 -0.034788534
0001a0 c0 22 90 bd 7e 50 47 bd d0 46 20 bc 43 20 61 bd
       -0.07037878 -0.048660748 -0.009782508 -0.054962408
0001b0 b9 fd bb bd 7d 60 0d bc 43 7a c7 bd 43 09 68 bb
       -0.09179253 -0.008628962 -0.097401164 -0.003540591
0001c0 08 eb 0d 3d 8c 6c 0d bd 9d db f2 bd 1c df 4e bd
       0.03464797 -0.034527346 -0.11858294 -0.050505742
0001d0 d3 a9 ad bd 32 ed ad bc 84 79 f3 3c f6 a5 8c bd
       -0.08479657 -0.021231268 0.02972103 -0.06867592
0001e0 88 ed 3f bc af 98 9b bd 0d b8 a9 bd 50 19 c0 bb
       -0.011714347 -0.075974815 -0.08287058 -0.0058623925
0001f0 a4 57 a5 3c c8 1f a4 bc 46 14 66 3d 00 26 91 3b
       0.020183392 -0.020034686 0.056171678 0.004429579
000200 bb 38 58 bd f0 65 e5 bc
       -0.052788477 -0.02800271
