model/model.pth (torch, 799047 bytes, 6 tensors)

f0.0.weight f4 [256, 390]
-0.027535563 -0.03661137 0.023950528 0.013499588 0.0036632963 -0.033817865 0.0009769788 -0.044027947
-0.030024616 -0.039483007 -0.011268668 -0.035931293 0.035225328 -0.007353877 -0.0036775663 0.027454766
0.026882371 0.0214585 -0.014329356 -0.050578143 -0.020211251 -0.039810546 -0.05054492 -0.023705348
0.00088266615 -0.004073445 -0.01832413 -0.017009765 0.011402664 0.012133406 0.034305967 0.037367333
-0.009711217 0.0074092853 0.0363169 -0.017591758 -0.0078080976 -0.050074443 0.03995026 -0.03999457
-0.03610028 0.035212055 0.0041230344 -0.0078412555 -0.04110676 0.04714303 -0.042201985 0.041217517
0.034605186 0.007136923 -0.01608896 -0.041152894 -0.0017097612 -0.04361117 0.036550317 -0.027363079
0.039318852 -0.01726884 0.0144366175 -0.0012280929 0.04761795 0.044084962 0.0053327465 -0.025012964
0.009189866 -0.018627465 -0.0145301875 0.03817574 0.009475695 -0.000955948 -0.049555644 -0.015563618
-0.0041378173 0.03827235 -0.034563765 0.03255809 -0.0073390277 0.023537071 0.0120499525 0.039606825
-0.048425198 0.04913378 -0.04669449 -0.003036356 -0.0140632605 0.040101264 0.013824339 0.014815353
0.015662562 0.018593716 -0.009835211 -0.0022169515 -0.030860284 -0.049826674 0.016374657 -0.015175955
-0.03530674 0.018001586 0.04709707 0.027877077 -0.03504708 -0.049969006 -0.0066071446 -0.01724175
-0.033749755 -0.03930655 0.022749279 0.039037332 0.0020602888 0.000984977 -0.033726566 -0.021481136
-0.043300066 -0.044463057 0.03576034 0.0143378675 0.026690515 0.037740327 0.03947226 -0.010827957
-0.007691843 -0.03106187 -0.040772803 -0.032413535 0.039301813 0.015311304 -0.037086792 0.008992288
0.005104444 0.0070600677 -0.012003919 0.018122833 0.026572878 -0.04924599 -0.03624444 -0.014377062
-0.02380947 0.041068707 0.026047826 -0.03215528 0.039987635 -0.01662346 0.018808018 -0.036785737
0.018787852 0.0067842947 0.011682071 0.004686206 -0.015071513 0.012434985 0.045992628 0.047250014
-0.048820842 -0.009972605 -0.02939493 0.03442443 0.05024121 0.011064318 -0.022546498 0.008167825
-0.037535187 -0.019930705 0.026547913 0.004785686 -0.0433878 0.04017129 0.023478525 -0.031047659
0.03056077 0.0060332944 -0.008823734 -0.026309147 -0.041772846 0.0058153984 -0.034314074 -0.0012235657
0.02736966 0.04797693 0.013983073 -0.019247752 0.049496863 -0.016214885 0.039824564 0.027384508
0.021872269 -0.029185684 -0.044008154 -0.0016221912 -0.008745562 -0.049562767 0.0207454 0.033298433
0.024272727 -0.025555292 -0.046587247 -0.045403354 -0.049228474 0.033650216 -0.010463992 0.016358485
-0.034516033 -0.0058788653 0.0024111846 0.039326735 0.039859205 0.0438886 -0.02843673 -0.03141079
-0.044337403 0.009065352 -0.03978028 0.0069116987 0.011153512 -0.042187788 0.023940763 0.03102096
-0.0049273237 0.050142847 0.050011195 -0.04504231 -0.012632567 -0.01573769 -0.034069583 -0.028534822
-0.029908417 0.0028122729 -0.047240958 0.01897003 -0.027132586 -0.04153185 0.04596887 0.0155479545
-0.030090824 0.039181814 -0.013310195 -0.008720988 -0.029748771 -0.04316461 0.027132452 -0.023618316
-0.03046878 -0.03801021 0.03246609 0.034081914 0.0049919738 -0.0030178365 0.00026737014 -0.04918233
0.024393877 0.011133169 -0.018007647 -0.02275968 -0.037139162 0.012744362 -0.042747248 0.031178081
00000000: 4392 e1bc cef5 15bd e633 c43c 602d 5d3c
00000010: ea13 703b 9a84 0abd f80d 803a a656 34bd
00000020: 2ff6 f5bc efb8 21bd 38a0 38bc b12c 13bd
00000030: 6f48 103d cbf8 f0bb 5303 71bb d1e8 e03c
00000040: 6b38 dc3c bcc9 af3c adc5 6abc 072b 4fbd
00000050: 1192 a5bc 6210 23bd 3108 4fbd b831 c2bc
00000060: b962 673a 897a 85bb 7c1c 96bc 1058 8bbc
00000070: 3dd2 3a3c 31cb 463c 6a84 0c3d 7d0e 193d
00000080: cc1b 1fbc 97c9 f23b 08c1 143d 971c 90bc
00000090: 12db ffbb dc1a 4dbd e2a2 233d 59d1 23bd
000000a0: e3dd 13bd 843a 103d 851a 873b 9c78 00bc
000000b0: 905f 28bd 0d19 413d fddb 2cbd b3d3 283d
000000c0: 2bbe 0d3d d9dc e93b ffcc 83bc f08f 28bd
000000d0: 111a e0ba a0a1 32bd c9b5 153d 8928 e0bc
000000e0: ce0c 213d 6277 8dbc 9087 6c3c f6f7 a0ba
000000f0: 0a0b 433d 6f92 343d 52be ae3b fde7 ccbc
00000100: 1791 163c a098 98bc 0610 6ebc 2a5e 1c3d
00000110: f23f 1b3c 9698 7aba dcfa 4abd 8cfe 7ebc
00000120: 8796 87bb 78c3 1c3d bc92 0dbd a25b 053d
00000130: 3a7c f0bb d1d0 c03c 2a6d 453c c43a 223d
00000140: 8059 46bd 8140 493d b942 3fbd 9afd 46bb
00000150: 9769 66bc 3941 243d 7b7f 623c 18bc 723c
00000160: c64e 803c d951 983c dd23 21bc 464a 11bb
00000170: b5ce fcbc 0e17 4cbd 2524 863c 92a4 78bc
00000180: cd9d 10bd 1078 933c dbe8 403d 785e e43c
00000190: 878d 0fbd 4dac 4cbd bf80 d8bb 923e 8dbc
000001a0: 2f3d 0abd e8ff 20bd b25c ba3c 9ce5 1f3d
000001b0: e905 073b 581a 813a de24 0abd 35f9 afbc
000001c0: 695b 31bd e51e 36bd 6f79 123d 60e9 6a3c
000001d0: 11a6 da3c 9a95 1a3d aaad 213d be67 31bc
000001e0: db0b fcbb 7675 febc 6201 27bd 0ec4 04bd
000001f0: f0fa 203d 43dc 7a3c 52e8 17bd 6454 133c
00000200: 2e43 a73b 2458 e73b 16ac 44bc 5676 943c
00000210: 5daf d93c 2ab6 49bd 0d75 14bd c58d 6bbc
00000220: 140c c3bc a937 283d 4062 d53c 41b5 03bd
00000230: 13ca 233d ec2d 88bc 4613 9a3c a4ac 16bd
00000240: fbe8 993c ca4e de3b 2866 3f3c bf8e 993b
00000250: 82ee 76bc 1bbc 4b3c c462 3c3d 3b89 413d
00000260: 5df8 47bd 2364 23bc a3cd f0bc a200 0d3d
00000270: bac9 4d3d 1d47 353c 6fb3 b8bc 57d2 053c
00000280: 7fbe 19bd b845 a3bc 027b d93c 3ed1 9c3b
00000290: 68b7 31bd a78a 243d 0956 c03c a957 febc
000002a0: 945a fa3c f1b2 c53b 6c91 10bc 4886 d7bc
000002b0: 011a 2bbd 198f be3b ea8c 0cbd 0d60 a0ba
000002c0: 5636 e03c 7583 443d 4219 653c 76ad 9dbc
000002d0: 39bd 4a3d 14d5 84bc 151f 233d 7a55 e03c
000002e0: 792d b33c d116 efbc e541 34bd b49f d4ba
000002f0: 8c49 0fbc 5402 4bbd 42f2 a93c f063 083d
00000300: 99d7 c63c 5559 d1bc 45d2 3ebd def8 39bd
00000310: cca3 49bd cfd4 093d 2a71 2bbc 3b02 863c
00000320: af60 0dbd 7fa3 c0bb f704 1e3b 1215 213d
00000330: 6843 233d 88c4 333d 25f4 e8bc 9aa8 00bd
00000340: 239b 35bd d886 143c a6f0 22bd 887b e23b
00000350: 38bd 363c 1acd 2cbd 6b1f c43c ab1f fe3c
00000360: 6375 a1bb 9662 4d3d 8ad8 4c3d 497e 38bd
00000370: d4f8 4ebc 54ec 80bc 8c8c 0bbd dcc1 e9bc
00000380: 7f02 f5bc 1c4e 383b bc7f 41bd 0967 9b3c
00000390: 2845 debc 4d1d 2abd db49 3c3d d9bc 7e3c
000003a0: 0881 f6bc 1c7d 203d 0113 5abc 7ae2 0ebc
000003b0: b2b3 f3bc 60cd 30bd e044 de3c 337b c1bc
000003c0: aa99 f9bc 98b0 1bbd 2afb 043d 7a99 0b3d
000003d0: b693 a33b e5c6 45bb d02d 8c39 6973 49bd
000003e0: abd5 c73c e567 363c c684 93bc 8272 babc
000003f0: 3c1f 18bd bacd 503c bd17 2fbd 2d69 ff3c

f0.0.bias f4 [256]
-0.0056757648 0.025157072 0.007588711 -0.0030600852 -0.03782826 -0.02447147 -0.037253004 0.022705764
-0.010963661 -0.003618971 -0.016196221 -0.0076568257 0.014739566 0.036041982 -0.013636402 0.018900352
0.0064331875 0.009768236 0.026507631 -0.030122345 0.04992864 -0.040396154 0.049312003 0.027759785
0.0031712032 0.0312408 0.012596301 0.028822806 0.002918103 0.04539678 -0.025401274 -0.0013299994
0.030398289 0.030527135 -0.0040011415 0.019294245 -0.013398834 -0.04596213 0.022749128 -0.023920268
-0.024841826 -0.01901109 0.0347764 0.050562028 0.021599194 0.012922622 0.038830925 0.001001734
0.025369788 -0.030820992 0.04635636 0.002730522 0.005878322 0.018132022 -0.03851061 -0.018579818
0.012614326 0.009184137 -0.03871656 -0.047427256 0.0026324848 0.026315063 -0.010960739 0.028565705
0.03312069 0.006513236 -0.009378346 0.02226475 -0.048287738 -0.008677417 0.014689036 -0.03780552
-0.008956746 0.003764225 -0.015621695 -0.029495612 -0.010499462 -0.010111816 -0.033241674 0.04703029
0.044531267 0.029114738 0.04230996 0.0076056127 0.042946626 -0.02656817 0.042274334 0.044745233
0.011231435 -0.031439263 -0.03639083 -0.032675557 -0.049616832 0.017180631 -0.014852791 -0.041049946
0.004319054 -0.041117486 0.016698033 0.025811665 0.010022049 0.045563076 -0.0053085103 -0.039444953
0.04794354 -0.041818626 -0.01904587 -0.0061847237 0.04729933 0.026449693 -0.0092992205 -0.03625705
0.012838053 0.00913418 0.00623651 0.0387865 0.014462067 -0.047427326 0.039085526 0.005202958
0.043370616 0.02866143 0.036908675 -0.008437501 -0.03858413 0.009224043 -0.012435751 -0.01757849
0.025380382 -7.179087e-05 -0.030334694 -0.0068552587 0.021743037 -0.0275866 0.050347332 -0.016569862
0.002308439 0.030135741 -0.018675737 -0.0077203647 0.0037893543 -0.013772421 -0.034430787 -0.028154975
0.019690402 -0.03917119 -0.035826277 -0.042560574 0.022942916 0.024839358 -0.04514782 -0.047585268
-0.036591183 0.018308653 -0.018896839 0.01143753 -0.019307066 -0.025851475 0.04118148 0.026200855
0.0013166831 -0.03194532 -0.015457317 0.0043029855 0.0050245463 -0.016158722 0.028959984 0.015848253
0.047803227 -0.031108042 -0.024050968 0.050313212 0.015618797 -0.018113453 0.01812631 -0.015189103
-0.032677185 0.004452247 -0.034337863 -0.009670042 -0.028573679 -0.015142073 -0.049055886 -0.036208846
0.006233039 -0.034286235 0.044562723 -0.00976115 0.002363666 0.020118829 -0.014314706 -0.021967892
-0.050297845 -0.041940086 0.004375235 0.044571258 -0.013848914 -0.040760547 -0.041365106 -0.021046678
-0.006931963 -0.046312653 -0.012680026 -0.025753057 -0.045296706 0.009380537 -0.018132184 0.01484979
-0.03893639 -0.015006912 -0.017450422 0.020871803 -0.036048464 0.00023593259 0.03844157 0.018392136
0.046391252 0.03753986 0.015169267 0.005380422 0.017753532 -0.0095062265 -0.012529031 -0.045421977
-0.040326193 -0.026442854 -0.0036932006 0.025803491 0.0060039996 0.031613577 -0.03991234 -0.010868159
0.01621497 0.00588361 -0.008921843 0.029605618 0.013362217 -0.031378586 0.0012460754 -0.0032732002
0.01825092 -0.013805162 0.04150544 0.042227235 -0.019856095 0.036182124 -0.002812134 -0.047014672
-0.001037536 -0.037517928 -0.04484301 0.04883843 0.01630443 -0.043073803 -0.043705393 -0.012452973
00000000: c4fb b9bb 3416 ce3c b9aa f83b b68b 48bb
00000010: cef1 1abd 6478 c8bc 9b96 18bd 7001 ba3c
00000020: eda0 33bc 422c 6dbb f0ad 84bc 1ce6 fabb
00000030: 387e 713c c2a0 133d 376b 5fbc e9d4 9a3c
00000040: 7dcd d23b f40a 203c 8826 d93c 23c3 f6bc
00000050: f981 4c3d 7076 25bd 62fb 493d 7d68 e33c
00000060: f6d3 4f3b b5ec ff3c b760 4e3c ce1d ec3c
00000070: a53d 3f3b f9f1 393d 5516 d0bc 6053 aeba
00000080: d505 f93c 0b14 fa3c 021c 83bb f70e 9e3c
00000090: c886 5bbc c942 3cbd 615c ba3c 70f4 c3bc
000000a0: 1681 cbbc 25bd 9bbc b371 0e3d 211a 4f3d
000000b0: cbf0 b03c 68b9 533c 2d0d 1f3d 9e4c 833a
000000c0: 4dd4 cf3c 4e7c fcbc 2be0 3d3d 8ff2 323b
000000d0: f09e c03b 9b89 943c 4dbd 1dbd b434 98bc
000000e0: 51ac 4e3c 1079 163c 4195 1ebd 1543 42bd
000000f0: c485 2c3b b092 d73c ac94 33bc a002 ea3c
00000100: 90a9 073d fc6c d53b a2a7 19bc 9164 b63c
00000110: 5dc9 45bd ba2b 0ebc 48aa 703c f6d9 1abd
00000120: 51bf 12bc 37b1 763b 23f2 7fbc c8a0 f1bc
00000130: ef05 2cbc 08ac 25bc 6c28 08bd d5a2 403d
00000140: 6b66 363d 0882 ee3c 354d 2d3d 8138 f93b
00000150: cde8 2f3d 7ea5 d9bc da27 2d3d c746 373d
00000160: 0e04 383c 75c6 00bd 8d0e 15bd ced6 05bd
00000170: 053b 4bbd 65be 8c3c 1f59 73bc fd23 28bd
00000180: da86 8d3b cf6a 28bd 50ca 883c fc72 d33c
00000190: 8533 243c 59a0 3a3d 03f3 adbb 0891 21bd
000001a0: 7260 443d 024a 2bbd 1606 9cbc 39a9 cabb
000001b0: f1bc 413d 07ad d83c c25b 18bc 4682 14bd
000001c0: b256 523c 87a7 153c a35b cc3b 98de 1e3d
000001d0: 4ef2 6c3c 2843 42bd 2518 203d 937d aa3b
000001e0: 63a5 313d 60cb ea3c 8d2d 173d 723d 0abc
000001f0: 650a 1ebd 7120 173c 52bf 4bbc c400 90bc
00000200: 85ea cf3c 6e8e 96b8 7780 f8bc 14a2 e0bb
00000210: 741e b23c 4bfd e1bc 0139 4e3d 85bd 87bc
00000220: 2e49 173b 3bdf f63c dcfd 98bc 1dfb fcbb
00000230: d156 783b b8a5 61bc 4c07 0dbd 43a5 e6bc
00000240: c44d a13c f871 20bd 93be 12bd ff53 2ebd
00000250: c8f2 bb3c e97b cb3c ecec 38bd c5e8 42bd
00000260: a3e0 15bd 07fc 953c 8bcd 9abc 7a64 3b3c
00000270: da29 9ebc 79c6 d3bc e9ad 283d 2da3 d63c
00000280: 8e94 ac3a 19d9 02bd b040 7dbc 0f00 8d3b
00000290: f3a4 a43b 4c5f 84bc 7d3d ed3c 32d4 813c
000002a0: 51cd 433d 4bd6 febc 8906 c5bc 3a15 4e3d
000002b0: fce5 7f3c aa62 94bc a17d 943c b7db 78bc
000002c0: 83d8 05bd 28e4 913b dca5 0cbd 196f 1ebc
000002d0: 5913 eabc 7516 78bc d3ee 48bd ba4f 14bd
000002e0: 853e cc3b b96f 0cbd 6787 363d 3bed 1fbc
000002f0: bce7 1a3b 3ed0 a43c 3b88 6abc 02f6 b3bc
00000300: 1d05 4ebd 5ec9 2bbd 225e 8f3b 5a90 363d
00000310: 8ee6 62bc 88f4 26bd 756e 29bd 156a acbc
00000320: 8525 e3bb 56b2 3dbd e2bf 4fbc 13f8 d2bc
00000330: 0a89 39bd d3b0 193c f289 94bc 894c 733c
00000340: c47b 1fbd 8ddf 75bc 30f4 8ebc 58fb aa3c
00000350: 8ea7 13bd ac64 7739 e874 1d3d 1bab 963c
00000360: c104 3e3d 65c3 193d 8488 783c 404e b03b
00000370: db6f 913c 01c0 1bbc 9146 4dbc 650c 3abd
00000380: 142d 25bd af9e d8bc a009 72bb d861 d33c
00000390: 33bd c43b 3d7d 013d 1f7b 23bd 5d10 32bc
000003a0: 42d5 843c 4ccb c03b ec2c 12bc 7b87 f23c
000003b0: 33ed 5a3c d586 00bd 5a53 a33a 3083 56bb
000003c0: f482 953c 0c2f 62bc 9c01 2a3d 77f6 2c3d
000003d0: 40a9 a2bc b533 143d c84b 38bb 7592 40bd
000003e0: eefd 87ba 66ac 19bd 4ead 37bd ce0a 483d
000003f0: de90 853c 286e 30bd 6d04 33bd 8e07 4cbc

f0.2.weight f4 [256, 256]
0.033859238 -0.059161134 0.059245586 -0.023203723 -0.04207518 0.058137402 -0.039079905 -0.05733525
0.026980832 0.01874882 -0.013084516 -0.0023299977 0.028473899 -0.011254951 -0.022313848 0.005868621
0.019705161 0.010440998 0.04001861 -0.059676632 -0.028831936 0.057777606 0.03004264 -0.031379923
0.016948223 0.051381372 -0.04951427 0.035871103 -0.018801093 -0.0028887168 -0.06220696 -0.01037126
-0.04079643 0.03401985 -0.027320735 -0.01873736 0.02965194 -0.01288832 0.022782885 -0.05322416
-0.025891975 -0.015535556 -0.00477615 0.060603067 0.03503053 0.039242573 -0.046348907 0.008136235
0.05853583 0.041807048 -0.015201598 0.01449015 0.0070933253 -0.0154335275 -0.035010777 -0.025311284
0.035507023 0.013679557 0.03395798 -0.016484857 -0.035343044 0.020050347 -0.026046515 -0.046852395
0.037153155 0.049295314 0.0062156916 0.0562398 -0.015638195 -0.045885004 -0.054656804 -0.056641236
0.018242642 -0.032051772 0.03831795 0.04660116 0.021519668 0.051836684 0.0220882 0.02110412
0.06103398 0.014339618 0.01986193 0.008604765 -0.0539802 0.054803155 -0.034493737 -0.013310298
-0.0077288374 -0.020306624 0.024221271 0.0078016073 -0.030810587 -0.043186925 -0.04314637 -0.029522285
0.023287036 0.054347903 0.006591104 -0.0047995523 0.014737032 -0.025781244 0.015466228 0.023859203
0.02377548 0.058752656 0.060713127 -0.022310562 0.016091041 0.028159 0.04494953 -7.070601e-05
0.0090069845 0.03503634 0.04591173 -0.0114381015 0.014808625 0.0005323738 0.012487777 0.023809709
-0.060318604 -0.006905563 -0.03301648 0.061863758 -0.01391346 -0.027627371 0.048844174 -0.062188372
0.03834963 -0.0608346 -0.0048980042 0.04738281 0.014332436 0.029140912 -0.026653498 -0.016927667
-0.008226357 0.016295835 -0.0039362907 0.060039423 0.032850325 -0.006398119 0.038991757 0.005573325
-0.025285684 0.054143667 -0.05230411 -0.0549251 -0.00077839196 0.036609434 -0.038352177 0.010553129
-0.032676876 0.014824323 -0.042841576 0.046170264 0.0058466494 -0.024830483 0.00365372 -0.05571743
0.060631998 -0.01314275 0.010760486 0.055511825 0.030177996 -5.3197145e-05 -0.034749642 0.029715687
-0.060994044 0.061011158 0.05453626 -0.017702915 0.015547827 -0.011866517 -0.008213818 -0.036297344
0.046076804 0.05110476 -0.010978185 0.031384267 -0.0612036 -0.050436817 -0.051793784 -0.04376684
0.009935908 -0.045016266 0.0055196956 0.019871734 -0.017388903 0.054266155 0.06040942 -0.047507174
0.034240812 0.051226057 -0.03429409 0.03308247 0.04127361 -0.039078444 -0.012007736 0.04905401
0.034640722 0.03209489 -0.06045237 -0.056179196 -0.02856595 0.0036586225 -0.039551757 -0.032307923
-0.006746657 0.050021082 -0.0354653 0.049774043 -0.021702655 -0.006351024 -0.010143973 -0.058367364
-0.042021044 -0.057854056 -0.053636126 0.018095814 0.027209893 -0.011120193 -0.052308023 0.033652008
0.028807364 -0.044829607 0.019337237 0.0254367 -0.061336696 -0.026999444 0.021666184 -0.030817777
0.058682933 -0.05507447 -0.043658078 -0.040236063 -9.55835e-05 0.047289938 -0.052493148 0.058716588
-0.027075104 0.019080848 0.03170956 0.036112227 -0.031009056 -0.049852207 -0.055176497 -0.0534271
0.035557643 0.02586905 -0.026650608 -0.034516774 -0.0037688836 0.06247498 0.036528736 -0.040391378
00000000: fcaf 0a3d f252 72bd 80ab 723d bc15 bebc
00000010: 0657 2cbd 7c21 6e3d 4012 20bd 5ed8 6abd
00000020: e806 dd3c 2097 993c 7060 56bc e0b2 18bb
00000030: 1842 e93c b066 38bc 88cb b6bc 904d c03b
00000040: b86c a13c b810 2b3c 8eea 233d 7c6f 74bd
00000050: f430 ecbc 36a8 6c3d fc1b f63c 3c88 00bd
00000060: 00d7 8a3c 4675 523d 7acf 4abd 94ed 123d
00000070: c004 9abc a050 3dbb bacc 7ebd 38ec 29bc
00000080: 281a 27bd 6658 0b3d bccf dfbc 187f 99bc
00000090: a0e8 f23c 8829 53bc 2ca3 ba3c 9401 5abd
000000a0: 681b d4bc d888 7ebc 4081 9cbb ec3a 783d
000000b0: 2c7c 0f3d d2bc 203d 5ad8 3dbd d84d 053c
000000c0: 44c3 6f3d de3d 2b3d 2010 79bc 1868 6d3c
000000d0: 206f e83b e8dc 7cbc 7667 0fbd 9c59 cfbc
000000e0: d06f 113d 3820 603c 8617 0b3d 400b 87bc
000000f0: dec3 10bd a040 a43c 805f d5bc 4ce8 3fbd
00000100: e82d 183d e2e9 493d 00ad cb3b b45b 663d
00000110: ac1b 80bc eaf1 3bbd d0df 5fbd a400 68bd
00000120: 9871 953c b848 03bd 48f3 1c3d dce0 3e3d
00000130: 044a b03c b452 543d 50f2 b43c 8ce2 ac3c
00000140: c4fe 793d b8f0 6a3c 7cb5 a23c 00fb 0c3c
00000150: 581a 5dbd 4679 603d 4e49 0dbd 7013 5abc
00000160: 3042 fdbb 145a a6bc b06b c63c a0a4 ff3b
00000170: 7c66 fcbc c6e4 30bd 40ba 30bd b8d8 f1bc
00000180: 74c4 be3c e89b 5e3d 30fa d73b 9045 9dbb
00000190: 9873 713c 3033 d3bc 1066 7d3c 6074 c33c
000001a0: ccc4 c23c a0a6 703d 54ae 783d a4c4 b6bc
000001b0: 5cd1 833c b4ad e63c 001d 383d 0048 94b8
000001c0: 0892 133c 4482 0f3d f00d 3c3d e066 3bbc
000001d0: e09f 723c 008f 0b3a 8899 4c3c 940c c33c
000001e0: a410 77bd 1048 e2bb 4a3c 07bd da64 7d3d
000001f0: 48f5 63bc cc52 e2bc d410 483d 3cb9 7ebd
00000200: 8014 1d3d b42d 79bd 707f a0bb 7a14 423d
00000210: 98d2 6a3c ecb8 ee3c 7058 dabc e4ab 8abc
00000220: d8c7 06bc d87e 853c 00fc 80bb e6eb 753d
00000230: 108e 063d 50a7 d1bb d2b5 1f3d 70a0 b63b
00000240: ec23 cfbc c0c5 5d3d d63c 56bd 24f9 60bd
00000250: 000d 4cba c6f3 153d 2c17 1dbd 08e7 2c3c
00000260: 30d8 05bd b8e1 723c a67a 2fbd 081d 3d3d
00000270: 4095 bf3b 4c69 cbbc 4073 6f3b f637 64bd
00000280: 4259 783d b054 57bc c04c 303c 5e60 633d
00000290: d837 f73c 0020 5fb8 a455 0ebd 506e f33c
000002a0: e4d4 79bd d6e6 793d 6a61 5f3d b405 91bc
000002b0: 50bc 7e3c c86b 42bc 4093 06bc 86ac 14bd
000002c0: 08bb 3c3d 3a53 513d d8dd 33bc ca8c 003d
000002d0: a0b0 7abd d696 4ebd b825 54bd dc44 33bd
000002e0: 38ca 223c fa62 38bd 90de b43b 0cca a23c
000002f0: 2c73 8ebc 3046 5e3d de6f 773d e296 42bd
00000300: 1840 0c3d 6ad2 513d f677 0cbd 7c81 073d
00000310: 840e 293d b810 20bd 18bc 44bc dcec 483d
00000320: 6ee3 0d3d ee75 033d e89c 77bd 281c 66bd
00000330: 2403 eabc 80c5 6f3b 0601 22bd 5055 04bd
00000340: 1013 ddbb e8e2 4c3d 1044 11bd dedf 4b3d
00000350: c4c9 b1bc 401c d0bb e832 26bc 9e12 6fbd
00000360: 421e 2cbd 60f8 6cbd 8eb1 5bbd ac3d 943c
00000370: 48e7 de3c 7831 36bc f040 56bd b0d6 093d
00000380: 6cfd eb3c 409f 37bd 2069 9e3c a060 d03c
00000390: 303c 7bbd f02d ddbc 487d b13c 9075 fcbc
000003a0: 845d 703d c495 61bd d0d2 32bd 92ce 24bd
000003b0: 0074 c8b8 18b3 413d 0e03 57bd ce80 703d
000003c0: 9ccc ddbc 704f 9c3c e2e1 013d 6aea 133d
000003d0: b406 febc d431 4cbd c000 62bd 60d6 5abd
000003e0: e4a4 113d 54eb d33c 6052 dabc 7661 0dbd
000003f0: 60ff 76bb c4e5 7f3d 289f 153d 6e71 25bd

f0.2.bias f4 [256]
0.037700363 -0.026294604 0.0033612922 0.04939191 0.0368808 -0.03439629 -0.027000241 0.009659626
-0.0062571317 -0.021304026 -0.032490946 0.026620515 -0.0011113808 -0.02467385 0.038007587 -0.03225018
-0.045138374 0.025139578 0.024189204 0.002310142 0.060474776 -0.02337052 0.044032983 -0.015377149
0.037690453 -0.03573925 -0.058197737 -0.004939586 0.028154135 0.0022638813 -0.051576726 0.056628324
-0.0037060976 0.025764428 0.056243107 0.018955335 -0.053292118 0.00050875545 0.058681145 0.045596562
0.021803282 -0.053198844 -0.017945379 0.020927258 0.030502565 0.01373329 0.052247047 0.0017867014
-0.0129534155 0.05892247 -0.04428971 -0.011182755 0.0170689 0.04662811 -0.015813157 -0.050151102
0.03408809 -0.0030336082 -0.06191375 0.051994056 0.038583234 0.007130392 0.0070635974 0.041323744
-0.047733113 -0.02319482 0.05923658 -0.049635448 0.008398555 0.029926114 -0.042901456 0.019488454
-0.03617175 0.018488914 -0.05898553 -0.025469035 -0.038751103 -0.03571029 0.05221057 -0.052524313
0.016216613 -0.026839875 0.044081546 0.04482521 -0.029002503 -0.05588837 -0.006999925 0.019757204
-0.011471771 -0.038539276 -0.030852705 -0.035724953 0.061018698 -0.024394229 -0.031749316 0.013554752
0.01965098 -0.024446227 -0.004480824 -0.027747199 -0.0556913 -0.016392834 0.03714017 0.04632213
0.053727753 0.008989118 0.03859257 0.042265445 0.05988702 -0.037694223 0.028356746 -0.034978278
0.05106345 0.045851156 0.053986065 0.018171273 -0.052575894 0.011734597 0.047692522 -0.03836388
0.040911317 -0.014181845 0.005587265 0.008282386 0.0025907606 0.013897769 0.05181387 0.009450801
0.038062528 0.048808515 -0.0358041 0.018441 -0.008264184 0.05928205 -0.014111318 -0.012497105
0.035165876 0.02850528 0.046040162 0.050215982 -0.017939098 -0.034425072 0.044303313 0.017729208
0.020972699 -0.01338692 -0.052241832 0.035706744 0.03620246 0.036673814 -0.057531297 0.038605027
-0.044711135 0.0081611425 0.042717353 0.04914602 0.028094277 -0.008247316 -0.005607851 0.040431887
0.0073600933 0.021560498 0.0076496825 0.040601052 0.014212795 0.014758132 0.005421065 0.01884181
0.04921817 -0.0156447 -0.006461084 0.025747932 0.0009511858 -0.030090496 0.004878089 -0.060619183
-0.028158568 -0.034290962 -0.043317303 -0.003034912 -0.055858813 -0.022332862 0.037341908 0.020042308
0.03957741 0.0038461909 0.022420675 0.059116423 -0.04387857 0.05798904 0.006398998 -0.033333845
-0.022253789 -0.020305075 0.040212817 -0.061195903 -0.008313365 0.00034268945 0.00826484 -0.051216267
-0.0038887262 0.03391496 0.04211089 0.047839627 -0.03949391 -0.006328799 0.022439033 -0.007986151
-0.061374903 -0.041250356 0.03677515 -0.017996863 -0.030551367 -0.040673845 -0.04518085 0.031146608
-0.036686726 0.030976348 -0.030667774 0.05771576 -0.015033819 -0.029110268 0.032833524 0.030644558
0.0563389 0.01946579 0.01841443 0.010657683 -0.027930275 -0.00817208 -0.03016799 -0.04719898
-0.056610994 0.006990902 -0.062125377 0.016547486 0.06080541 -0.050388865 0.03444039 -0.012054443
-0.0050609633 0.04158155 -0.04560224 0.039416246 0.0003668368 -0.055240273 -0.010944024 -0.052915014
-0.0056627616 -0.055905566 -0.033567704 0.052249014 0.05924669 0.045115344 -0.051538587 -0.039365567
00000000: b26b 1a3d c867 d7bc 2049 5c3b 2c4f 4a3d
00000010: 5210 173d 20e3 0cbd 9c2f ddbc 6843 1e3c
00000020: a008 cdbb c885 aebc 3a15 05bd 4413 da3c
00000030: c0ab 91ba d020 cabc d8ad 1b3d c418 04bd
00000040: 04e3 38bd 84f1 cd3c 7028 c63c c065 173b
00000050: 66b4 773d 8873 bfbc ee5b 343d 70f0 7bbc
00000060: 4e61 1a3d 5263 12bd c060 6ebd 40dc a1bb
00000070: 80a3 e63c a05d 143b 1e42 53bd 1af3 673d
00000080: 00e2 72bb ec0f d33c 2c5f 663d 3848 9b3c
00000090: d648 5abd 005e 053a a45b 703d 76c3 3a3d
000000a0: cc9c b23c 08e7 59bd 3002 93bc a46f ab3c
000000b0: 84e0 f93c 9801 613c 0001 563d c02f ea3a
000000c0: 903a 54bc b058 713d 2069 35bd e037 37bc
000000d0: 14d4 8b3c 1efd 3e3d 988a 81bc 3e6b 4dbd
000000e0: f49f 0b3d 80cf 46bb 4699 7dbd b8f7 543d
000000f0: 7409 1e3d 10a6 e93b c075 e73b 1643 293d
00000100: cc83 43bd 1003 bebc 0ea2 723d 8a4e 4bbd
00000110: 189a 093c 9c27 f53c 70b9 2fbd 40a6 9f3c
00000120: d428 14bd 1076 973c d09a 71bd 70a4 d0bc
00000130: 7ab9 1ebd f444 12bd c0da 553d bc23 57bd
00000140: b4d8 843c 4cdf dbbc da8e 343d a49a 373d
00000150: a896 edbc 34eb 64bd a05f e5bb dcd9 a13c
00000160: 18f4 3bbc 5cdb 1dbd d0be fcbc 5454 12bd
00000170: beee 793d 68d6 c7bc 920b 02bd c014 5e3c
00000180: 18fb a03c 7443 c8bc e0d3 92bb 184e e3bc
00000190: 901c 64bd 444a 86bc 4a20 183d 46bc 3d3d
000001a0: a211 5c3d 1847 133c 3e13 1e3d 881e 2d3d
000001b0: 184c 753d 4265 1abd 684c e83c 6245 0fbd
000001c0: e827 513d 6cce 3b3d 7e20 5d3d ecdb 943c
000001d0: d259 57bd 7842 403c 3c59 433d 7223 1dbd
000001e0: a092 273d f85a 68bc 6015 b73b d8b2 073c
000001f0: c0c9 293b 78b3 633c c83a 543d 88d7 1a3c
00000200: 74e7 1b3d 70eb 473d 52a7 12bd 9411 973c
00000210: 8066 07bc bcd1 723d 2833 67bc a8c0 4cbc
00000220: 180a 103d e883 e93c 9c94 3c3d 46af 4d3d
00000230: 04f5 92bc 4e01 0dbd 6477 353d d83c 913c
00000240: f0ce ab3c d054 5bbc 88fb 55bd 3c41 123d
00000250: 0849 143d 4837 163d f0a5 6bbd 4e20 1e3d
00000260: 0623 37bd 50b6 053c 64f8 2e3d 564d 493d
00000270: f825 e63c c01f 07bc 10c2 b7bb e89b 253d
00000280: f02c f13b a49f b03c 30aa fa3b 4a4d 263d
00000290: c8dc 683c 18cc 713c 30a3 b13b 245a 9a3c
000002a0: fe98 493d 5029 80bc 80b7 d3bb 54ed d23c
000002b0: 0059 793a 5880 f6bc 60d8 9f3b d24b 78bd
000002c0: ccac e6bc ae74 0cbd 7c6d 31bd 60e5 46bb
000002d0: 36cc 64bd 68f3 b6bc d4f3 183d c42f a43c
000002e0: ec1b 223d 6010 7c3b 90ab b73c 1024 723d
000002f0: 04ba 33bd ea85 6d3d b0ae d13b 1289 08bd
00000300: 944d b6bc d456 a6bc 32b6 243d 8ea8 7abd
00000310: c834 08bc 00ab b339 4069 073c 26c8 51bd
00000320: 00da 7ebb 6aea 0a3d 787c 2c3d 7cf3 433d
00000330: 5ec4 21bd d061 cfbb 10d2 b73c 58d8 02bc
00000340: 4064 7bbd 22f6 28bd 8aa1 163d 286e 93bc
00000350: dc46 fabc 9e99 26bd 8e0f 39bd 2c27 ff3c
00000360: d244 16bd 1cc2 fd3c fc3a fbbc 5c67 6c3d
00000370: 6850 76bc a878 eebc 727c 063d 4c0a fb3c
00000380: 9ec3 663d b876 9f3c dcd9 963c 909d 2e3c
00000390: 08ce e4bc 30e4 05bc dc22 f7bc b853 41bd
000003a0: eee0 67bd f013 e53b 2e77 7ebd 988e 873c
000003b0: 180f 793d 8e64 4ebd 5e11 0d3d 0080 45bc
000003c0: 70d6 a5bb 6a51 2a3d 6ac9 3abd ee72 213d
000003d0: 0054 c039 a043 62bd 904e 33bc 6abd 58bd
000003e0: b08e b9bb 3cfd 64bd 4a7e 09bd 1003 563d
000003f0: a8ac 723d deca 383d 201a 53bd ca3d 21bd

f0.4.weight f4 [130, 256]
0.03769514 -0.04675225 0.00949835 0.026190273 -0.056176968 0.016437478 -0.004366748 -0.036376163
-0.0026738867 0.032909095 0.031068325 -0.040470317 0.008995704 0.040792502 0.052974865 -0.0053104833
0.032646656 -0.04401789 0.010357551 -0.059233785 -0.035729527 -0.044786148 0.061781794 0.038825788
0.05188998 0.052687496 -0.020631552 0.002321966 0.0478798 0.032713495 0.033563733 0.050102174
0.015015952 -0.043837868 -0.060256526 -0.048352107 -0.0093694255 -0.038822427 -0.036322065 0.0059387535
0.037722997 0.060656555 -0.031302422 -0.05434022 0.020442754 -0.045695573 0.00870087 -0.017867275
-0.010000519 -0.008292392 -0.00092573464 -0.043634772 0.028021112 -0.009705119 0.035160206 -0.01457274
0.004560791 0.05496502 0.03762182 -0.021994561 0.022058405 -0.0022567436 0.0017195791 0.059876204
-0.043395147 0.024041869 0.021963947 -0.028332941 -0.038519092 0.04792752 0.029552452 0.014781892
0.002908714 -0.004957907 0.0002977252 -0.04157143 -0.016344287 0.050147064 -0.056442633 -0.026091263
-0.0089014545 0.0047034994 0.016627915 0.04486455 0.031590812 0.026613966 0.0104215965 -0.025926173
-0.049053825 -0.029216655 0.03977461 -0.060994305 0.024097398 0.03440319 0.017272525 0.03393577
0.05313395 0.044773906 -0.044764146 -0.0053217784 0.051103108 -0.015311584 -0.016324207 -0.04586956
-0.011946216 -0.0043452084 -0.053812765 -0.05474449 0.02736593 0.029703565 -0.012119293 0.062247388
-0.043042682 -0.031597845 -0.05518593 0.058553517 -0.0573826 0.017300442 -0.045033485 0.024369821
0.02941221 0.021225706 0.042751588 0.021747068 0.0034502894 0.025358558 0.050363615 -0.04165761
0.024043314 -0.027730629 0.0020966977 0.054735303 0.057659753 0.04889679 0.006619133 -0.013905138
0.043530792 0.0613558 -0.0075916573 -0.030450985 -0.017215438 0.01810015 0.0003209561 -0.045004062
0.012420543 -0.03237684 -0.038245775 0.047604084 0.019130424 -0.0030333027 -0.024346009 0.037220076
0.021625906 0.038545884 0.028101988 0.056143187 0.010210782 -0.0040274784 -0.0549633 0.03340391
0.039388306 0.048528716 0.036302313 0.058590323 -0.026992723 -0.046343476 0.057887673 0.004872948
0.039220527 -0.015752554 -0.020775564 0.051425062 0.007110335 0.043283038 0.036519095 0.0024450272
-0.00020346045 -0.056411162 -0.05552619 0.045187265 -0.046280213 -0.02906365 0.055896923 0.054366678
0.0568593 -0.04404168 0.02813039 0.03219328 0.051198825 0.008210771 0.051990427 -0.04860641
-0.031003475 -0.060109906 -0.046463124 0.021800943 0.058117524 0.03507667 -0.0022110343 0.04346855
0.019642055 0.044376172 0.030167416 0.008874796 0.031432725 0.0018674061 -0.018508062 0.03959571
0.04177116 -0.029723994 0.060757793 0.05946608 -0.06088294 -0.035016455 -0.04948902 0.018544301
0.006965317 -0.028937489 0.017880008 0.06106686 -0.025814168 -0.016538061 -0.061494805 0.03207115
0.031052373 -1.1086464e-05 -0.0153672695 -0.048651733 0.035094224 0.0437311 -0.05062919 0.03374414
-0.06054131 -0.02011352 0.05478625 0.030388124 -0.059328698 0.05070827 0.03671372 0.05242978
0.0067057237 0.011971332 -0.027406923 0.019410752 0.039174393 0.03901668 0.005031541 -0.056898616
-0.027568229 0.044926107 -0.034604013 0.04975778 -0.047624588 -0.020365521 -0.028359786 -0.037664995
00000000: 3866 1a3d 4a7f 3fbd f89e 1b3c fc8c d63c
00000010: d219 66bd e4a7 863c f016 8fbb 2cff 14bd
00000020: 603c 2fbb b0cb 063d 0083 fe3c 34c4 25bd
00000030: b862 133c 0a16 273d 2cfc 583d 9003 aebb
00000040: 80b8 053d 1a4c 34bd b8b2 293c 209f 72bd
00000050: 2059 12bd ae71 37bd e80e 7d3d ca07 1f3d
00000060: 968a 543d d8ce 573d 8003 a9bc 202c 183b
00000070: 9c1d 443d 96fe 053d 207a 093d f037 4d3d
00000080: 7805 763c 568f 33bd 8ccf 76bd dc0c 46bd
00000090: 3882 19bc 4404 1fbd 72c6 14bd e099 c23b
000000a0: 6e83 1a3d 0273 783d f836 00bd da93 5ebd
000000b0: 9077 a73c 482b 3bbd 188e 0e3c 645e 92bc
000000c0: 38d9 23bc d0dc 07bc 00ad 72ba 60ba 32bd
000000d0: 888c e53c 3802 1fbc 2604 103d 80c2 6ebc
000000e0: b072 953b 0023 613d 5619 1a3d f02d b4bc
000000f0: d4b3 b43c e0e5 13bb 8063 e13a c040 753d
00000100: 1cbf 31bd 74f3 c43c bced b33c 7c1a e8bc
00000110: 32c6 1dbd a64f 443d fc17 f23c c02f 723c
00000120: 20a0 3e3b f075 a2bb 0018 9c39 ce46 2abd
00000130: 74e4 85bc 0267 4d3d 6430 67bd 58bd d5bc
00000140: 68d7 11bc d01f 9a3b 4437 883c e4c3 373d
00000150: 5e65 013d 8805 da3c 58bf 2a3c 2063 d4bc
00000160: aaec 48bd c457 efbc b4ea 223d 2ad5 79bd
00000170: e867 c53c 5cea 0c3d 1c7f 8d3c 3c00 0b3d
00000180: fca2 593d d864 373d 9c5a 37bd 5062 aebb
00000190: 7e51 513d 70dd 7abc 58ba 85bc b8e1 3bbd
000001a0: 10ba 43bc 4062 8ebb c66a 5cbd c23b 60bd
000001b0: 842e e03c e454 f33c 0090 46bc 1ef7 7e3d
000001c0: 864d 30bd be6c 01bd a40a 62bd d0d5 6f3d
000001d0: 040a 6bbd a8b9 8d3c 0875 38bd 38a3 c73c
000001e0: e0f1 f03c 88e1 ad3c 4a1c 2f3d e826 b23c
000001f0: 401e 623b c0bc cf3c 144a 4e3d 2ca1 2abd
00000200: 7cf6 c43c 582b e3bc c068 093b 2032 603d
00000210: a22c 6c3d 0048 483d 50e5 d83b 60d2 63bc
00000220: 584d 323d 3850 7b3d 70c3 f8bb 5874 f9bc
00000230: 6407 8dbc c446 943c 0046 a839 2e56 38bd
00000240: 887f 4b3c 949d 04bd 9aa7 1cbd 80fc 423d
00000250: 68b7 9c3c 60ca 46bb 4871 c7bc 1474 183d
00000260: d028 b13c 4ae2 1d3d 2436 e63c 66f6 653d
00000270: 204b 273c f0f8 83bb 3221 61bd 8ad2 083d
00000280: a255 213d 0cc6 463d bcb1 143d 68fc 6f3d
00000290: d81f ddbc a8d2 3dbd a01b 6d3d 40ad 9f3b
000002a0: b4a5 203d 800b 81bc 8431 aabc 16a3 523d
000002b0: d0fd e83b 8e49 313d 0c95 153d c03c 203b
000002c0: 0058 55b9 640f 67bd 6e6f 63bd 4816 393d
000002d0: 5290 3dbd e416 eebc 2cf4 643d 98af 5e3d
000002e0: 4ce5 683d 0c65 34bd b471 e63c 1add 033d
000002f0: dcb5 513d 7886 063c eaf3 543d 8417 47bd
00000300: 00fb fdbc ce35 76bd 1e50 3ebd e497 b23c
00000310: a40c 6e3d 8eac 0f3d 00e7 10bb 140c 323d
00000320: 60e8 a03c cac3 353d a821 f73c 9867 113c
00000330: 9abf 003d c0c3 f43a 389e 97bc 1c2f 223d
00000340: 3c18 2b3d bc7f f3bc 2add 783d b492 733d
00000350: 6460 79bd 6a6d 0fbd 00b5 4abd 38ea 973c
00000360: 503d e43b 500e edbc 1879 923c 3e21 7a3d
00000370: 3c78 d3bc d47a 87bc fae1 7bbd 0a5d 033d
00000380: 8c61 fe3c 0000 3ab7 00c7 7bbc 0a47 47bd
00000390: f6be 0f3d 621f 333d 8e60 4fbd 4c37 0a3d
000003a0: 2afa 77bd 1cc5 a4bc 8c67 603d 84f0 f83c
000003b0: a602 73bd 7ab3 4f3d 2061 163d 9cc0 563d
000003c0: b0bb db3b 6823 443c 7c84 e0bc 4c03 9f3c
000003d0: 5475 203d f4cf 1f3d a0df a43b 860e 69bd
000003e0: c4d6 e1bc 7004 383d f0bc 0dbd d0ce 4b3d
000003f0: 0012 43bd 98d5 a6bc c852 e8bc 9c46 1abd

f0.4.bias f4 [130]
0.024984308 -0.030357964 -0.010311075 -0.051338963 -0.0015050694 0.015838645 -0.00811889 -0.029978037
0.02452027 -0.04093899 0.006011896 0.031521894 0.05191776 0.04860317 0.031998478 0.034010947
0.05096361 -0.0014328286 -0.060796253 -0.042041518 -0.011254929 -0.039503783 0.029484652 0.040390424
-0.007817283 -0.057290986 -0.03416405 -0.04385747 -0.053282306 0.02396372 0.0003574416 0.036648788
-0.027745605 0.011535309 -0.053298816 -0.050268337 0.030956976 -0.004618868 0.020592496 0.023299448
0.006802708 -0.029421888 -0.04946825 -0.015772745 -0.04168739 -0.0065137073 -0.025338016 0.029614657
-0.00525447 0.04348787 0.0334004 -0.05155593 -0.021837667 -0.0071384236 -0.042560883 -0.032586798
0.019638576 0.005064614 -0.03285218 0.008962899 -0.041095838 -0.005972594 -0.04047463 -0.043639205
-0.015076861 -0.01343295 -0.04460665 -0.04863698 -0.029920295 -0.03299874 0.023662798 0.039224677
0.026170708 -0.010442957 0.06152597 0.040824994 0.054311857 -0.0038602352 -0.03685087 0.009400308
-0.048784487 -0.041737393 -0.049686283 0.0029300302 0.026444085 -0.019690953 -0.010791041 0.0075982884
-0.02021873 0.0027639344 0.052914098 -0.051746562 -0.019955307 0.021034196 0.020349897 0.022866182
-0.013873383 0.026668958 0.02651751 0.027833328 0.0324495 0.04523795 -0.044396415 -0.0049258173
-0.0032425672 0.03193053 0.05718477 -0.061771676 0.005123228 -0.04142178 0.0153359845 0.02688463
-0.056873947 -0.0072826445 -0.03439176 -0.01884415 0.007588893 0.040426023 0.029651143 -0.019585371
0.013263531 0.04067588 0.028479323 0.028167814 0.017689839 0.03816413 0.030335821 -0.018448204
0.037781514 0.038018063
00000000: e4ab cc3c 44b1 f8bc c8ef 28bc ce48 52bd
00000010: c045 c5ba 0cc0 813c 1805 05bc 8094 f5bc
00000020: bcde c83c a4af 27bd 70ff c43b 1a1d 013d
00000030: b8a7 543d 1e14 473d d610 033d 104f 0b3d
00000040: 38bf 503d c0cd bbba 7e05 79bd ba33 2cbd
00000050: 9866 38bc b8ce 21bd cc89 f13c 6e70 253d
00000060: 1014 00bc f4a9 6abd 9aef 0bbd e4a3 33bd
00000070: 8c3e 5abd 904f c43c 0067 bb39 0a1d 163d
00000080: c04a e3bc 98fe 3c3c dc4f 5abd 2ce6 4dbd
00000090: 7c99 fd3c e059 97bb 98b1 a83c 7cde be3c
000000a0: 40e9 de3b 2c06 f1bc 389f 4abd d835 81bc
000000b0: 66c0 2abd f070 d5bb ac91 cfbc 709a f23c
000000c0: b02d acbb 5620 323d dcce 083d 502c 53bd
000000d0: e8e4 b2bc 70e9 e9bb 5254 2ebd bc79 05bd
000000e0: 14e1 a03c 10f5 a53b 0290 06bd 20d9 123c
000000f0: 1c54 28bd c0b5 c3bb bac8 25bd 06bf 32bd
00000100: f004 77bc e015 5cbc 76b5 36bd 9237 47bd
00000110: 681b f5bc b029 07bd 7cd8 c13c 0eaa 203d
00000120: f463 d63c f018 2bbc a802 7c3d 1c38 273d
00000130: 1c76 5e3d 00fc 7cbb f0f0 16bd c003 1a3c
00000140: 3ed2 47bd d4f4 2abd d883 4bbd c005 403b
00000150: 44a1 d83c ec4e a1bc e8cc 30bc 10fb f83b
00000160: c0a1 a5bc 2023 353b 74bc 583d 34f4 53bd
00000170: 5079 a3bc e84f ac3c d4b4 a63c dc51 bb3c
00000180: 304d 63bc dc78 da3c 403b d93c b802 e43c
00000190: c4e9 043d 6e4b 393d 04d9 35bd c068 a1bb
000001a0: 4081 54bb 96c9 023d 943a 6a3d 4c04 7dbd
000001b0: c0e0 a73b e2a9 29bd c843 7b3c 283d dc3c
000001c0: a8f4 68bd 40a3 eebb 60de 0cbd 0c5f 9abc
000001d0: 40ac f83b c295 253d f4e6 f23c 8071 a0bc
000001e0: 484f 593c c09b 263d 784d e93c 30c0 e63c
000001f0: 48ea 903c fe51 1c3d d482 f83c b020 97bc
00000200: cac0 1a3d d4b8 1b3d
