model/model.pth (torch, 504595 bytes, 4 tensors)

linear1.weight f4 [256, 390]
00000000: 1f98 e33d 02a4 a23c 70a3 31bd 5b3c a43d
00000010: 3e14 6b3c 47e5 a03b 4fda 883d f69e 45bd
00000020: 4963 413d 636b 4d3d 1c72 463d c4b4 fc3c
00000030: bbe9 c5ba d06d 3fbd 1df9 3d3d 7326 763d
00000040: 81ee 2cbd 4264 06bd 27e4 6b3c 1fa9 003d
00000050: 9cb1 433d 98ee c43d bd21 47bd fc2a 743b
00000060: 7d78 cb3d 0fed 493d 65fa 95bc e427 f03c
00000070: 9272 d2bc 1b00 72b9 0788 0e3d 36d5 523c
00000080: 8026 d5bc 4a4d 65bc dbd0 5d3c 51b3 e6ba
00000090: 3da3 f7bc 0cd1 0bbb 180f 2d3c 95c7 05bc
000000a0: b133 873c 0d9b 22bd 6f9e 823d 61d2 f1bb
000000b0: 7f4b 013d 0d73 1fbd 3b45 723c 021f 43bd
000000c0: dfe2 9bbc 6c05 f73b a4c4 b53c 272c 8c3d
000000d0: 6852 c4bc 574a 133d f212 1e3d 6636 cbbb
000000e0: 11d8 183f 4d5f 2abd 8802 5bbb f5fa 1e3d
000000f0: b88b b63d f2de 1bbb 1980 493d c231 e83c
00000100: 1442 b9bb a56e a83c be92 993d ba7d f93c
00000110: 2072 27bd 3216 4d3d 28ac 96bc f801 ad3c
00000120: 1296 eebc b167 2a3d 66ba ea3c c08f 553d
00000130: be67 2a3d 05f3 8e3c 037c 063e 55a5 ab3c
00000140: 99c0 b33b 4d4b 043d 0ac5 14bd 686b e7bc
00000150: b135 9f3c d7fb e6bc 264a 0c3d 9dd2 6e3d
00000160: 3e6f 6f3c 8b0d f3bc d8c7 183c c4de 73bd
00000170: bb3a 30bc f6df 4d3d fda6 323d 4e06 e8bc
00000180: e063 d23d 503f 313d 40e5 34bd 2405 2a3d
00000190: 18e7 243d 1098 cbbc f4fe 283e 79fb 2d3d
000001a0: 2c55 78bc a06b 343d 48f1 85bb 61a3 4ebd
000001b0: a13d 7e3c e2d3 0bbd ffa7 cc3b 9c80 d9bb
000001c0: 57ab fb3c 3f84 34bd 09a3 a1bc 2969 56bc
000001d0: e5d0 25bd f96c 96bc 5fa7 453d 8c3e d63c
000001e0: b1d2 58ba 5346 c0bb 1dd9 063d a7d4 1e3d
000001f0: 6dcf 8b3c be06 243f a24c bcbc 3236 f0bc
00000200: 7db6 45bc 9210 173d 8b95 a4bc 2db4 4ebd
00000210: 69d1 f8bc 3339 80bc b008 b33b 3858 c43c
00000220: 7200 6c3d 8fe5 0fbc c874 3e3d bd74 123d
00000230: c938 82bc 42d1 823d 3cac 253c 427f 02bd
00000240: 6215 123c e9b4 03bd 47aa ee3c 3074 bbbc
00000250: a9e5 1bbd c316 04bc 2bef 7f3d ed7a ef3c
00000260: e33f 4b3d d1be e1bc a311 b0bc e809 43bd
00000270: 0570 413e 0be8 e8bc fbed 193d 635f 843d
00000280: 835f 033d af73 c0bc f1c8 3d3b 2f28 f2bc
00000290: d3b6 a63c a615 283b 4163 aa3c 22ab d73c
000002a0: 92b6 b73c 4067 913c 2e58 113f d37d ce3d
000002b0: ad23 1ebd 88dc 153d d034 bc3d aa7d 763b
000002c0: 094c 28bc a833 a03d c028 bb3b 5140 11bd
000002d0: 5bb6 1b3e f711 2ebd e95b 273d bf49 953b
000002e0: d7e4 4abd 1c0b 473d 9008 aa3d 24c9 b9bc
000002f0: c5ed 28bd 8bbc dc3c ff1c df3c e3c3 303d
00000300: a9d0 4cbc f1c8 65bc 4d58 b83c d21c 953c
00000310: 03da 343d d956 ecbc 6719 983c 589b ea3c
00000320: d2d3 8dbb 4d36 f43c 5a68 0c3d 6772 bb3c
00000330: 1ba9 983c 8a68 c1bc 8e34 35bc dd1e 043d
00000340: 2ef1 2fbd 6653 19bd 2800 983c 964c 563c
00000350: 5649 bbbc 83c7 cdbc 1751 703d 1235 2fbd
00000360: 05ad 563d 7256 61bc 8f77 18bc 4f9f 903d
00000370: 5351 ed3b 0c5a cdbc 8285 ca3d 8836 b43b
00000380: 3af2 b5bc 9d5e 3dbd bfeb 0dbd 168d c1bb
00000390: 9abc 6d3d a918 b6bc 1c9a 4dbd eb32 e8bc
000003a0: 3ac7 3b3d bf9a e8bb 8fa2 303e 1763 6f3b
000003b0: ba4e b1bb ab5a c23d 76a7 933c 99d9 313c
000003c0: 3671 aabb f1a0 15bd 5df4 2fbd 3495 bdbc
000003d0: 01db 243c 21b6 313c 2d2a 09be b699 513d
000003e0: aa95 e9bc ff5f b43d 30f3 933c a0f0 00bd
000003f0: 2dfe 3b3d daab 9bbc 2fc2 6abb 4283 ac3d
0.11112999 0.019853596 -0.043368757 0.080193244 0.014348088 0.0049101445 0.06682264 -0.0482473
0.047213826 0.05015124 0.048448667 0.030847915 -0.0015099564 -0.046735585 0.04638015 0.06009526
-0.042219643 -0.032810457 0.0143976575 0.031411286 0.047776803 0.09615821 -0.04861616 0.0037257066
0.09935091 0.049298342 -0.018307874 0.029315896 -0.025689397 -0.00023078958 0.034797695 0.012868216
-0.026019335 -0.013995478 0.013538565 -0.0017601048 -0.030229205 -0.0021334318 0.010562681 -0.00816526
0.01650414 -0.03969865 0.06377875 -0.0073798154 0.03156614 -0.03892808 0.014787014 -0.047636993
-0.019029079 0.007538488 0.022188492 0.06844359 -0.023965076 0.035959568 0.038592286 -0.006201553
0.5970469 -0.041594792 -0.0033418257 0.03881355 0.08913368 -0.0023784009 0.04919443 0.028344039
-0.005653629 0.020560572 0.07498692 0.030455459 -0.040880322 0.050069995 -0.018392637 0.021119103
-0.029124293 0.041602794 0.028653335 0.052139044 0.041602843 0.017449865 0.13133244 0.02095286
0.005485606 0.032298375 -0.036320724 -0.028249457 0.019434782 -0.028196258 0.0342504 0.058306325
0.014613925 -0.029669544 0.00932499 -0.059538618 -0.01075619 0.050262414 0.043616284 -0.028323319
0.10272956 0.04327327 -0.044163942 0.04150881 0.04025945 -0.024852782 0.16503507 0.04247615
-0.015157025 0.04404795 -0.004087601 -0.05044878 0.015517623 -0.034137614 0.0062456126 -0.006637646
0.03072135 -0.044071432 -0.019731062 -0.013086596 -0.04048242 -0.01836251 0.04825532 0.026152872
-0.00082711416 -0.0058677583 0.0329219 0.03877702 0.017066682 0.6407279 -0.02298576 -0.029322717
-0.012067434 0.036881037 -0.020090839 -0.050464798 -0.030373292 -0.015652275 0.005463682 0.023967847
0.057617612 -0.008782758 0.04649809 0.03575586 -0.015896218 0.06387569 0.010111865 -0.031859644
0.008916231 -0.03215495 0.029133929 -0.022882551 -0.038060818 -0.008062067 0.062483948 0.02923342
0.049621474 -0.027556809 -0.021492785 -0.04761687 0.18890388 -0.02843096 0.03758047 0.06463506
0.03207351 -0.023492662 0.0028958882 -0.029560177 0.02035085 0.002564767 0.020799281 0.02632672
0.022425923 0.017749429 0.56775177 0.10082593 -0.03860824 0.036587268 0.09189761 0.0037611523
-0.010272034 0.07822353 0.005711645 -0.035461728 0.15206282 -0.0424976 0.040859137 0.0045559104
-0.049534645 0.04859458 0.083024144 -0.02267892 -0.04124238 0.026945373 0.027235506 0.043155562
-0.01250092 -0.014024959 0.022503043 0.01820222 0.044153225 -0.028850006 0.0185668 0.028638527
-0.0043282295 0.029811049 0.034279205 0.0228817 0.018635323 -0.023609418 -0.011059893 0.032255996
-0.042954616 -0.03743305 0.018554762 0.013079783 -0.022862118 -0.025119549 0.058671083 -0.04277522
0.052411098 -0.01375352 -0.009305849 0.07061636 0.0072423606 -0.025067352 0.09888746 0.0054996647
-0.02221023 -0.04623281 -0.034648653 -0.0059067113 0.058041193 -0.022228556 -0.0501958 -0.028344592
0.045844294 -0.0070985253 0.17249511 0.0036527568 -0.0054109963 0.0948995 0.018024188 0.010855102
-0.005201484 -0.03653044 -0.042957652 -0.023142435 0.01006198 0.010846646 -0.13394995 0.05117198
-0.028513748 0.08807372 0.018060297 -0.031479478 0.045896698 -0.019002844 -0.003582131 0.08423473

linear1.bias f4 [256]
00000000: 5c61 273f b1bd 2e3f 1dea 97bc 6a22 13bd
00000010: 4fcb 263f 87e8 27bc f98e 1f3f 2476 173f
00000020: 6b05 20bd c026 c0bb 2dc4 80bd cc92 1c3f
00000030: 3b6d 5abc da0f 38bd 7cc5 203f 70b6 acb9
00000040: 2edb da3b a349 2c3f 7348 0d3f 2091 193f
00000050: d174 1bbd 7f54 1e3f 4e6d 1a3f e31c 1e3f
00000060: 15a5 173f c9bb 9dbc f76d 123f 5303 d83b
00000070: 6e4e 9ebc 2361 193f 2cf2 1f3f 2696 7fbd
00000080: 6f25 203f 460d 283f 7e6d 2d3f 225e 05bd
00000090: 14b1 5abd 884b 10bd 1186 81bd 33ab 4d3c
000000a0: a6ce 1c3f f364 4ebc eba3 bbbc e62b 263f
000000b0: 79c2 66bd b69e 86bd 2af3 223f c757 123f
000000c0: e260 cebc cf1e 293f fa95 a6bc 2c33 73bd
000000d0: 31fe 9c3c c160 6cbd 12ac 263f 8910 2b3f
000000e0: 2ee4 213f 95b0 173f 8461 e03c 8b6c 0d3f
000000f0: a9bf 1c3f 0de0 69bd 4b5a 5fbd d62f 2a3f
00000100: bc95 213f 07de dfbc e323 223f f331 0abd
00000110: d1d4 103f 1d5c 233f 21e3 183f ed7f 203f
00000120: 8322 acbb df39 273f 1dc4 8bbc 0375 283f
00000130: f534 1b3f cbe5 1d3f dfe5 f3bc 6e8c 0f3f
00000140: ca00 a5bd a24e 88bb 1b9d 243f 8127 1f3f
00000150: 75e2 2a3f da42 2f3f 7c23 1d3f 8da0 233f
00000160: 52e5 f73e 7500 70bc 0f66 2e3f c4e0 2b3f
00000170: d403 213f 1625 1e3f 3037 263f ded7 8c3c
00000180: b8b3 263f 4ca7 87bd 87d2 3d3c 5640 3fbd
00000190: f1ba d4bc 07a5 163f bbe0 2a3f 9ffb 1f3f
000001a0: ecf1 2b3c f598 4cbc 3e62 d13c 0d0d 2c3f
000001b0: 3040 2b3f 9b21 1e3f 37c7 e7bc 8f71 1c3f
000001c0: 1018 f7bc aa64 e139 91d4 a8bb 2258 1e3f
000001d0: c5ad 0c3f 644b 293f c218 243f 62f7 1fbd
000001e0: 08b6 4a3c ade3 e9bb 1cfc 103f c3b9 1b3f
000001f0: 48f1 393c 29de 173f d270 223f e258 40bd
00000200: ccf6 1d3f b947 1f3f d2ac fabc 1531 03bd
00000210: be88 1e3f a3e2 253f 99f8 0fbd 9f03 273f
00000220: 918a 173f 91aa 233f aca1 2a3f 164d 1c3f
00000230: 8e26 323c c6da 0cbc 9675 5dbd 2cc2 2d3f
00000240: 92d1 a9bc 011b 57bc ad54 0dbd acd8 05bd
00000250: 4b1c 173f 618a 32bd ff81 0ebd 4d0a 1c3f
00000260: a6f3 9cbc 8191 123f 8a13 78bd 46ed 26bd
00000270: 374a 34bd 731d 273f c956 173f f9eb 183d
00000280: d83c 183f a8ac 38bd 7a85 24bd 9b8a afbc
00000290: 4658 6abd b332 4f3b 3a6a 133f 6be6 bbbb
000002a0: fbce 77bd e5b7 d1bc 4dbb 113f 65c2 213f
000002b0: 778f 33bd 187f 323f 754f 93bd d636 0f3f
000002c0: 5a5e 0b3f ed2f 94bc 9b10 d4bc 025a 2e3f
000002d0: a690 213f 85e7 243f eb31 293f 1821 60bd
000002e0: f3ff 173f d1cb a53c 6f34 8cbd 1dcb 8f3c
000002f0: dfc0 f2ba bb62 2d3f 526d 1e3f 2a77 223f
00000300: 8eea 1c3f 5c2b 613c 63aa 243f 515d 37bd
00000310: 45b9 243d cb4a 193f 11c7 123f 6da6 213f
00000320: 2815 37bd c653 8e3c 8e07 96bc 0050 aebc
00000330: 87a5 aebc 6f69 283f 3082 183f e02e 263f
00000340: 6caa 283f 07a6 2d3f abd7 74bd 12a2 29bd
00000350: ce33 5dbd 5556 2a3f 7d8f 233f 3f38 95bd
00000360: e670 66bd ee5d 953c 2ead 183f baa4 923c
00000370: eb4f 473c 1b4c 163f 9ea1 44bd 7ba2 2a3f
00000380: b773 253f 9d11 2bbd 16ea 173f 3283 32bb
00000390: 0a77 223f 01b1 033f 7132 163f 73ba 133f
000003a0: 86c3 273f 787d 963c 5d9a 09bd 37c5 273f
000003b0: 13dc 213f 7791 223f a954 d93c 777d 653c
000003c0: a481 863c 7355 67bd 6b1c b23c ac5d d7bc
000003d0: 5803 113f e11e 203d 0e73 4fbd 716b 253f
000003e0: e9cd 8f3b 7f51 0bbd 9c78 19bd 0f55 5a3a
000003f0: acd1 1f3f 1047 e1bb 3ff9 203f 01c5 883b
0.65382934 0.68258196 -0.018544251 -0.03592149 0.65153974 -0.01024831 0.62327534 0.59164643
-0.039067667 -0.0058639944 -0.062874176 0.61161494 -0.013331707 -0.044936992 0.6280134 -0.00032942323
0.0066789603 0.6729986 0.55188674 0.5998707 -0.0379532 0.6184768 0.60323036 0.6176283
0.5923627 -0.019254582 0.57199043 0.006592193 -0.019324508 0.59913844 0.624789 -0.062399052
0.6255712 0.65645254 0.67745197 -0.032560475 -0.05339153 -0.035228282 -0.06324399 0.012553024
0.6125282 -0.01259731 -0.02290531 0.64910734 -0.056337807 -0.065732405 0.6365229 0.5716519
-0.025192682 0.66062635 -0.020335186 -0.059374973 0.019164177 -0.05770946 0.6510631 0.66822106
0.632388 0.5925382 0.02739025 0.5524375 0.6122995 -0.057098437 -0.05452947 0.6647924
0.631191 -0.02732755 0.6333601 -0.03373904 0.5657473 0.6381243 0.5972157 0.626952
-0.0052531376 0.6532268 -0.017061288 0.65803546 0.6062768 0.6167876 -0.029772697 0.56073654
-0.08056791 -0.0041597644 0.64302224 0.62169653 0.66751796 0.6846138 0.6138227 0.63916856
0.48417145 -0.014648546 0.6812448 0.6713984 0.62896466 0.6177534 0.6492796 0.017192777
0.6511798 -0.06623706 0.011585838 -0.046692215 -0.025968047 0.5884556 0.6674916 0.6249332
0.01049469 -0.01248764 0.02555954 0.67207414 0.6689482 0.6177003 -0.028293235 0.61110777
-0.030162841 0.00042990345 -0.005152293 0.6185323 0.5495265 0.6613066 0.6410028 -0.039054282
0.012372501 -0.007137737 0.5663469 0.60830325 0.01134903 0.59323364 0.634534 -0.046959765
0.6170471 0.62218815 -0.030599985 -0.03202923 0.619274 0.64798945 -0.03514919 0.652399
0.5919581 0.6393214 0.6665294 0.61055124 0.01087345 -0.0085970815 -0.054067217 0.6787441
-0.020729814 -0.013128997 -0.03450458 -0.032677338 0.59027547 -0.043589 -0.034791943 0.6095322
-0.01915915 0.5725327 -0.06056551 -0.040753625 -0.04401609 0.6527931 0.591168 0.037334416
0.5946784 -0.045086533 -0.040166356 -0.021428397 -0.05721309 0.0031615912 0.57583964 -0.005734255
-0.060500126 -0.025600383 0.56926423 0.6318725 -0.04383799 0.6972518 -0.071928896 0.5594305
0.54440844 -0.018089259 -0.025886824 0.6810609 0.6311134 0.6441577 0.66091794 -0.05471906
0.5937492 0.020238789 -0.068459384 0.017552907 -0.0018520615 0.67728776 0.6188556 0.6346308
0.612954 0.013743248 0.6432249 -0.044766728 0.04021575 0.5987975 0.57335 0.6314457
-0.04469791 0.01737393 -0.01831415 -0.021278381 -0.021319164 0.6578588 0.5957365 0.64915276
0.65885043 0.6783146 -0.05977599 -0.041414328 -0.054004483 0.6653798 0.6389082 -0.07286119
-0.056260012 0.018233266 0.5963925 0.017900813 0.01216505 0.5870988 -0.048005693 0.66654176
0.6462969 -0.041764844 0.5934156 -0.0027238843 0.6346289 0.5144196 0.5867072 0.57706374
0.6553272 0.018370375 -0.033594478 0.655353 0.6322643 0.6350321 0.026529627 0.014006964
0.01641924 -0.056477975 0.021742066 -0.026289783 0.5664573 0.03909195 -0.050646834 0.6461707
0.00438856 -0.034013268 -0.037468538 0.0008328715 0.6242931 -0.0068749264 0.6288032 0.0041738753

linear2.weight f4 [100, 256]
00000000: fc96 3c3b a490 a9bc b450 c83c 48cd 313c
00000010: 9841 263c 88f2 173c be66 2a3d 4ad3 5b3d
00000020: b043 23bc 2078 383d fc59 ca3c e1a9 e13c
00000030: 80aa 563d cce4 233d d39f eb3c a647 793d
00000040: c686 303d bc65 32bd 8657 4c3d 8033 bc3c
00000050: 047b ae3c 1c21 ffbc e013 a2bb b942 363c
00000060: 0ca3 59bc 8091 d33c 084b 073d 40d4 b13c
00000070: 7ed1 5bbd 8019 003d 0c4a 853c 38e5 9ebc
00000080: a604 053d 6a9b abb9 ecb9 3c3d 0086 c03a
00000090: 60f6 1e3c 9e15 53bd 8606 40bd f2cc 36bd
000000a0: 4045 9abc 554d c4bc ae63 32bd 1c4a 633d
000000b0: 7a23 50bd 90d8 913c 76f0 253d 58eb 283d
000000c0: a05b cdbc 4c18 17bd b883 fb3c 60f6 5fbb
000000d0: b8f6 23bd fe14 5ebd 2169 6e3d ac71 1b3c
000000e0: 203e c3ba 0ae4 08bd fc23 db3c c8fd ce3c
000000f0: 60e0 4c3d c1da 10bd 60b3 663c 10b6 533d
00000100: 225f 703d a833 763c b02d 7dbd 6454 1ebd
00000110: 0000 00b5 f281 50bd 1b49 eabb e439 733d
00000120: c461 27bd f5e5 863d ac34 b7bc 4038 c9bb
00000130: c02e 183b 2292 cdbb f44b 813c acc1 2fbd
00000140: 5a9d c33c c0e2 203c 6ce6 5b3d 8041 f4bc
00000150: 6eb7 3c3d 0b84 843d 7cf1 1e3d 0024 d93b
00000160: 52e3 cfbc 14ab 89bc 08df 3f3d f2cd e73c
00000170: e8c1 863c 5015 18bd 684f 7dbc a81d 1cbc
00000180: 0066 743a 14c0 e4bc 101a 433d 9aeb 103d
00000190: 1e3b 42bd 5c17 febb baa3 d73c f4c6 edbc
000001a0: 8210 bebc c825 5f3c 966b 15bd fa59 143d
000001b0: b04d cb3b 80de e93c 614b 453d 70a9 6a3c
000001c0: de2b 62bd ba02 1aba 2e79 343d ec9d ecbc
000001d0: c800 b13c 206e 9ebc 57ca 03bd b078 0dbc
000001e0: 586a f5bc 7645 07bd b8f1 363c 23ff 663d
000001f0: e32a 02bd c080 e53c ecde d9bc 3081 92bc
00000200: a39d 3fbd 2566 7a3c c07a 003b 7038 993c
00000210: f88a 3abc beb2 72bc e096 483b d281 9e3c
00000220: 1aa6 0abd 2e41 1d3d 50e9 5c3c c557 4dbd
00000230: 6c3f 103d 4c05 223d 388f 11bd 00ff 6bbd
00000240: ff77 023c eac8 0b3d e155 533a 45da 413d
00000250: da6d 3cbd fc01 003d 0001 13bc 7cdf 4abd
00000260: 00a4 ccba a184 873d 7880 53bc f0b9 6bbd
00000270: 10cf 983b 4669 793d 903e 0a3d 304e 46bd
00000280: 8816 19bd 908c eb3c 6a5f 04bd 8cac e43c
00000290: 84dd 6cbd ba2f 58bd 008d 7fba a65d 2ebd
000002a0: e279 d8bc b8df 8ebc a4c2 45bd 4036 803d
000002b0: fe21 173d e78b 723c 97d1 8e3d e67b 00bd
000002c0: c33b 6d3b 0064 af38 a000 103d 00d4 60bd
000002d0: 9d12 513d 58f9 703c d8a7 0c3c 3002 653c
000002e0: f88f bbbc 9fbc 113d bb96 13bd 0664 2b3d
000002f0: 2eb5 533d 6a7d 663d 00b0 44b8 7ad2 6b3d
00000300: 5418 a8bc a3ff e83c e14a cd3c 4494 41bd
00000310: 748f 09bd afa6 a03c 0818 26bd c70e 7e3c
00000320: c2c9 2dbd 141c 493d 285e 67bd 3083 74bd
00000330: 3a75 c4bc c208 81bc fcfc 15bd d7e0 ea3c
00000340: 3ebe 7e3d 88e0 03bd 007d c3b9 569d b6bb
00000350: aa38 3fbd 0eb1 5ebd e025 973d 70cb 20bd
00000360: 2aba 163d ad13 843d bcc8 723d 8885 1d3d
00000370: e422 e3bc b086 163c fe8a 633d 6476 413c
00000380: dfaf d13b 5f1c 683d d04b 0a3d 90a6 70bd
00000390: 1d2d 0ebd 2b22 09bd d8ed 563c c066 c1bc
000003a0: 50d7 4bbd 51cf 07bd a40d e3bc 805e 4fba
000003b0: 10f3 cabb 3b0a 9bbc f097 0e3d b0e1 723c
000003c0: ca13 71bd b812 ddbc 0874 04bc 74cf 87bc
000003d0: bd6a 18bb 0aaf 23bd 0446 8a3d 80dd 7c3d
000003e0: be5c 0d3d e8b1 843d 5862 633c d12b 09bc
000003f0: a2cf 43bd c640 2cbd b916 db3c dc99 2a3d
0.0028776517 -0.020698853 0.024452545 0.0108521655 0.010147475 0.009274133 0.04160189 0.053668298
-0.009964868 0.045036435 0.024701111 0.027546825 0.052408695 0.04001312 0.028762734 0.060859345
0.04309728 -0.043554053 0.049888156 0.022973776 0.021298893 -0.031143717 -0.004946217 0.011124306
-0.013283502 0.025826216 0.03303054 0.021707654 -0.053666584 0.03127432 0.01627066 -0.01939641
0.032475136 -0.00032731454 0.046075746 0.0014688373 0.009702295 -0.051534288 -0.04688122 -0.044629045
-0.01883185 -0.023962656 -0.043552093 0.055490598 -0.050815083 0.01780346 0.040512525 0.041240066
-0.025068104 -0.036888406 0.030702457 -0.003417395 -0.04003021 -0.05421924 0.058205727 0.009487551
-0.0014895834 -0.0334206 0.026750557 0.025267497 0.05001867 -0.03536487 0.014080852 0.0516873
0.058684476 0.015026964 -0.06181115 -0.0386547 -4.7683716e-07 -0.050905176 -0.007149828 0.05938138
-0.04086472 0.065868296 -0.022363983 -0.0061407387 0.0023221225 -0.006273524 0.015783288 -0.04290931
0.023878742 0.009819686 0.053686544 -0.02981639 0.04607337 0.06470498 0.038804516 0.006626606
-0.02537695 -0.01680521 0.04684356 0.028296445 0.016449884 -0.0371297 -0.015460826 -0.009528555
0.00093230605 -0.027923621 0.047632277 0.035380937 -0.04741966 -0.0077542495 0.026323188 -0.029025532
-0.02320123 0.013619848 -0.036479555 0.03621862 0.0062043294 0.02854848 0.04816759 0.014322624
-0.055217616 -0.000587504 0.04406088 -0.028883897 0.021606818 -0.019339621 -0.03217539 -0.008634731
-0.029957935 -0.033025227 0.011166029 0.05639566 -0.03177918 0.028015494 -0.026595555 -0.017883867
-0.046781193 0.015283142 0.0019604415 0.01870367 -0.011385672 -0.014813123 0.0030607507 0.019349013
-0.033849813 0.03839224 0.01348336 -0.05013253 0.035216734 0.039555833 -0.035536975 -0.057616234
0.00796318 0.034127153 0.0008061808 0.0473273 -0.0460032 0.031251892 -0.008972406 -0.049529538
-0.0015612841 0.06617094 -0.012909047 -0.05755037 0.0046633556 0.060891412 0.03375107 -0.04841441
-0.037375003 0.028753549 -0.032317556 0.027914308 -0.05782844 -0.05277989 -0.00097484887 -0.04256978
-0.026425306 -0.017440662 -0.048281327 0.06260347 0.03689765 0.014803863 0.0697357 -0.03136816
0.003619895 8.363277e-05 0.035156846 -0.05488968 0.05104314 0.014707886 0.008584939 0.013977572
-0.022895798 0.035580274 -0.03603242 0.041843437 0.05168646 0.056271948 -4.6893954e-05 0.057573773
-0.020519413 0.02844221 0.02506012 -0.047260538 -0.033584073 0.01961073 -0.04055026 0.015506453
-0.04242874 0.049099043 -0.05648628 -0.059695423 -0.02398168 -0.015751246 -0.036618218 0.028671665
0.062193148 -0.03219655 -0.0003728643 -0.005572955 -0.0466849 -0.05436807 0.07380271 -0.039256513
0.036798634 0.06449065 0.059273466 0.038457423 -0.027726598 0.009187385 0.055552475 0.011808012
0.0063991393 0.05666768 0.033763707 -0.058752596 -0.034710992 -0.03347985 0.01311823 -0.023608565
-0.049765885 -0.033156697 -0.027716465 -0.0007910505 -0.006193526 -0.018925777 0.034812868 0.014824316
-0.058856763 -0.026986465 -0.008084305 -0.016578414 -0.002325698 -0.039961852 0.06751636 0.061734676
0.034512274 0.064792454 0.013878427 -0.008372263 -0.047805436 -0.04205396 0.026744233 0.041650638

linear2.bias f4 [100]
00000000: cc65 a5bc 424a 813d 41f8 a93d 2eff 69bc
00000010: 5472 253d d1b9 353c b667 e3bb bfc6 ddbb
00000020: da02 bf3c 4267 423c 41c3 5d3d eccc 923b
00000030: 8704 3c3c a021 643d 1dfa 0c3d 2145 873c
00000040: 1e30 86bc 2398 c43c ed69 1f3d 2d8c a03c
00000050: c462 af3c 7b6c 293c 3c32 993d 6487 a3bc
00000060: 2658 1fbd 031b 863d 8207 67bc 57d0 10bd
00000070: b853 4dbc e020 fabb c98e 3abd 17e4 923c
00000080: 4735 533c 48c5 f6bc 8817 9fbc 8459 413d
00000090: 8614 883c ff73 573d 8852 ccbc 6cb4 893c
000000a0: 63a7 43bd cbf8 593d 1b77 ad3c 739a 1f3c
000000b0: 7e7c 5e3d 7765 863d 6dec 663d 0208 223d
000000c0: 14d5 40bd 3922 cfbc 4c46 6abc ac5b 9d3c
000000d0: d917 d93c b5c9 1fbd d167 02bd 6614 113c
000000e0: 78a9 363d 7c80 b5bc d4ad 013f 94c9 883d
000000f0: 0d5c 633d 3567 febb 8fce f83c dca9 f63c
00000100: 86b3 6f3b d01e 0e3d 00c6 12bd 5cb1 343d
00000110: 261d 3b3c b2e6 6a3d 37ee af3c 19b2 0f3d
00000120: b42c c73b 90a6 093c 90fc f2bc c6c2 61bd
00000130: 6ff6 babc 4a7f 1abb 8526 103c c2fe eebb
00000140: 2747 533d 8d01 343d 5fda 8f3d e2a1 cebb
00000150: e8a5 60bc 8194 15bd 8fb9 0c3d 4d59 f23b
00000160: b4e3 ccbc a297 0dbd 4fbf b93c fc57 87ba
00000170: b4db 183d e34d 5cbd fd83 82bc 79eb eabb
00000180: e256 33bd a8a0 0bba 4bd2 2c3c d536 52bd
-0.020190142 0.06312992 0.08299304 -0.014282031 0.040392235 0.011091665 -0.0069398535 -0.006768077
0.02331679 0.011865439 0.054141287 0.004479995 0.011475689 0.05569613 0.034418214 0.016512455
-0.016380366 0.023998326 0.038919378 0.019598091 0.0214094 0.010340805 0.074802846 -0.01996202
-0.038902424 0.06548121 -0.014100911 -0.03535494 -0.012532167 -0.0076333135 -0.045546327 0.017931027
0.01289112 -0.030123368 -0.0194204 0.04720451 0.016611349 0.052600857 -0.024941698 0.016809665
-0.047767054 0.053215783 0.021174958 0.009741413 0.054317944 0.06562322 0.056377817 0.039558418
-0.047078207 -0.025284873 -0.014298987 0.019208752 0.02650063 -0.039010722 -0.03183729 0.008854961
0.04459521 -0.022155993 0.50655866 0.06679073 0.05550771 -0.007763768 0.030371932 0.030110292
0.003657551 0.034697354 -0.03583336 0.044114456 0.011420524 0.057348914 0.021475894 0.035081957
0.006078327 0.008401528 -0.029661447 -0.05511739 -0.022822587 -0.0023574405 0.008798246 -0.007293553
0.051581528 0.04394679 0.07024073 -0.006305919 -0.01371143 -0.036518577 0.03435665 0.0073958994
-0.025010921 -0.034568436 0.02267423 -0.0010325904 0.0373189 -0.053785216 -0.015932078 -0.007169184
-0.04378403 -0.0005326369 0.010548185 -0.051321823
