model/model.pth (torch, 768263 bytes, 6 tensors)

f0.0.weight f4 [256, 390]
0.05161913 0.032574873 -0.041027512 0.036129974 0.0375552 0.028187953 -0.097024776 0.0467379
-0.011876763 0.08429771 -0.029891571 -0.00049649744 0.055218484 -0.031435937 0.048995234 0.00902772
0.19383876 -0.077206075 -0.22196114 -0.10441021 0.30795643 0.051203884 0.026673384 -0.018597288
0.090862915 -0.023795832 0.027970297 0.037275676 -0.044448733 -0.044097234 0.04330108 0.03453011
0.016996708 0.1042803 0.017991506 0.026548015 0.01676447 0.027019018 -0.049656607 0.32451084
-0.10815574 -0.21976043 0.008060914 0.003144679 -0.050111018 0.10780486 -0.01692117 -0.002550674
0.0006168896 -0.026131792 0.00034738862 -0.0918747 0.1749925 -0.32869062 0.05999477 0.043263175
-0.00075718766 -0.123105474 -0.016137784 -0.0048257518 0.1617247 0.06798754 0.031995326 0.2058273
-0.035547595 0.014949645 0.09578735 -0.023465626 -0.051309805 -0.01890793 -0.020465711 0.023908999
-0.17458074 0.013690374 -0.04222726 -0.034494262 -0.049706433 0.031815838 0.10810284 0.11146791
0.06516746 0.023804361 -0.02740083 0.017479535 -0.11516975 0.011382545 -0.03421977 0.1260296
0.00574595 0.043960188 -0.019089226 0.07410178 -0.23781578 0.001334031 -0.028320098 0.049044862
-0.20602864 0.015254208 0.014835653 0.002580793 0.0047168355 -0.011589525 0.118604295 0.005352152
0.022190752 -0.007652884 -0.013750092 -0.0014506368 0.022892639 0.004297432 0.010590557 0.0913874
-0.04436579 0.05084599 0.013826985 0.010811676 -0.015553037 0.35378405 -0.048924647 0.025576603
0.020218577 -0.0026503224 0.05820315 0.11918544 -0.017670618 0.042999417 -0.03645346 -0.029368509
-0.023579882 -0.082252316 -0.015768616 0.08665222 0.019271541 -0.031780116 0.036103174 -0.043572992
0.11320947 0.020649705 0.14983793 0.1434822 -0.13494669 0.23728581 0.011652919 0.02582702
0.07326092 -0.021144014 0.0008662592 0.016089084 -0.03248305 -0.034655772 -0.20291339 0.053764597
0.020211354 -0.004675932 0.00067084894 0.033869505 0.053000197 -0.08522649 -0.045452245 0.070551686
-0.040490303 0.044011094 -0.08059029 -0.040579297 -0.013894663 0.07175835 0.009501988 -0.01823348
0.035726808 -0.18174018 0.30309653 0.08328739 -0.013839715 -0.04819979 -0.19475546 0.05780671
0.03901215 0.0005818683 -0.010050002 -0.45016223 0.13947295 0.015679983 0.00012932377 0.031976167
-0.0069593866 -0.004331254 -0.006302149 -0.044569463 -0.004670774 0.017251778 -0.018827662 -0.0112033235
0.03074264 -0.007621787 0.038670145 0.34418747 -0.0030559958 -0.07057912 0.026861493 -0.04052303
-0.011311694 0.091692336 -0.023874227 -0.044583354 -0.03746665 0.000731563 -0.017734434 -0.100808404
-0.046306934 0.021240856 0.03197077 0.056003574 0.028416237 -0.113018386 0.020241646 0.0034309723
0.11265342 0.04982802 -0.03768428 0.20779853 0.052962594 -0.19349717 0.004743338 -0.057397418
-0.07683923 0.030525994 0.014818057 -0.0420445 -0.15855359 0.0046746484 -0.038936947 -0.021474218
0.040019188 0.045099378 0.13117601 -0.10272826 -0.2592088 0.08000986 0.020880688 -0.037596747
-0.13432579 -0.047128297 0.021908151 0.081782036 0.06018786 0.0030156665 -0.069157496 0.00395513
0.3119858 0.04601513 0.034895055 0.012524516 -0.20097792 0.03353079 -0.043532617 0.014007357
00000000: 956e 533d 3b6d 053d 770c 28bd 06fd 133d
00000010: 7bd3 193d 6cea e63c edb4 c6bd 3d70 3f3d
00000020: c196 42bc 47a4 ac3d 2bdf f4bc 6127 02ba
00000030: c72c 623d f8c2 00bd 3aaf 483d 01e9 133c
00000040: ab7d 463e 381e 9ebd c849 63be 05d5 d5bd
00000050: 77ac 9d3e 2abb 513d 2482 da3c 5759 98bc
00000060: 5616 ba3d 7aef c2bc f721 e53c 61ae 183d
00000070: e00f 36bd 4d9f 34bd 795c 313d 726f 0d3d
00000080: ae3c 8b3c e990 d53d ec62 933c 397b d93c
00000090: a455 893c fd56 dd3c ba64 4bbd 4926 a63e
000000a0: c280 ddbd e108 61be ed11 043c f516 4e3b
000000b0: 3641 4dbd cbc8 dc3d 449e 8abc 3529 27bb
000000c0: c3b6 213a 5712 d6bc b621 b639 cd28 bcbd
000000d0: 3c31 333e 234a a8be 13bd 753d ba34 313d
000000e0: 017e 46ba b91e fcbd 6333 84bc 5721 9ebb
000000f0: 299b 253e 0d3d 8b3d 880d 033d 64c4 523e
00000100: 5b9a 11bd 5bef 743c 282c c43d fc3a c0bc
00000110: 3b2a 52bd cee4 9abc b5a7 a7bc cedc c33c
00000120: 4bc5 32be 974d 603c 7ef6 2cbd db49 0dbd
00000130: f998 4bbd 5351 023d 0665 dd3d 4a49 e43d
00000140: 8476 853d 5d01 c33c b577 e0bc 3e31 8f3c
00000150: 1ede ebbd db7d 3a3c 082a 0cbd e70d 013e
00000160: 8648 bc3b 990f 343d 0261 9cbc adc2 973d
00000170: fb85 73be a7da ae3a 8dff e7bc 44e3 483d
00000180: 2cf9 52be c9ec 793c 3d11 733c 8622 293b
00000190: af8f 9a3b fee1 3dbc cfe6 f23d 1b61 af3b
000001a0: 61c9 b53c 0bc5 fabb 1148 61bc 4b23 beba
000001b0: 5889 bb3c 79d1 8c3b 0484 2d3c 5129 bb3d
000001c0: e7b8 35bd e343 503d 948a 623c 7523 313c
000001d0: 2ad2 7ebc 2f23 b53e 3665 48bd 0686 d13c
000001e0: 6ea1 a53c 08b1 2dbb 6d66 6e3d 7f17 f43d
000001f0: f9c1 90bc 2820 303d 3950 15bd 3a96 f0bc
00000200: 992a c1bc e773 a8bd 2f2d 81bc b876 b13d
00000210: 5adf 9d3c de2b 02bd ece0 133d 9879 32bd
00000220: 5eda e73d 9229 a93c 1d6f 193e ffec 123e
00000230: 772f 0abe 0dfb 723e e3eb 3e3c 3093 d33c
00000240: d209 963d 3636 adbc ac15 633a 41cd 833c
00000250: f20c 05bd 36f3 0dbd 87c8 4fbe 4438 5c3d
00000260: 4892 a53c 9038 99bb e9db 2f3a c0ba 0a3d
00000270: bc16 593d 3a8b aebd 222c 3abd 677d 903d
00000280: 29d9 25bd fa44 343d 860c a5bd 7a36 26bd
00000290: 71a6 63bc 0bf6 923d 3aae 1b3c 615e 95bc
000002a0: 4656 123d 191a 3abe 782f 9b3e 9492 aa3d
000002b0: f9bf 62bc 256d 45bd fa6d 47be bbc6 6c3d
000002c0: 34cb 1f3d 8588 183a c3a8 24bc aa7b e6be
000002d0: ffd1 0e3e 4f73 803c 169b 0739 71f9 023d
000002e0: 910b e4bb 31ed 8dbb 4282 cebb 788e 36bd
000002f0: 4b0d 99bb 9a53 8d3c 783c 9abc 258e 37bc
00000300: fdd7 fb3c 2fc0 f9bb 9664 1e3d 5739 b03e
00000310: 1a47 48bb c98b 90bd a20c dc3c 7afb 25bd
00000320: af54 39bc 31c9 bb3d e293 c3bc 099d 36bd
00000330: a176 19bd 5dc6 3f3a ce47 91bc a374 cebd
00000340: 57ac 3dbd 4e01 ae3c c8f3 023d 0164 653d
00000350: 2bc9 e83c 2f76 e7bd cfd1 a53c 2ada 603b
00000360: d6b6 e63d 7718 4c3d d55a 1abd 23c9 543e
00000370: 4eef 583d 1f24 46be 016e 9b3b 8e19 6bbd
00000380: e35d 9dbd a611 fa3c 70c7 723c db36 2cbd
00000390: df5b 22be cb2d 993b 597c 1fbd b3ea afbc
000003a0: 29eb 233d 20ba 383d 0153 063e 3263 d2bd
000003b0: 04b7 84be 36dc a33d fa0d ab3c 0cff 19bd
000003c0: b38c 09be 9a09 41bd b978 b33c 577d a73d
000003d0: 8c87 763d 7da2 453b 72a2 8dbd 099a 813b
000003e0: 9abc 9f3e 5c7a 3c3d 1eee 0e3d a133 4d3c
000003f0: 28cd 4dbe 9557 093d 424f 32bd 1d7f 653c

f0.0.bias f4 [256]
0.040431887 -0.0020865113 0.0038836435 -0.065498255 -0.045065768 -0.07084663 0.016939612 -0.0928459
0.0162965 0.17429543 -0.05172593 -0.043826453 0.19478787 0.24162549 0.18204439 -0.15892054
-0.041997563 -0.064940944 0.08751037 -0.039326657 0.26586783 0.25071493 0.09138688 0.0056127557
0.2636342 -0.11476752 0.062214293 0.043398988 -0.013077075 0.035602618 0.034150373 -0.12964803
0.0019019804 0.09777232 -0.012862492 -0.032057945 0.04190984 0.18705027 -0.005172397 0.14507474
-0.05080761 -0.11598305 0.15193345 0.030126734 0.050440304 -0.18172175 0.054396264 -0.0434558
0.14236002 -0.12750512 0.11873082 0.22030815 0.03817872 0.08577893 -0.010121919 0.077622615
-0.053189322 -0.063530795 0.08690719 0.14309008 -0.08524896 0.035788715 -0.004050961 0.027044216
0.047798157 -0.05272986 0.08228393 0.061274376 -0.09816513 -0.09194252 0.11131413 0.19690296
-0.06561157 -0.0146924835 0.13509776 0.040733863 0.09384287 0.08674191 0.052573893 0.1398424
-0.09576088 -0.03462679 -0.043629847 0.21433488 0.10928076 0.061874222 0.1886563 0.13907279
-0.21918459 0.044663247 0.055459663 -0.009433933 0.03185091 -0.12510008 0.08212826 0.22421494
0.15754902 0.14739834 0.015469844 0.11395292 0.13109536 -0.15306188 0.017619042 0.0051467866
-0.08741201 -0.05666801 -0.115450464 0.13185945 -0.07295004 0.20137437 -0.0587335 -0.095717
0.02703616 0.042462472 0.07802355 -0.032394685 -0.10656722 -0.06591547 -0.10452115 -0.0684713
-0.01098442 -0.015567478 0.038296424 0.14343922 -0.02650767 0.09171066 0.039040625 -0.0006284102
-0.034881346 -0.076461665 0.02835519 0.12977241 -0.018441979 0.2298178 0.022966895 0.14363544
0.063380584 0.041357018 0.14384425 -0.014823712 0.1746243 0.030832855 0.10326792 0.161616
0.03478805 0.14802928 0.23454063 0.23858638 -0.13345332 -0.07336975 0.088076696 0.032615945
0.11463148 0.015455934 -0.047501355 -0.06533789 0.32179928 -0.01886263 -0.058445048 -0.010577292
0.11341071 0.05240501 -0.06294805 -0.0507226 0.06108373 -0.11897156 -0.11799218 0.16813369
0.111689396 -0.050046768 0.055146836 -0.13415542 -0.052050363 0.19835746 -0.06137768 -0.1187678
-0.044947293 0.09225057 -0.12931211 -0.11158113 0.052024987 -0.06946177 0.14949179 0.072047725
0.089996815 0.07047826 -0.10404108 0.11140475 0.15574332 0.06631078 0.07496393 0.06695165
0.2661866 -0.20938867 0.007544075 0.0023874529 0.06054845 0.2239028 -0.03519435 0.060501266
-0.091093935 -0.14949735 0.124367505 0.29564926 -0.01787498 -0.05345863 0.08139303 0.251958
0.16945599 0.115580626 -0.12281561 0.10460255 -0.028521309 0.052967064 0.28060856 0.10324531
0.0046039666 0.24626349 0.14651826 0.18474941 0.13158324 0.26497 0.18995585 0.10328055
0.27692872 0.19069754 -0.11282966 -0.035893876 0.059189085 -0.086260654 0.22354372 -0.061014775
0.31189102 0.050920065 0.038822882 0.050011247 0.036728125 9.688089e-05 0.1566306 -0.05070161
0.1670905 0.15866846 -0.097279586 0.023341127 0.08811021 -0.07669672 -0.039266128 0.16114542
0.26333356 0.061237797 0.2015813 0.14465499 0.101193026 0.0958014 0.30017203 -0.056353718
00000000: e89b 253d dabd 08bb ba84 7e3b f323 86bd
00000010: e296 38bd 0a18 91bd f1c4 8a3c fe25 bebd
00000020: 3d80 853c 807a 323e 92de 53bd 5e83 33bd
00000030: 7976 473e ac6c 773e d869 3a3e 11bc 22be
00000040: a305 2cbd c2ff 84bd a338 b33d fd14 21bd
00000050: d41f 883e b55d 803e 0b29 bb3d 35eb b73b
00000060: 10fb 863e 3c0b ebbd 6ad4 7e3d 23c3 313d
00000070: 3a41 56bc 0dd4 113d 43e1 0b3d 74c2 04be
00000080: df4b f93a db3c c83d 34bd 52bc 314f 03bd
00000090: a7a9 2b3d 1b8a 3f3e 367d a9bb 798e 143e
000000a0: a41b 50bd 8588 edbd 7194 1b3e 57cc f63c
000000b0: 7e9a 4e3d 4415 3abe 9ece 5e3d b5fe 31bd
000000c0: d3c6 113e b490 02be 2529 f33d 7698 613e
000000d0: 4a61 1c3d ddac af3d 68d6 25bc 9bf8 9e3d
000000e0: 0cdd 59bd 6f1c 82bd 66fc b13d 3586 123e
000000f0: 0297 aebd 3097 123d edbd 84bb d58b dd3c
00000100: 00c8 433d 44fb 57bd 7a84 a83d d7fa 7a3d
00000110: cd0a c9bd 5c4c bcbd aaf8 e33d eea0 493e
00000120: 5c5f 86bd beb8 70bc 1157 0a3e 8dd8 263d
00000130: b130 c03d bea5 b13d b957 573d d932 0f3e
00000140: 481e c4bd d2d4 0dbd 36b5 32bd 9a7a 5b3e
00000150: 97ce df3d d36f 7d3d 1e2f 413e 1969 0e3e
00000160: ed71 60be cff0 363d ac29 633d c890 1abc
00000170: 1a76 023d 3c1a 00be dc32 a83d 9a98 653e
00000180: 8854 213e 97ef 163e 3b75 7d3c 2660 e93d
00000190: dd3d 063e 41bc 1cbe cf55 903c 60a6 a83b
000001a0: 1105 b3bd b71c 68bd 4b71 ecbd 2a06 073e
000001b0: d566 95bd 1535 4e3e 8a92 70bd 4607 c4bd
000001c0: f07a dd3c 21ed 2d3d d0ca 9f3d 4ab0 04bd
000001d0: ea3f dabd b1fe 86bd 2f0f d6bd ae3a 8cbd
000001e0: fff7 33bc bc0e 7fbc b6dc 1c3d bbe1 123e
000001f0: 9d26 d9bc ccd2 bb3d 10e9 1f3d e5bb 24ba
00000200: bedf 0ebd ef97 9cbd 2549 e83c 0fe3 043e
00000210: a213 97bc 5b55 6b3e 1225 bc3c 2b15 133e
00000220: aecd 813d fa65 293d e84b 133e 28df 72bc
00000230: b6d0 323e 2f95 fc3c 227e d33d aa7e 253e
00000240: ea7d 0e3d fd94 173e 6b2b 703e fd4f 743e
00000250: fda7 08be e142 96bd 8e61 b43d 4c98 053d
00000260: e9c3 ea3d e33a 7d3c c890 42bd dfcf 85bd
00000270: e0c2 a43e cd85 9abc 1364 6fbd 614c 2dbc
00000280: e043 e83d a3a6 563d e8ea 80bd 80c2 4fbd
00000290: ef32 7a3d 5ca7 f3bd e2a5 f1bd 3d2b 2c3e
000002a0: 69bd e43d d7fd 4cbd a6e1 613d 0a60 09be
000002b0: c332 55bd 381e 4b3e 2a67 7bbd 883c f3bd
000002c0: a71a 38bd deed bc3d 656a 04be a684 e4bd
000002d0: 2718 553d f941 8ebd 6014 193e c28d 933d
000002e0: 4050 b83d e856 903d 7d13 d5bd 2c28 e43d
000002f0: 2d7b 1f3e f2cd 873d b086 993d f21d 893d
00000300: 9c49 883e fc69 56be 4a34 f73b d076 1c3b
00000310: a701 783d c746 653e f327 10bd 2dd0 773d
00000320: 758f babd d515 19be 64b4 fe3d 575f 973e
00000330: 8d6e 92bc 70f7 5abd 64b1 a63d a400 813e
00000340: df85 2d3e 89b5 ec3d c086 fbbd dd39 d63d
00000350: 85a5 e9bc fef3 583d edab 8f3e 4772 d33d
00000360: dfdc 963b 7f2c 7c3e e208 163e f32e 3d3e
00000370: c2bd 063e 26aa 873e c983 423e c184 d33d
00000380: 9ac9 8d3e 3746 433e 3d13 e7bd 7505 13bd
00000390: 4170 723d 6da9 b0bd a5e8 643e a1ea 79bd
000003a0: 2eb0 9f3e 8f91 503d be04 1f3d 98d8 4c3d
000003b0: 3b70 163d 882c cb38 c663 203e 7eac 4fbd
000003c0: c619 2b3e fc79 223e 853a c7bd e435 bf3c
000003d0: 2073 b43d 2c13 9dbd 85d5 20bd 4e03 253e
000003e0: a8d3 863e 7cd4 7a3d 546b 4e3e 7020 143e
000003f0: 4a3e cf3d 8633 c43d 26b0 993e 28d3 66bd

f0.2.weight f4 [256, 256]
0.072082356 -0.015596467 -0.029497711 -0.030358788 0.011761541 -0.032613013 -0.06568802 0.06531382
0.13597222 -0.25485808 -0.22762515 -0.06522464 -0.15522507 -0.2947954 -0.13582923 -0.08804807
-0.13171531 0.0044283094 -0.09979983 -0.016988007 0.04163325 -0.048951335 -0.12147595 0.101996735
0.04263909 -0.14456917 -0.12128651 0.0526044 0.16264248 -0.034534313 0.19621933 0.0069745597
-0.14454733 0.007127411 -0.056532193 0.108056955 0.052925944 -0.12202108 0.05340443 0.1724617
-0.061896108 0.013735385 -0.14851572 0.17813219 -0.11177094 -0.097383395 -0.093757525 0.0018592476
-0.21006574 -0.057637773 -0.080039285 0.10437934 0.11775693 0.015486795 -0.10827307 -0.13411318
0.035979945 0.025037363 -0.3229674 -0.16699827 -0.05274311 -0.13170552 0.056878645 0.045966826
-0.085818626 -0.11284398 0.030983042 -0.16389689 0.0034649263 -0.09932578 0.19095424 -0.027508158
0.06356698 0.18465471 0.035584807 0.060964156 -0.15065978 -0.008915675 -0.02690116 0.05354261
-0.0044253627 0.011571791 0.16001195 0.03990707 0.20186861 0.27607214 -0.30628765 0.05195408
-0.07670802 0.010212532 0.025745362 0.023551805 -0.037525244 -0.099963285 0.09905023 -0.013474188
0.108486734 0.09808463 -0.21407849 -0.07924714 0.12827478 -0.0017086681 -0.04215253 -0.08798476
0.015551341 -0.020826204 -0.017735945 -0.111211956 -0.04268119 0.25933868 0.13508266 -0.027671874
0.1680933 -0.18693471 -0.17990921 -0.133748 -0.18196449 0.019420307 -0.039288335 0.045750078
-0.16876248 0.033034448 0.21848233 0.054692622 -0.033287566 0.1480215 0.18806024 -0.114981525
-0.24755447 0.17710644 -0.14940535 -0.07418939 -0.08457641 -0.12937604 0.1917088 0.13006859
-0.13729066 -0.29156575 -0.0051615722 0.15577076 -0.25792632 -0.22370909 0.015454978 0.23366982
-0.16542016 -0.023572829 -0.21735261 -0.13365078 0.027382901 0.07431891 0.09532631 0.017701926
-0.04182862 0.075001776 -0.02872395 0.038302835 -0.117759585 -0.07997247 0.047228564 0.024136929
-0.04584556 0.005881248 0.012273795 0.11647041 0.09706059 0.0035813092 -0.19023855 0.033130888
-0.21218342 -0.16671243 -0.12142991 0.022397948 0.016489444 -0.3970219 0.086686425 -0.031316653
0.0071215485 0.11956647 -0.053290524 0.035642345 -0.035123415 -0.03893712 -0.04380818 -0.19966158
0.0062707 0.1363696 0.044367157 -0.058608107 -0.19613406 -0.0018740301 0.06094517 -0.18431614
0.053783383 -0.095353015 0.0012276525 -0.015928771 -0.120331526 -0.27203953 -0.10303563 0.09639904
0.054558296 -0.082675256 -0.16089715 -0.3640351 0.025679545 -0.043103527 0.08300202 0.17698492
0.18965444 -0.04850627 -0.18804234 -0.07965623 0.0013925957 -0.025964342 -0.2354753 0.11919497
-0.18482111 -0.12343701 -0.10459791 -0.2772835 0.15304793 0.006492366 -0.27549437 -0.11020141
0.0756002 -0.20176001 -0.09519162 -0.15615287 -0.14896344 -0.14610979 -0.25725108 -0.001943286
-0.26963347 0.23885116 0.05172113 0.16480617 0.20546792 0.1170686 -0.19947366 0.016169285
-0.29319268 0.09141504 -0.12717447 -0.052525748 0.13556214 -0.15152562 -0.13591835 -0.06326677
-0.15755363 0.1103412 -0.046518017 0.17922695 0.082265824 -0.22204407 -0.2424593 -0.047404874
00000000: ea9f 933d 5388 7fbc 2fa5 f1bc feb2 f8bc
00000010: 7ab3 403c 3995 05bd 7187 86bd 41c3 853d
00000020: 4d3c 0b3e c27c 82be 9116 69be 7f94 85bd
00000030: 52f3 1ebe 6cef 96be d116 0bbe 8c52 b4bd
00000040: 61e0 06be 5a1b 913b da63 ccbd 6f2a 8bbc
00000050: a087 2a3d 3281 48bd 62c8 f8bd aae3 d03d
00000060: 54a6 2e3d f109 14be 1065 f8bd b677 573d
00000070: c08b 263e da73 0dbd b8ed 483e d98a e43b
00000080: 3704 14be 0f8d e93b 4d8e 67bd f74c dd3d
00000090: e0c8 583d 30e6 f9bd 9bbe 5a3d cd99 303e
000000a0: c686 7dbd 610a 613c 8114 18be 4968 363e
000000b0: 2ae8 e4bd f270 c7bd f203 c0bd ffb1 f33a
000000c0: 791b 57be 9615 6cbd a3eb a3bd d6c4 d53d
000000d0: 8c2a f13d 54bc 7d3c 45be ddbd f754 09be
000000e0: b55f 133d 281b cd3c fc5b a5be 9801 2bbe
000000f0: 2909 58bd d0dd 06be 95f9 683d b647 3c3d
00000100: adc1 afbd bf1a e7bd 26d0 fd3c 96d4 27be
00000110: d113 633b 516b cbbd 8289 433e ca58 e1bc
00000120: 682f 823d 2016 3d3e 60c1 113d 8db5 793d
00000130: 8f46 1abe 0d13 12bc d25f dcbc 7f4f 5b3d
00000140: a202 91bb 9c97 3d3c 2cda 233e 9975 233d
00000150: a5b6 4e3e 5459 8d3e bcd1 9cbe cdcd 543d
00000160: 1819 9dbd 7752 273c f0e7 d23c b7ef c03c
00000170: 12b4 19bd 8db9 ccbd d9da ca3d d7c2 5cbc
00000180: 4b2e de3d 98e0 c83d 6437 5bbe 534c a2bd
00000190: 775a 033e 63f5 dfba 22a8 2cbd 5b31 b4bd
000001a0: 0dcb 7e3c b79b aabc f94a 91bc 18c3 e3bd
000001b0: 79d2 2ebd 0ac8 843e 1c53 0a3e 20b0 e2bc
000001c0: a620 2c3e d06b 3fbe 1f3a 38be 3cf5 08be
000001d0: e654 3abe 5617 9f3c ceec 20bd 6f64 3b3d
000001e0: 12d0 2cbe 214f 073d d5b9 5f3e 5f05 603d
000001f0: 8b58 08bd f392 173e dd92 403e 6f7b ebbd
00000200: eb7e 7dbe 645b 353e b7fd 18be 9bf0 97bd
00000210: 6636 adbd 277b 04be 504f 443e b330 053e
00000220: ec95 0cbe 1b48 95be 6822 a9bb 5f82 1f3e
00000230: eb0e 84be ff13 65be e036 7d3c 2447 6f3e
00000240: e763 29be ce1b c1bc af91 5ebe c0db 08be
00000250: 1b52 e03c 8334 983d 713a c33d a103 913c
00000260: 7d54 2bbd 889a 993d 7d4e ebbc 6fe3 1c3d
00000270: f02b f1bd 9bc8 a3bd bd72 413d cfba c53c
00000280: 8ec8 3bbd 7cb7 c03b 0718 493c 0a88 ee3d
00000290: b4c7 c63d 66b4 6a3b e5cd 42be 41b4 073d
000002a0: 9c46 59be aab6 2abe 3fb0 f8bd e77b b73c
000002b0: df14 873c 7446 cbbe a788 b13d e445 00bd
000002c0: e15b e93b 44df f43d 2a47 5abd b5fd 113d
000002d0: 92dd 0fbd 887c 1fbd 3570 33bd 1674 4cbe
000002e0: 727a cd3b 79a4 0b3e 56ba 353d 0e0f 70bd
000002f0: 5ed7 48be 04a2 f5ba a4a1 793d 5fbd 3cbe
00000300: f74b 5c3d 7148 c3bd 2fe9 a03a 0e7d 82bc
00000310: 6070 f6bd c448 8bbe 5804 d3bd dc6c c53d
00000320: 8578 5f3d a551 a9bd 39c2 24be cf62 babe
00000330: e95d d23c 538d 30bd f7fc a93d 893b 353e
00000340: c634 423e 83ae 46bd 2c8e 40be ce22 a3bd
00000350: c287 b63a 2cb3 d4bc 7020 71be 7e1c f43d
00000360: bf41 3dbe 8bcc fcbd 6e37 d6bd 1af8 8dbe
00000370: 99b8 1c3e eabd d43b 990d 8dbe 47b1 e1bd
00000380: 47d4 9a3d 2d9a 4ebe d3f3 c2bd 8ae6 1fbe
00000390: df89 18be ce9d 15be 6ab6 83be dcb5 feba
000003a0: 660d 8abe 6695 743e 89d9 533d f3c2 283e
000003b0: 2f66 523e aac1 ef3d d342 4cbe 7375 843c
000003c0: 5a1d 96be cf37 bb3d 063a 02be 3d25 57bd
000003d0: cdd0 0a3e 8829 1bbe 2e2e 0bbe 0292 81bd
000003e0: bd55 21be 91fa e13d ad89 3ebd 4587 373e
000003f0: fc7a a83d 855f 63be 4047 78be 9d2b 42bd

f0.2.bias f4 [256]
0.054070007 -0.12033 0.00840598 -0.063130066 -0.031387307 0.19527645 0.12769538 -0.07715651
-0.061509766 0.14311582 0.16033007 0.1242269 -0.06118451 0.24936104 0.12234752 -0.01836211
-0.040857174 0.014218558 -0.058075737 -0.01571353 -0.044438254 0.08683486 -0.018249115 0.06466402
-0.038034014 -0.065517865 0.038716365 -0.017102093 -0.16711748 -0.016887238 0.12300654 0.029109057
0.08901484 0.16353814 0.049097627 0.1344596 0.10033283 0.17334381 0.13807206 0.18400955
-0.044986364 -0.003649662 0.2888003 0.2015379 -0.004300982 0.096450716 0.08828492 -0.038902286
-0.03700815 -0.0804104 -0.14242361 0.13393413 0.20628913 0.030845022 -0.06117549 0.06185104
0.16418938 -0.04360127 0.06443654 0.1751765 0.0063444558 -0.06902347 0.18012375 -0.0042314944
0.19855237 -0.0693744 -0.048918754 0.0029261531 -0.020164672 0.010461367 0.15571712 0.080696136
0.1290613 0.120142564 0.22871046 -0.048570294 -0.011421056 0.07921701 -0.06506406 -0.025353855
0.24769233 -0.11905084 -0.011567846 -0.022857457 0.12934197 0.028154198 0.14690773 0.0023587053
-0.11573126 -0.10839112 0.19637963 0.1289693 0.01060982 -0.18995446 0.21340276 -0.16014619
-0.020964904 0.19424345 0.03532289 0.016871195 -0.09618241 0.34050536 -0.036900874 0.036686387
-0.0068886983 0.006058773 -0.12494352 0.09592554 0.07957114 0.18434419 0.032166984 -0.07844859
-0.08484345 0.107923485 0.034487575 0.22060503 0.052806497 -0.06544559 0.051472627 -0.15922691
-0.012669693 0.15044387 0.1278361 0.01853566 0.1825958 -0.011890539 -0.04516415 -0.0034420574
-0.03325834 0.050724562 0.040351678 0.026657691 0.017724158 0.068390846 0.061386734 -0.06824658
0.048776723 0.097051136 -0.027435308 0.2762597 0.073882006 0.14525397 -0.04148205 -0.060046647
0.14135057 -0.04617961 -0.055333145 -0.07417168 -0.023820614 0.116873935 0.4781918 0.07195323
0.022065379 0.104238525 0.13082674 0.07854206 -0.095527306 0.25335267 0.07669675 -0.03096157
0.24179216 0.027440447 0.020749044 0.030811286 0.112725295 0.048179038 -0.11001016 0.0974024
-0.13376297 0.059780538 -0.029145963 0.08937385 0.009779434 0.078059755 0.22043145 0.19901067
0.09709219 0.10672777 0.03602338 0.029207623 -0.076618604 0.24546447 0.2512569 -0.024680318
0.19546267 0.01717304 0.01849285 -0.15362519 0.008281347 -0.028928673 0.013911729 0.03679309
-0.043878954 -0.068105884 0.10034473 0.025916617 0.043935318 -0.06390693 0.090804875 -0.02726126
-0.11481659 0.14100657 0.020341806 0.196884 -0.1084505 0.1711722 0.09675468 0.14425285
-0.053496774 0.10337215 0.033451933 -0.06672873 0.14283837 0.070417345 0.029566437 -0.06659417
-0.014356639 0.033400066 0.1348271 0.00038280303 0.05440976 0.12294313 -0.031792246 0.064145766
0.0057163713 -0.06884726 0.083078936 -0.11085392 0.25865132 0.07304015 -0.088059135 0.10485332
0.11012722 -0.082452126 -0.011881119 0.054541223 0.0689652 0.11572281 -0.06298565 -0.07540243
0.25354847 0.110350244 0.15382494 -0.014113156 0.09610473 -0.12905957 -0.035894383 -0.0068741255
-0.05058685 -0.06608565 -0.07335346 0.20452762 0.17245463 0.059853155 -0.117600024 0.013860936
00000000: 8378 5d3d 936f f6bd 3cb9 093c 564a 81bd
00000010: fa8f 00bd 8df6 473e 94c2 023e 3b04 9ebd
00000020: aaf1 7bbd f48c 123e 912d 243e ac6a fe3d
00000030: 9c9c 7abd 8058 7f3e 5691 fa3d 236c 96bc
00000040: da59 27bd f4f4 683c d3e0 6dbd a9b9 80bc
00000050: e304 36bd 7ad6 b13d 2b7f 95bc 926e 843d
00000060: 8ec9 1bbd 3b2e 86bd 0d95 1e3d b019 8cbc
00000070: d820 2bbe 1b57 8abc daea fb3d 1e76 ee3c
00000080: 6a4d b63d 8b76 273e 981a 493d c7af 093e
00000090: 4c7b cd3d 0a81 313e c362 0d3e 006d 3c3e
000000a0: 9f43 38bd 2b2f 6fbb a2dd 933e f45f 4e3e
000000b0: 41ef 8cbb f487 c53d b9ce b43d 0158 1fbd
000000c0: dc95 17bd 35ae a4bd 7fd7 11be 0726 093e
000000d0: 753d 533e b3ae fc3c 2793 7abd 8457 7d3d
000000e0: 4321 283e 3f97 32bd 4ef7 833d 7861 333e
000000f0: 27e5 cf3b 2d5c 8dbd 5c72 383e 59a8 8abb
00000100: 5051 4b3e 2a14 8ebd 085f 48bd b4c4 3f3b
00000110: 6230 a5bc 2766 2b3c 4f74 1f3e 0444 a53d
00000120: a528 043e 4e0d f63d 1333 6a3e a5f1 46bd
00000130: 621f 3bbc 873c a23d 4e40 85bd e3b2 cfbc
00000140: 0fa3 7d3e edd0 f3bd 1087 3dbc 903f bbbc
00000150: 3972 043e a2a3 e63c fb6e 163e 8294 1a3b
00000160: 8304 edbd 2afc ddbd be17 493e 8710 043e
00000170: cfd4 2d3c 6c83 42be 4186 5a3e 5dfd 23be
00000180: 97be abbc c1e7 463e bcae 103d 7635 8a3c
00000190: 49fb c4bd b856 ae3e 5f25 17bd 7744 163d
000001a0: 97ba e1bb ac88 c63b 63e2 ffbd 9c74 c43d
000001b0: 32f6 a23d b9c4 3c3e 87c1 033d a8a9 a0bd
000001c0: 67c2 adbd fd06 dd3d d842 0d3d 49e6 613e
000001d0: a04b 583d 5608 86bd f6d4 523d 610c 23be
000001e0: 8b94 4fbc f50d 1a3e 77e7 023e 19d8 973c
000001f0: 65fa 3a3e 89d0 42bc 0bfe 38bd 2494 61bb
00000200: e639 08bd 8fc4 4f3d cd47 253d 3b61 da3c
00000210: 4132 913c 8010 8c3d a870 7b3d ddc4 8bbd
00000220: 1aca 473d bfc2 c63d 03c0 e0bc e971 8d3e
00000230: 734f 973d 75bd 143e 15e9 29bd 79f3 75bd
00000240: 34be 103e d526 3dbd 02a5 62bd 52e7 97bd
00000250: 7323 c3bc 9a5b ef3d 8ed5 f43e 375c 933d
00000260: 74c2 b43c 027b d53d 72f7 053e a9da a03d
00000270: d2a3 c3bd 71b7 813e 3013 9d3d 1ea3 fdbc
00000280: 5d98 773e caca e03c e6f9 a93c f367 fc3c
00000290: 85dc e63d 6257 453d 024d e1bd e97a c73d
000002a0: 29f9 08be 70dc 743d 84c3 eebc a309 b73d
000002b0: eb39 203c cbdd 9f3d c8b8 613e 74c9 4b3e
000002c0: 45d8 c63d 1794 da3d 408d 133d d344 ef3c
000002d0: 37ea 9cbd 0a5b 7b3e bfa4 803e 612e cabc
000002e0: 5e27 483e 7aae 8c3c 517e 973c ec4f 1dbe
000002f0: 7dae 073c d3fb ecbc 05ee 633c 5ab4 163d
00000300: 6bba 33bd 197b 8bbd 8a81 cd3d 164f d43c
00000310: 85f5 333d a3e1 82bd e8f7 b93d 0253 dfbc
00000320: f624 ebbd 0764 103e dca3 a63c f69b 493e
00000330: 4c1b debd c447 2f3e 5127 c63d 05b7 133e
00000340: 6f1f 5bbd c7b4 d33d e504 093d 13a9 88bd
00000350: 3944 123e f836 903d 5035 f23c 8662 88bd
00000360: 1c38 6bbc 82ce 083d 1e10 0a3e f4b2 c839
00000370: c5dc 5e3d 9cc9 fb3d 9638 02bd db5e 833d
00000380: 6650 bb3b cbff 8cbd 4a25 aa3d 6107 e3bd
00000390: f26d 843e 1396 953d 5958 b4bd 56bd d63d
000003a0: 618a e13d a9dc a8bd 06a9 42bc 9e66 5f3d
000003b0: a03d 8d3d 1500 ed3d 9ffe 80bd 976c 9abd
000003c0: 1bd1 813e 4fff e13d 4984 1d3e de3a 67bc
000003d0: 8fd2 c43d 3128 04be fd05 13bd 5840 e1bb
000003e0: 2834 4fbd ea57 87bd 573a 96bd b06f 513e
000003f0: f297 303e 9528 753d 48d8 f0bd fb18 633c

f0.4.weight f4 [100, 256]
-0.008789379 0.019563973 0.055512507 0.035121348 -0.06988245 0.05110718 0.03979786 0.046873823
-0.14860922 0.017188646 -0.017444683 0.01788259 -0.073723555 -0.03467748 -0.07153132 0.00081587146
0.040200565 0.020653546 0.03850927 0.0306111 0.053625964 -0.027131965 -0.039758284 -0.070735104
-0.0568322 0.005630655 -0.046564493 -0.076070085 0.02183247 0.022311619 -0.06640811 0.0077271652
-0.12903087 -0.07517709 0.033379514 -0.102155596 -0.042447522 -0.06403841 -0.055488598 -0.06266227
0.030730344 -0.0089594275 0.066270106 -0.017158747 -0.01530266 -0.025889834 -0.05638427 -0.0034999645
0.03393989 -0.07512233 0.043833952 -0.0369869 -0.045832723 0.03928623 0.032685652 -0.066000275
0.031866945 -0.03419073 -0.11688873 0.024088444 0.029432064 -0.035834063 -0.09717416 0.045183275
-0.05240542 -0.03828197 -0.022530993 -0.00638024 0.001772617 0.03020919 -0.1315755 -0.040577997
-0.024109785 -0.055894405 -0.07417109 -0.034374375 0.06395901 -0.09843812 -0.043227416 -0.040348668
-0.072471514 0.013100397 -0.019068485 -0.055163227 0.003926353 -0.023211394 -0.034085516 -0.076592475
-0.035375778 -0.075181104 0.024901882 0.060353655 -0.03733824 -0.07258834 -0.08562868 -0.05178594
0.030724477 -0.057696976 0.018771116 -0.079379335 0.017001955 0.015269563 -0.056261588 -0.031129947
0.03957129 0.034299303 0.0382589 -0.046738356 -0.08259526 -0.057915516 -0.09783134 -0.0068269838
-0.04414556 -0.06523663 -0.07395983 0.038805727 0.040116105 0.012576312 -0.039879885 -0.055727568
-0.0035626485 0.0589737 -0.093410335 0.010995418 0.017175006 0.0493526 -0.015310874 -0.015028071
-0.025541453 -0.0975417 0.06559207 -0.14256077 -0.0014650726 -0.13955776 -0.041031823 0.050453555
-0.06698757 -0.04332802 0.02458894 -0.030811505 0.0031665724 -0.07198766 -0.0047691925 0.015396573
0.00020324437 0.06560236 -0.005846065 0.01032043 0.016258819 -0.05896279 0.019649036 0.016189331
-0.08101835 0.0011161598 -0.086550295 -0.029468613 -0.023250215 -0.017699942 -0.019866498 0.019002415
-0.06582792 -0.04939228 -0.060216352 -0.03203041 -0.010789149 -0.010599602 -0.040091142 -0.021589136
-0.0036282437 0.004071283 -0.035946187 -0.036934786 -0.039920095 -0.059821874 -0.06585603 -0.05106263
0.04293288 0.020106725 -0.0027499818 -0.031574644 0.037729062 -0.0072224634 -0.03891508 0.024976814
-0.09171313 -0.028317634 -0.1521153 0.02577779 -0.0055511873 0.050202463 0.03335676 -0.040177587
0.038715072 -0.005330207 0.0054768813 -0.003465128 -0.08118372 -0.0063985493 0.00491777 -0.080708995
-0.069806114 -0.027136805 -0.020971447 -0.06649362 0.003923388 -0.046587918 0.0015359559 -0.08233192
-0.048591573 -0.059582077 0.02131706 -0.038776852 -0.1096721 -0.058129117 -0.0039916085 -0.053233437
-0.080413826 0.027499277 -0.01454133 -0.05451988 -0.03683886 -0.016202237 -0.08989083 -0.025180079
-0.06984068 -0.040570565 -0.012014125 0.012280824 0.039529517 -0.10082151 -0.017644214 0.050699275
-0.091338456 0.036540747 -0.09654445 0.03728717 -0.1327711 -0.047807086 -0.021806696 -0.062248603
-0.032643687 -0.024259793 -0.03669552 0.05521409 -0.12241069 -0.02355618 0.0044117467 -0.0284832
-0.07256047 -0.059091188 -0.007288309 -0.07520629 -0.09634487 -0.09011881 -0.0074535175 0.019084454
00000000: 5401 10bc a044 a03c 1561 633d 67db 0f3d
00000010: 881e 8fbd c355 513d 1503 233d c4fe 3f3d
00000020: 042d 18be 34cf 8c3c 27e8 8ebc 827e 923c
00000030: 60fc 96bd f909 0ebd 037f 92bd 35e0 553a
00000040: 59a9 243d a031 a93c e5bb 1d3d 21c4 fa3c
00000050: e6a6 5b3d db43 debc 95d9 22bd 91dd 90bd
00000060: e2c8 68bd 5c81 b83b 69ba 3ebd a2ca 9bbd
00000070: 02da b23c dbc6 b63c fa00 88bd 2934 fd3b
00000080: ab20 04be 72f6 99bd f5b8 083d f436 d1bd
00000090: 74dd 2dbd 9226 83bd 0348 63bd 1455 80bd
000000a0: 34be fb3c 90ca 12bc 9fb8 873d 8090 8cbc
000000b0: 02b8 7abc eb16 d4bc 31f3 66bd a95f 65bb
000000c0: 8e04 0b3d bcd9 99bd 3b8b 333d 937f 17bd
000000d0: 18bb 3bbd 99ea 203d 64e1 053d 272b 87bd
000000e0: ea86 023d 940b 0cbd 5c63 efbd 2155 c53c
000000f0: 831b f13c bdc6 12bd 3f03 c7bd 1912 393d
00000100: 11a7 56bd 8ecd 1cbd eb92 b8bc 5511 d1bb
00000110: 2857 e83a 4379 f73c babb 06be 1d35 26bd
00000120: e281 c5bc 88f1 64bd 03e7 97bd 25cc 0cbd
00000130: f1fc 823d ed99 c9bd 3b0f 31bd a544 25bd
00000140: f26b 94bd 0ca3 563c 8335 9cbc d6f2 61bd
00000150: a3a8 803b d225 bebc 419d 0bbd 84dc 9cbd
00000160: 31e6 10bd 8df8 99bd 08ff cb3c 6535 773d
00000170: fbef 18bd 32a9 94bd 175e afbd 7e1d 54bd
00000180: e6b1 fb3c aa53 6cbd e2c5 993c a291 a2bd
00000190: af47 8b3c 302d 7a3c 8d72 66bd 3b04 ffbc
000001a0: 8115 223d 6d7d 0c3d 5db5 1c3d b870 3fbd
000001b0: b427 a9bd d238 6dbd cc5b c8bd e4b4 dfbb
000001c0: fad1 34bd c89a 85bd 4078 97bd c1f2 1e3d
000001d0: c950 243d e00c 4e3c 1759 23bd 9742 64bd
000001e0: 537b 69bb 688e 713d eb4d bfbd 2026 343c
000001f0: 99b2 8c3c f425 4a3d 76da 7abc 4c38 76bc
00000200: 4f3c d1bc f1c3 c7bd 2355 863d 73fb 11be
00000210: ae07 c0ba 3be8 0ebe fc10 28bd 63a8 4e3d
00000220: c730 89bd b978 31bd bf6e c93c 6968 fcbc
00000230: 4586 4f3b 446e 93bd e346 9cbb e841 7c3c
00000240: ff1d 5539 885a 863d 5990 bfbb 0517 293c
00000250: 3731 853c f782 71bd 04f7 a03c 7d9f 843c
00000260: f3ec a5bd 1c4c 923a 4841 b1bd 2968 f1bc
00000270: 3c77 bebc 78ff 90bc 11bf a2bc f4aa 9b3c
00000280: cad0 86bd 8f4f 4abd 6ca5 76bd 5232 03bd
00000290: f9c4 30bc f4a9 2dbc 9c36 24bd b3db b0bc
000002a0: d4c7 6dbb 6668 853b 4f3c 13bd ee48 17bd
000002b0: 4183 23bd c807 75bd 87df 86bd 0c27 51bd
000002c0: 63da 2f3d dcb6 a43c 0a39 34bb 6a54 01bd
000002d0: ca89 1a3d 6aaa ecbb 6b65 1fbd 2d9c cc3c
000002e0: 18d4 bbbd 62fa e7bc 1dc4 1bbe f22b d33c
000002f0: bce6 b5bb 19a1 4d3d 19a1 083d 4191 24bd
00000300: b293 1e3d 04a9 aebb 6977 b33b 3317 63bb
00000310: a643 a6bd ecaa d1bb 3f25 a13b c24a a5bd
00000320: 82f6 8ebd 014e debc 50cc abbc cf2d 88bd
00000330: c48f 803b f9d2 3ebd 2152 c93a a39d a8bd
00000340: f507 47bd 560c 74bd 1da1 ae3c 7ad4 1ebd
00000350: c49b e0bd cc18 6ebd 0acc 82bb 4e0b 5abd
00000360: 01b0 a4bd 2a46 e13c c23e 6ebc 3d50 5fbd
00000370: 58e4 16bd 8eba 84bc af18 b8bd 7446 cebc
00000380: a108 8fbd 522d 26bd e4d6 44bc 8235 493c
00000390: b4e9 213d 827b cebd 998a 90bc 0baa 4f3d
000003a0: a80f bbbd c0ab 153d 19b9 c5bd 6eba 183d
000003b0: 26f5 07be 5dd1 43bd f5a3 b2bc 64f8 7ebd
000003c0: 63b5 05bd 79bc c6bc 0b4e 16bd 2b28 623d
000003d0: 75b2 fabd e4f8 c0bc 6a90 903b 9a55 e9bc
000003e0: 959a 94bd 9a09 72bd c4d2 eebb c105 9abd
000003f0: 7650 c5bd 3690 b8bd a33c f4bb 0057 9c3c

f0.4.bias f4 [100]
-0.07490448 0.022916948 -0.032801513 0.0042210054 0.0022384727 -0.07610601 -0.005492271 0.019638663
-0.05118176 -0.08142127 0.038968775 0.027113808 -0.03156297 -0.041034147 0.010663971 -0.003028728
0.15792756 -0.07554472 -0.07761634 -0.0068947305 0.021249939 -0.0896357 0.013281265 -0.06254548
0.0052225366 -0.04640005 -0.006363747 -0.039408404 -0.018735936 -0.07075077 -0.08687589 0.009677018
-0.07026151 -0.055798553 -0.030466713 -0.05366665 -0.049673934 -0.055094704 0.00074136717 -0.049479727
-0.06650936 -0.06052228 -0.02371696 0.021918045 -0.00936363 -0.043642424 -0.0868023 0.023186287
0.009595658 0.031062294 -0.016650375 -0.062243246 -0.025230553 -0.03177785 0.013457261 0.03083593
0.009639771 0.006193923 -0.05651409 -0.0006112617 -0.00016302876 -0.05132488 -0.011934244 -0.011560981
-0.086820856 -0.00092168484 -0.05568235 -0.07275403 -0.01117321 0.037226696 0.01705115 -0.04173915
-0.0052757775 0.07691432 -0.05041985 0.022967316 -0.07474657 -0.07500781 0.0046971887 0.26908484
-0.07272597 -0.061547823 0.03184322 -0.030239394 0.023476945 -0.0343197 0.011537974 -0.020398894
-0.05759363 -0.052880526 -0.060971245 -0.03225317 0.031779964 -0.043474816 -0.03459391 -0.073822856
-0.033275843 -0.026603416 0.014223986 -0.028648404
00000000: 8567 99bd 53bc bb3c e15a 06bd 5c50 8a3b
00000010: 57b3 123b 78dd 9bbd 82f8 b3bb 43e1 a03c
00000020: f7a3 51bd 32c0 a6bd b99d 1f3d c71d de3c
00000030: 2c48 01bd 6c13 28bd f0b7 2e3c a07d 46bb
00000040: c3b7 213e 31b7 9abd 51f5 9ebd 31ed e1bb
00000050: 5a14 ae3c ec92 b7bd aa99 593c d817 80bd
00000060: d021 ab3b fb0d 3ebd fb86 d0bb b56a 21bd
00000070: 1b7c 99bc c8e5 90bd fdeb b1bd 5b8c 1e3c
00000080: 44e5 8fbd 068d 64bd 5495 f9bc 90d1 5bbd
00000090: e576 4bbd fcaa 61bd 4f58 423a 41ab 4abd
000000a0: 0f36 88bd 36e6 77bd 124a c2bc 798d b33c
000000b0: e969 19bc 66c2 32bd 67c5 b1bd 2bf1 bd3c
000000c0: 1b37 1d3c 5a76 fe3c 5e66 88bc c6f2 7ebd
000000d0: 4eb0 cebc 7e29 02bd d87b 5c3c a29b fc3c
000000e0: 21f0 1d3c 64f6 ca3b 527b 67bd 143d 20ba
000000f0: b3f2 2ab9 0a3a 52bd d987 43bc 456a 3dbc
00000100: 22cf b1bd 399d 71ba 2d13 64bd 1100 95bd
00000110: d70f 37bc 057b 183d daae 8b3c acf6 2abd
00000120: 6ee0 acbb 4185 9d3d 0b85 4ebd f425 bc3c
00000130: bb14 99bd b29d 99bd e0ea 993b 7dc5 893e
00000140: 5af1 94bd 9219 7cbd 096e 023d 9bb8 f7bc
00000150: b952 c03c d092 0cbd c509 3d3c 951b a7bc
00000160: 4ce7 6bbd 4099 58bd fcbc 79bd e61b 04bd
00000170: b52b 023d a612 32bd 58b2 0dbd 7030 97bd
00000180: 404c 08bd 68ef d9bc b90b 693c 0fb0 eabc
