model/model.pth (torch, 799047 bytes, 6 tensors)

f0.0.weight f4 [256, 390]
000000 32 d8 d3 3b e5 8d b1 3d da b8 ab 3d 0a b7 98 bc
       0.0064649815 0.08669642 0.08384867 -0.018641967
000010 c7 c0 92 3c cc 26 a9 3a c2 45 f7 bc 7b 5c 34 bd
       0.017914189 0.0012905239 -0.03018463 -0.04403351
000020 c7 c7 ab 3c 51 2a 5c 3b 3e bc 4e 3c cb 83 bf 89
       0.020969285 0.0033594558 0.012618123 -4.6105515e-33
000030 51 9d 81 bd 75 01 a4 3c d5 dd 27 bd 34 af 37 3b
       -0.06328834 0.020020226 -0.04098304 0.0028028013
000040 25 aa 1e 89 a5 cb a9 bc 16 04 90 bc ef ab a9 3d
       -1.909856e-33 -0.020726988 -0.017580073 0.08284747
000050 56 04 86 08 7d bd a2 bc 56 3f 87 89 d1 56 ed 08
       8.065851e-34 -0.019865746 -3.255963e-33 1.4284329e-33
000060 f3 01 3d bc a0 0a 62 05 6d 24 8a 89 89 61 5c bd
       -0.011536109 1.06284204e-35 -3.3256546e-33 -0.053803954
000070 a8 d7 44 08 92 26 6e 08 ec 6e 8f 3c 88 01 9e 89
       5.9235107e-34 7.166586e-34 0.017508946 -3.8038556e-33
000080 eb 84 2f 89 f2 03 23 bd d5 5a 2d bd 27 9b de bc
       -2.1127356e-33 -0.039798684 -0.042322952 -0.027173592
000090 18 cd e9 bb 3f 4b 36 3e b9 26 86 1d 74 03 41 bd
       -0.007135045 0.17802142 3.5509543e-21 -0.047122434
0000a0 7a a4 f3 bb 97 43 dc 09 4f 9c 8c bb 91 48 cd 3c
       -0.0074353786 5.3026635e-33 -0.0042910944 0.025059016
0000b0 58 60 52 89 34 3a 57 bb 28 b3 ad 3d a7 09 68 3c
       -2.5323131e-33 -0.0032841088 0.08481437 0.014162458
0000c0 4c de 96 3d fc 97 20 88 2e 5d 69 06 14 0b 7a bd
       0.073666185 -4.8326905e-34 4.3890887e-35 -0.06104572
0000d0 91 fa e6 3d 7c db 43 88 83 51 b6 bc f2 2a 69 bd
       0.112782605 -5.893868e-34 -0.022255665 -0.05692572
0000e0 7e b8 95 bc 2d b3 b7 bd 1b cc 8e 3c a4 bf 8d 3d
       -0.01827645 -0.08969722 0.01743131 0.06921318
0000f0 14 cc 7e bc a2 83 9e 89 4f c6 75 88 30 e8 c4 bc
       -0.015551586 -3.8160903e-33 -7.3960116e-34 -0.024036497
000100 04 b0 60 89 0f 3f a1 bb d9 da 54 bc 95 3e c6 88
       -2.7045781e-33 -0.0049208472 -0.0129916305 -1.19314045e-33
000110 91 ed 00 3d 5e a6 48 3d 57 03 23 8a 00 28 c1 88
       0.03147656 0.048986785 -7.848793e-33 -1.1625169e-33
000120 15 1a 09 3d a8 3f 4d 87 a6 5e 24 09 23 6e 39 3d
       0.03347214 -1.5441193e-34 1.9785285e-33 0.04527105
000130 26 0c f1 87 58 3c 23 89 07 13 47 3c d5 cc 7e 3d
       -3.626879e-34 -1.9648785e-33 0.012150533 0.06220706
000140 f8 48 30 bd e9 57 90 ba c0 62 03 89 dd 1e 40 07
       -0.04303834 -0.0011012527 -1.5814983e-33 1.4453544e-34
000150 dc 28 a5 ba 71 e2 17 bd 76 ac 62 89 ef b5 6d bb
       -0.0012600678 -0.037081186 -2.7284851e-33 -0.003627177
000160 73 a5 21 89 86 f8 15 07 be 99 d4 bc e5 07 6e bd
       -1.9457464e-33 1.1282549e-34 -0.025952216 -0.058112998
000170 25 69 8c 3d f5 19 26 3a d5 0e c9 07 4e ab c4 07
       0.06855992 0.00063362654 3.0251836e-34 2.9591486e-34
000180 42 82 f2 3c b0 3e 7e 08 06 16 5d 09 c4 31 ea 3b
       0.029603127 7.6509033e-34 2.6612263e-33 0.007147046
000190 61 c9 8a 3d 63 39 97 bb 3d 71 be bb d9 a6 23 3c
       0.06776691 -0.0046149953 -0.005811839 0.00998851
0001a0 a3 14 94 bd 06 bd 92 bd 60 2d 95 06 18 e5 83 89
       -0.07230499 -0.071649596 5.6114243e-35 -3.175254e-33
0001b0 2c 4f 4e bd b8 cc eb 07 16 06 95 09 ef ea 97 bc
       -0.050368473 3.5479193e-34 3.587617e-33 -0.018544642
0001c0 c2 95 a9 bc 6d 82 71 bb 98 17 a7 bc 10 3c aa 3d
       -0.020701293 -0.0036851421 -0.020396993 0.08312237
0001d0 a2 95 9c bc 5d 3b b1 3a 89 47 1c bc 9e 3a 70 88
       -0.01911432 0.001352172 -0.00953854 -7.2291277e-34
0001e0 9a 5c 73 bd 7f 5e a3 bd dc 64 76 bc a7 b2 b1 bb
       -0.059414484 -0.07977008 -0.015038695 -0.0054229083
0001f0 88 f3 a6 3d d7 1d 4a 09 35 de 96 3d 2e 16 0a 8a
       0.08151919 2.4328896e-33 0.073666014 -6.64863e-33
000200 20 ee 1c 89 6f 6a 86 bc 36 35 5f 3d 60 23 ae 89
       -1.8889783e-33 -0.016408173 0.054494105 -4.1922243e-33
000210 1f 56 f2 3a 3d 07 94 07 0a 79 81 89 74 cf 80 bd
       0.0018488801 2.227282e-34 -3.1169445e-33 -0.062895685
000220 ca e5 f0 3d 43 c2 d6 05 da 81 89 bc 9b bf 97 3b
       0.11762579 2.0195824e-35 -0.01678555 0.0046309954
000230 bd 68 9d 3d a0 e8 bb bc f1 29 b4 89 64 88 46 09
       0.07685993 -0.022938073 -4.3372865e-33 2.3897514e-33
000240 a7 6b 76 3c b2 66 2b 08 b0 88 b1 89 10 5b 3e 3d
       0.015040315 5.157916e-34 -4.273974e-33 0.046473563
000250 13 2d 1d 89 f7 65 0d 09 0c 1f 1e 3b 10 13 12 09
       -1.8919381e-33 1.7020201e-33 0.0024127392 1.7583074e-33
000260 82 0c d4 87 fa fb e8 3c 78 53 83 88 dd ee 88 08
       -3.1905566e-34 0.028440464 -7.903899e-34 8.241359e-34
000270 50 89 b9 3b 29 61 e2 bc ca 6f 4b 3d 83 b6 93 bb
       0.005662121 -0.02763422 0.049667157 -0.004507841
000280 7a 62 9e 09 49 5f 66 08 bf 7a c5 bc 2d a8 dd 3c
       3.8129723e-33 6.9325115e-34 -0.024106381 0.027057732
000290 05 c0 92 bc c0 e2 8c bc 5f 6c ad bc 60 d6 49 06
       -0.017913828 -0.017197967 -0.02116984 3.7961396e-35
0002a0 76 8f 71 bd 5d d6 e5 bc 47 ba f1 bc 62 2d 42 3b
       -0.058974706 -0.028056318 -0.02950777 0.00296291
0002b0 4f e6 37 3b 74 89 0d 07 0a 23 b4 3c 2b 0c fa 07
       0.0028060859 1.0648055e-34 0.021989364 3.762297e-34
0002c0 8c 07 57 bb 3c 8d e9 ba 24 13 ee 08 04 21 17 06
       -0.0032810895 -0.001781858 1.4328604e-33 2.84242e-35
0002d0 f1 eb 1d bb bc 98 84 3d ec 06 a5 3c bb 81 8f bd
       -0.002409693 0.06474444 0.020144902 -0.07007166
0002e0 5e a0 53 87 17 0f 8e 09 3f f4 01 bd b4 03 23 09
       -1.5921003e-34 3.4199447e-33 -0.03172707 1.9622153e-33
0002f0 80 ae 09 89 d1 3c 94 bb 1b c5 56 bc 91 55 bc 3c
       -1.6572825e-33 -0.0045238514 -0.013108517 0.02299002
000300 45 80 b4 bb 9f fc 27 bb 3d 08 6b bc ab 38 98 bc
       -0.005508455 -0.0025632752 -0.014345226 -0.018581709
000310 58 de 7e 3c b7 d7 0b 08 3d e1 96 3c db e6 42 bc
       0.015555941 4.2082363e-34 0.018417949 -0.011895861
000320 ab aa 70 bc 5e 91 06 bd 9e b4 30 bd 3f dc 88 08
       -0.014689128 -0.032853477 -0.043141 8.236982e-34
000330 50 de 96 3d c0 b9 6b 07 d4 e2 d5 89 cc c4 94 bd
       0.073666215 1.7734022e-34 -5.1491193e-33 -0.072640985
000340 d0 38 c0 39 4a ec 9e 3c 6d a1 da bc 12 fc 49 3d
       0.00036663422 0.01939978 -0.026688302 0.04931266
000350 b0 d3 e1 bc b6 b8 ae bd 9d 65 63 3d 8c 86 dc 3c
       -0.02756676 -0.085313246 0.055516828 0.026919626
000360 f0 b7 e8 bc 87 a0 bd 32 2e ed 80 3d 45 be ca bc
       -0.02840802 2.2075495e-08 0.062952384 -0.02474893
000370 b6 dc 9d 89 5f 6c ad bc 10 7a e2 3b 34 0a 63 89
       -3.800393e-33 -0.02116984 0.0069115236 -2.7328929e-33
000380 13 b6 29 0a f5 51 00 3d 2a 95 38 86 01 61 b9 88
       8.1712984e-33 0.03132816 -3.4716142e-35 -1.1157088e-33
000390 d9 35 a8 3c ae 94 08 0a e4 c0 ca 08 9b aa 00 3d
       0.020533489 6.576125e-33 1.2202781e-33 0.031412702
0003a0 92 f6 8b 08 0a 06 71 09 86 1a 56 bd f1 cd 83 3d
       8.423727e-34 2.901216e-33 -0.05227139 0.064357646
0003b0 96 b2 d5 07 67 33 05 bb 66 49 ca bb 80 06 4a 09
       3.2153641e-34 -0.0020324828 -0.0061733006 2.4317922e-33
0003c0 8e 92 93 bc 31 17 a3 3d 6f 2a b6 08 bb 2b 8a ba
       -0.018014219 0.07963408 1.0963703e-33 -0.0010541597
0003d0 2c 36 0a bd 7c 13 3f 09 07 5a 86 bd d0 5a 07 bc
       -0.03374307 2.299995e-33 -0.0656014 -0.0082613975
0003e0 77 9f 4f 3d d8 a4 30 bc 75 67 11 88 05 27 a9 3a
       0.050689187 -0.010781489 -4.3755963e-34 0.0012905305
0003f0 26 28 b0 bb ea 49 f2 3d c0 77 53 08 ea 37 0e 3c
       -0.00537588 0.11830504 6.363627e-34 0.008680323

f0.0.bias f4 [256]
000000 b4 db ba bd 3d f9 08 be 4f 9b 8b 3d 45 af 85 bc
       -0.09123936 -0.13376327 0.06816732 -0.016318927
000010 7a 28 a0 bd 16 d5 6c bc 61 32 fa bd 79 9a 5c 3a
       -0.0782022 -0.0144551005 -0.1221664 0.0008415352
000020 23 97 c1 bd 96 fd 6a ba b3 2e bd bd 45 d0 0c 3c
       -0.09452655 -0.0008964179 -0.09237423 0.008594577
000030 25 0e d8 bd ed 9c 1b be c8 e6 b8 3d b1 64 3a be
       -0.10549573 -0.15196581 0.09028393 -0.18202473
000040 18 1b ee bd c1 3c e1 bd 7b d4 2c bd 54 0e 5f 3b
       -0.116262615 -0.10997916 -0.042194825 0.003403564
000050 1d e3 30 be e5 9c d1 bc f7 f4 84 3d 06 ab 8c bd
       -0.17274137 -0.025587508 0.06492036 -0.06868558
000060 88 30 b5 3d e6 49 aa 3c 52 9a 42 3d a0 7c c8 bd
       0.08847147 0.02078719 0.047510453 -0.09789395
000070 bc 4b c5 3d a7 7a a2 bc 55 79 c9 3a 52 b4 cf bd
       0.09633586 -0.019833876 0.0015371243 -0.10141815
000080 c6 57 a2 bd 3f a0 9a bd f1 f9 23 be c9 21 fe 3d
       -0.07926898 -0.07550096 -0.16013314 0.12408788
000090 2f 30 01 3d 55 39 fc 3a e3 96 14 be 97 3f 04 bd
       0.031540092 0.001924316 -0.14510684 -0.032287207
0000a0 82 3b 05 bd 56 98 0a bd 65 1a 2b bd ca 66 74 3c
       -0.032527454 -0.033836685 -0.04177322 0.014917085
0000b0 8e c7 b3 3d aa 02 1a be 07 31 3e bd f7 b9 21 be
       0.087782964 -0.15040079 -0.046433475 -0.15793596
0000c0 6c 2d b2 bd 06 a0 15 b6 51 6d f5 bd b1 a4 0f bc
       -0.0870007 -2.2295876e-06 -0.11983741 -0.008767293
0000d0 5f d9 34 bd 58 ae 3c be 28 73 08 bd be e6 3e bd
       -0.044152614 -0.18425882 -0.033312947 -0.04660677
0000e0 78 5c 33 3d b6 f6 12 be e6 ba 29 bd c8 03 21 be
       0.043789357 -0.14351925 -0.041438006 -0.15724099
0000f0 4b 28 59 bd 44 7f a8 bd fa e6 c0 3c d0 82 59 3d
       -0.053016942 -0.08227399 0.023547638 0.05310327
000100 b9 b3 d9 bd 18 d6 3b bd ba 5b 86 3d ad 5d 9b bd
       -0.106299825 -0.045858473 0.06560464 -0.075862266
000110 60 ac c6 bd fa da 6a bd a0 0a 99 3d ec ed 78 3d
       -0.09700847 -0.05733774 0.0747273 0.060773775
000120 00 e9 8b bd 44 c3 19 bd 48 99 94 3d 1d bf ad bd
       -0.068315506 -0.037539735 0.072557986 -0.084837176
000130 b3 fb 16 bd e4 28 77 3d 89 e2 2a be fd 8a e6 bd
       -0.036861133 0.06034173 -0.16687979 -0.11256979
000140 db 9c 15 bc a9 24 d0 bd 49 ee 34 be ea 2c ac bd
       -0.009131636 -0.10163242 -0.17669024 -0.08407004
000150 83 9e 91 bd 71 40 83 bd 41 51 eb bd d8 34 de 3c
       -0.07110312 -0.064087756 -0.11490107 0.027124807
000160 4e 29 c4 bb 25 4a 7a 3c e2 db 27 3d 15 87 30 be
       -0.005986369 0.0152764665 0.04098118 -0.1723903
000170 fb 1a c7 3b f3 0a 83 bd 50 a9 5c bc 61 af 05 3d
       0.0060762144 -0.06398573 -0.013468102 0.032637957
000180 a1 3c 6d bb c8 fc 1c be 4b e9 10 3d 70 80 d2 bd
       -0.0036199468 -0.15330803 0.035378736 -0.10278404
000190 20 4e 05 be 7a 18 eb bb 50 9b cd 3d 57 58 73 bc
       -0.13018084 -0.0071745487 0.10039389 -0.014852605
0001a0 de 88 7d 3c a2 60 0f bd 10 11 41 bd d6 73 28 be
       0.015474526 -0.035004266 -0.047135413 -0.16450438
0001b0 fd bf 46 bd 37 72 b9 3d ab b3 c1 3d 52 c5 e1 bb
       -0.048522938 0.09054988 0.09458097 -0.0068899775
0001c0 cd cf 13 be fb 48 77 3d 92 fb 1f be 14 37 4d be
       -0.14434738 0.060372334 -0.1562331 -0.20040542
0001d0 d6 45 29 be 69 54 f9 bd 57 78 b0 3c 4e 52 49 bd
       -0.16530547 -0.12174303 0.021541758 -0.049150757
0001e0 5b 3f 18 3d 05 ec 05 be 26 b9 22 3d 34 be 1a be
       0.037169795 -0.13078316 0.039727353 -0.15111619
0001f0 9c 2a a1 bd 5b ec ce 3d 36 ba b5 bd b9 c4 42 bc
       -0.07869455 0.10103675 -0.088734075 -0.011887723
000200 58 78 05 bd 8c 75 39 bc 4d 8b eb bd 2c ea 00 be
       -0.032585472 -0.011319529 -0.11501179 -0.1258933
000210 dd 24 2c 3d 20 b1 4d bd ad e9 d7 b3 a8 f4 3a bd
       0.042027343 -0.050217748 -1.0054223e-07 -0.04564348
000220 01 ac bb bd 56 69 13 bc 09 eb cf bc 5b b5 ed bd
       -0.091636665 -0.008997282 -0.025380628 -0.116068564
000230 72 4b 89 bd a9 a5 c2 bd 47 0c a1 3d f7 f1 cb bd
       -0.06703843 -0.095042534 0.0786367 -0.099582605
000240 bd db bc 3b b7 85 cb 3d a9 e0 f9 bd 27 1d c2 bd
       0.0057634995 0.099376135 -0.12201054 -0.094782166
000250 77 d5 4c bd a0 4c ad bd 4f f9 34 be 4c 31 95 bd
       -0.050008263 -0.08461881 -0.17673229 -0.07284793
000260 39 a1 97 3c 56 16 38 be 7a 8c 24 be ba ad 87 bc
       0.018509494 -0.1797727 -0.16069213 -0.016562331
000270 a4 87 18 be 30 b7 0c bd ad 04 49 3d 2f cb 01 bc
       -0.14895493 -0.03435439 0.049076725 -0.007921978
000280 b8 2e 05 bd 40 c5 48 be 47 8c de 3d 22 dd 11 be
       -0.032515258 -0.19606495 0.108665995 -0.14244512
000290 4a c6 8b bd 1f 55 13 be c5 f8 74 bd 7b e2 cb bd
       -0.0682493 -0.1438794 -0.059807558 -0.09955307
0002a0 a8 78 30 bb 09 af 94 bd 52 80 af bc 32 69 90 3d
       -0.0026927385 -0.07259948 -0.021423493 0.070513144
0002b0 a3 d2 80 3c 49 c1 82 bd c9 82 a7 bd 98 14 3f bb
       0.01572544 -0.063845225 -0.08179242 -0.0029156562
0002c0 2f 59 e7 3d 02 ed 55 bd 4f c9 f1 bd 65 ff 5d 3b
       0.11296307 -0.05222798 -0.11805975 0.003387415
0002d0 cd eb 3f bd a8 d8 ab bd 59 79 d5 3d af 74 1a be
       -0.046855737 -0.08390933 0.10423536 -0.15083574
0002e0 8b 8f a4 bb 12 4a 72 3c 02 82 f1 bd 99 bf 2d bd
       -0.0050219945 0.014788168 -0.11792375 -0.04241905
0002f0 72 cd 09 be c6 78 3b bc af 09 41 be c1 09 03 be
       -0.13457277 -0.011442369 -0.1885135 -0.1279669
000300 e6 0d 24 3b c1 b8 44 3d 49 21 12 be e8 f6 98 bd
       0.0025032698 0.048027758 -0.1427051 -0.07468969
000310 51 2f bb 3d 87 dc 76 bc d5 18 07 be d4 15 a1 bc
       0.09139884 -0.015067226 -0.13193066 -0.019663729
000320 51 97 10 be 0d e7 21 bd 13 10 a4 bd 32 6b f8 3b
       -0.14120223 -0.039526988 -0.080108784 0.007581138
000330 41 99 da 3d cc e4 a4 bd 01 c9 b3 bc 78 ba 32 bc
       0.10673762 -0.08051452 -0.021946432 -0.010908715
000340 19 e7 98 3d 47 5e 09 3c 21 9a bb 3d 5d a4 35 bd
       0.074659534 0.008384294 0.09160257 -0.044346202
000350 47 8b 01 bd 05 f1 c9 3b 1b 2f e5 bd 49 a2 5d 3b
       -0.031626966 0.006162765 -0.11190625 0.0033818653
000360 17 59 5a bc 01 bc 88 bc df a8 0d be ce 46 14 be
       -0.013326905 -0.01669121 -0.1383395 -0.14480135
000370 ac 92 1b be 13 a2 b9 bd b7 d5 c3 bc db 47 3b 39
       -0.1519267 -0.09064116 -0.023905618 0.00017860478
000380 e0 90 03 3a a2 cb 8e bd 47 a9 bf bd 5b 73 b2 bd
       0.00050188415 -0.069724336 -0.09358459 -0.087134086
000390 60 43 fc bb a6 4b 02 be 5c 10 53 3d 19 b9 c1 bd
       -0.0076984614 -0.1272417 0.051529273 -0.09459133
0003a0 03 ba 8c b8 8f 58 14 be dd c0 32 be 01 5a 89 bd
       -6.7103676e-05 -0.14486907 -0.17456384 -0.0670662
0003b0 6d c0 d4 bd 0e 3c 00 3d 8e bf 99 bd b7 bc 23 be
       -0.10388265 0.031307273 -0.07507239 -0.15989958
0003c0 6a a5 65 3c ba 80 17 be ca fa c1 bc 81 94 a6 bd
       0.014016489 -0.14795199 -0.023679156 -0.081337936
0003d0 1f e3 c8 bb a2 97 a7 3c 54 4b ab bd a2 3d 4d bc
       -0.0061305906 0.020458046 -0.08363977 -0.012526901
0003e0 0b 49 ec bd d2 b9 1e be 7e 92 c2 ba 2a cb 6b bd
       -0.11537369 -0.15500572 -0.0014844683 -0.0575668
0003f0 40 f6 52 bc 50 e2 1b bc 36 36 32 be ac 3d bb bd
       -0.012876093 -0.009514406 -0.17403492 -0.09142622

f0.2.weight f4 [256, 256]
000000 c3 e8 d9 bc 99 8b bd bc 2a da 2b bb a2 23 b6 bc
       -0.026600247 -0.023137854 -0.0026222565 -0.022233788
000010 a7 4b c3 3c d4 62 47 bd 52 2c 6e bd 9d 7d 29 3d
       0.023839785 -0.048678234 -0.058147736 0.04137956
000020 3d db 5f bd 93 b1 71 3d 10 42 88 bd 48 58 16 bd
       -0.05465244 0.05900724 -0.066532254 -0.036705285
000030 3a db 58 bd ed f0 35 3c cf 45 90 bc d9 67 60 bc
       -0.052943446 0.011104804 -0.017611412 -0.013696634
000040 61 b7 8c ba dd 43 5e bb 5f 59 c4 3c 00 f9 6e 3c
       -0.0010735804 -0.0033914961 0.023968397 0.014585733
000050 2d e7 1f 3d 6a 6d 62 ba 61 cb ab 3c 34 4e 6f 3d
       0.039038826 -0.000863752 0.020971002 0.05842419
000060 e7 12 c8 bc e2 19 b6 3c 7b 82 04 bd a1 28 6e bd
       -0.024423076 0.022229139 -0.032351 -0.058144215
000070 85 33 9d 3d a7 1c ea 3c d8 38 33 bc 39 42 ff bb
       0.07675842 0.028578116 -0.010938846 -0.007789877
000080 f3 c7 37 bd 8d da a6 39 09 4a 90 bc 39 d3 c0 bd
       -0.04486842 0.0003182482 -0.017613428 -0.094152875
000090 c0 36 07 bd 29 22 63 3d 89 c9 ed bc 69 34 a0 3c
       -0.033011198 0.0554525 -0.029026764 0.019556241
0000a0 3b 6d 4c bd 43 ff 86 bc 79 58 83 bb a2 0e 55 bc
       -0.049908858 -0.01647914 -0.0040083495 -0.013003977
0000b0 1b f0 71 bd 2d 97 27 3d cd 3b f4 3c 4c 50 c8 3c
       -0.059066873 0.040915657 0.029813671 0.024452351
0000c0 aa 12 29 bd 2a 64 ff af 48 67 b9 bb ce 32 a0 bd
       -0.041277565 -4.64554e-10 -0.005658064 -0.0782219
0000d0 95 24 15 bc a0 47 09 bc 87 49 48 3d bd c1 3e 3d
       -0.00910296 -0.008378893 0.048898246 0.046571482
0000e0 87 b6 57 3d 19 3d 17 bd d4 aa 99 3a cf 38 33 3d
       0.052664306 -0.0369235 0.0011723884 0.04375535
0000f0 a3 7e 14 3d 8f 14 c7 3c 21 b6 16 bd 06 66 92 bc
       0.036253583 0.024301795 -0.036794785 -0.017870914
000100 b5 04 5d bd 89 8b 3d 3b 36 a8 bc 3b a7 4a ca bc
       -0.053959567 0.002892228 0.005757357 -0.0246938
000110 1d 17 ea 3b bc 16 ea bc 8d 27 a2 3a 98 33 58 bd
       0.0071438686 -0.028575294 0.0012371406 -0.05278358
000120 3e c3 2b bd 2a 78 84 bd 6e 51 80 bd bd 8b c0 bc
       -0.041934244 -0.06468232 -0.062655315 -0.023504132
000130 a0 6b f1 3b ee cf 18 bd d3 2c 5a bc b9 6d 36 bd
       0.007367566 -0.037307672 -0.013316351 -0.044538233
000140 70 22 f4 bd f3 b6 02 bd 93 69 65 bc 6e 3e f9 3b
       -0.11920631 -0.031912755 -0.014002222 0.007606319
000150 1c a7 be bc 56 76 34 bc 25 ff 51 3d 74 47 1d 3d
       -0.023273043 -0.011014542 0.051268715 0.03839822
000160 c9 e2 5a bd 81 6e 96 bc c2 87 1d bd a6 a2 d3 3b
       -0.053438935 -0.01836324 -0.038459547 0.006458598
000170 4b 0b 93 3d dc b6 34 bd 78 48 c9 3b 2b 50 24 3c
       0.07179888 -0.0441197 0.006142672 0.010028879
000180 01 44 ab bd 95 36 e9 bc 4b e4 9b 3d a8 8e fe bb
       -0.0836258 -0.02846841 0.07611903 -0.007768471
000190 31 2f 4c 3c 4f 2e f0 3c 71 d0 fc 3c 24 25 37 3d
       0.012462423 0.029318957 0.030861111 0.044713154
0001a0 35 29 d5 3b b3 0c da 3c 39 e0 41 bc 60 10 a0 3c
       0.0065051564 0.026617384 -0.011833244 0.019539058
0001b0 19 71 c8 bb a0 c4 09 be 70 2d 5c bd d8 87 c2 3c
       -0.006116998 -0.13453913 -0.05375427 0.023746416
0001c0 90 4b 14 bd 77 8d 6e bc 4b 16 6f 3d b8 8d 0a bd
       -0.036204875 -0.014560095 0.05837087 -0.03382656
0001d0 00 1c 44 bd 30 8d 3d 3a 91 0a 9d bc 40 47 28 3d
       -0.047878265 0.00072308164 -0.019170078 0.041083574
0001e0 ab f3 83 bd 3a 0e c1 3c 1b 91 b9 bd 60 6b 06 bd
       -0.0644296 0.023566354 -0.0906088 -0.032817245
0001f0 f3 2d b9 3c b0 db 9e bd f4 a4 36 3d 45 5c 2b 3c
       0.022604918 -0.07756746 0.044590905 0.0104590105
000200 03 8d 80 38 9d 36 91 3c ec 1d 0a 3d 47 3b 29 3d
       6.129781e-05 0.017726237 0.033719942 0.041316297
000210 d2 d9 2d bd 10 cd 2f 3d 23 cc 4c 0a 65 d9 7b ba
       -0.042444058 0.042920172 9.8606366e-33 -0.00096072844
000220 cc 4e 49 bc e8 cb 96 bd 24 2b 55 3c a2 c2 19 3d
       -0.012286853 -0.07363111 0.013010774 0.037539132
000230 13 6d 4e bc b9 02 5e 3d 5f b8 81 bd bd f4 5d bd
       -0.0125992475 0.054201815 -0.06333994 -0.05418848
000240 c7 41 28 3d f2 95 a8 3d fa aa 7a bc a5 f9 e9 3a
       0.041078355 0.08231725 -0.015299553 0.0017850889
000250 3b 32 00 3d 5f 42 80 bd 2e 7b ba 3c b2 ea 2b bc
       0.031297904 -0.06262659 0.022763815 -0.010492967
000260 5c a5 85 bd fc f9 3d bd e7 77 f0 3c ba b7 fd 3c
       -0.065256804 -0.04638098 0.029354049 0.030971397
000270 1c 19 8a bc 94 49 b4 3b ce 08 0f 3b 76 2f 9c b6
       -0.016857676 0.0055019353 0.0021825316 -4.6546875e-06
000280 8f 16 c6 3b 30 90 5a 3d 80 4d 26 bd 93 71 e1 bb
       0.0060451697 0.053360164 -0.040601254 -0.006879994
000290 10 2a a8 3c e1 4c b8 bc 29 fc cb bc 3d 8f 02 bb
       0.02052787 -0.022497596 -0.024900513 -0.0019921802
0002a0 5f d9 10 bd 21 92 b0 bc 67 5f 8b bc e8 23 60 bd
       -0.03536355 -0.021554055 -0.017013265 -0.054721743
0002b0 65 e0 44 3d f6 2e 55 3c 10 c8 22 3d 3f 1c 33 bd
       0.04806556 0.013011685 0.039741576 -0.04372811
0002c0 8d 3c f6 3b 5e 6d 90 3b 10 1e 21 bb 27 41 54 bd
       0.0075145424 0.004407569 -0.002458457 -0.051819947
0002d0 a7 48 44 3c ac 79 b9 3c 7f 6e 37 3d 04 25 10 bb
       0.011980212 0.022641025 0.04478311 -0.002199472
0002e0 2b bd 75 bd 76 70 b7 3d b7 a0 00 3c d6 b2 80 3c
       -0.059994858 0.08956997 0.007850817 0.015710276
0002f0 dc 8e 0d bd ac 9b 03 39 e0 43 a5 3c d0 f4 89 ba
       -0.03456007 0.00012551126 0.020173967 -0.001052523
000300 3a 9f 1b 3c ca 3b ca 3c e1 82 85 bc 47 d3 15 3a
       0.009498412 0.024686713 -0.01629776 0.00057153817
000310 33 d2 d1 bd e4 1c 11 3c da 05 3e bb 0e 0d 29 3c
       -0.102451704 0.008856986 -0.0028995187 0.010318054
000320 42 ba d6 bc d0 1b f7 3c 89 7d 8e 3c 63 17 43 3c
       -0.026211862 0.03016463 0.017393844 0.011907431
000330 65 78 62 3d 11 70 08 3c 57 f4 4e b8 00 cd 50 bd
       0.0552906 0.0083275 -4.9341787e-05 -0.050976753
000340 34 70 00 3d 83 7c 18 bd e3 3e 51 3d 85 4e c6 bb
       0.031357005 -0.03722812 0.051085364 -0.0060518407
000350 fb 80 99 3c 99 70 4f 3c 4c e7 8c bc ba a2 c0 bc
       0.01873826 0.012661123 -0.017200135 -0.023515094
000360 a6 86 eb bc ae c1 a4 bc b9 70 83 bd 7b 34 b4 bc
       -0.028750729 -0.020111885 -0.064179845 -0.02199768
000370 c6 e0 0c bd ac af 33 bd 0e 3f e2 bc e2 84 14 3c
       -0.03439405 -0.043868706 -0.027617957 0.009064885
000380 12 0c 28 bd 99 f0 4c bb 66 f9 02 bd 71 ea ed 3b
       -0.041027136 -0.0031271337 -0.031976126 0.0072606136
000390 6e f9 af bc 7a ad a5 3c 63 b8 58 bd 67 b3 39 bd
       -0.021481242 0.020224322 -0.05291022 -0.045337107
0003a0 26 61 86 09 6b 33 08 3d d8 b1 a1 3b 1b 72 24 3d
       3.2350685e-33 0.03325216 0.0049345307 0.040147882
0003b0 86 5d bc bb 67 6d 8d bc 4f 3b 5c 3c f8 c7 5e bd
       -0.0057484536 -0.017264081 0.013441875 -0.054389924
0003c0 34 e1 32 3d 33 de 15 bd e5 f8 1c 3c 10 f1 4d bd
       0.0436718 -0.03658886 0.009580825 -0.050278723
0003d0 e9 f6 7b bc 26 6f 76 3d 13 31 48 3c a0 39 1e 3d
       -0.015378692 0.060164593 0.012218731 0.038629174
0003e0 e1 b3 ce 39 5a 21 07 bd d7 1f 87 3d 7e e5 5b bd
       0.00039425402 -0.03299079 0.0659787 -0.053685658
0003f0 ae 26 c1 3c 66 ff c1 b7 f4 38 d7 3b 89 4e 25 3d
       0.023578014 -2.3126322e-05 0.0065680686 0.0403581

f0.2.bias f4 [256]
000000 11 94 9d bd b4 0e c9 bc 45 0b 31 bd 5f 3d 9b bc
       -0.07694257 -0.024543144 -0.043223638 -0.018950162
000010 a0 fe c9 bc e0 81 a9 3d cf 32 cb bc 86 31 85 3a
       -0.024657547 0.08276725 -0.0248045 0.0010161854
000020 12 0d b6 bc 3d 20 ed 3b 3a 8a 2c 3d a0 6f d1 bc
       -0.02222303 0.007236509 0.04212401 -0.025565922
000030 99 bc 73 3d 42 34 8f bc 6c 64 85 bd d4 e3 cd 3d
       0.059506033 -0.017480973 -0.065132946 0.100532204
000040 28 4d c6 3c 67 e7 a3 bd 9b 41 43 3d ef 89 94 bc
       0.024206713 -0.08003121 0.047669988 -0.018132178
000050 c7 61 9c bc f9 56 b1 bc 3e 71 27 bd 1d 50 e1 bb
       -0.019089593 -0.021647917 -0.04087948 -0.0068760053
000060 62 85 20 bd aa f2 54 bc cd 92 b7 b8 f0 de 01 3c
       -0.039189704 -0.012997309 -8.753464e-05 0.007926688
000070 9b 73 6c bd 1b 68 b1 3d 5e e2 fb bc 3e ae 65 3c
       -0.057727437 0.08662435 -0.030747589 0.014018593
000080 c0 22 f2 bd d5 e3 44 bd 50 d4 6d 3d a6 be 11 bd
       -0.11823034 -0.04806884 0.058063805 -0.035582207
000090 eb e5 71 3d 24 a1 a2 3d 2a 96 c1 bd 69 82 0e b8
       0.059057157 0.079408914 -0.0945247 -3.3976892e-05
0000a0 54 35 fb 39 24 5d 3d bd 00 63 da 3c e2 73 60 bd
       0.00047914183 -0.046231404 0.026658535 -0.054798014
0000b0 2a 17 02 3d 6a d0 0f be b0 e8 14 3c e0 fc b7 bd
       0.031760372 -0.14044347 0.00908868 -0.08983779
0000c0 4a ee 06 bb 87 c5 b6 bc 8a 29 22 bc 9f 87 04 bd
       -0.0020588809 -0.022310985 -0.009897599 -0.0323559
0000d0 fe db 9a b7 05 34 f0 bb 2a b3 ad bd 81 49 e9 3c
       -1.8460672e-05 -0.00733042 -0.084814385 0.028477432
0000e0 bf 97 84 3b 82 ef 99 bd a0 8e 89 bd 81 06 88 bd
       0.00404641 -0.075163856 -0.06716657 -0.066418655
0000f0 78 c0 15 bd 0b 21 c4 b7 42 b1 fe bc fd 51 19 bd
       -0.036560506 -2.3380408e-05 -0.031090382 -0.037431706
000100 44 fb d6 bb fe fd 57 3d af 6e 2a 3d 8e d4 90 ba
       -0.006560715 0.05273246 0.041609462 -0.0011049674
000110 1e cf f9 bc eb c8 84 bd 21 f1 f2 bc 13 82 6b bd
       -0.030494269 -0.064836346 -0.029655995 -0.057497095
000120 fc 1c b9 bc 02 98 06 ad 08 73 04 bc f3 bb bd bd
       -0.022596829 -7.650771e-12 -0.008084066 -0.09264364
000130 dd 75 39 bd 75 9c 90 3b 1b c4 83 bc 50 a6 a4 b7
       -0.04527842 0.0044131824 -0.016084721 -1.9627769e-05
000140 cc ae 02 bd a8 2e fb bc 1e b7 0c ba 75 c9 56 bc
       -0.03190498 -0.030661896 -0.0005367863 -0.013109555
000150 87 b1 91 3d 80 ff 4a bd 67 2e 79 3d 60 ec e9 bd
       0.07113939 -0.04956007 0.06083527 -0.11422038
000160 53 37 8d bc 23 1d f5 3c 85 eb ad bc 14 4c 2f bb
       -0.017238295 0.02992112 -0.021230469 -0.0026748227
000170 09 b0 91 bc 9f 63 c6 b9 18 15 98 bc 0e 6b cf bc
       -0.017784135 -0.00037839726 -0.018564746 -0.025319602
000180 b7 72 13 bd 3b e6 05 bb 83 c5 15 bd 11 cc 88 ba
       -0.035998072 -0.0020431418 -0.036565315 -0.0010436793
000190 f6 81 66 3d 83 ad 84 3d 21 b3 e7 3c 18 7f 22 b9
       0.056276284 0.06478407 0.028283658 -0.0001549687
0001a0 e5 9f 90 ba f1 34 8b bd 35 f1 9d 3d e6 2f 1b 3c
       -0.001103398 -0.06797207 0.07712022 0.009471869
0001b0 2a 70 9a bd 80 80 b8 bc 47 bf d4 bd f1 c5 ac 3c
       -0.07540925 -0.022522211 -0.10388046 0.02109048
0001c0 00 35 ab bd a7 e6 fe 3c 9a 36 06 b9 d0 9a 84 3d
       -0.08359718 0.031115843 -0.00012799577 0.06474841
0001d0 ca 17 42 bd 63 9a 59 bc 2b 91 a3 bb 8f a0 53 bd
       -0.04738597 -0.013281438 -0.0049916706 -0.051666792
0001e0 9f 00 12 be ac ac 81 bd 9b 83 3b bd 3f 7c 80 bd
       -0.1425805 -0.06331763 -0.045779806 -0.06273698
0001f0 37 63 e4 bc 8e 33 30 bd e9 15 5f bd f4 a9 93 bd
       -0.02787934 -0.043017916 -0.054464255 -0.0721015
000200 94 cf 1b bd bb e7 e9 bd 9f a3 2e bd 70 07 f5 bc
       -0.03803976 -0.11421152 -0.04263651 -0.029910773
000210 49 a6 a0 bd 65 ed 17 bd e1 ef a3 3c c8 52 79 3d
       -0.078442164 -0.03709163 0.020011844 0.060869962
000220 9d 46 d9 bc 64 6b 00 bd e6 81 fa bb 22 43 99 3c
       -0.026522929 -0.031352416 -0.0076448796 0.01870877
000230 56 47 ce bd bc 43 4e bd e6 3b 65 bd 4f 57 b1 3c
       -0.100722 -0.050357565 -0.055965327 0.021648077
000240 49 1f b4 bb 8f 30 83 b9 68 9f 38 bd 28 7a fb bc
       -0.0054968935 -0.00025022446 -0.045073897 -0.030697897
000250 79 5c 7a 3d 5a ba c3 bc 4f 8f bd bd 86 b8 a6 bb
       0.061123345 -0.02389257 -0.092558496 -0.005087915
000260 7f c9 85 bd 32 4d 8b bc ba 15 f1 b5 bc 07 2a bd
       -0.06532573 -0.017004583 -1.7962223e-06 -0.041511282
000270 a5 7e 8c bd f7 20 ab bc 18 12 5c bd a5 93 3c bd
       -0.06860093 -0.020889742 -0.053728193 -0.046039242
000280 b7 d4 5d 22 16 af aa bc ce ca fb bd 38 33 8b 3c
       3.0063695e-18 -0.02083544 -0.12294541 0.016992196
000290 79 5f 0c 3d 39 24 2f bd 9d 91 2f bb ac 64 5a bc
       0.034270737 -0.042759154 -0.0026789673 -0.013329666
0002a0 91 dd f0 3c 0a 88 97 bb 2d 97 bc bd 56 70 aa b8
       0.029402526 -0.0046243714 -0.09208522 -8.127156e-05
0002b0 84 96 72 bd 2d fa 08 3c c5 0d 23 bd ab 52 58 3d
       -0.059225574 0.008360428 -0.039808054 0.052813213
0002c0 c6 d7 17 bd 56 7f de bc c7 ec 47 bc e4 be 52 3c
       -0.037071012 -0.027160328 -0.012202448 0.012862895
0002d0 13 8e dd 3c 62 9c 10 bd 06 10 83 bb c2 4f 12 bd
       0.027045285 -0.03530539 -0.003999713 -0.035720594
0002e0 5d 62 6f bb 95 e8 6d bd c1 2c 22 bb e1 b2 d8 bc
       -0.0036527135 -0.058083136 -0.0024745914 -0.026452484
0002f0 48 65 f3 3c 53 32 15 3d f6 a9 6c 3c 63 1d e5 bd
       0.02971138 0.036424946 0.014444819 -0.11187246
000300 62 6d 6d bd ef f8 b6 3d 12 aa 0b bd 64 93 f3 ba
       -0.057965644 0.08934199 -0.03409774 -0.0018583355
000310 20 86 4d bd 3a 3d 85 bc 07 aa 41 3d a4 22 bf bd
       -0.05017674 -0.016264547 0.04728129 -0.09332779
000320 4b 01 a7 bd 3e be b9 3c 88 ce 15 bd fa 77 34 bd
       -0.081545435 0.022673722 -0.036573917 -0.04405973
000330 3e 1f e1 ae d5 8e 01 be 5a 6b a7 3c e9 fe ad bb
       -1.0237365e-10 -0.12652142 0.020436931 -0.0053099287
000340 97 e1 a7 bb 90 72 41 bd b7 6f 16 3c 50 16 c6 bc
       -0.005123328 -0.047228396 0.009181908 -0.024180561
000350 a1 00 bf 3c 4d 3f 3c bb 51 5c 98 bd de 93 24 3d
       0.02331573 -0.0028724254 -0.07439483 0.04018008
000360 c9 37 bf bd 5c 44 f5 b5 fb da db bc df f1 5b bd
       -0.09336812 -1.8273818e-06 -0.026837816 -0.053697463
000370 2d 53 bb bd 54 3c 30 bd 7a c1 29 3d 91 96 9f bd
       -0.09146724 -0.043026283 0.04144428 -0.0779239
000380 94 d0 bc bd 00 79 23 bd 69 ea ba bc 02 a8 2a bd
       -0.092194706 -0.039910316 -0.022816854 -0.04166413
000390 d3 b5 ad bc c5 5b a2 bd 13 a5 4d bd 30 d0 fc bc
       -0.021204865 -0.0792766 -0.050206255 -0.03086099
0003a0 b7 f4 4f 3d 58 92 0d be 51 ac a8 b4 67 3c 08 be
       0.050770488 -0.13825357 -3.1417815e-07 -0.13304292
0003b0 bf f7 db 3d 04 6f 44 3d 5a 2e 9a b8 e5 bc 0f bc
       0.10740613 0.047957435 -7.351926e-05 -0.008773063
0003c0 d8 14 18 bc 10 08 79 3d b3 d0 e9 bb 7c ce 8e bd
       -0.009282313 0.060798705 -0.0071354746 -0.069729775
0003d0 65 e5 44 3b 69 a9 fb 3c b2 51 40 bd 1d 14 13 3c
       0.0030043956 0.03072043 -0.04695291 0.008976963
0003e0 19 52 1b bc c4 56 9e 3a 47 c1 20 bd 37 9e 61 bc
       -0.009480023 0.0012080302 -0.039246824 -0.0137706315
0003f0 84 96 41 bd fe e4 3e bd 31 b1 81 3c 76 9d 22 3d
       -0.047262684 -0.046605103 0.015831562 0.039700948

f0.4.weight f4 [130, 256]
000000 e1 2a 39 bc 79 f0 62 3d 9c 80 f9 89 d1 58 05 a7
       -0.011301727 0.055405114 -6.0065513e-33 -1.8505605e-15
000010 67 e8 00 bc 9b e8 32 3d 4c 26 b1 bd 7b e1 1b bd
       -0.007867909 0.04367886 -0.08649883 -0.03805683
000020 cd 5e 19 bc 11 27 f4 3d d6 56 3d bd 06 31 c9 ba
       -0.009360981 0.11921514 -0.04622539 -0.0015349693
000030 b3 e4 a7 bc 21 1a 27 3c 48 5c 8d bc c6 ff bf 3c
       -0.020494794 0.010199101 -0.017255917 0.023437392
000040 94 a3 77 3d ea 59 41 bc 67 c9 47 3d b3 6d 81 bc
       0.060458735 -0.011801222 0.048776057 -0.015799379
000050 5a e2 12 3b ed d0 f2 3c bd 5a c4 3c 08 f4 4c 3d
       0.0022412748 0.02964064 0.023969049 0.050037414
000060 42 ae 24 ba 61 cb a4 bc fd 0b 46 09 47 df 5b bd
       -0.000628207 -0.02011651 2.383902e-33 -0.05367973
000070 c7 53 a6 bb 38 ad 05 3e e0 7f a8 bb 4e 78 68 3b
       -0.005075905 0.13054359 -0.005142197 0.0035472098
000080 4b 0e 84 bb 8d 01 b0 bc 43 24 84 3d 6e 67 0d 3c
       -0.004030024 -0.021485114 0.06452229 0.008630617
000090 bc ad bb 3d a3 d7 c7 3b 37 39 f2 bc 78 f8 3c 22
       0.091639966 0.006098704 -0.029568298 2.561029e-18
0000a0 53 71 f4 b5 7a 82 14 3c db 1e 54 bd 3b c5 3c 3c
       -1.8212398e-06 0.009064311 -0.05178724 0.011521633
0000b0 7d 09 32 bd 78 99 7f 3c 65 59 23 bc 8f d9 6e bd
       -0.04346608 0.015600555 -0.009970044 -0.05831295
0000c0 e2 90 dc 3c fc e8 1d 34 0a 9b 2d bd 4a 80 15 be
       0.026924554 1.4706524e-07 -0.042384185 -0.1459972
0000d0 5f 5d 8f 87 11 61 cb bb 73 74 97 bc 7c 9d 46 3b
       -2.1571127e-34 -0.0062066396 -0.018488145 0.003030627
0000e0 b6 16 1d bd 68 0b 49 3b 2b cd bc bc 5d d5 5f bd
       -0.038351737 0.0030676965 -0.02304705 -0.05464684
0000f0 ee 5a ca 3c fe 30 d1 22 1d 1a 42 3d 35 c6 ac bc
       0.024701562 5.6701436e-18 0.047388185 -0.021090606
000100 2b bb 75 bc 4e 3e 55 3d f0 65 2f 3d 87 20 6f bd
       -0.014998238 0.05206137 0.042821825 -0.05838063
000110 7f 57 ec 3c 3d 77 22 3b 83 3e 4d bc ab b5 7e bc
       0.028850315 0.002479031 -0.012527111 -0.015546243
000120 1a 02 0e bc 1d 16 82 2a 99 65 e9 bc 43 52 fa bc
       -0.008667493 2.3107983e-13 -0.028490828 -0.030556804
000130 f3 c1 9f 3c 4c 88 81 3d 40 56 c2 38 11 13 cf ae
       0.019501662 0.06324825 9.266706e-05 -9.416657e-11
000140 3d 41 16 3c fa 66 dd 3c f6 e3 d8 09 ec f0 67 88
       0.009170827 0.027026642 5.2214482e-33 -6.9797236e-34
000150 72 ff 99 bd 61 83 a1 bd 4b 8f 70 3a 51 9d 7c bd
       -0.075194255 -0.07886387 0.0009176626 -0.061673466
000160 d1 85 c5 14 60 94 14 bd 8a 96 9e 3d 74 1c 8e 8a
       1.9944698e-26 -0.036274314 0.07743557 -1.3684805e-32
000170 55 d6 4f b8 d7 10 e0 34 9a 7b 4b b8 33 3b 3e bd
       -4.9552258e-05 4.1735504e-07 -4.8514084e-05 -0.046443176
000180 92 59 a0 bd 65 6c 06 bd 63 59 46 3c b6 22 b1 3b
       -0.07829584 -0.032818217 0.012106272 0.005405749
000190 ff 59 11 39 f9 21 8d bc b7 d2 50 bd 44 33 02 07
       0.00013861804 -0.017228113 -0.050982203 9.795179e-35
0001a0 60 b1 2b 09 37 89 2d bd 88 49 2e 3e fb 53 c3 ba
       2.0666778e-33 -0.042367186 0.17020237 -0.0014902347
0001b0 0a 03 29 bc d1 5b 8a 3c 51 a3 8e bc 12 6e 38 bd
       -0.010315666 0.016889485 -0.01741186 -0.045026846
0001c0 53 35 2f bd c6 91 d2 3b 12 fd 81 b6 6c 11 f8 3c
       -0.042775463 0.006426069 -3.873961e-06 0.030281745
0001d0 f9 87 6b bb 76 4c 83 bc 8e 90 2f 3b 25 bb be 31
       -0.00359392 -0.01602767 0.0026789042 5.5510037e-09
0001e0 cc b3 15 3c 09 e7 c6 b7 dd b6 db 96 3a b4 3e bc
       0.009137105 -2.3711023e-05 -3.549676e-25 -0.011639649
0001f0 c7 45 a4 bd e4 da c8 bd 12 1c 8f 18 6e c6 26 bd
       -0.080211215 -0.09807375 3.6992977e-24 -0.04071658
000200 44 c7 db bc bd d0 47 bd 3b 9e 2b 3d 1a 73 68 bd
       -0.026828416 -0.048783053 0.041898947 -0.056750394
000210 f3 46 da bd 49 13 f0 bc 6a d0 02 3c bf 08 f4 3d
       -0.10658064 -0.02930607 0.00798426 0.11915731
000220 51 05 82 bd 06 c0 cd bc db b8 8a bd 73 ee bd 3d
       -0.0634867 -0.025115978 -0.0677354 0.09273996
000230 70 6c 54 3c 9a 15 d8 ba 5b 6f e6 3c eb 50 fa bc
       0.012965307 -0.001648593 0.02812927 -0.030556163
000240 66 6f e2 bc 72 59 d9 ba 09 eb 92 3c 50 bb 24 bd
       -0.02764101 -0.0016582443 0.01793434 -0.040217698
000250 dd 9f d8 3b 69 f6 d9 bc ca dc 5d bb 15 8f 8f 0f
       0.006610854 -0.026606755 -0.0033853524 1.4156002e-29
000260 c9 eb 2c 3b 5a b0 e5 bc 07 3f 5e 0b 98 0f d1 89
       0.0026385656 -0.028038193 4.280306e-32 -5.0329584e-33
000270 17 7c 3d bc 72 a1 7c 08 d9 bc 2f bd 9e a5 12 3d
       -0.01156523 7.602327e-34 -0.04290471 0.035802476
000280 59 93 dd 8b 51 1d b5 3b 24 8d e9 3c 03 0a 08 bd
       -8.534781e-32 0.0055271764 0.028509684 -0.033212673
000290 0a ce 8e 3d 66 7d e3 3c ce 8c 39 3b 5d 18 af 8a
       0.069728926 0.027769756 0.0028312686 -1.6861051e-32
0002a0 fe 82 1e 3d 2a 33 47 bc cb 5f a4 bc e7 6d cc 09
       0.038699143 -0.012158195 -0.020065209 4.9214565e-33
0002b0 0d f4 6b bd 32 bb 75 3d 5f b0 92 3d 8f a6 99 3d
       -0.05760579 0.059992976 0.07162546 0.07502472
0002c0 2b a2 89 3c c2 d6 10 bd 0a a8 0a bc 18 28 ec 3c
       0.01680096 -0.03536106 -0.008462915 0.028827712
0002d0 7f c3 93 bc 4d bf e3 39 f7 a0 2f 3b 76 26 83 3d
       -0.018037556 0.00043439344 0.0026798823 0.0640382
0002e0 44 b8 01 3c 30 33 de 3c 74 d2 9b bd 26 74 85 3d
       0.0079174675 0.027124017 -0.076085 0.06516294
0002f0 11 b0 91 3c 60 0b a8 3d 99 e8 3a 3d ba 04 f9 3c
       0.01778415 0.082052946 0.04563198 0.030397762
000300 9c a7 2f bd 46 c3 06 bd ff c8 7c bd 3a 42 16 3d
       -0.042884454 -0.03290107 -0.061715122 0.036684252
000310 5b 71 8a 3d 42 d9 67 b6 08 aa 36 bd 1c d7 96 bc
       0.06759902 -3.4548143e-06 -0.04459575 -0.018413119
000320 6f 1a 4a bd 49 9c f3 3b f6 af be 3c 1b ea 4c ba
       -0.049341615 0.007434402 0.023277264 -0.0007816867
000330 83 0f 5c a2 d6 ed 47 bd 8c f2 07 bc e8 81 84 ba
       -2.9823772e-18 -0.048810802 -0.008297574 -0.0010109516
000340 7a 7c 5b 08 f2 bd 02 3d 90 95 58 bd f3 12 76 3b
       6.6049237e-34 0.031919427 -0.05287701 0.0037547916
000350 22 31 13 3e 65 dd 9b ba 01 0e fe 3c 70 e5 73 3c
       0.14374211 -0.0011891542 0.031012537 0.014886245
000360 82 d9 a4 3c f1 cf 21 ab b8 8d 44 3c 7d f7 81 bd
       0.020123247 -5.7487267e-13 0.011996679 -0.06346033
000370 e6 93 8d bc 0b df c6 3b 2e 86 b0 3d a1 f3 0e 3c
       -0.017282438 0.0060690693 0.08619343 0.008725078
000380 c4 1d a8 3c 55 3f 68 bb 9f 2c d2 3b 10 18 e3 3c
       0.020522006 -0.003543814 0.0064140107 0.027721435
000390 d8 a1 bb 3b fd 9b 27 bc 21 cc 8a 92 25 bb 13 ba
       0.0057260804 -0.010230062 -8.759346e-28 -0.00056354917
0003a0 22 4c 88 3d 05 70 a3 bc 6e 94 64 0a e2 02 68 3c
       0.06655146 -0.019950876 1.1005717e-32 0.014160844
0003b0 ef 79 96 3d c9 06 d7 bc 83 2a 3d 08 97 72 97 bd
       0.07347476 -0.026248353 5.692509e-34 -0.07394903
0003c0 be dd 5f 10 72 bc 61 3d cc 33 d3 19 76 4d 43 bc
       4.414982e-29 0.055111356 2.183781e-23 -0.011920324
0003d0 a6 18 6e 3d 7c 62 0c 3d e9 65 5c 3c 5c 35 b6 3a
       0.058128975 0.03427361 0.013452032 0.00139014
0003e0 25 47 4d 3d 1d a4 dc 3d a6 4c b3 3a 84 f5 00 3d
       0.050116677 0.107734896 0.0013679459 0.031484142
0003f0 42 4e 29 bb 9d ca ed bc 82 a7 9e 3b d4 4f b4 3d
       -0.0025833999 -0.029027278 0.004841746 0.088042885

f0.4.bias f4 [130]
000000 74 cf b4 3c aa c5 91 3b ae dc 74 bc 1e 1f f9 3c
       0.022071578 0.004448612 -0.014945192 0.030410346
000010 49 31 0a bc 18 fd c3 3c 25 cc 34 3d 41 83 9f 3c
       -0.008434602 0.023924395 0.04414 0.019471766
000020 2a 6a 44 0a de 96 b3 3c 4e c6 3d 3c 4e e9 12 bd
       9.457024e-33 0.021922525 0.011582924 -0.035867028
000030 fd 8d a1 3c a4 fc e2 3c 77 dd 47 bc ec 87 d4 bc
       0.019721026 0.027708359 -0.012198797 -0.025943719
000040 b2 29 fa 3c f7 f7 34 bc 94 cf 01 bc f7 27 fb bc
       0.03053746 -0.011045448 -0.007923026 -0.030658705
000050 b5 de 74 09 8f d5 0f ba f7 f9 0c bc 13 20 f6 08
       2.9475148e-33 -0.000548684 -0.008604518 1.4813127e-33
000060 8c fc eb 89 08 dc c9 86 45 17 ad bc e4 01 57 bc
       -5.6811686e-33 -7.5931104e-35 -0.02112926 -0.013123009
000070 6b 00 61 3c 29 11 40 09 79 35 ca bc fa b6 29 08
       0.01373301 2.3119228e-33 -0.0246837 5.1071676e-34
000080 a5 fe 6a 0a 6d bf c5 bc 05 55 fc bc 72 19 a9 3c
       1.13145835e-32 -0.02413913 -0.03080226 0.020642016
000090 33 63 ba 8a 8e 88 17 3d eb 93 10 3c 87 13 82 3b
       -1.7948463e-32 0.036995463 0.008824329 0.003969613
0000a0 57 93 97 bc 5f 66 6e 3d b1 d6 c3 0a df c3 38 3d
       -0.018502874 0.058203097 1.8858575e-32 0.045108672
0000b0 bf 32 23 88 4f 23 67 3d 41 8d d5 3c 2a b6 54 87
       -4.911068e-34 0.056430157 0.026068332 -1.600264e-34
0000c0 56 9d ab 08 7b f2 92 3c 8c 8f 47 88 78 76 8a 09
       1.0328678e-33 0.01793789 -6.0053123e-34 3.33337e-33
0000d0 a5 22 95 bd 1f be d0 3c 11 48 30 3d 21 29 d7 bc
       -0.072819985 0.025481282 0.043037478 -0.026264729
0000e0 b9 1a b4 3c 70 37 8f bc 4f 67 0a 3d 6c 48 c9 08
       0.021985399 -0.01748249 0.03378993 1.2114274e-33
0000f0 02 b9 62 3c ae 12 7c 87 0a 6b 0e 09 05 25 8d bd
       0.013838055 -1.8963862e-34 1.7142958e-33 -0.068918265
000100 09 5f 04 3d a7 5f 43 39 b9 b3 e2 3c 40 22 34 bc
       0.032317195 0.00018632282 0.027673589 -0.010994494
000110 fc ba 2d 0a 71 a2 af bc 62 60 4f bc f9 63 1c bd
       8.364815e-33 -0.021439763 -0.012657257 -0.03818128
000120 01 1b 1f bd 1b d5 b2 3c 45 67 73 3d c1 3e 78 88
       -0.038844112 0.021830132 0.059424657 -7.470355e-34
000130 1f e0 17 3d e6 37 c0 bb a7 f2 74 bc c3 5c 9b 3c
       0.037078973 -0.0058660386 -0.014950431 0.01896513
000140 31 12 06 3d c8 66 11 bd c1 24 4c 3c 0d 73 df bc
       0.032732192 -0.03549841 0.012459935 -0.02727654
000150 f9 c6 03 3d a4 25 3d bc 3a ed a3 3a 38 75 31 0a
       0.032172177 -0.011544619 0.0012506612 8.5442864e-33
000160 46 c6 3d 3c d1 a3 8a 3b 1e 0a 95 3d 09 6f 47 3c
       0.011582917 0.004230954 0.0727732 0.012172469
000170 b7 eb f6 bc 14 d2 4e bd 1e ac aa 07 33 76 60 bd
       -0.030141694 -0.050493315 2.5679918e-34 -0.054800224
000180 6b 70 3a bd 1b 30 ed bb 6e 45 8a bb 43 21 02 3c
       -0.045517366 -0.0072384006 -0.0042197024 0.0079425005
000190 79 03 89 09 70 a8 c8 08 ed a8 25 89 69 61 db 3a
       3.2984816e-33 1.2076662e-33 -1.9940581e-33 0.0016737405
0001a0 7d 45 69 bd c2 20 4c 08 64 5b a2 3c 6c b6 b9 bc
       -0.056951035 6.1427524e-34 0.01981897 -0.022669993
0001b0 3e 6d 3f bd 46 bd f2 ba 08 e1 c6 3d 1b 60 50 3c
       -0.04673504 -0.0018519543 0.0971089 0.012718226
0001c0 46 c6 3d 3c 77 07 f7 08 9a e3 14 3d da 4d 31 bd
       0.011582917 1.4867527e-33 0.03634987 -0.043287136
0001d0 0a 22 39 bd 28 8b 36 3d e4 55 50 bc d6 36 45 3d
       -0.045198478 0.044566303 -0.01271579 0.048148
0001e0 9f fa 8f 09 f5 11 1e 3b 4b c5 aa 3b 41 83 d8 3c
       3.466168e-33 0.002411959 0.0052115074 0.026429774
0001f0 ff 2b 9c 88 3a 64 d6 89 3c 1b 43 09 14 7a 65 86
       -9.399252e-34 -5.161288e-33 2.3485077e-33 -4.3159802e-35
000200 3e 8d cf 3c 84 e4 11 3c
       0.025335904 0.00890458
