model/model.pth (torch, 504595 bytes, 4 tensors)

linearIn.weight f4 [256, 390]
000000 9d 63 13 bd 28 95 19 bc 9a ed 00 bd cb 46 a0 3d
       -0.03598367 -0.0093739405 -0.031476595 0.07826003
000010 15 a4 4e bd 64 1b 30 bd 21 ed e7 3c 55 23 a9 bc
       -0.05044945 -0.04299487 0.028311314 -0.02064673
000020 d8 c7 ba bc 1c af 0d 3d 8d 7f d6 3c f4 3a 4b 3d
       -0.022800371 0.034590825 0.026183868 0.04961677
000030 47 74 0e bd 8e 3f 96 bd 04 b5 26 bd fb 81 61 bd
       -0.03477886 -0.07336341 -0.040699974 -0.0550556
000040 f4 18 2b 3d 18 ac 98 3b 72 a1 e2 3c a7 90 dc 3c
       0.041771844 0.004659187 0.027664874 0.026924444
000050 00 3b ae bd 9b 9e ab bd c0 89 95 3a 39 62 70 3c
       -0.08507347 -0.08379861 0.001140885 0.014671856
000060 ba 10 a1 3c 40 24 0a 3c 7b 79 a6 3c af 61 0a bd
       0.019661296 0.008431494 0.020321598 -0.033784565
000070 4b f9 b7 3b dd 78 88 3c 51 a2 18 3d 7a ae 8a bc
       0.005614435 0.016659195 0.037264172 -0.0169289
000080 eb 34 2a bd 29 30 08 b8 ce 88 20 3e a7 f3 b1 bc
       -0.041554373 -3.246978e-05 0.15677187 -0.021722628
000090 21 9c c0 3d 71 2b 2f bc 9d 90 1e bd 3d c8 9a bc
       0.09404779 -0.01069151 -0.038712133 -0.01889431
0000a0 d7 61 bf bc 94 d4 52 3c d1 77 90 3d 17 bc 3d bd
       -0.023362083 0.012868065 0.07054103 -0.046321955
0000b0 41 72 1d 3d 7f 0d 13 bc f1 eb 3e 3d b7 79 76 3b
       0.03843904 -0.008975386 0.04661173 0.0037609169
0000c0 8d 54 03 bd 2c 7b 4d bd 9b 81 9e 3c b9 aa f7 3d
       -0.032063056 -0.050166294 0.01934891 0.1209311
0000d0 af e4 8a bc c3 a7 4d bd 2c 8a 5a bc f9 66 47 3d
       -0.016954748 -0.05020882 -0.013338607 0.048682187
0000e0 36 88 0a 3c c1 ef 07 bc a7 c8 35 3d 02 74 73 3c
       0.008455327 -0.008296908 0.04438081 0.014859201
0000f0 92 41 56 bd 5a 0d 27 bc 24 03 e5 3c be 8d 0a be
       -0.052308626 -0.010196054 0.0279556 -0.13530633
000100 2c 55 8c 3c ab b4 06 3d 8e ad 93 bc 29 7e 24 3c
       0.017130457 0.032887142 -0.018027093 0.010039845
000110 88 98 29 bd 6c 04 d5 bd c8 7a d8 3c 6a 42 c8 3c
       -0.04140523 -0.10401234 0.026425734 0.024445731
000120 d1 97 11 3d 1b 87 2d bc 61 dd 22 3d 71 d0 bf bc
       0.035545174 -0.010591294 0.039761905 -0.023414822
000130 e5 03 9f 3c 64 59 06 bc 38 39 94 3b 14 0a 25 3e
       0.019411037 -0.008200023 0.0045234226 0.16117126
000140 5f 45 21 3d 03 a2 a6 3d 72 eb 38 3d 5d 30 0d 3b
       0.039372798 0.0813637 0.045146413 0.002154372
000150 4b bf 85 bb 7f 95 d5 3c cd b5 19 bd 4e f1 ec 3c
       -0.004081642 0.026072262 -0.037526894 0.028923657
000160 b7 45 e5 3a ee 20 28 bd 04 23 48 bd d0 23 7e 3e
       0.001749209 -0.04104703 -0.04886152 0.24818349
000170 4b 6a 01 3d 9f ab 1b be 8a f3 53 3c 35 76 12 bd
       0.03159551 -0.15202187 0.012936482 -0.035757262
000180 57 c9 dc bb 03 5d bd bc be 3d 0a bd 68 8c 9f bc
       -0.006737869 -0.02311564 -0.03375029 -0.01947613
000190 4e 3e 8d bc 7f c9 eb 3c 7f 01 e5 3c 83 8c fe b9
       -0.017241623 0.028782604 0.027954815 -0.00048551345
0001a0 bd a1 9b bc 90 45 fa bd 99 16 4f bd 01 18 e8 3b
       -0.018998021 -0.12220299 -0.05055866 0.0070829396
0001b0 d6 d2 97 bc 0f 83 10 3d c3 ad 19 bc 22 aa 6f 3c
       -0.018533152 0.035281237 -0.009379807 0.014627965
0001c0 c7 23 44 3d 65 61 2f bd f7 c2 97 3c 53 bc 18 3d
       0.047885682 -0.042817492 0.018525584 0.037288975
0001d0 d4 18 0b 3d 6c 9c 17 bd 88 16 82 bd 24 de de 3b
       0.033959225 -0.03701441 -0.06351954 0.0068013836
0001e0 04 34 6d 3d 4f 6a 9f bb 4c 98 11 bd d2 c5 8a bd
       0.057910934 -0.004864968 -0.035545632 -0.067760125
0001f0 0c 64 e0 bc 95 3d 26 bd 92 49 45 bd 44 a5 39 bd
       -0.027391456 -0.040586073 -0.048165865 -0.045323625
000200 84 07 37 3d e6 31 6d 3d 9a 44 23 bd c1 6b ac 3c
       0.0446849 0.057908915 -0.039860345 0.021047475
000210 af 06 13 bd 32 0d 83 3c 42 e3 c3 3b 3f 95 38 bc
       -0.035895046 0.015997503 0.005978019 -0.011266052
000220 5c 41 4b bd 96 fa 9c 3c 9a 88 00 be f7 77 bd 3c
       -0.04962288 0.019162457 -0.1255211 0.023128493
000230 e0 97 49 3d ee 2b 8a bd 90 c1 c5 3c 84 41 d5 3c
       0.049217105 -0.0674666 0.02414015 0.026032217
000240 bb 8c 8a 3d 8b 63 29 bd 9f 03 21 bd b8 05 e6 bc
       0.067651235 -0.041354697 -0.039310094 -0.028078899
000250 ef d8 ad 3c 2f 30 0a bd 4c 2f 6b 3b 49 be 08 bd
       0.021221606 -0.033737358 0.0035886345 -0.033384595
000260 78 70 25 bd 0d 14 91 bc d2 e4 45 bd a8 28 f4 ba
       -0.04039046 -0.017709756 -0.048313923 -0.0018627839
000270 d5 73 c9 bd 20 0b 43 3d ee b8 f2 bc c8 d3 fd 3c
       -0.09836546 0.04761803 -0.029629197 0.030984774
000280 b0 6a cf bc d3 ac be 3c 04 4d 41 bc 3c 57 fb bb
       -0.025319427 0.023275768 -0.011798147 -0.0076703113
000290 0e 0f d8 3c 04 26 15 3d 57 69 16 bd 0c fd 75 bb
       0.026374366 0.036413208 -0.036721554 -0.003753486
0002a0 c9 34 d6 bd 36 d4 2c bd 0d ae cb 3b 8c c4 99 bd
       -0.10459287 -0.042194568 0.006215817 -0.075081915
0002b0 b0 ec f6 3c 74 ff 96 3b d3 80 2d 3d fa 5c ea bc
       0.030142158 0.004608089 0.042359184 -0.028608788
0002c0 d1 98 95 3c 3d 3b f0 bc 85 0a 3b bd 1c 39 39 bd
       0.018261345 -0.029325122 -0.04566433 -0.04522048
0002d0 e2 b3 95 3c 9d e7 1e bb 39 31 2c bd 95 93 ad bd
       0.018274251 -0.002424694 -0.04203913 -0.08475415
0002e0 5c 27 e5 3c 70 be a0 3a 15 05 18 3d 9f 71 9b 3c
       0.02797287 0.0012263786 0.03711422 0.018975077
0002f0 00 45 46 bd 46 b2 90 bc 0f 01 a9 bc ab fe 37 3d
       -0.048405647 -0.017663132 -0.020630388 0.044920605
000300 dc f3 13 3d 39 81 40 bd bd b9 1e bc 9e 86 a9 bb
       0.036121234 -0.046998236 -0.009687838 -0.0051735183
000310 69 9e 7d 3e 16 b3 c4 3c 7a 4c 3d 3d 37 44 6c bc
       0.2476746 0.024011176 0.04621551 -0.014420561
000320 7e 53 30 3d 6b 8e 51 bd 39 0d 1d 3d 09 50 24 bd
       0.043048374 -0.05116121 0.03834269 -0.04011539
000330 d8 c9 ed bd 03 2d 3b 3d 05 bc ea bc 79 54 f7 3d
       -0.11610764 0.045697223 -0.028654108 0.12076659
000340 f9 96 f8 3b c0 f1 0a 3d 9a e8 67 bd 37 ec ca 3c
       0.0075863567 0.033921957 -0.05661831 0.02477084
000350 c1 2e b8 bc 1a 9f 84 bd 7e 65 50 bc 5f 7e cc bc
       -0.022483231 -0.06475659 -0.01271951 -0.024962602
000360 10 9e 9d bd 0c ad 0d bd 45 e9 49 bd a9 76 f4 bd
       -0.07696164 -0.03458886 -0.04929473 -0.11936695
000370 1f f1 44 bd f4 30 fd bc a3 20 bc 3c 2f ba 9d 3c
       -0.048081513 -0.030907132 0.022964781 0.019253818
000380 e0 68 46 bd 5f 50 53 bd af 42 0a bd 7a e5 2b bd
       -0.04843986 -0.05159032 -0.033755 -0.041966893
000390 42 05 5e 3b a8 2f 4c bd cf 36 00 bd 4d f0 0e bc
       0.0033877646 -0.049850136 -0.03130227 -0.008724284
0003a0 8b 4a d7 3c 79 a2 e2 3b cc c8 10 3c 2f d3 2e bb
       0.026280662 0.006916341 0.008836936 -0.0026676168
0003b0 44 76 2d bd 66 40 9d 3d 46 21 13 3d cc 47 08 bd
       -0.042349115 0.07678299 0.035920404 -0.033271596
0003c0 60 75 7d bc 45 9a 20 3d 82 ba 14 bd 43 af d1 3d
       -0.015469879 0.039209623 -0.03631068 0.10238507
0003d0 38 d5 08 bd 15 4d 3b 3c 64 aa 90 bd 8f 91 4d 3d
       -0.033406466 0.011431952 -0.070637494 0.050187644
0003e0 65 5b cf bc 15 c8 99 bd e7 14 b8 bc 6d 7d 1d bd
       -0.025312135 -0.07508866 -0.022470905 -0.038449693
0003f0 76 d2 7d 3d 43 ed 80 3e 3f df 65 3c e4 1d a8 bc
       0.06196829 0.25181016 0.014030277 -0.020522065

linearIn.bias f4 [256]
000000 4f 71 67 bd fa fb 90 bc bd dc 82 be 76 15 13 3f
       -0.056504544 -0.017698277 -0.25559035 0.5745462
000010 8d 65 17 3f 0e d9 1e 3f c6 f2 0f 3f 16 3e 36 3e
       0.5913933 0.6204995 0.5622982 0.17797121
000020 bd 56 6d bd 75 c8 14 3f 5b 7d 0f 3f 64 b7 12 3f
       -0.05794405 0.58118373 0.5605065 0.5731108
000030 51 7e 11 3f 95 11 25 3f 7f 3e 0b 3f f0 0e f8 3e
       0.5683337 0.64479953 0.54392236 0.48448896
000040 52 85 1a 3f 3f 67 1e 3f 60 52 fe bb 2e aa 17 3f
       0.6035968 0.6187629 -0.0077612847 0.5924405
000050 f5 af 23 bc 3d 62 98 bd e1 43 0c be d9 23 1c bd
       -0.009990682 -0.074406125 -0.13697769 -0.038120124
000060 3a d5 11 3f c5 f1 1c 3f 06 25 1a 3f 75 a1 1d 3f
       0.5696598 0.6130641 0.60212743 0.6157449
000070 8c 99 25 3f 34 0b 0a 3f b4 7e 18 3f 3d 41 13 3f
       0.6468742 0.53923345 0.59568334 0.5752142
000080 13 52 f1 bc cc 53 0c 3f c1 e6 1f 3f 3a 2e 9a bd
       -0.029458081 0.54815364 0.6246148 -0.07528348
000090 bf 4a b4 bd 97 a6 63 be 3f 52 06 bd 66 3d 1b bd
       -0.08803319 -0.22231518 -0.03279328 -0.03790035
0000a0 52 8a 58 bd 2e ba 53 bd f4 7a 1e 3f bf a1 28 3f
       -0.052866288 -0.051691227 0.6190636 0.65871805
0000b0 88 2d 1b 3f d7 f4 19 3f e9 2b 20 3f 0a 9f 1a 3f
       0.6061635 0.6013922 0.62567 0.60398924
0000c0 28 85 22 3f 31 03 22 3f 7f b5 0a 3f 2f f0 1b 3f
       0.6348443 0.6328612 0.5418319 0.60913366
0000d0 a1 9c 1d 3f f2 40 1f 3f 47 48 29 be 97 ea 21 3f
       0.6156712 0.62208474 -0.16531478 0.6324858
0000e0 08 29 1a 3f 05 9a 17 3f 89 1f 0c 3f 1e ab 1d 3f
       0.6021886 0.5921939 0.5473562 0.6158923
0000f0 54 cd 19 3f ba d9 8d bd 58 19 23 3f 92 ac 8f bd
       0.6007893 -0.06926294 0.63710546 -0.07015337
000100 3b 66 0b 3f e1 53 37 bd 6d f1 1c 3f 70 e6 3a be
       0.54452866 -0.044757728 0.61305887 -0.18251967
000110 5c 09 22 3c 65 64 7a bc 60 5e 22 3f 5c 4b c9 3c
       0.009889927 -0.015282725 0.63425255 0.024572067
000120 c9 d4 fe 3e 58 b0 23 3c b9 f4 24 3f b5 01 aa 3c
       0.49771717 0.009990774 0.6443592 0.020752767
000130 fe b4 e4 3e 4d 2e 1f 3f e0 43 18 3f e4 c0 16 3f
       0.44669336 0.62180024 0.5947857 0.5888808
000140 d4 87 1b 3f 08 c6 11 3f 70 70 1c 3f 38 ba a1 bc
       0.6075413 0.56942797 0.61109066 -0.019742116
000150 5f 05 21 3f ff 5a 26 3f db c4 0b 3f be 81 bd bc
       0.6289882 0.649826 0.5459725 -0.023133155
000160 e7 fa 1c 3f 74 8c 55 bc d6 a1 1b 3f 15 70 63 3e
       0.61320347 -0.013033975 0.6079382 0.22210725
000170 0c 38 0e 3f 5c 43 4e bd 44 cb 53 bd c2 7b 1a 3f
       0.5555427 -0.050357208 -0.05170752 0.6034509
000180 01 47 aa 3c 12 ab 92 be 62 8c 26 3f bd c3 27 3f
       0.02078581 -0.2864614 0.6505796 0.6553305
000190 56 0f 1e 3f 04 d6 1a 3f 3b d3 17 3f 24 37 23 bc
       0.6174215 0.6048281 0.5930669 -0.009961877
0001a0 30 f9 1b 3f 33 0e 1f 3f e7 dc 27 3f d4 83 1a 3f
       0.60927105 0.6213104 0.65571445 0.60357404
0001b0 12 47 40 bd ed 96 19 3e 13 e5 26 bd ed 66 20 3f
       -0.046942778 0.1499898 -0.040745806 0.6265705
0001c0 af 81 1d 3f c7 a3 13 be 45 c0 7d bd 81 de 1f 3f
       0.61526006 -0.14417945 -0.06195094 0.6244889
0001d0 e2 d7 1b 3f 2e de 91 bd 76 e6 11 3f 91 cf 21 3f
       0.60876286 -0.071224555 0.5699228 0.63207346
0001e0 2d 3f 10 3f dc df 15 be 9b b7 19 3f f3 b8 77 3d
       0.563464 -0.14636177 0.60045785 0.060479116
0001f0 ff c4 16 3f 45 f0 14 bd 85 34 15 3f 1d c9 15 3f
       0.5889434 -0.03636195 0.58283263 0.5851
000200 18 0d 12 3f 41 9c 24 3f e7 cc 17 3f 27 6a 17 3f
       0.5705123 0.64300925 0.5929703 0.5914635
000210 8c 47 0d be c2 7d 0f 3c da b7 a7 bd 87 01 28 3d
       -0.13796824 0.00875801 -0.08189364 0.04101708
000220 4d f1 0f 3f 06 03 d4 3c c8 ab 19 3f 6f b4 18 3f
       0.5622757 0.025880348 0.6002774 0.5965032
000230 88 ff e7 3b b8 45 0a 3f a4 32 1d 3f e2 a5 6c be
       0.0070800222 0.5401263 0.61405396 -0.23110154
000240 3c 4d 17 3f c8 93 15 3f 89 cd 9e bd c6 56 ff 3c
       0.59102225 0.5842862 -0.077540465 0.031169306
000250 d8 b2 0e 3f b1 5a 16 3f 1a 5c 27 3f a9 81 2f 3f
       0.55741644 0.58732134 0.6537491 0.6855722
000260 0a 3e 11 3f f7 d7 32 bd 40 80 71 bd 9c f9 b6 3b
       0.5673529 -0.04366299 -0.0589602 0.005583955
000270 7a 7a 20 3f e6 70 1a 3f 63 0a 08 3f a9 be 1a 3f
       0.62686884 0.6032852 0.5314085 0.60447174
000280 2e c2 50 be bb e8 71 3c 1f 0c 26 3f c1 9c 88 bd
       -0.20386574 0.01476496 0.64862245 -0.066705234
000290 cc 82 18 3f 95 28 18 3f 1c 39 22 3f 71 d1 93 bd
       0.5957458 0.59436923 0.6336839 -0.07217682
0002a0 80 b3 2e 3f b9 94 25 3f 94 c2 ff 3c 88 6e 82 be
       0.68242645 0.6468006 0.031220712 -0.25474954
0002b0 39 a0 01 3f b9 3a 1c 3f 0c ae 0f 3f 67 51 f8 bd
       0.50635105 0.61027104 0.5612495 -0.12124901
0002c0 45 2b 1d 3f 90 85 23 3f 8a 1a 1d 3f 81 54 9d bd
       0.6139415 0.63875675 0.6136862 -0.076821335
0002d0 c4 e8 17 3f ea b7 26 3f 16 0f 09 3f 14 5e 1a 3f
       0.5933955 0.6512438 0.53538644 0.602998
0002e0 66 70 0f 3f d4 53 20 3f 42 de 3e bd cd 29 13 3f
       0.5603088 0.6262791 -0.04659868 0.5748566
0002f0 cf a7 20 3f 0b 5d 98 3c ce bc 1c 3f 5d 4c 85 bd
       0.62756056 0.018599054 0.61225593 -0.06508706
000300 8d 94 09 3f 61 73 1a 3f 84 56 a7 bb 58 ad 1f 3f
       0.53742296 0.60332304 -0.005106749 0.62373877
000310 2d c7 2c 3f a0 98 09 3f 17 47 19 3f d9 21 05 3f
       0.6749142 0.5374851 0.598741 0.5200477
000320 b9 67 72 bd 50 f5 18 3f 04 94 5f bd e0 c2 52 be
       -0.05918095 0.5974932 -0.054584518 -0.20582151
000330 24 98 20 3f 2a 9b 8a bd fc c6 0e 3f df 4c 28 3f
       0.6273215 -0.067678764 0.55772376 0.65742296
000340 90 de 15 3f 90 81 10 3f 1f c0 86 be 46 59 0b 3f
       0.5854273 0.56447697 -0.26318452 0.54433095
000350 fa 78 14 3f ab 8c 69 be 86 d1 44 be 78 58 20 3f
       0.57997096 -0.22807567 -0.19220552 0.6263499
000360 95 cb 28 3f 74 3a d5 bd 2f 00 21 3f b0 11 2a 3f
       0.6593564 -0.1041154 0.62890905 0.6643324
000370 c6 62 1c 3f d6 ab 14 3f 03 3e 24 3f 63 7e 1f 3f
       0.61088216 0.580747 0.6415712 0.62302226
000380 86 cd 0a 3f bd 89 f7 3b 61 f6 7d be 6d 77 03 3b
       0.54219854 0.0075542615 -0.24801017 0.0020060197
000390 4b 83 1d 3f 2a c8 14 3f 0f 6e 84 bd 29 56 19 3f
       0.6152846 0.58117926 -0.064663045 0.59897095
0003a0 16 8d 00 bd 3c 02 e1 bc dd 75 87 bc 2f a6 18 3f
       -0.03138455 -0.027466886 -0.016535694 0.59628576
0003b0 58 33 1d 3f 9e 51 1b bd 01 78 14 3f 82 1d 3a 3d
       0.6140647 -0.037919633 0.5799561 0.045438297
0003c0 c8 72 20 3f 5b 92 26 3f 69 e6 c1 bb 5a 8b 12 3f
       0.6267514 0.6506707 -0.0059173596 0.57243884
0003d0 bc bb 1e 3f 52 b4 91 bc a4 06 13 3f ec 30 ed 3b
       0.6200521 -0.017786179 0.5743201 0.007238498
0003e0 7b 20 1a 3f e2 cd 1b 3f e0 ae 17 3f bd 32 27 3f
       0.6020581 0.6086103 0.59251213 0.65311795
0003f0 70 04 39 bd 2e 5e 98 bc 1d 3b 14 3f 2a 3d 31 3f
       -0.045170248 -0.018599596 0.579027 0.69233954

linearOut.weight f4 [100, 256]
000000 d8 3d 85 bc 18 63 bc 3c 42 9e 2a bd 55 f5 7c bc
       -0.016264841 0.02299647 -0.041654833 -0.015439351
000010 f7 93 39 3d 6d b8 59 bc 06 2b f1 3c 2e ef ad 3b
       0.045307126 -0.013288599 0.02943946 0.0053080535
000020 a4 d2 6e 3d 6d a5 ee 3a 63 57 c6 bc de 08 22 bd
       0.05830635 0.001820726 -0.024211591 -0.039559238
000030 d6 31 87 3d 15 63 99 3c cc 47 69 bb 55 1a 65 36
       0.06601302 0.018724004 -0.0035595773 3.4138986e-06
000040 bf a4 83 bd 38 d2 b9 bc da ca 64 bd b0 9e 45 bd
       -0.06427907 -0.022683248 -0.055857517 -0.04824704
000050 70 d8 0d bd 80 ee db ba ae a2 93 3c 58 cc c4 bc
       -0.03463024 -0.0016779453 0.018021908 -0.02402322
000060 ea bf db 3b 39 13 c3 3b d1 a7 16 bd 66 cc 4c bd
       0.0067062275 0.0059532193 -0.036781136 -0.049999617
000070 6d bf 4a 3d d4 54 84 3d af 66 3d 3d 56 74 5a 3d
       0.049498964 0.06461492 0.046240505 0.053333603
000080 18 1f 16 3c ef 1c 22 3d d4 ee e6 3c 28 bf 7c bd
       0.009162687 0.039578374 0.028190054 -0.06170574
000090 38 94 d2 3c 3d 75 16 bd af 30 ef bb 02 f5 01 bd
       0.025705442 -0.0367329 -0.0072995047 -0.0317278
0000a0 8e 00 7e 3d 40 af 51 bd 2c 15 99 bc b5 1e f9 3c
       0.062012248 -0.051192522 -0.018686853 0.03041015
0000b0 67 15 2a 3d c4 a8 76 3c f7 84 1f bd c8 6a 60 3d
       0.041524317 0.015054885 -0.038945165 0.054789335
0000c0 5c b4 8e bb 5b af d3 3b 3e 21 e4 3c 41 12 27 bd
       -0.0043549966 0.006460113 0.027847882 -0.040788893
0000d0 0d 5d 5e 3d 90 ae 1a bd f2 e4 af 3c 15 86 5a 3d
       0.05428796 -0.037764132 0.021471474 0.053350527
0000e0 aa 06 a2 3b 6e 53 65 bd ea 64 08 bd 86 da 98 3d
       0.004944642 -0.055987768 -0.033299364 0.07463555
0000f0 fa 72 01 bc c0 43 fc 3b b8 51 01 3d ae 3d 88 3d
       -0.007900948 0.007698506 0.031572074 0.066523895
000100 e5 19 73 3d 78 53 ee bc b7 d7 e7 3b 83 34 c5 3d
       0.059350867 -0.029092535 0.0070752758 0.096291564
000110 60 1e 2d bd 70 4c 8c bc 76 3e 65 bd 1e 36 77 bc
       -0.042265296 -0.017126292 -0.05596777 -0.015088586
000120 f8 cf ba bc 6c f5 1a 3d fb aa 07 3d 2a ef 13 bd
       -0.022804245 0.03783171 0.033122044 -0.036116756
000130 59 ef f6 3c 0e 88 02 bd 12 3b 6a 3d 5f 55 7d 3d
       0.030143427 -0.031868033 0.05718524 0.061848994
000140 d9 10 45 3d 35 b7 29 bc bd 07 2a bd 5c 75 9c 3c
       0.04811177 -0.010358621 -0.041511286 0.01909893
000150 61 5f a5 bc c7 47 cd 3c fb f7 55 bd 90 f0 a3 3c
       -0.020187082 0.02505864 -0.052238446 0.02001217
000160 b0 ab 84 3d 0a 81 10 bd 22 09 31 bd 9d 58 51 3d
       0.06478059 -0.03527931 -0.0432216 0.0511099
000170 f9 0d 51 bc bb 64 8b bd 00 5c 1e 3c dd 92 7d 3d
       -0.012759679 -0.06806322 0.009665489 0.061907638
000180 00 24 5a bb 44 7c 25 bb 4e d6 5a 3d 4f 91 ab 3c
       -0.0033285618 -0.002525107 0.053427033 0.020943312
000190 cd 24 ab 3c df d2 f0 bc 30 74 8a bd a4 37 b9 3c
       0.020891571 -0.029397426 -0.06760442 0.02260954
0001a0 72 5a 49 bd 02 42 f0 bc 5e 2f 30 bd 84 ca 18 3c
       -0.04915852 -0.02932835 -0.043013923 0.009325627
0001b0 b5 bc 35 3d 00 e4 c8 b9 00 25 0b 3b 02 ec 5e bd
       0.04436942 -0.00038316846 0.002123177 -0.054424293
0001c0 d1 8f 95 bc ee c4 b6 bc e8 2e 46 bc 5a c8 bb bc
       -0.018257054 -0.0223107 -0.012096144 -0.022922684
0001d0 a6 40 6b bd 6c 07 b0 3c 23 e2 40 bd 95 ed 2a bd
       -0.0574347 0.021487914 -0.04709066 -0.041730482
0001e0 22 0c be 3c 2e ed 3f 3d 2e ff ad bb 53 72 74 3d
       0.023199145 0.04685705 -0.005309961 0.05967934
0001f0 d7 0c ef 3c 90 82 e3 bc 0d ea 3e 3d 3f 2a 12 3d
       0.029180927 -0.027772218 0.046609927 0.03568482
000200 0d c5 44 bd b7 41 6a bc 0b bd 46 bd 6a f3 b4 3c
       -0.048039485 -0.014297894 -0.04852013 0.022088725
000210 08 25 84 3b 1a fc 34 bd e1 d7 3a 3c 00 ac 7d 3c
       0.004032735 -0.044185735 0.011404009 0.0154829025
000220 b8 89 15 3c 0c e7 ce 3c c4 83 80 3d b4 a2 f0 bc
       0.009127073 0.025256656 0.06275132 -0.029374458
000230 c7 06 80 bd 16 27 77 3d aa f0 12 3d 5c 20 29 bd
       -0.06251293 0.06034001 0.035874046 -0.041290626
000240 c0 95 cf ba 80 2b 93 bb 08 f7 3f 3d 23 17 53 3d
       -0.0015837476 -0.0044912696 0.046866447 0.051535737
000250 94 cc 4c 3d ff ec f1 3c 92 90 62 3c 72 43 7e bc
       0.04999979 0.029531954 0.013828414 -0.01551901
000260 98 16 f1 3c 56 02 15 3d d0 92 80 bb 56 55 75 3d
       0.029429719 0.03637918 -0.0039237514 0.059895836
000270 fd 41 70 3d 76 d2 cb 3c 63 86 93 bc 83 bd 0a bd
       0.05865668 0.024880629 -0.018008417 -0.03387214
000280 f7 a8 37 3c d4 70 4a 3d 6b 29 89 3b 5b 37 22 bc
       0.011209718 0.049424008 0.0041858456 -0.009900893
000290 65 8e bc 3c 40 65 e8 bc 32 ff 20 3b 5a d3 0d 3d
       0.023017118 -0.028368592 0.002456617 0.03462539
0002a0 42 c3 0b 3d 99 a6 24 3d 47 94 f2 3c b1 52 4f 3c
       0.03412176 0.040197942 0.02961172 0.0126539925
0002b0 54 82 fe bc 33 70 26 bb 57 1a b1 3c 5f f7 ad bd
       -0.031068005 -0.0025396466 0.021619005 -0.08494448
0002c0 e2 93 32 bd 1a e1 a4 3c 8a 59 96 3d ac 5e 88 3c
       -0.043598063 0.020126868 0.07341297 0.016646706
0002d0 02 38 00 3d e2 8c 2d 3c e8 6a 43 3c c3 d6 44 bc
       0.031303413 0.010592671 0.011927344 -0.012014094
0002e0 b9 ed e0 3c 43 39 95 3b d6 78 01 3d ab 57 41 3d
       0.027457105 0.0045539453 0.03160938 0.047202747
0002f0 ff 6e e6 3c 0c c5 15 bd 55 52 ed bc 70 dc a9 bb
       0.028129099 -0.03656487 -0.028969923 -0.005183749
000300 9e 31 b4 3c 75 dc da bb da 5c 18 bd 38 ad 45 bc
       0.021996316 -0.0066791126 -0.037197925 -0.012065224
000310 f2 0e 2f bd 06 d5 fe 3c 22 24 8e 3d b3 e6 3d bd
       -0.042738862 0.031107437 0.069404855 -0.04636259
000320 eb 26 11 3d 0f b5 b3 bc e2 51 42 bd 14 42 af bc
       0.035437506 -0.021936921 -0.04744137 -0.021393813
000330 7c 3d 2f bd 06 92 30 bd 18 c9 03 3c ca 9b 2a 3d
       -0.042783245 -0.04310801 0.00804355 0.04165248
000340 58 7c be 3c 24 85 c9 bc 3a 3c 8b 3d 58 5b 9e 3c
       0.023252651 -0.02459962 0.06798597 0.019330665
000350 fd 3c 8a 3c ae 58 f1 3c 65 fb 75 3c 28 74 2e 3d
       0.016874785 0.029461231 0.01501355 0.042591244
000360 3d b8 2c bc 63 60 0c 3d 32 7b 4e 3d eb c3 67 3c
       -0.010541973 0.03427161 0.050410457 0.014145832
000370 a9 1b 69 3b d7 15 d3 bc 76 2a 3c bd c8 19 48 ba
       0.0035569465 -0.02576725 -0.04593893 -0.0007633236
000380 a3 b2 ea bb 80 31 f6 3b 3f f4 41 3d 12 10 53 bd
       -0.0071624084 0.007513225 0.04735207 -0.051528998
000390 b6 97 01 bd 9c 8b 10 bc ec 36 57 bd 89 c0 09 3d
       -0.031638823 -0.008822348 -0.052542612 0.03363088
0003a0 60 d2 87 bb 8c 8f d8 bc 36 6f fd 3c 50 ac 78 bc
       -0.0041449517 -0.026435636 0.030936819 -0.015177801
0003b0 83 7c 6e bd 40 47 53 bb 49 cb 5e 3d eb f0 50 bd
       -0.058224212 -0.0032238513 0.054393087 -0.051011007
0003c0 5f 97 dc ba 87 68 23 bc c4 c1 26 3d 9a c4 20 3c
       -0.001682978 -0.009973652 0.040712133 0.009812498
0003d0 e0 f6 dc 3c 04 39 77 3d 74 5d b4 3c 0f e0 83 bb
       0.026973188 0.06035711 0.022017218 -0.0040245126
0003e0 f9 d7 78 3c 1a f7 8a 3c 09 cb bd bb 2e 14 19 3c
       0.015188211 0.01696353 -0.005792026 0.00934319
0003f0 5c ee 50 3b 9e 48 b6 3d 93 bd 3e bd 88 89 89 bc
       0.0031880355 0.089005694 -0.04656751 -0.016789213

linearOut.bias f4 [100]
000000 5e fd 24 bc e4 fd 38 3d 5b 45 61 bc 7b bf a0 3c
       -0.010070173 0.045164004 -0.013749446 0.019622555
000010 55 78 92 3d 1f 04 78 bd 40 fc 8a 3d 34 66 83 bd
       0.07151858 -0.060550805 0.06786394 -0.06415978
000020 d9 98 57 bd 19 67 d7 bd b1 bc 03 3e 44 d8 be bc
       -0.052636 -0.10517711 0.12864949 -0.023296483
000030 ee 94 56 3d 63 ed 98 3c 65 27 10 bd 3d 2e cc 3c
       0.052388124 0.018667882 -0.03519382 0.024924392
000040 44 25 bb bc 18 17 b9 bd c0 2d 49 3d 77 ff 56 bd
       -0.022844918 -0.09037608 0.049115896 -0.052489724
000050 61 31 76 bd 92 00 21 bc c0 e3 13 bd ea 5d 72 bd
       -0.060105685 -0.009826796 -0.03610587 -0.059171595
000060 60 6a a9 3d 26 e8 36 bb 38 8f a5 bd de 96 06 bd
       0.082722425 -0.0027909367 -0.080839574 -0.032858722
000070 41 78 58 3b 1f 42 57 bc c8 55 76 3d e1 17 5b 3d
       0.0033030661 -0.013138323 0.0601404 0.05348957
000080 9d 90 dc 3d 38 85 3b bd 3c ad 36 3d 8e b2 9e bc
       0.1076977 -0.045781344 0.044598803 -0.01937225
000090 49 8f b2 bd 68 af e6 bc 04 07 d1 bc b5 2a 68 3c
       -0.08718736 -0.028159812 -0.02551604 0.014170338
0000a0 08 a3 47 bd 67 57 6f 3d 06 bd 64 bd 1e 9d 42 bd
       -0.048739463 0.058432963 -0.05584433 -0.04751312
0000b0 4b a2 a9 3c 8e 11 e2 bc 1d 32 0e bd ed 9c 71 bd
       0.02070727 -0.027596261 -0.03471576 -0.058987547
0000c0 80 3f 0a bd 38 6b f1 bc ed 94 99 bd 7c b7 05 3d
       -0.033751965 -0.029470071 -0.074991085 0.032645687
0000d0 e7 39 11 3d dd 1b 4d 3d d3 2d 6a bd b0 93 aa 3c
       0.03545561 0.0500754 -0.057172608 0.020822376
0000e0 91 1c ab 3d 06 df 26 bc c2 e0 42 3c ed 3f 13 3d
       0.08355058 -0.010185009 0.011894407 0.035949636
0000f0 9b a6 1d bd 4f 26 95 3d 61 25 28 3d 7b 02 11 3c
       -0.038488965 0.072826974 0.041051272 0.008850689
000100 e5 8a 34 bd e5 20 19 bd ab 2e da bc e3 76 40 bd
       -0.044077773 -0.037384886 -0.026633581 -0.04698838
000110 51 ea 95 bd a9 13 3d 3c 35 73 33 bd 02 00 3d bc
       -0.07320083 0.011540332 -0.04381104 -0.011535646
000120 a7 28 0b bd 99 de 4c bb 61 cd 19 bd 98 ec 3c bd
       -0.033974316 -0.0031260608 -0.03754938 -0.04612407
000130 26 cf 1f bd bf 34 33 bd 1f f7 22 bd fc 09 bc bc
       -0.03901591 -0.043751474 -0.039786454 -0.02295398
000140 ed 78 a0 bc ed 7e e3 3e 25 02 26 3d b6 24 96 3d
       -0.019588912 0.44432774 0.04052939 0.07331221
000150 d6 72 12 bd 1d 47 8b bc 99 a3 20 bd d1 8c 0c 3d
       -0.035754047 -0.017001683 -0.03921852 0.03431398
000160 fd d0 f3 bc 9f 77 9c bb 20 c0 be 3c e8 a4 dc bc
       -0.02976274 -0.004775002 0.023284972 -0.026934102
000170 0b c7 1e 3d de 62 5a 3b 96 65 25 3d 79 0e 3b bd
       0.03876404 0.003332309 0.040380083 -0.0456681
000180 80 65 62 bd 75 28 94 3d 23 81 3a 3c 1b d0 02 3d
       -0.05527258 0.07234279 0.011383328 0.031936746
