model/model.pth (torch, 799047 bytes, 6 tensors)

f0.0.weight f4 [256, 390]
0.038694087 0.0770929 2.073265e-39 0.06711327 3.724342e-39 3.652433e-39 0.00904581 0.023501158
6.650749e-39 0.011611861 0.05572693 -4.51851e-40 0.018539235 0.039293148 4.450178e-39 0.05236775
5.075259e-39 -1.0969879e-37 0.0004855434 0.121324085 -0.11389221 0.05240719 0.001582431 -3.089045e-39
0.013348716 0.00084758026 0.033001103 0.026437815 5.809122e-38 4.457767e-39 -0.027225591 4.482577e-39
6.321288e-38 0.014107845 0.009573485 -1.900462e-39 0.026583685 0.13041186 -0.029387625 0.0586114
0.028893437 -2.198606e-39 0.061070256 0.004205214 -5.312705e-39 0.01672295 0.10856012 -0.036425825
0.045697067 5.326991e-39 -1.903375e-39 -0.037427973 0.10677374 6.7637387e-38 0.0022681726 -4.894569e-38
-0.039543338 -0.013126981 0.047192313 2.42043e-40 -0.0022179119 0.039217077 3.521275e-39 0.08137241
0.049987026 -0.09514694 0.048169818 -1.5127e-40 -0.06749972 0.026775237 6.042636e-39 -1.788239e-39
0.070829585 -6.253031e-39 -4.145575e-39 3.013086e-39 6.216995e-39 3.518764e-39 -0.023633428 0.08784612
-7.07647e-40 0.001388088 -5.371446e-39 -1.570392e-39 0.050595473 2.943898e-39 5.160967e-39 -0.0082363635
-0.05167697 1.399693e-39 0.0047536967 0.055716958 -0.11166335 0.049698513 3.085233e-39 -4.136833e-39
-0.030506205 -6.3371e-41 4.7552004e-38 0.042859454 0.10764858 -0.121821076 0.065864004 0.044596698
-0.11920363 0.026530826 5.837621e-38 -1.090334e-39 0.015389895 1.795145e-39 -5.716356e-39 -0.0077177812
-6.73468e-40 -0.048766628 0.027418178 0.06817339 0.01260805 -0.013965628 0.05535507 3.38587e-40
-0.021589924 5.229811e-39 -0.0886643 -0.0035596814 -0.0008283526 3.567634e-39 0.045356464 5.449575e-38
1.326724e-39 0.021635436 0.13752729 0.07648895 0.010043919 -0.048048824 6.797249e-39 0.004087719
-0.027293524 -5.662361e-38 -0.0010158505 0.0805662 -0.10908634 0.056422096 0.042612623 -2.003277e-39
0.04776202 0.011149045 4.561735e-39 0.026781296 5.74815e-40 6.015239e-38 0.004944794 -6.273418e-39
-5.985204e-39 -7.281452e-38 -1.5137882e-37 -2.326716e-39 -0.004156223 -2.675931e-39 0.016700823 -0.016183635
1.516052e-39 -5.886846e-39 0.060255807 -0.086294554 7.4462377e-38 0.02083148 0.012453137 -0.084561706
0.038918424 0.029277008 -1.807503e-39 0.049762674 5.21206e-39 7.0051925e-38 -0.00620982 0.035174407
-1.910738e-39 0.032303084 -5.66649e-39 5.713167e-39 0.051789474 0.08091857 -0.07496243 0.026812274
-1.5184556e-37 2.755016e-39 -0.010475373 3.510574e-39 1.202166e-39 0.01987696 0.013611601 -4.001182e-39
0.02519021 0.07875734 1.5805652e-37 0.04761379 -0.013464334 -0.097798415 0.058189392 -0.05777343
-2.013362e-39 0.018671133 5.735722e-39 5.577322e-39 0.045721848 7.0495744e-38 3.95176e-39 0.004055621
0.15068471 -0.0075902836 0.055063203 -0.028030563 -7.728068e-38 0.024347072 -2.924281e-39 -0.046127196
-0.018265583 -0.056564704 -0.041162193 0.053107075 -0.032737643 -0.09718902 0.046484493 3.311054e-39
-4.02826e-39 0.02677735 -6.022756e-39 3.842994e-39 0.04455871 0.020535016 3.930136e-39 -2.186289e-39
-8.57802e-40 -1.021624e-39 -0.012012119 0.12943606 4.673454e-39 0.06355482 -4.69399e-40 -1.619279e-39
-0.0050763953 -4.454914e-39 -0.105183825 0.021306152 -0.0068329684 0.069258235 0.023439556 0.06653639
-0.110636495 0.05376554 -4.21151e-39 -8.98821e-40 0.04547238 -0.014406386 -0.019024152 0.02846173
00000000: b17d 1e3d e2e2 9d3d 6b93 1600 af72 893d
00000010: f38d 2800 7fc5 2700 e134 143c 8085 c03c
00000020: 956b 4800 ad3f 3e3c ec41 643d 94eb 0480
00000030: 98df 973c daf1 203d 4975 3000 917f 563d
00000040: c243 3700 7350 1582 8890 fe39 c378 f83d
00000050: 5240 e9bd eca8 563d 9369 cf3a 00a3 2180
00000060: 93b4 5a3c 2630 5e3a 2a2c 073d 1e94 d83c
00000070: ac23 9e01 718a 3000 3408 dfbc 9acf 3000
00000080: f314 ac01 9724 673c 1bda 1c3c b7b1 1480
00000090: 07c6 d93c b08a 053e 51be f0bc 8212 703d
000000a0: eeb1 ec3c d2f0 1780 ce24 7a3d e4cb 893b
000000b0: a9d9 3980 91fe 883c c554 de3d 3f33 15bd
000000c0: d92c 3b3d 7c01 3a00 d6b9 1480 134e 19bd
000000d0: 31ac da3d 6120 b801 9fa5 143b 2b3e 8581
000000e0: 32f8 21bd 8d12 57bc ba4c 413d b8a2 0200
000000f0: 635a 11bb 16a2 203d e257 2600 94a6 a63d
00000100: 32bf 4c3d 66dc c2bd b74d 453d aea5 0180
00000110: 4b3d 8abd be57 db3c 69cc 4100 e278 1380
00000120: 1a0f 913d e816 4480 2d24 2d80 42cf 2000
00000130: 74b2 4300 e250 2600 e49a c1bc abe8 b33d
00000140: a2b4 0780 81f0 b53a 687d 3a80 9d19 1180
00000150: 333d 4f3d 640e 2000 ad32 3800 d0f1 06bc
00000160: 3bab 53bd c63d 0f00 e6c4 9b3b 7737 643d
00000170: c1af e4bd ab90 4b3d 6098 2100 cf0b 2d80
00000180: 26e8 f9bc a7b0 0080 e972 8101 658d 2f3d
00000190: dc76 dc3d 547d f9bd b5e3 863d 07ab 363d
000001a0: 0821 f4bd 2d57 d93c 48ea 9e01 68df 0b80
000001b0: e625 7c3c 228c 1300 e03e 3e80 71e5 fcbb
000001c0: 5b55 0780 84bf 47bd 169c e03c 7e9e 8b3d
000001d0: ff91 4e3c 17d0 64bc ffbb 623d d8af 0300
000001e0: 5add b0bc 96f2 3800 a195 b5bd 8b49 69bb
000001f0: cd25 59ba 1dd9 2600 b3c7 393d ff59 9401
00000200: 5e72 0e00 cc3c b13c f4d3 0c3e 3da6 9c3d
00000210: 408f 243c d8ce 44bd f703 4a00 46f2 853b
00000220: ab96 dfbc e624 9a81 4926 85ba e4ff a43d
00000230: a968 dfbd db1a 673d 938a 2e3d 52d0 1580
00000240: 1ca2 433d 7caa 363c 43ac 3100 7364 db3c
00000250: 5a42 0600 19c0 a301 f007 a23b bd4f 4480
00000260: 502c 4180 5038 c681 d20b 4e82 f055 1980
00000270: ed30 88bb 6823 1d80 2ad0 883c 8b93 84bc
00000280: 2382 1000 221a 4080 cbce 763d 33bb b0bd
00000290: b4b4 ca01 c8a6 aa3c 3e08 4c3c b02e adbd
000002a0: ed68 1f3d 56d6 ef3c 95ae 1380 f2d3 4b3d
000002b0: 1ac1 3800 11b3 be01 bf7b cbbb 0a13 103d
000002c0: 5cce 1480 3d50 043d deb3 3d80 fc35 3e00
000002d0: 3321 543d a3b8 a53d e785 99bd 6aa5 db3c
000002e0: 75ae 4e82 ddff 1d00 e6a0 2bbc 0d3a 2600
000002f0: 2617 0d00 02d5 a23c 3103 5f3c ab91 2b80
00000300: b35b ce3c 874b a13d a922 5702 ad06 433d
00000310: 8399 5cbc 894a c8bd 0058 6e3d d5a3 6cbd
00000320: 6fec 1580 34f4 983c dc74 3e00 4ebb 3c00
00000330: d546 3b3d 5de8 bf01 e607 2b00 04e5 843b
00000340: 184d 1a3e eab7 f8bb f489 613d 5aa0 e5bc
00000350: c660 d281 8373 c73c b5d7 1f80 dfef 3cbd
00000360: b4a1 95bc 64b0 67bd b099 28bd ce86 593d
00000370: e817 06bd 090b c7bd 8666 3e3d df0d 2400
00000380: 26dd 2b80 2c5c db3c fe94 4180 b4d8 2900
00000390: 3283 363d 0d39 a83c 9fcb 2a00 7cce 1780
000003a0: 3457 0980 df1f 0b80 7bce 44bc e38a 043e
000003b0: b0e3 3200 0829 823d 7e1c 0580 e4a1 1180
000003c0: e457 a6bb 7d82 3080 9e6a d7bd 3d8a ae3c
000003d0: 18e7 dfbb 43d7 8d3d 5004 c03c 3b44 883d
000003e0: 6395 e2bd 4139 5c3d fadb 2d80 8cc9 0980
000003f0: 3f41 3a3d c308 6cbc 8ad8 9bbc 9328 e93c

f0.0.bias f4 [256]
-0.06867038 -0.0060788076 0.035611045 -0.076981425 0.14809151 0.0025281443 -0.019527882 -0.032062463
0.002927655 0.001905353 -0.00999134 -0.035876606 -0.09780158 -0.096624754 0.019773422 -3.3221575e-16
-0.09278858 -0.0020574736 0.05702351 -0.034118246 -0.0692216 0.0042051706 -0.0627922 -0.025453603
-0.012334529 -0.069141775 -1.4045183e-05 -0.044439938 -0.1310422 -0.10036804 -0.07375213 -4.445374e-06
-0.065966055 0.036304083 -0.033034954 0.049104396 0.032691628 -0.048808135 -0.13905457 -0.0013613027
0.01871497 0.019703792 0.0152254645 0.0697368 -0.022963734 -0.07535242 -0.07978276 -0.0036705565
-0.07408416 -0.01215847 0.099729925 -0.109138824 -0.1455427 0.018630464 -5.5050543e-15 -2.3163298e-09
-8.858363e-32 -0.09889907 0.01514953 -0.12307723 0.04480137 0.057047363 -0.018192757 -0.045200218
-5.8221335e-06 -3.259205e-05 -0.069758646 -0.08874848 -0.050531313 -0.026437102 -0.11238779 -0.07651463
-0.059595257 -0.00044784264 0.011241316 -0.027131509 0.019802645 -0.048974056 -0.092290394 0.032586984
-0.07509925 -0.072875075 -0.11619608 -0.10603024 -8.858159e-12 -0.10141884 0.04133519 -0.043985933
-0.04379365 0.2645953 -0.06647896 -0.065552115 -0.012444052 -0.039920002 -0.079066314 -3.185072e-10
-0.05689935 -0.015770905 0.015080407 -0.0035834494 -0.000598837 -0.03483157 -0.058452785 -0.08237216
-4.3874206e-09 0.022061735 -0.12807333 -0.031375777 -0.037167408 -4.7588088e-05 0.008550847 0.06286751
-0.07392995 -0.041780613 -3.292716e-06 -0.11187852 -0.08674285 -0.13393493 -0.006352336 -0.09417923
-0.08881648 -0.085175276 -0.0042382125 0.010069479 -0.13108206 -0.008689565 0.007612362 0.06351576
0.010369938 -0.011022349 -3.8892188e-07 -0.101251006 -3.992657e-12 -0.13215645 -0.0012414386 -0.052828353
-0.0012117843 -0.008934748 0.13246976 -0.061621938 0.0058496254 -0.06189606 -0.00013057858 -0.009906182
-0.04771709 -5.1935534e-10 -0.019327043 0.09873561 0.014969662 -0.09255631 -0.10397547 -0.001184001
0.049415447 -0.0003759776 0.11364681 -0.11431949 0.012117519 0.018068822 -0.100466475 0.0048766276
-0.096293636 -0.119175866 -0.06737125 -4.263054e-15 -0.015253535 0.035208724 -0.07677117 -0.06893892
-0.064280644 -0.0138564175 -0.0005054431 -0.06424201 0.030885601 -0.0728125 0.08910809 -0.049857736
0.019134108 -0.05021181 0.08200289 -0.104472585 -0.008913711 -0.02942886 -0.07267433 0.0021550863
-0.0012111373 -0.021799749 0.025205728 -0.015325782 -0.0477855 -0.0075326785 -0.13354869 -0.07541394
0.023168683 -5.892422e-14 -0.017157247 -0.0077042496 -0.0008602173 -0.029138757 -0.10211202 -0.0025067572
0.039391264 0.032454576 -0.058080085 -0.018962301 -0.030031651 -0.14577 -0.08740865 -0.0620483
-0.0141191445 -0.03333374 -1.5961923e-06 0.0058922404 -0.0018271434 -0.02746652 0.016560966 -0.12267664
-0.05871581 0.06477408 -0.05178576 -0.06772359 -0.08125154 -0.07471821 -0.07814177 -0.00035560783
-0.09067416 0.2073977 -0.09195968 -0.09655024 -0.018179325 0.02506 -0.0154266115 0.049205523
-0.056706067 -0.0752429 0.06447074 -0.083427444 0.050816145 -0.050343577 -0.12100094 -0.009619277
0.0609 -5.001852e-23 -0.11235103 -0.05922292 -0.012549662 -0.081405416 -0.014560985 -0.03383278
0.0043571363 0.049353644 0.018197587 -0.019552669 -0.07273843 0.013300965 -0.013363497 -0.09192741
00000000: 0ea3 8cbd bc30 c7bb e3dc 113d 70a8 9dbd
00000010: 4da5 173e 39af 253b f0f8 9fbc ee53 03bd
00000020: e6dd 3f3b 0abd f93a b8b2 23bc 59f3 12bd
00000030: 324c c8bd 33e3 c5bd dffb a13c 6482 bfa5
00000040: f007 bebd aed6 06bb 7c91 693d 93bf 0bbd
00000050: 0ec4 8dbd 87cb 893b 3299 80bd 1384 d0bc
00000060: c416 4abc 349a 8dbd 9aa3 6bb7 a706 36bd
00000070: ed2f 06be c28d cdbd 5b0b 97bd 7929 95b6
00000080: 3619 87bd 97b3 143d a94f 07bd b121 493d
00000090: a8e7 053d 0aeb 47bd 5264 0ebe bd6d b2ba
000000a0: 2350 993c d969 a13c 3a74 793c 2bd2 8e3d
000000b0: 711e bcbc 5f52 9abd 2565 a3bd b88d 70bb
000000c0: 70b9 97bd 5234 47bc 343f cc3d 2d84 dfbd
000000d0: 2509 15be ea9e 983c 2a57 c6a7 4e2d 1fb1
000000e0: ecf9 e58b 988b cabd bc35 783c ea0f fcbd
000000f0: a481 373d 7faa 693d fa08 95bc dd23 39bd
00000100: bf5b c3b6 72b3 08b8 9fdd 8ebd c3c1 b5bd
00000110: ecf9 4ebd 9f92 d8bc 922b e6bd b4b3 9cbd
00000120: 281a 74bd 6ccc eab9 7f2d 383c e642 debc
00000130: 2839 a23c 0599 48bd bf02 bdbd ee79 053d
00000140: a3cd 99bd 873f 95bd 36f8 edbd 6226 d9bd
00000150: 9ad5 1bad aeb4 cfbd 174f 293d 982a 34bd
00000160: f860 33bd 0979 873e 1f26 88bd 3040 86bd
00000170: 23e2 4bbc 2883 23bd 85ed a1bd e719 afaf
00000180: 4b0f 69bd fc31 81bc d013 773c 4ed8 6abb
00000190: 45fb 1cba 8cab 0ebd 306c 6fbd bcb2 a8bd
000001a0: 29c0 96b1 d0ba b43c a825 03be e383 00bd
000001b0: da3c 18bd 5299 47b8 da18 0c3c aec0 803d
000001c0: 9668 97bd 2622 2bbd 6ef8 5cb6 9120 e5bd
000001d0: 3ca6 b1bd 3d26 09be 4227 d0bb 0ae1 c0bd
000001e0: 6ae5 b5bd 6070 aebd b4e0 8abb 75fa 243c
000001f0: 603a 06be ad5e 0ebc 1f71 f93b 8d14 823d
00000200: ace6 293c 1597 34bc 04cd d0b4 b05c cfbd
00000210: a87a 8cac 0554 07be c4b7 a2ba 8b62 58bd
00000220: bcd4 9eba 0d63 12bc 27a6 073e 4967 7cbd
00000230: 37ae bf3b b986 7dbd eceb 08b9 8a4d 22bc
00000240: ff72 43bd 62c2 0eb0 bf53 9ebc e535 ca3d
00000250: 5043 753c 2a8e bdbd 17f1 d4bd 7b30 9bba
00000260: da67 4a3d dc1e c5b9 a9bf e83d 5620 eabd
00000270: 8f88 463c 1105 943c 5ec1 cdbd 1ecc 9f3b
00000280: 9935 c5bd 7a12 f4bd f0f9 89bd bc97 99a7
00000290: f6e9 79bc 0637 103d 343a 9dbd d92f 8dbd
000002a0: 92a5 83bd 0706 63bc b67f 04ba 5191 83bd
000002b0: cd03 fd3c b81e 95bd 4d7e b63d a037 4cbd
000002c0: 22bf 9c3c e6aa 4dbd 22f1 a73d b9f5 d5bd
000002d0: d00a 12bc cb14 f1bc 47d6 94bd 593c 0d3b
000002e0: 06bf 9eba 6395 b2bc 3e7c ce3c fd18 7bbc
000002f0: baba 43bd b0d4 f6bb fdc0 08be a072 9abd
00000300: 40cc bd3c 80af 84a9 5b8d 8cbc ee73 fcbb
00000310: 3580 61ba 67b4 eebc 1b20 d1bd 6848 24bb
00000320: bc58 213d 17ef 043d 62e5 6dbd d456 9bbc
00000330: f004 f6bc bb44 15be 4e03 b3bd 5c26 7ebd
00000340: fc53 67bc f688 08bd c03c d6b5 b213 c13b
00000350: c27c efba 7801 e1bc ddaa 873c e43d fbbd
00000360: fd7f 70bd 46a8 843d 4e1d 54bd aab2 8abd
00000370: 3567 a6bd dc05 99bd cb08 a0bd e070 bab9
00000380: 60b3 b9bd 1060 543e 5b55 bcbd 22bc c5bd
00000390: cfec 94bc a14a cd3c e6bf 7cbc bb8b 493d
000003a0: 9f44 68bd f318 9abd 3c09 843d 02dc aabd
000003b0: 9724 503d 1135 4ebd 57cf f7bd 2c9a 1dbc
000003c0: 4772 793d eedf 719a 4c18 e6bd bc93 72bd
000003d0: 199d 4dbc e2b7 a6bd 3391 6ebc 3e94 0abd
000003e0: 4fc6 8e3b 0c27 4a3d 1b13 953c eb2c a0bc
000003f0: e3f7 94bd 4aec 593c 92f2 5abc 7044 bcbd

f0.2.weight f4 [256, 256]
-1.8655374e-10 -8.854174e-26 -4.464047e-08 -7.6649964e-17 -4.57741e-40 5.850991e-39 -2.9033065e-18 -3.823343e-05
-1.1756356e-20 -2.689777e-23 1.5856924e-05 5.398846e-39 -4.263079e-17 -1.263407e-14 -1.6377557e-07 1.5328283e-37
7.3078854e-09 4.665887e-39 2.471925e-06 -2.112459e-39 -3.672377e-39 1.016792e-39 -2.301218e-39 -7.831402e-06
-1.3092424e-07 5.049604e-39 9.63695e-40 2.0505725e-18 6.630399e-39 -9.4576336e-07 -9.9703506e-08 4.515902e-39
-3.123592e-11 -1.9680002e-23 -3.3910587e-19 -9.1519195e-07 1.825741e-06 -7.881481e-13 9.591567e-08 -3.178607e-17
-4.6727386e-05 -4.3234068e-06 -1.623357e-39 4.616516e-13 -1.74235e-39 -4.94629e-40 -1.4853122e-10 -6.302082e-39
-1.2651342e-13 -2.0541504e-19 -2.405091e-19 -2.197352e-39 -3.661485e-39 6.279667e-39 3.19124e-39 5.52313e-40
-5.394905e-39 -2.963397e-14 -1.485303e-07 7.41675e-40 -1.881238e-07 -7.618034e-07 7.7011855e-38 -1.6896013e-06
-1.546694e-39 -2.825477e-10 2.528649e-09 -3.614164e-07 -6.957357e-39 5.200071e-39 -1.1984022e-06 -1.8024549e-08
2.2796709e-08 -2.1830662e-21 -7.345204e-38 -3.69194e-39 -3.7168405e-38 -1.2029521e-21 -2.2363984e-09 4.102513e-39
-5.6933116e-09 -9.351672e-08 -1.436765e-28 8.024128e-07 1.1234224e-26 -6.322447e-10 -4.586605e-07 -1.394532e-39
5.775115e-39 6.317143e-38 2.6429104e-11 -1.0776605e-15 -1.6198695e-09 -6.722823e-11 -7.367113e-33 -3.726798e-39
2.48e-39 -1.644136e-08 -3.8879645e-07 6.65493e-40 -4.632801e-07 -3.599548e-39 -9.759819e-13 -2.8369378e-16
-6.01127e-39 -9.159593e-14 1.75777e-39 4.438963e-06 -2.5504414e-07 4.245731e-39 -4.110928e-39 1.5246904e-16
-2.2198453e-08 -1.5001243e-10 -3.311117e-39 -2.2421641e-08 4.6847427e-07 5.759893e-07 -1.0413654e-37 -4.1503036e-08
6.7865847e-07 -2.2399431e-09 8.17473e-40 -1.0694053e-21 2.819212e-39 8.2920764e-07 6.462282e-08 -1.7322216e-06
3.8625856e-07 1.499542e-39 -3.923664e-39 -1.0064235e-25 -2.664223e-11 -2.977874e-14 3.7172648e-38 -5.459453e-39
-6.7889396e-38 2.853688e-39 -5.650016e-39 -3.1903774e-12 -1.2921253e-25 -2.5826725e-16 -2.203438e-07 -5.5506455e-16
4.599164e-39 -5.05883e-40 -9.115683e-15 -1.3801419e-30 -3.0525698e-08 -1.8166276e-25 -2.272484e-34 2.258768e-39
-3.8047485e-11 -6.67172e-39 -9.6899467e-32 -1.546724e-13 -5.358166e-07 -1.2566636e-19 -6.552538e-07 -5.847562e-39
-7.957551e-16 -1.0118506e-11 1.2190085e-07 4.229856e-39 -1.9978498e-10 -3.4428136e-05 -3.746832e-08 -6.787768e-10
-2.3404449e-11 -9.85176e-40 3.801438e-39 -2.9098127e-10 -1.1258721e-06 -9.828727e-18 -4.05504e-40 -1.5159341e-18
-4.301417e-08 -1.2330087e-05 -6.4348117e-21 2.620549e-39 9.28673e-40 -1.137445e-39 -1.0531578e-21 -4.8356445e-38
1.533885e-39 -1.2449674e-08 4.7e-41 2.441418e-39 -5.275422e-39 -1.0146689e-10 -1.4768724e-15 -1.7714241e-10
-5.985735e-38 -5.590878e-39 -2.343726e-39 -2.3709637e-10 4.1764266e-38 -1.6250346e-37 -5.487626e-14 7.2227205e-38
-2.264804e-20 -6.3676465e-21 -2.5673168e-09 -1.4309494e-08 5.2819416e-08 1.4400225e-09 -3.90367e-14 -1.1073371e-05
-4.0883617e-07 -5.4296e-07 -3.863268e-39 -1.07888965e-07 2.4069218e-08 -6.1112865e-10 2.922926e-38 -5.7662077e-15
-1.8464764e-10 -4.9409647e-25 3.3303128e-22 -1.4281383e-12 -8.4390867e-16 1.5572212e-11 8.42312e-40 -2.571432e-39
-1.8268911e-13 4.672498e-39 -1.9130833e-17 -5.293207e-05 -1.1052154e-10 1.970725e-39 -4.447843e-39 -4.327086e-08
-4.460014e-39 -6.9704737e-07 -1.0463808e-06 -3.47412e-23 -3.5016374e-08 -1.2320843e-10 -1.6107425e-12 -4.8112003e-24
2.9467423e-05 -9.06492e-40 -3.5593747e-13 -1.5336187e-07 -0.0002786132 -8.790168e-12 -5.094773e-07 -9.2986605e-11
3.50262e-40 -1.2641785e-15 -5.9311233e-22 -9.567808e-24 -1.367678e-23 4.1689113e-13 2.56848e-39 -7.401874e-10
00000000: 361e 4daf ff37 db95 b7ba 3fb3 27be b0a4
00000010: fffb 0480 2fb6 3f00 e939 56a2 d55c 20b8
00000020: 4012 5e9e d411 029a 7c04 8537 c9c9 3a00
00000030: 8e99 44a4 5d98 63a8 49da 2fb4 45a3 5002
00000040: d718 fb31 98ce 3200 59e3 2536 ad00 1780
00000050: 18fd 2780 6712 0b00 dc0e 1980 9e63 03b7
00000060: 2e94 0cb4 3efc 3600 647e 0a00 384e 1722
00000070: db32 4800 5de0 7db5 951c d6b3 7f2c 3100
00000080: 8560 09ae 5355 be99 3b2c c8a0 83ab 75b5
00000090: fc0b f535 0ed8 5dab 32fa cd33 5e96 12a4
000000a0: 26fd 43b8 c811 91b6 42ad 1180 81f1 012b
000000b0: f7f8 1280 d362 0580 d24f 23af a49f 4480
000000c0: 0371 0eaa e382 72a0 b5f8 8da0 53ed 1780
000000d0: bbde 2780 2861 4400 e1bf 2200 a003 0600
000000e0: cdbe 3a80 a475 05a9 b37b 1fb4 7d13 0800
000000f0: 14ff 49b4 bb7e 4cb5 6ea5 d101 42c6 e2b5
00000100: 8ed7 1080 0e55 9baf 77c4 2d31 b108 c2b4
00000110: 48c2 4b80 af9f 3800 c9d8 a0b5 67d4 9ab2
00000120: 7ed2 c332 a4f2 249d 9af4 c781 a033 2880
00000130: 325d 4a81 f5c8 b59c 23af 19b1 23ac 2c00
00000140: e69e c3b1 5cd3 c8b3 b121 3691 6365 5735
00000150: 4884 5e14 44ca 2db0 d23d f6b4 632f 0f80
00000160: ace2 3e00 10f8 ab01 0d79 e82d a84e 9ba6
00000170: 17a2 deb0 21d6 93ae 4b02 198a cc94 2880
00000180: 3b01 1b00 ef3a 8db2 c7bb d0b4 203f 0700
00000190: bbb8 f8b4 1332 2780 745b 89ab d089 a3a5
000001a0: fa74 4180 7541 cea9 f323 1300 67f2 9436
000001b0: 00ed 88b4 5f3b 2e00 98c3 2c80 ebc8 2f25
000001c0: eaae beb2 bff0 24af 0c0e 2480 b699 c0b2
000001d0: 9d82 fb34 af9d 1a35 4abe 0d82 1241 32b3
000001e0: 0e2d 3635 7fed 19b1 c8e6 0800 9d9a a19c
000001f0: d1b2 1e00 b796 5e35 c5c6 8a33 ae7e e8b5
00000200: f95e cf34 1d54 1000 94b9 2a80 ab2d f995
00000210: f858 eaad 8d1c 06a9 1c63 4a01 bc72 3b80
00000220: 01d0 b881 ec12 1f00 f285 3d80 bb80 60ac
00000230: 16f5 1f96 85e1 94a5 a497 6cb4 89fc 1fa6
00000240: 9914 3200 3282 0580 ab36 24a8 daf0 df8d
00000250: 5c1b 03b3 3ae3 6096 5008 9787 8798 1800
00000260: a955 27ae 0aa6 4880 be90 fb8b 4925 2eaa
00000270: 09d5 0fb5 545c 14a0 b3e4 2fb5 a0ac 3f80
00000280: 5d5c 65a6 b301 32ad dae3 0234 1e0f 2e00
00000290: 79aa 5baf ee66 10b8 daec 20b3 ac94 3ab0
000002a0: 22de cdad 45ba 0a80 dd64 2900 f9f7 9faf
000002b0: ac1c 97b5 da4e 35a3 616a 0480 5fb6 dfa1
000002c0: 94be 38b3 52dd 4eb7 ae19 f39d 0689 1c00
000002d0: c31c 0a00 bc62 0c80 1226 9f9c 86a3 8381
000002e0: d9b3 1000 3fe2 55b2 0483 0000 ae95 1a00
000002f0: bb71 3980 c820 dfae f9d6 d4a6 28c5 42af
00000300: 7cf2 a281 18e1 3c80 5b85 1980 5958 82af
00000310: e462 6301 3130 5d82 0524 77a9 049f c401
00000320: 9ae7 d59e 1990 f09d b76c 30b1 d2d5 75b2
00000330: 90db 6233 4aea c530 40ce 2fa9 c4c7 39b7
00000340: 047e dbb4 edbf 11b5 3811 2a80 96b0 e7b3
00000350: c5c0 ce32 5bfc 27b0 a423 1f01 e1bf cfa7
00000360: b105 4baf 5bea 1897 184e c91b 1bfe c8ab
00000370: 783d 73a6 81f9 882d 062c 0900 1b00 1c80
00000380: 8db0 4daa 06e1 3200 6773 b0a3 6103 5eb8
00000390: 190a f3ae 9475 1500 c76e 3080 d0d8 39b3
000003a0: b490 3080 bb1c 3bb5 5f71 8cb5 86ff 279a
000003b0: e964 16b3 1778 07af 1db1 e2ab d21f ba98
000003c0: cf30 f737 eede 0980 ff5f c8aa caab 24b4
000003d0: d512 92b9 66a3 1aad 03c3 08b5 ce7a ccae
000003e0: 63d0 0300 f42f b6a6 d841 339c 7e11 3999
000003f0: 1146 8499 58b0 ea2a e1f7 1b00 0f76 4bb0

f0.2.bias f4 [256]
-0.00060885795 -0.036916323 -3.7716067e-36 0.007829041 0.12035631 0.070953116 -0.0036722426 0.13470407
-3.7386024e-05 0.029207956 -0.045345254 -0.012394096 -0.047935028 0.011706951 -0.022272106 -0.017497543
-0.017285604 -0.01536738 -0.0018437746 -0.0025316987 0.070693575 0.047058173 -0.02654856 -0.0022509592
0.094311655 -0.011728512 -0.06424235 -0.02130372 0.1008027 0.17629941 0.014352455 0.14432317
-0.038223613 -0.092971 -0.107065536 -0.0259818 0.032394703 -0.05890266 -1.3325847e-08 -0.11067816
-8.278556e-18 -0.0005787472 -0.0051229508 -0.046616863 -0.030169284 -0.008012002 0.12164434 -0.083558805
0.20588462 -0.031359583 -0.010106477 -0.00326896 -0.009054889 -0.03620271 -0.007418353 0.14490114
0.028185636 -0.02681691 -0.029260715 -0.0154664 0.06573508 -0.025325768 -0.017057385 0.067662805
-0.0146242175 -0.026729539 -0.059259266 -0.031294603 0.012400091 -0.064958006 -1.1143168e-36 0.11406844
0.018042983 0.109882586 -0.0033313513 -0.03201813 -0.010021052 0.04460155 0.1480162 0.043477457
-0.022029348 -0.037734237 5.648774e-05 0.006865525 0.08828605 -0.05260449 -0.0126080895 -0.0029580418
-0.11368916 -0.05846035 -0.022124674 -1.0186887e-11 -0.08480944 0.17486112 -0.020050935 0.095634185
-0.010714454 -0.041792408 -1.2156444e-08 -0.079557545 0.0053463504 -0.043416012 0.14109688 0.005025103
-0.011085086 0.116495885 0.07212201 0.09283559 -0.03194538 -0.0056041214 -0.0009795969 -0.040261906
-0.05083007 -0.0005035672 -0.004879388 -0.029289339 0.014579309 0.08818834 -0.0195358 -0.0525901
-0.019210583 -0.0030940452 -0.024509545 -0.00029678017 0.033184186 -0.018965472 -0.011141837 -1.4664073e-09
0.005201948 -3.761197e-16 0.109731935 -0.0027596003 -0.073453486 -0.025833039 -0.047368933 -0.060229406
-0.024275957 0.011354073 -0.01619744 0.11899735 -3.4728207e-22 -0.0030213268 -0.011419763 0.033630718
0.0075090015 -6.5440014e-07 -3.4374727e-06 -0.046431154 -0.016530706 -0.11263645 -0.071213335 -0.0001240432
-0.026295763 -0.0016687341 -0.007971438 -0.064437374 -6.006062e-17 -0.06341427 0.0050101797 -0.01023573
0.08274558 0.14796369 -2.8917485e-11 0.023895714 -0.007958981 0.15923499 0.09030213 -0.049977537
0.11308114 0.13932346 0.022079479 0.014345968 -0.0584141 -0.007220183 -0.0015982605 -0.032369524
-0.019464768 -0.02438643 -0.00011169963 -0.0034992334 0.15768217 0.11309461 -0.09752088 -0.09637367
9.64905e-40 -0.00050312036 0.0116220275 -2.0594027e-07 -0.0017859505 2.9115386e-05 -0.0010232098 -0.016016446
-5.0196454e-06 -0.10787542 -5.1465175e-08 -0.06466109 -0.036013395 -0.036538523 -0.0037247562 -0.08529456
-0.003886256 0.10163579 0.13962743 -0.090093635 -1.2188235e-10 0.17013374 -0.030283049 -0.023650957
-0.0054214606 -0.0051279888 -0.044234768 -0.010393617 -0.04785211 -0.016902274 -0.027206164 -0.010223207
0.007850545 -1.7616189e-19 -0.021187706 -0.0699187 0.12317437 0.061201263 0.091861345 0.058446232
-0.00019531588 -0.061264608 -0.0027395415 -1.2329813e-05 0.162627 0.085355125 0.02062471 0.09422742
-0.037627935 -0.034559097 -0.025298113 -0.00583087 -0.00072463346 0.15646166 -0.01630844 -0.00035463192
-0.019895075 0.12784335 0.12601215 -0.05324463 -1.4153029e-11 -0.037176933 -0.0030105298 -0.006816893
-0.027947264 -0.014410601 0.094308175 -0.0058135577 -2.688486e-08 -0.040164433 -0.019009966 -0.0001800019
00000000: c49b 1fba 9235 17bd 296d a084 6145 003c
00000010: 5e7d f63d de4f 913d 02aa 70bb ddef 093e
00000020: f0ce 1cb8 8645 ef3c f2bb 39bd 9b10 4bbc
00000030: 8557 44bd 83ce 3f3c fe73 b6bc 0257 8fbc
00000040: 8a9a 8dbc 77c7 7bbc cfaa f1ba dbea 25bb
00000050: cbc7 903d 12c0 403d 5e7c d9bc d484 13bb
00000060: 7826 c13d f228 40bc 7e91 83bd 2485 aebc
00000070: a571 ce3d d587 343e 8f26 6b3c 74c9 133e
00000080: 5d90 1cbd 9467 bebd 2d45 dbbd c9d7 d4bc
00000090: 4fb0 043d ea43 71bd b2ef 64b2 3bab e2bd
000000a0: 60b6 18a3 11b7 17ba 6dde a7bb 53f1 3ebd
000000b0: 9325 f7bc c644 03bc ab20 f93d e120 abbd
000000c0: 6bd3 523e e872 00bd a395 25bc 0c3c 56bb
000000d0: f55a 14bc 4b49 14bd a815 f3bb f760 143e
000000e0: 90e5 e63c 23af dbbc 2bb4 efbc c966 7dbc
000000f0: 1da0 863d fc77 cfbc eebb 8bbc cc92 8a3d
00000100: 6a9a 6fbc e8f7 dabc d8b9 72bd c52e 00bd
00000110: c029 4b3c b408 85bd 5897 bd83 b79c e93d
00000120: e1ce 933c 1f0a e13d cd52 5abb 7125 03bd
00000130: 572f 24bc 1db0 363d 8f91 173e 6b15 323d
00000140: e476 b4bc 378f 1abd 40ed 6c38 33f8 e03b
00000150: 51cf b43d ce77 57bd 2992 4ebc b5db 41bb
00000160: ddd5 e8bd 1f74 6fbd ce3e b5bc a935 33ad
00000170: 92b0 adbd cb0e 333e dc41 a4bc dbdb c33d
00000180: ad8b 2fbc 842e 2bbd 9bd8 50b2 11ef a2bd
00000190: 7030 af3b fdd4 31bd b37b 103e 9fa9 a43b
000001a0: 389e 35bc 6595 ee3d b4b4 933d 9620 be3d
000001b0: 29d9 02bd c7a2 b7bb d165 80ba abe9 24bd
000001c0: 3133 50bd d301 04ba 46e3 9fbb 32f0 efbc
000001d0: 0ede 6e3c 179c b43d 8b09 a0bc b768 57bd
000001e0: 835f 9dbc 77c5 4abb 3ec8 c8bc 2999 9bb9
000001f0: 24ec 073d 7a5d 9bbc 408c 36bc 9f8a c9b0
00000200: 1a75 aa3b 79d1 d8a5 23bb e03d 69da 34bb
00000210: c86e 96bd cf9f d3bc ed05 42bd 1cb3 76bd
00000220: 5fde c6bc 6f06 3a3c 7eb0 84bc e2b4 f33d
00000230: 4ceb d19b 7401 46bb f519 3bbc 5dc0 093d
00000240: 120e f63b 09aa 2fb5 55af 66b6 982e 3ebd
00000250: 676b 87bc f0ad e6bd 4cd8 91bd 9811 02b9
00000260: 366a d7bc 6db9 daba a29a 02bc bef7 83bd
00000270: 887d 8aa4 57df 81bd 6f2c a43b c3b3 27bc
00000280: 8476 a93d cb83 173e 635c fead f2c0 c33c
00000290: 6366 02bc 7f0e 233e 53f0 b83d 3fb5 4cbd
000002a0: 1697 e73d cfaa 0e3e 06e0 b43c 5a0b 6b3c
000002b0: a043 6fbd 4997 ecbb b97c d1ba e895 04bd
000002c0: 9474 9fbc 0dc6 c7bc 4840 eab8 6553 65bb
000002d0: 6f77 213e 269e e73d 07b9 c7bd 8f5f c5bd
000002e0: c381 0a00 d6e3 03ba 516a 3e3c 6e20 5db4
000002f0: 8e16 eaba d13c f437 391d 86ba ec34 83bc
00000300: 6d6e a8b6 caed dcbd 8f0a 5db3 096d 84bd
00000310: c882 13bd 6ba9 15bd 0a1b 74bb eaae aebd
00000320: 8eb0 7ebb 6d26 d03d 7efa 0e3e 0383 b8bd
00000330: d502 06af 8a37 2e3e 2814 f8bc a7bf c1bc
00000340: 82a6 b1bb b008 a8bb 842f 35bd fd49 2abc
00000350: 9300 44bd a376 8abc 76df debc 3d7f 27bc
00000360: 939f 003c aaf9 4fa0 d791 adbc 8931 8fbd
00000370: d842 fc3d 2dae 7a3d cd21 bc3d 5165 6f3d
00000380: b5cd 4cb9 99f0 7abd e189 33bb 25dc 4eb7
00000390: b187 263e abce ae3d 27f5 a83c 4efa c03d
000003a0: c01f 1abd d78d 0dbd fd3d cfbc e210 bfbb
000003b0: 54f5 3dba 7c37 203e 4799 85bc e4ed b9b9
000003c0: fffa a2bc 5ee9 023e 5409 013e 0b17 5abd
000003d0: 93fb 78ad d746 18bd 4f4c 45bb 3e60 dfbb
000003e0: a9f1 e4bc 711a 6cbc a524 c13d a87f bebb
000003f0: 6ff0 e6b2 7683 24bd caba 9bbc e4be 3cb9

f0.4.weight f4 [130, 256]
5.711805e-39 0.020642102 5.952587e-39 0.014091943 -0.046513047 0.2273353 1.4128257e-07 -0.07361447
1.834172e-39 0.009039878 0.053555112 5.797822e-05 0.00026745943 0.03691358 0.02538161 -0.006708942
0.15003102 2.3929873e-08 -0.05574431 0.042074896 -0.08001428 -0.024091471 1.8680767e-05 2.660662e-39
-0.026121639 6.662855e-39 0.08337468 0.0013088261 -0.027276395 -0.11707548 0.0023641768 -0.08259756
0.20324828 0.0555672 0.1297002 -0.0728316 -0.07055517 -0.058403328 -0.011678362 0.16551697
3.764415e-39 3.948507e-39 3.6128343e-11 0.10705115 0.027885042 0.008290842 -0.056933623 0.2102808
-0.028071715 -4.48864e-39 0.009530025 0.019703276 0.01810894 -0.013900043 -0.010771907 -0.028833242
0.20441163 0.030044029 0.02029384 -4.076509e-39 -0.0790671 0.013846609 -1.4333606e-21 0.011055443
0.0022329285 0.0043514515 -0.026403721 -0.029810302 0.05812902 0.007870422 -1.6561366e-13 -0.11701681
0.082218274 -0.043222316 -2.1898786e-26 -0.05264475 -3.05769e-39 0.036645204 -0.085834496 0.037682563
-0.04588764 -0.033180065 -0.0015356364 0.15965553 -0.055707335 -0.0029065653 0.06361223 -0.0015981206
0.027534233 0.0094675915 0.04336047 1.118152e-39 -0.00013556637 -0.11549445 -0.02353619 0.005684278
-6.196093e-39 -0.03377468 1.443067e-39 0.032158583 -0.015491396 0.004919337 -0.043572064 0.0072560273
-0.011792584 0.0031969221 -0.030250143 0.018212335 -0.004644458 -2.207875e-39 2.205965e-39 0.07542573
-0.025073737 -2.043659e-39 3.85029e-40 0.050017223 -0.0009899536 0.015240303 4.698693e-06 0.060996305
6.512119e-09 -0.029806495 -0.06863946 0.02363495 0.005196992 -0.034696322 0.008682507 -1.6331983e-22
0.0699567 -2.168639e-37 -0.036563087 -3.363217e-39 -0.04082201 0.10337214 0.047177073 -0.06214937
0.018642154 0.03124656 0.05455951 -0.063231 3.2274e-38 6.216332e-39 -4.663733e-39 0.16088322
-0.06069829 -0.017186342 -4.1933877e-21 1.4626941e-20 -0.019312052 0.004801863 0.08667051 -1.5815506e-37
1.020827e-28 -0.0022451696 0.09169018 -0.016506938 -1.8252862e-05 2.585007e-29 0.09358615 -0.02443161
-0.0041231867 -0.031543754 -0.0022733076 0.032337334 -3.517441e-39 -0.07841243 -0.08886809 0.011128544
-0.0067702206 -0.07475393 0.16654831 0.07407374 -0.034157615 0.000951661 -3.424155e-39 0.06220493
0.027805472 0.039385002 1.9329513e-16 -3.706516e-39 -0.047928687 -0.06442444 0.099690154 0.0022283532
5.61048e-39 1.4581621e-09 0.017553758 4.040231e-39 -0.07643442 3.8262344e-05 -0.000249009 0.014980782
-6.4193486e-09 0.042682454 -0.014490425 0.012376315 -0.0336932 0.06790855 0.02477456 0.012003044
0.033000167 -0.06850872 -0.10457519 -0.042526636 -1.902677e-39 -0.044343166 0.024015812 -0.047781494
1.078025e-39 -0.020725893 0.0146095585 0.0089290645 0.045522615 0.024693416 0.015056481 0.036235485
0.08211693 2.500738e-39 -0.05869656 0.026121069 -0.08154673 -0.027937861 -0.041343782 -0.037808757
-0.026113585 -0.026577415 -4.0188634e-11 -0.0019244261 -0.10635566 -0.046857264 -0.0352768 -0.06603573
-0.022479042 -0.010654897 0.03881393 -0.0029316093 0.004456914 -0.10809513 0.106112346 3.357697e-39
-0.01363004 0.17973277 -0.05694528 0.034046378 6.448077e-33 0.04806316 0.0093202675 -0.029700525
0.0649481 0.060541857 -0.017023057 0.012584327 -2.901048e-39 2.0174251e-05 0.061745577 -0.009825325
00000000: 3032 3e00 a019 a93c 64d1 4000 e5e1 663c
00000010: 7784 3ebd 96ca 683e 75b3 1734 2fc3 96bd
00000020: edf8 1300 ff1b 143c 9b5c 5b3d a42d 7338
00000030: cc39 8c39 b232 173d 18ed cf3c afd6 dbbb
00000040: bba1 193e 598e cd32 2554 64bd ba56 2c3d
00000050: 87de a3bd 7a5b c5bc a4b4 9c37 d8f8 1c00
00000060: 0cfd d5bc 548d 4800 58c0 aa3d eb8c ab3a
00000070: bf72 dfbc 45c5 efbd 4ef0 1a3b e928 a9bd
00000080: 5120 503e 6f9a 633d 21d0 043e bc28 95bd
00000090: 3b7f 90bd 5438 6fbd 9a56 3fbc 487d 293e
000000a0: a8fd 2800 d5fe 2a00 e6e4 1e2e a23d db3d
000000b0: 2c6f e43c 50d6 073c 3b33 69bd da53 573e
000000c0: a7f6 e5bc 81e0 3080 d223 1c3c c468 a13c
000000d0: 3359 943c 02bd 63bc a77c 30bc b133 ecbc
000000e0: 4851 513e e51e f63c 443f a63c a663 2c80
000000f0: efed a1bd e3dc 623c 749a d89c e421 353c
00000100: 5356 123b 9f96 8e3b 9e4c d8bc bc34 f4bc
00000110: b218 6e3d f1f2 003c e376 3aaa 82a6 efbd
00000120: 0e62 a83d e209 31bd 05e0 d894 05a2 57bd
00000130: 984b 2180 4819 163d ffc9 afbd 0859 1a3d
00000140: aef4 3bbd d2e7 07bd 6847 c9ba bd7c 233e
00000150: 602d 64bd 137c 3ebb 2147 823d 0778 d1ba
00000160: 798f e13c f51d 1b3c c09a 313d f42c 0c00
00000170: d226 0eb9 5b88 ecbd f8ce c0bc 2e43 ba3b
00000180: 3078 4380 5257 0abd afb6 0f00 b8b8 033d
00000190: a0cf 7dbc 6432 a13b 9f78 32bd f8c3 ed3b
000001a0: af35 41bc 7483 513b 26cf f7bc 0932 953c
000001b0: 8a30 98bb a80a 1880 5505 1800 ce78 9a3d
000001c0: 7067 cdbc e440 1680 4e31 0400 dcde 4c3d
000001d0: 55c1 81ba 77b2 793c 77a9 9d36 43d7 793d
000001e0: 34c1 df31 c02c f4bc d892 8cbd 159e c13c
000001f0: 874b aa3b bb1d 0ebd 1341 0e3c 0a71 459b
00000200: 7545 8f3d 0597 9382 2dc3 15bd 489f 2480
00000210: fb34 27bd c6b4 d33d bf3c 413d 5690 7ebd
00000220: 6eb7 983c c9f8 ff3c cb79 5f3d 417f 81bd
00000230: 64b7 2f01 9bb0 4300 97c8 3280 92be 243e
00000240: c59e 78bd 5fca 8cbc f56b 9e9d c625 8a1e
00000250: 4f34 9ebc f258 9d3b 4f80 b13d ff44 5782
00000260: bb67 0111 b223 13bb 10c8 bb3d 8f39 87bc
00000270: b91d 99b7 4f13 0310 18aa bf3d cd24 c8bc
00000280: cc1b 87bb 0634 01bd c6fb 14bb 2774 043d
00000290: 324d 2680 b296 a0bd 7900 b6bd 7f54 363c
000002a0: bad8 ddbb 9718 99bd a48b 2a3e f9b3 973d
000002b0: dbe8 0bbd e378 793a 2749 2580 99ca 7e3d
000002c0: 4dc8 e33c 2b52 213d a7da 5e25 425c 2880
000002d0: df50 44bd f6f0 83bd 5a2a cc3d 9009 123b
000002e0: bc17 3d00 8568 c830 e6cc 8f3c 85fe 2b00
000002f0: a689 9cbd e17b 2038 6c8d 82b9 f471 753c
00000300: 3091 dcb1 ccd3 2e3d 3f69 6dbc 07c6 4a3c
00000310: e201 0abd a313 8b3d 05f4 ca3c 6aa8 443c
00000320: 2f2b 073d 4d4e 8cbd 842b d6bd 6930 2ebd
00000330: e4b7 1480 2ea1 35bd cfbc c43c 87b6 43bd
00000340: 18bd 0b00 59c9 a9bc ee5c 6f3c 364b 123c
00000350: ec75 3a3d d949 ca3c 75af 763c a96b 143d
00000360: ec2c a83d 0a3b 1b00 ce6b 70bd dafb d53c
00000370: f901 a7bd f1dd e4bc 1958 29bd 5bdd 1abd
00000380: 28ec d5bc e1b8 d9bc 61c0 30ae 063d fcba
00000390: ffd0 d9bd 67ed 3fbd 687e 10bd be3d 87bd
000003a0: f825 b8bc e191 2ebc 5bfb 1e3d 3e20 40bb
000003b0: 4e0b 923b fb60 ddbd 6e51 d93d e58f 2400
000003c0: 8850 5fbc de0b 383e 743f 69bd 3774 0b3d
000003d0: dceb 050a e0dd 443d 09b4 183c 844e f3bc
000003e0: 8203 853d bdfa 773d f073 8bbc 7e2e 4e3c
000003f0: f196 1f80 e03b a937 eee8 7c3d 66fa 20bc

f0.4.bias f4 [130]
-0.08464378 -0.091845155 -0.11322947 -0.07865922 -0.037942283 -0.03781976 -0.0679289 -0.05552091
-0.10231174 -0.06039506 4.643546e-39 -0.08719619 -0.13354595 -0.037404113 -0.042195708 -0.067705795
-0.055538658 -0.06268415 -0.042770877 -0.047077548 -0.11680511 -0.07180252 -0.058149446 -4.66344e-40
4.242327e-39 -1.571287e-39 -0.043713596 -0.029663237 8.98084e-40 -0.13305019 -0.060334943 -4.61011e-39
-3.472384e-39 0.0002704112 -0.12550399 1.214037e-39 -0.061156332 -0.15683123 -0.083328985 -0.03900556
-0.17225587 -0.058959436 -3.9972117e-38 -0.13911189 -0.065955766 -0.13658622 -0.05344302 -0.05908043
-0.09678658 -0.097816885 7.797743e-38 3.65127e-40 -0.10735918 -0.082128815 -0.13620101 -0.10727032
-0.12410833 -0.08074358 -0.029175634 -9.0802425e-38 -0.09950001 7.063581e-39 2.846396e-39 -0.055785384
-0.08126852 -0.081247516 -0.03447929 -0.06773414 -3.338985e-39 -0.022414831 0.007421776 -0.14641559
-0.17441253 -0.049006645 -2.715705e-39 5.171708e-39 -0.04856721 -4.810166e-39 -0.10928502 -0.069383144
-0.10873056 -0.061060168 -0.10030171 2.119186e-39 -0.070485875 -0.13123511 -0.12534939 -0.058528606
-1.780224e-39 -0.03075438 -0.09490702 -0.050512165 -0.15995863 -0.05412549 1.603622e-39 -0.012035979
-0.014711329 -0.040654782 -0.1299915 3.28229e-39 6.504836e-39 -2.71959e-39 -0.018979816 1.893505e-39
-0.111827746 -6.468043e-39 -0.043532684 -0.08136189 -0.16045488 6.866065e-39 -0.096288726 -0.1147973
-0.07839548 4.239351e-39 -0.10783013 -0.07173175 -0.09573411 -0.11876894 -0.094439454 0.0041178456
3.307828e-39 -0.122987755 -0.035064768 -0.09551655 -4.478107e-39 -2.853519e-38 5.153987e-39 2.205452e-39
-0.11601286 5.463269e-38
00000000: b859 adbd 5019 bcbd dae4 e7bd 1618 a1bd
00000010: 5e69 1bbd e5e8 1abd 4f1e 8bbd e569 63bd
00000020: d188 d1bd cf60 77bd 5190 3200 eb93 b2bd
00000030: 45c0 08be 0e35 19bd 68d5 2cbd 56a9 8abd
00000040: 817c 63bd 8c60 80bd 8430 2fbd 63d4 40bd
00000050: 8437 efbd 330d 93bd 1d2e 6ebd fa13 0580
00000060: e231 2e00 1c1c 1180 070d 33bd 5100 f3bc
00000070: 7ec7 0900 4f3e 08be c621 77bd 1c33 3280
00000080: 98cf 2580 fac5 8d39 1e84 00be 3e38 0d00
00000090: 107f 7abd 5e98 20be 63a8 aabd 4bc4 1fbd
000000a0: d863 30be 737f 71bd 00a1 5981 5973 0ebe
000000b0: d113 87bd 42dd 0bbe 11e7 5abd 52fe 71bd
000000c0: 0b38 c6bd 3854 c8bd 5646 d401 d3f9 0300
000000d0: 21df dbbd 2733 a8bd 4778 0bbe 8bb0 dbbd
000000e0: 822c febd e45c a5bd bd01 efbc 0e30 f781
000000f0: a9c6 cbbd 64ea 4c00 98fe 1e00 377f 64bd
00000100: 1c70 a6bd 1965 a6bd 283a 0dbd 32b8 8abd
00000110: bb5b 2480 4f9f b7bc 5f32 f33b f8ed 15be
00000120: 3399 32be 31bb 48bd 4892 1d80 9e50 3800
00000130: 69ee 46bd c960 3480 d3d0 dfbd c018 8ebd
00000140: 21ae debd 3a1a 7abd fc6a cdbd 6e13 1700
00000150: e65a 90bd 7f62 06be 975b 00be b1bb 6fbd
00000160: 8a62 1380 9cf0 fbbc 9d5e c2bd d8e5 4ebd
00000170: 32cc 23be b1b2 5dbd 3f76 1100 8e32 45bc
00000180: c907 71bc a185 26bd 7e1c 05be b0bd 2300
00000190: d6d4 4600 1c9d 1d80 8f7b 9bbc 529e 1400
000001a0: f205 e5bd 466e 4680 544f 32bd 10a1 a6bd
000001b0: 494e 24be ccc3 4a00 0633 c5bd d91a ebbd
000001c0: cf8d a0bd 9629 2e00 0bd6 dcbd 19e8 92bd
000001d0: 3f10 c4bd 213d f3bd 7969 c1bd feee 863b
000001e0: e104 2400 01e1 fbbd 13a0 0fbd 2e9e c3bd
000001f0: 24c3 3080 405c 1b81 381f 3800 e703 1800
00000200: 2698 edbd 6eb9 9401
