model/model.pth (torch, 799111 bytes, 6 tensors)

f0.0.weight f4 [256, 390]
0.019927481 0.0013749263 -2.204072e-06 0.009462758 2.808835e-05 -0.000361269 0.004500015 -1.1977084e-05
-0.004589285 0.006030202 -1.2172994e-05 1.6238724e-05 0.002376748 0.021195939 5.153539e-39 0.0068691266
-1.009722e-39 0.00069973955 0.005339703 -1.2623918e-05 -0.0038987272 0.005484254 3.9252336e-05 1.6589981e-06
0.009916788 -3.916167e-05 -1.685552e-39 0.017482312 5.066329e-39 -3.636692e-39 0.002296988 4.73764e-39
3.426371e-39 0.0016740335 0.0003305676 7.98305e-05 0.011781694 6.0585662e-05 0.0002014186 0.0032290781
1.7061409e-06 2.6621165e-06 -0.00018277566 -3.2044659e-06 -4.878574e-39 0.0032502296 5.927927e-05 -0.006963365
2.8312319e-05 4.680052e-39 1.957886e-39 -0.0013577867 0.0003239428 -0.0063625923 0.010849169 0.0023776314
-0.0056978017 0.0020115227 0.00048953877 -1.7799302e-05 0.009429712 1.581395e-39 4.988264e-39 -0.0031791944
-8.807778e-06 -2.9470708e-38 0.009709273 1.988844e-06 -0.00045005744 0.0007891902 2.572394e-39 -3.357433e-39
0.0068388227 6.036906e-39 -5.003803e-39 0.0001550742 2.308771e-39 2.0405809e-38 0.019921944 0.0014190626
-5.0901348e-05 0.009461083 0.0015933772 -3.443579e-39 0.004494897 0.023479406 -9.511768e-06 0.005439068
-1.0573284e-05 -2.269406e-39 0.0024734882 -0.0005622685 -3.298459e-05 0.006869244 -2.95729e-40 -3.477374e-39
0.0053440654 1.716204e-39 -1.029122e-38 0.0054658838 1.1136907e-05 -0.004294362 0.009913203 0.00011073953
-0.010307003 0.01748262 -8.03371e-38 3.609871e-39 0.0022965637 3.380099e-39 -2.774658e-39 0.0016599947
0.0006304581 3.6218244e-06 0.011801142 -4.618984e-39 -1.877712e-39 0.0032286872 -6.952811e-06 -4.057091e-39
-0.00018201045 0.00038760374 0.0019041983 0.003250396 0.0006750667 -0.00010445878 2.8398426e-05 -2.384982e-39
-4.7639305e-38 -0.0013567832 0.019024495 -0.0058395076 0.010814234 6.916383e-39 1.272613e-39 0.002077073
0.00018518596 -1.1091355e-05 0.009405908 0.000108355904 -9.297692e-05 -0.003179134 -7.5368e-40 3.8197238e-38
0.00970861 -4.516046e-06 -0.007058118 0.0007891552 2.855427e-39 8.40676e-39 0.006838472 3.750972e-39
-2.824817e-39 0.00015508595 1.670908e-39 6.27785e-39 0.020760074 0.0011800684 -0.0062205056 0.009415323
3.094207e-06 -1.9028759e-38 0.004538915 4.629638e-05 1.9453044e-05 0.0055891797 -9.691458e-06 -2.0340347e-05
0.008690194 -0.0029305145 -0.0001896327 0.006869303 3.8304614e-07 -6.188267e-39 0.0053915167 1.06516e-06
-3.84413e-40 0.0054708566 -2.765938e-39 -2.777016e-39 0.009917932 -0.00750014 5.1722775e-05 0.017479502
7.74262e-40 1.0009817e-38 0.00229664 -7.027763e-39 -5.130802e-39 0.0015565227 0.00017412874 -0.00043425892
0.011785012 -0.002277118 2.8922444e-05 0.0034089275 4.6150944e-07 -0.00012804738 0.0028821586 0.023649909
-0.0034265437 0.0037674233 -1.2105898e-05 6.0795984e-38 2.9078063e-05 -4.252501e-39 5.462333e-39 -0.0013598661
0.0034610257 -1.3722798e-05 0.010953521 0.0006413905 -0.0066559818 0.0020356397 0.00021048072 3.1467105e-06
0.009365002 9.390797e-05 8.478721e-06 -0.0031790494 -3.2078177e-38 -1.0626756e-05 0.0097087845 -8.625487e-39
-6.173387e-39 0.0007893782 -1.236006e-38 -0.006983767 0.006838709 1.0666609e-05 1.432481e-37 0.0001552297
5.683496e-39 1.647835e-39 0.01996556 -0.0029912768 -0.00234377 0.009444894 -3.116391e-39 -2.5118858e-38
0.0048422012 0.01874485 -7.12591e-06 0.005179641 -7.531788e-06 4.202784e-39 0.003915415 0.00023139286
0.00056383485 0.006869929 8.291776e-38 -3.361035e-39 0.005291511 9.728736e-06 -1.7942051e-05 0.005470318
00000000: f53e a33c df36 b43a abe9 13b6 af09 1b3c
00000010: 469f eb37 b468 bdb9 dd74 933b 2ff1 48b7
00000020: b661 96bb 0099 c53b 9c3a 4cb7 6538 8837
00000030: 37c3 1b3b 1ba3 ad3c f81d 3800 6916 e13b
00000040: b2fe 0a80 ba6e 373a adf8 ae3b 51cb 53b7
00000050: ca81 7fbb 42b5 b33b e0a2 2438 beaa de35
00000060: 067a 223c 8641 24b8 a25a 1280 1137 8f3c
00000070: dd2a 3700 9e99 2780 1089 163b 9d96 3300
00000080: 544f 2500 3e6b db3a 0850 ad39 ac6a a738
00000090: 0208 413c 5c1d 7e38 e533 5339 f19e 533b
000000a0: 8efe e435 d0a6 3236 78a7 3fb9 4e0c 57b6
000000b0: 7b1f 3580 ce01 553b a2a2 7838 f02c e4bb
000000c0: 3e80 ed37 15f6 3200 ca51 1500 c3f7 b1ba
000000d0: ded6 a939 4b7d d0bb b7c0 313c 09d2 1b3b
000000e0: a0b4 babb c0d3 033b 6454 003a b64f 95b7
000000f0: 147f 1a3c 4938 1100 4051 3600 085a 50bb
00000100: 1ec5 13b7 2c74 2081 a513 1f3c 1478 0536
00000110: b0f5 ebb9 a8e1 4e3a ca02 1c00 288f 2480
00000120: 3418 e03b 70bc 4100 917c 3680 6a9b 2239
00000130: ea23 1900 1833 de00 5833 a33c d7ff b93a
00000140: e87e 55b8 a902 1b3c ded8 d03a 4c7f 2580
00000150: ee49 933b e257 c03c bc94 1fb7 363a b23b
00000160: e963 31b7 2eb6 1880 3f1a 223b 3365 13ba
00000170: ef58 0ab8 6517 e13b 5f38 0380 81dd 2580
00000180: 451d af3b 14b0 1200 bc0f 7080 281b b33b
00000190: a7d8 3a37 b8b7 8cbb fd6a 223c d53c e838
000001a0: b4de 28bc b637 8f3c cab2 da81 da4e 2700
000001b0: f281 163b 57ce 2400 9e36 1e80 2e94 d93a
000001c0: 5445 253a 780e 7336 9459 413c d94b 3280
000001d0: 4c72 1480 6298 533b 314c e9b6 852d 2c80
000001e0: 0fda 3eb9 4b37 cb39 4b96 f93a 9904 553b
000001f0: f6f6 303a e110 dbb8 2839 ee37 5cf8 1980
00000200: c0af 8181 17d6 b1ba 42d9 9b3c 5759 bfbb
00000210: 2f2e 313c 1050 4b00 87db 0d00 811f 083b
00000220: 7a2e 4239 0215 3ab7 3d1b 1a3c 223d e338
00000230: 9bfc c2b8 0559 50bb f434 0880 2ef7 4f01
00000240: dd10 1f3c 8a88 97b6 c947 e7bb 4fdf 4e3a
00000250: c517 1f00 a08a 5b00 4315 e03b 2fd8 2800
00000260: 71c2 1e80 919e 2239 d031 1200 175c 4400
00000270: 0811 aa3c 86ac 9a3a 62d5 cbbb ba42 1a3c
00000280: 12a6 4f36 7034 cf80 2ebb 943b 5c2e 4238
00000290: 182f a337 7025 b73b 7f98 22b7 90a0 aab7
000002a0: 5161 0e3c e00d 40bb 24d8 46b9 e417 e13b
000002b0: 76a5 cd34 5f62 4380 52ab b03b 9ef6 8e35
000002c0: 962f 0480 df44 b33b 4f1e 1e80 313d 1e80
000002d0: d27e 223c bcc3 f5bb e8f0 5838 2c31 8f3c
000002e0: 546e 0800 4cff 6c00 3a83 163b 8b86 4c80
000002f0: 97de 3780 3c04 cc3a 5496 3639 3fad e3b9
00000300: ec15 413c b33b 15bb 7a9e f237 5068 5f3b
00000310: 60c5 f734 7544 06b9 99e2 3c3b 74bd c13c
00000320: dd8f 60bb e0e6 763b 701a 4bb7 9e80 a501
00000330: aaec f337 3e4e 2e80 c37a 3b00 893d b2ba
00000340: 60d2 623b f83a 66b7 6676 333c fd22 283a
00000350: 6c1a dabb 5e68 053b 7db4 5c39 132c 5336
00000360: aa6f 193c 75f0 c438 d43f 0e37 9957 50bb
00000370: 74a6 2e81 9249 32b7 9811 1f3c 59ec 5d80
00000380: e438 4380 46ee 4e3a d296 8680 15d8 e4bb
00000390: 4017 e03b bdf4 3237 aefa 4202 28c5 2239
000003a0: 46e3 3d00 7ef1 1100 d08e a33c 4c09 44bb
000003b0: ef99 19bb c2be 1a3c 3bef 2180 94c2 0881
000003c0: 54ab 9e3b cd8e 993c 1a1b efb6 fab9 a93b
000003d0: 91b9 fcb6 a7c3 2d00 e24c 803b 0ca2 7239
000003e0: 51ce 133a 241d e13b 3fb9 e101 3399 2480
000003f0: 6964 ad3b 9a38 2337 4382 96b7 5a40 b33b

f0.0.bias f4 [256]
0.0038276392 -0.0027057207 -3.7041303e-09 0.0111412825 9.771387e-30 -5.8229375e-08 2.3506073e-22 2.5843716e-24
-2.0288155e-06 -0.004280372 0.020001194 -4.1666974e-07 -2.3063067e-18 -3.1676624e-05 -0.0017002375 7.4017455e-27
5.567984e-09 -1.2027296e-25 9.836128e-29 0.01290756 0.00789048 -3.8532254e-24 -0.00030178984 -2.9860385e-18
0.0151098315 2.1329264e-33 -0.0025930312 -0.003327087 0.0064786836 -0.0044936314 -7.6768665e-25 -2.2282807e-27
0.027705915 -1.0656865e-12 -0.00011449567 -0.00012285713 -3.4415032e-05 -8.886108e-18 0.008986458 -0.002693277
0.013812599 8.6719705e-13 0.01762614 0.0026080892 2.3832036e-15 -0.0002062666 1.6905564e-25 -0.0037615146
-5.2565277e-09 -4.159363e-31 -1.204545e-25 0.02538475 -3.1241272e-09 -0.0040795677 0.0089141065 3.7887797e-30
0.01840122 7.5001535e-14 0.010917126 -1.6487607e-12 -5.8530736e-13 -0.0016482456 -1.1081371e-22 7.517706e-28
0.010683157 1.9645083e-26 7.72696e-29 0.0033808693 -3.1180443e-07 -9.8969385e-06 -1.8083259e-23 0.0013120987
0.016294792 0.011279269 0.006929747 -6.187615e-10 0.019435639 -2.3654547e-15 -0.0039805723 -1.3145346e-07
-4.0279223e-22 3.3104915e-32 5.345436e-10 1.8070318e-11 0.014609119 -1.20231955e-36 -2.9662044e-20 -1.9905938e-08
-2.0825252e-26 -4.0312116e-28 0.011900367 -0.0022302754 -5.4352584e-20 1.9447223e-32 -0.0034266927 -0.0043681166
-1.5109048e-17 7.053474e-28 -8.201307e-24 -3.8989996e-32 -2.1195206e-06 0.016696833 -0.00026671542 -1.4056772e-24
-4.168331e-10 -3.7236952e-35 0.01651864 1.2275398e-31 -5.635024e-17 -3.173621e-06 -6.826081e-29 -4.7007794e-05
-1.4167432e-16 0.0051987246 0.0013362137 -9.084246e-30 -3.2689889e-09 -4.2375902e-07 -0.00016701235 0.0032747407
-1.8706166e-07 -0.00012687198 1.9282386e-25 0.01084795 -0.00302702 0.02341648 -1.1690118e-07 -0.0029617834
-1.9448787e-13 -1.27576066e-20 0.008844189 -6.4806115e-24 -0.00021479426 -5.3801634e-09 -0.0020738188 -0.001032659
1.5074329e-33 -8.890338e-15 -0.0033432026 -1.0140752e-32 0.017458422 1.4569591e-29 -1.4902146e-25 6.5077975e-34
-3.42582e-40 -1.1029735e-24 -7.0218555e-08 3.3725606e-19 -5.730196e-07 0.009538472 -4.0264888e-19 -1.6313667e-24
0.01317906 0.01733837 7.21293e-29 -3.4329402e-09 -1.5463246e-36 -4.7543806e-05 -1.3818981e-11 0.0015663363
-3.745731e-30 9.581041e-16 -0.0023505683 -3.603788e-13 -0.0043024905 0.0067950254 0.0009385252 -2.6322138e-07
-7.752817e-22 -1.0692667e-29 -5.6885588e-06 0.008441237 -3.063875e-30 -0.0034411089 -5.124617e-33 -0.0037760672
0.008524029 0.0014161472 -0.0010642711 0.0018604848 1.5231691e-30 0.013101471 -7.688191e-09 0.016658463
-5.681538e-10 2.8881852e-26 -0.0002878527 -1.8243503e-05 -0.0001955701 -0.005073705 -2.8408565e-11 6.190198e-25
-0.00014407965 -0.0043580695 0.01087644 2.8079538e-19 1.5152892e-17 -8.870894e-05 -0.003739129 0.011415934
-0.0033108464 -2.7883785e-18 0.007439373 -0.0043456787 -4.2083274e-32 -1.9550455e-17 3.2509475e-24 -7.741744e-14
-1.0055629e-11 0.004651562 0.012833764 0.0052238903 -6.441145e-16 -2.564599e-13 -0.0031933333 6.879175e-05
1.6066151e-25 -0.00014305217 3.3906093e-21 0.020570563 0.016726302 7.080706e-24 0.011967606 3.8662663e-33
0.014812851 6.767192e-23 0.009013813 0.014664206 -3.3208303e-16 0.02594415 0.025240364 2.2910679e-33
-1.3312218e-08 -4.0669774e-18 -1.4306257e-15 6.56701e-29 -0.0023116956 -1.78231e-15 -0.0015679739 -3.6907267e-15
8.275196e-26 -1.526192e-17 -3.9102153e-26 -0.002966379 -0.003174114 0.014987599 -2.47944e-08 -0.00014908132
-3.8077082e-16 -9.628917e-05 0.0039598313 -3.5456155e-27 0.020000294 7.529107e-24 0.00023214829 -7.451763e-09
00000000: 21d9 7a3b 7652 31bb c08b 7eb1 ed89 363c
00000010: f12f 460f e017 7ab3 e315 8e1b c1f4 4718
00000020: c926 08b6 5d42 8cbb 8bd9 a33c a7b2 dfb4
00000030: e72c 2aa2 84dc 04b8 81da deba 4f9b 1214
00000040: 8150 bf31 06e4 1496 1f60 f910 3b7a 533c
00000050: 1247 013c 7f10 9598 8c39 9eb9 ac54 5ca2
00000060: 3a8f 773c 5432 3109 d8ef 29bb 420b 5abb
00000070: 234b d43b 503f 93bb 6796 6d97 e78a 3093
00000080: 84f7 e23c 67fb 95ab 651d f0b8 36d3 00b9
00000090: dc58 10b8 75eb 23a3 f03b 133c b181 30bb
000000a0: 3d4e 623c 2218 742b b264 903c 7aec 2a3b
000000b0: 59ba 2b27 4549 58b9 df47 5116 be83 76bb
000000c0: e89c b4b1 a3fa 068d 8e1d 1596 aef3 cf3c
000000d0: 3ab0 56b1 e5ad 85bb 790c 123c f0b0 990e
000000e0: 28be 963c 71e3 a829 bfdd 323c dd0a e8ab
000000f0: d7bf 24ab f209 d8ba 2ff7 059b e03e 6e12
00000100: 6808 2f3c 348e c214 d6e6 c310 9391 5d3b
00000110: 1366 a7b4 070b 26b7 fbe3 ae99 bafa ab3a
00000120: a87c 853c afcc 383c ee12 e33b 7815 2ab0
00000130: 7d37 9f3c f072 2aa7 766f 82bb a725 0db4
00000140: 1479 f39b fbe3 2b0b 29ef 1230 bdf2 9e2d
00000150: 165b 6f3c 6790 cc83 3613 0c9f 9ffd aab2
00000160: 493e ce94 2682 ff91 c2f9 423c d029 12bb
00000170: 1f56 809f 96f3 c90a 5d92 60bb 6b22 8fbb
00000180: 3b5b 8ba3 9488 5f12 e8a2 1e99 9872 4a8b
00000190: 163d 0eb6 ccc7 883c f0d5 8bb9 9c84 d997
000001a0: 0b28 e5af 50fc 4586 1952 873c 0258 1f0c
000001b0: 50ef 81a4 65fa 54b6 cc0f ad90 3c2a 45b8
000001c0: e156 23a5 105a aa3b e423 af3a 1a40 388f
000001d0: a9a4 60b1 ff80 e3b4 0920 2fb9 089d 563b
000001e0: 1edb 48b4 f008 05b9 52b4 6e16 9abb 313c
000001f0: f860 46bb ebd3 bf3c 1a0b fbb3 7b1a 42bb
00000200: 50f9 5aaa 00fc 709e 38e7 103c deb4 fa98
00000210: 653a 61b9 6bdc b8b1 e8e8 07bb 495a 87ba
00000220: 1b77 fa08 7327 20a8 a219 5bbb 7c9d 528a
00000230: f704 8f3c d2c0 930f c97a 3896 3842 5808
00000240: fbba 0380 48ad aa97 0fcb 96b3 b214 c720
00000250: 9bd1 19b5 4047 1c3c 94ae eda0 1871 fc97
00000260: fcec 573c 3309 8e3c 98de b610 ece8 6bb1
00000270: f88b 0384 c669 47b8 281b 73ad 864d cd3a
00000280: e5f1 978e cd13 8a26 fe0b 1abb 0fe0 caaa
00000290: e8fb 8cbb cea8 de3b 5c07 763a df50 8db4
000002a0: 8450 6a9c 80df 588f 59e0 beb6 1d4d 0a3c
000002b0: 3292 788e 3a84 61bb 46de d489 e577 77bb
000002c0: 5ea8 0b3c 049e b93a 037f 8bba 83db f33a
000002d0: f825 f70d 8da7 563c 0615 04b2 5477 883c
000002e0: 452c 1cb0 1904 0f15 efea 96b9 a009 99b7
000002f0: f311 4db9 5341 a6bb 67e2 f9ad cd93 3f17
00000300: 1614 17b9 23ce 8ebb 1933 323c 99c0 a520
00000310: c1c2 8b23 4009 bab8 2d0c 75bb e609 3b3c
00000320: c9fa 58bb fbbe 4da2 fcc5 f33b 3266 8ebb
00000330: 4482 5a8b 3552 b4a3 a687 7b18 1e54 aea9
00000340: 87e6 30ad 216c 983b b544 523c 2b2d ab3b
00000350: 43a7 39a6 c45f 90aa 3e47 51bb 4a44 9038
00000360: aae3 4616 4600 16b9 f617 801d 9983 a83c
00000370: 9905 893c f5f5 0819 c713 443c 3299 a009
00000380: 9ab1 723c e49e a31a acae 133c 2342 703c
00000390: ce6e bfa5 d388 d43c e1c4 ce3c a055 3e09
000003a0: c1b3 64b2 840b 96a2 c62c cea6 557e a610
000003b0: d17f 17bb d16d 00a7 7984 cdba f2f8 84a7
000003c0: 49e2 cc15 31c4 8ca3 de9f 4195 9567 42bb
000003d0: cc04 50bb 8c8e 753c 76fb d4b2 b652 1cb9
000003e0: db7f dba5 dbee c9b8 79c1 813b d074 8c93
000003f0: a8d7 a33c 55a2 1119 d56c 7339 3305 00b2

f0.2.weight f4 [256, 256]
-6.521393e-09 2.5042993e-12 -3.090886e-39 -2.37288e-08 6.316959e-36 8.639955e-36 -4.0428594e-27 6.6114154e-29
1.483493e-23 -9.449649e-13 -7.174846e-08 -1.3464332e-23 3.3084396e-24 -1.0591852e-23 7.5247986e-10 -2.971418e-31
-6.0759062e-15 1.9066109e-31 -2.2695556e-34 -2.3996408e-08 -1.191918e-08 2.0085877e-30 5.14469e-15 -6.7062964e-26
-4.408655e-08 -2.2875228e-38 7.668943e-10 -7.959226e-15 -1.1878875e-08 2.233229e-12 1.9341168e-29 -1.2846434e-33
-8.8227495e-08 -8.3280195e-20 -4.2806013e-15 -3.66943e-09 1.04539254e-22 5.543092e-34 -2.200023e-08 4.545201e-10
-3.5982573e-08 2.6084598e-19 -3.4859237e-08 -5.9528205e-09 -5.3688074e-20 -5.9643134e-19 -6.867446e-30 -1.5820644e-12
-2.251616e-39 1.213252e-36 7.6161936e-32 -6.565687e-08 1.3404692e-38 4.694395e-10 -1.5718072e-08 7.861419e-36
-4.8713616e-08 1.1221404e-19 -2.4890554e-08 9.271627e-21 -3.470475e-39 5.1414628e-12 6.3149303e-28 -2.9525185e-34
-2.8242123e-08 -3.1035705e-31 3.8426743e-34 -6.0252265e-09 5.748539e-25 5.1937592e-24 -8.337955e-29 -3.632401e-09
-3.7345572e-08 -2.8266975e-08 -1.5641843e-08 -5.4633603e-24 -3.9671715e-08 3.5463596e-27 1.1992802e-14 5.49653e-35
5.972195e-28 1.2079453e-38 3.6531655e-16 4.4993077e-17 -3.27615e-08 -4.322339e-39 -2.6091985e-30 -4.467567e-39
-5.850145e-30 -1.1123281e-34 -2.6127077e-08 -2.566723e-15 3.109906e-39 -1.9041807e-36 3.33344e-10 3.9201766e-14
-4.2777e-22 -2.4551645e-31 3.2758418e-31 -1.7897479e-36 4.516944e-25 -4.4117073e-08 4.436472e-21 -2.349002e-31
4.4026953e-20 -9.614384e-39 -3.4948783e-08 -2.7218443e-36 6.475538e-23 9.328287e-25 -1.673384e-32 3.1639633e-22
-4.972468e-39 -9.6275805e-09 -6.006659e-09 -8.33206e-35 2.1972832e-23 1.0272247e-34 3.3380774e-18 -5.9572356e-09
-4.4617125e-25 -3.756713e-09 -4.1567038e-30 -1.6547837e-08 2.8598848e-15 -7.193302e-08 5.6986776e-18 4.7975417e-16
9.924184e-32 5.4151475e-25 -1.6402508e-08 -3.4892295e-30 -7.120239e-17 3.789115e-24 -2.8563472e-09 -3.24808e-09
-1.0433598e-38 3.3147374e-23 1.3593914e-13 3.1434658e-37 -4.9298457e-08 9.933545e-35 -2.3252849e-31 -9.340879e-39
-6.856085e-39 -1.4420483e-29 2.668667e-29 -7.200303e-24 -3.1019817e-36 -1.2825076e-08 -1.8633579e-22 1.9961717e-30
-2.8543294e-08 -4.4708386e-08 3.7604626e-33 6.0250526e-17 4.8409e-39 5.9925306e-19 -7.538296e-34 -4.493115e-09
-1.708608e-36 1.1285718e-21 3.9182245e-17 1.97281e-21 8.591028e-11 -9.338541e-09 -4.0565418e-09 7.170846e-25
-1.424795e-26 1.908001e-31 1.8341578e-18 -2.353785e-08 -2.9943548e-36 3.1355923e-14 -1.3184196e-37 3.4636016e-10
-1.6898943e-08 -3.5151047e-09 -1.1657721e-12 -4.170233e-09 -9.415313e-36 -2.9623044e-08 2.6153833e-26 -3.9943238e-08
-5.4815876e-20 -3.3283267e-31 3.6277594e-13 -2.6161509e-24 1.6807376e-18 -1.8870246e-12 -5.6036715e-38 1.3712957e-29
1.5591815e-21 4.950197e-15 -1.3487892e-08 1.5843465e-24 -2.3033017e-23 -2.2033451e-14 9.546836e-14 -2.2014314e-08
-7.065301e-17 3.5576434e-26 -1.4496372e-08 3.8326975e-10 6.6170345e-38 1.5053575e-26 -6.439107e-29 -5.906312e-23
-4.805968e-26 -8.089733e-09 -2.56466e-08 -9.067598e-09 1.3961997e-22 5.642109e-26 4.9840487e-13 -3.0337528e-09
-3.966013e-30 -1.1795133e-22 -1.9708302e-26 -3.6454345e-08 -3.7966743e-08 1.4777221e-28 -1.9270121e-08 -4.564339e-38
-4.7853888e-08 -2.157389e-28 -1.6799293e-08 -2.3106532e-08 -7.339875e-23 -8.07218e-08 -7.662622e-08 -5.8427106e-38
3.158619e-38 -1.6873054e-22 2.1927177e-20 -1.6536174e-34 -1.4116746e-16 2.1747796e-21 1.4616885e-10 -6.1217154e-25
-3.2181453e-29 -3.810541e-23 -6.4902664e-32 5.3119953e-10 -4.2313118e-16 -3.6109416e-08 2.2960189e-25 4.145273e-21
2.4703509e-22 -2.1236179e-20 -6.351737e-09 -1.3785832e-32 -6.101812e-08 5.7933406e-30 -4.4547113e-09 4.0768805e-23
00000000: c812 e0b1 7239 302c 22a8 2180 2fd4 cbb2
00000010: cc58 0605 64c0 3705 7727 a093 8a9e a710
00000020: 8279 8f19 f3fd 84ab 2214 9ab3 1238 8299
00000030: 66fa 7f18 50e0 4c99 10d7 4e30 26db c08c
00000040: 58e8 daa7 047e 770c 7dd6 9687 a920 ceb2
00000050: 1cc5 4cb2 bcf4 220e 645b b927 340a a695
00000060: ad59 3db3 d416 f980 64cd 5230 7461 0fa8
00000070: d813 4cb2 4726 1d2c 8b24 c40f b072 d588
00000080: 9477 bdb3 caa3 c49f 9439 9aa7 4c29 7cb1
00000090: aac2 fc1a 6933 3808 04fb bcb2 04e0 f92f
000000a0: 428b 1ab3 eef9 9920 23b8 15b3 9089 ccb1
000000b0: e688 7d9f 1409 30a1 d149 0b8f e1a7 deab
000000c0: 9784 1880 946c ce03 4aba c50b 3fff 8cb3
000000d0: d4f6 9100 de09 0130 6804 87b2 a331 2705
000000e0: 3039 51b3 9d7a 0420 e8ce d5b2 d622 2f1e
000000f0: 46ca 2580 2ee6 b42c cd20 4812 803a c487
00000100: 1699 f2b2 e96e c98c b763 ff07 7406 cfb1
00000110: 9ee8 3117 80ec c818 6c64 d390 e09d 79b1
00000120: e465 20b3 bccf f2b2 c75c 86b2 805a d398
00000130: 8363 2ab3 5c7c 8c13 0a0b 5828 721f 9206
00000140: 3444 3d12 9a88 8300 3597 d225 737e 4f24
00000150: a6b5 0cb3 ec10 2f80 efae 538e c2a5 3080
00000160: 614f ed8e 90da 1387 0d6e e0b2 aff3 38a7
00000170: 27dd 2100 62fd 2184 ff41 b72f 8f8c 3029
00000180: 1a49 019c 6b59 9f8c 429d d40c 4241 1884
00000190: ebca 0b17 3c7b 3db3 ed9a a71d 7e75 988c
000001a0: 52e9 4f1f feb0 6880 981a 16b3 858c 6784
000001b0: a491 9c1a 2759 9017 2dc6 ad8a f63f bf1b
000001c0: 3825 3680 8c66 25b2 2263 ceb1 1081 dd86
000001d0: 1982 d419 a58a 0807 804e 7622 66b0 ccb1
000001e0: 5415 0a97 6614 81b1 ae9d a88e 1425 8eb2
000001f0: 9013 4e27 9979 9ab3 7d3e d222 9c47 0a26
00000200: c2d2 000c 3897 2717 7fe5 8cb2 3b8a 8d8e
00000210: 792e a4a4 9495 9218 6449 44b1 d434 5fb1
00000220: a09c 7180 764a 201a ca0d 192a e6ee d502
00000230: 3abc 53b3 1a0a 0407 6ceb 968c 92b6 6580
00000240: faa7 4a80 b73d 928f 4751 0710 2c46 0b99
00000250: 97f1 8384 4855 5cb2 2244 619b ddf2 210e
00000260: 5e2f f5b2 6405 40b3 1934 9c09 a2ed 8a24
00000270: 76b6 3400 48de 3021 bb80 7a88 dc61 9ab1
00000280: 305a 1184 828b aa1c 3bb2 3424 b20f 151d
00000290: 30eb bc2e 566f 20b2 b861 8bb1 4ced 5d17
000002a0: d81a 8d94 35ac 770c 4356 0722 4830 cab2
000002b0: 46bb 7e84 eb36 0d29 3874 3382 dc69 be2f
000002c0: 2b29 91b2 608e 71b1 5e11 a4ab c249 8fb1
000002d0: d73d 4885 c375 feb2 ec81 0115 0e8e 2bb3
000002e0: 2a6e 819f 5005 d88c 8639 cc2a 356a 4a98
000002f0: 7908 f821 9dc9 04ac e48b 9881 df10 8b0f
00000300: ea9d eb1c 8259 b227 60b8 67b2 6e2a f517
00000310: fdc2 de99 ae75 c6a8 c3f9 d629 fd19 bdb2
00000320: 2dea a2a4 7d2a 3015 b80b 79b2 6cb4 d22f
00000330: 0022 b401 5915 9514 3240 a390 4dce 8e9a
00000340: e2fa 6d95 06fb 0ab2 784d dcb2 b8c7 1bb2
00000350: 4aca 281b 1db1 8b15 db49 0c2b 587a 50b1
00000360: 6fe1 a08e 2b98 0e9b 7b2e c394 fa91 1cb3
00000370: e010 23b3 d352 3b11 7287 a5b2 9a81 7881
00000380: e887 4db3 a3bd 8891 094e 90b2 cd7b c6b2
00000390: a077 b19a 4759 adb3 b68d a4b3 c00d 9f81
000003a0: b9f8 2b01 93fb 4b9b a918 cf1e afcd 5b87
000003b0: 48c1 22a5 5b52 241d e0b6 202f 3a75 3d97
000003c0: ea2d 2390 3644 389a 387f a88b d803 1230
000003d0: 24eb f3a5 b916 1bb3 df1d 8e16 9f9a 9c1d
000003e0: d452 951b ee91 c89e 783e dab1 0729 8f8a
000003f0: 1109 83b3 7d01 eb0e 0e10 99b1 5625 451a

f0.2.bias f4 [256]
-1.234068e-07 2.6623863e-18 0.02700805 6.035057e-19 4.194576e-06 0.011079703 -7.355439e-08 -0.0010303982
-0.00033137904 -7.8661935e-05 -0.00031425006 -6.733627e-11 0.021146957 -5.350195e-09 0.015434063 1.0781403e-20
0.022078516 -5.5946302e-08 0.012982581 0.022764277 0.016620131 0.020615168 0.019139653 2.4345915e-26
-8.673854e-09 0.014883485 -1.6943381e-12 -0.00026865455 0.00655599 -6.287805e-17 0.01371558 0.01640328
-4.3860574e-10 0.02194434 0.014534626 -0.00011459466 -7.073213e-13 2.9712013e-16 -2.2714664e-14 1.6483843e-21
-5.0050705e-08 0.017374812 -6.785872e-13 -3.956334e-05 0.016135909 0.016829044 0.0166284 -0.0003354273
0.011702623 0.010879163 -1.9804545e-29 0.018591791 5.956011e-23 -4.2366244e-09 -1.3863722e-09 0.021726836
0.020802487 0.01876352 0.022258041 0.017365148 0.013322089 0.025444357 0.016156817 0.021151373
-5.165516e-25 -1.3001551e-09 -3.873772e-07 2.2720286e-07 -6.267086e-07 0.02234908 0.0113278525 -8.662936e-08
0.014250534 -1.2238911e-09 -0.00017574028 -7.511517e-07 0.013354414 0.016033879 -5.662747e-06 0.022394525
-0.00035915922 0.015273761 6.239513e-05 0.020759644 0.013729998 0.018466352 -1.0361804e-07 -9.614388e-08
0.014498106 -0.0009741874 -3.4386833e-09 0.021322615 -3.5157262e-07 0.01821977 0.018260265 -1.6098368e-10
-8.455318e-15 0.017112015 0.015059307 -6.613517e-07 -0.001242707 -2.6721395e-15 -3.6065653e-10 0.014454677
-5.6932506e-05 -7.387918e-07 0.022395518 -3.846337e-10 -3.7607896e-23 -0.00047403047 -8.607609e-05 -9.1159136e-10
0.012928334 0.026396466 0.015774248 -6.6975536e-11 4.1213974e-20 0.021847097 0.021501921 -9.014714e-09
-6.779531e-20 -2.5715524e-05 0.016828941 -0.00052358065 -3.2724017e-07 0.021342535 -1.7156711e-07 0.016725196
-5.510954e-19 -4.56311e-15 0.022504218 0.013195151 0.02347039 0.008635735 0.014636257 0.017460503
-2.1394232e-10 0.01728657 0.021112354 -7.71395e-05 0.019195016 0.016745316 0.021759093 -1.9657353e-28
1.1599762e-05 -4.668741e-06 -6.6789485e-09 -0.00019940699 0.014925308 0.011425144 -2.9959666e-23 0.022131193
-8.968199e-24 0.010920598 1.9504243e-06 0.011973834 -4.7914877e-21 0.012279799 0.0114292735 -9.894541e-06
-1.3005754e-06 -4.2234376e-07 1.9745644e-07 -3.7514027e-08 0.001630521 0.012759365 0.016227763 0.02213833
0.02059062 0.017580518 0.018339224 1.8143452e-05 -7.068969e-08 0.022054162 0.008746626 -4.5371426e-17
-9.8589935e-06 0.023515522 0.021869449 -8.8877974e-11 0.022700049 0.018970061 -5.966969e-08 0.025390206
-1.7057862e-06 0.0121658025 4.815724e-05 -4.4221093e-09 0.013689126 0.01850838 -7.93047e-06 7.7231866e-22
0.016312318 0.019165598 0.019709654 -1.185468e-13 7.1903785e-22 0.024181614 -7.705581e-18 0.0050765444
0.011299763 -4.8183868e-08 -1.0925152e-08 6.171812e-05 0.008909458 2.9985492e-17 0.013601601 0.020441202
0.018511262 0.020981815 -1.4512103e-25 -4.8659544e-08 -0.0010583622 -3.901648e-06 0.012559792 0.015141685
0.020349652 0.015386756 0.008751552 0.012930955 -1.5436555e-20 -4.8880665e-08 0.024905587 -2.2086208e-09
-5.736669e-17 -3.9467973e-10 -1.27650755e-11 -3.6887622e-09 0.014373908 -1.9057993e-07 -8.416061e-06 -6.61781e-15
0.019768551 0.01005104 0.02088259 -3.0762852e-09 -8.708984e-09 -5.216033e-13 -3.3707973e-08 -9.758511e-07
-8.5892116e-14 0.022387626 -1.0061904e-09 -6.484532e-05 0.016066363 -0.001611972 -6.981714e-07 0.022403043
-1.9751136e-08 -7.4043335e-08 -0.0006185004 0.020919342 0.012677747 -8.1498585e-19 0.023561282 0.00029618246
00000000: ce81 04b4 0e73 4422 fc3f dd3c 9a1f 3221
00000010: 22bf 8c36 a587 353c f4f4 9db3 6d0e 87ba
00000020: f1bc adb9 4ef7 a4b8 eec1 a4b9 f312 94ae
00000030: 623c ad3c d0d4 b7b1 27df 7c3c aaa7 4b1e
00000040: 01de b43c 9c49 70b3 e4b4 543c 267c ba3c
00000050: f126 883c 24e1 a83c c3ca 9c3c 3a1c f114
00000060: 0304 15b2 dcd9 733c f774 eeab 34da 8cb9
00000070: a1d3 d63b a6fc 90a4 50b7 603c 2c60 863c
00000080: 4520 f1af 9ec4 b33c a422 6e3c 8a52 f0b8
00000090: df17 47ab 3147 ab25 7398 cca8 c718 f91c
000000a0: 55f7 56b3 9f55 8e3c 5c01 3fab d0f0 25b8
000000b0: 742f 843c 10dd 893c 4838 883c 4adc afb9
000000c0: 5cbc 3f3c 843e 323c 8ad7 c88f d04d 983c
000000d0: ec01 901a be91 91b1 a38a beb0 7afc b13c
000000e0: fa69 aa3c f4b5 993c 7f56 b63c 5b41 8e3c
000000f0: e444 5a3c af70 d03c 4d5b 843c a545 ad3c
00000100: 6fdd 1f97 24b1 b2b0 b8f8 cfb4 0cf5 7334
00000110: 163b 28b5 6b15 b73c 7598 393c ff08 bab3
00000120: 127b 693c d735 a8b0 ec46 38b9 c0a2 49b5
00000130: 79cc 5a3c 7b59 833c a002 beb6 b974 b73c
00000140: 894d bcb9 cc3e 7a3c 21da 8238 2110 aa3c
00000150: c9f3 603c bf46 973c 9f84 deb3 a877 ceb3
00000160: 7789 6d3c 9c60 7fba f54d 6cb1 c4ac ae3c
00000170: c6bf bcb4 a141 953c 8d96 953c e100 31af
00000180: 4651 18a8 7f2e 8c3c 50bb 763c be87 31b5
00000190: 54e2 a2ba 468c 40a7 e545 c6af 4fd3 6c3c
000001a0: d0ca 6eb8 6351 46b5 ce76 b73c 6274 d3af
000001b0: 52dc 359a 4b87 f8b9 c083 b4b8 8a93 7ab0
000001c0: 5dd1 533c 673d d83c ff38 813c e047 93ae
000001d0: a3a0 421f aff8 b23c cc24 b03c 22df 1ab2
000001e0: c013 a09f abb7 d7b7 d9dc 893c e740 09ba
000001f0: 8caf afb4 8ad6 ae3c 0238 38b4 4703 893c
00000200: 97a7 22a1 4367 a4a7 c45a b83c 7a30 583c
00000210: fa44 c03c e67c 0d3c e9cc 6f3c 5409 8f3c
00000220: 693b 6baf 919c 8d3c d1f3 ac3c f4c5 a1b8
00000230: de3e 9d3c 792d 893c 2040 b23c c22f 7991
00000240: 999c 4237 2ea8 9cb6 a77c e5b1 e817 51b9
00000250: 4789 743c 8730 3b3c 45e0 109a 7a4c b53c
00000260: 5f78 2d99 4fec 323c 09e4 0236 e62d 443c
00000270: 6d04 b59d 3631 493c d941 3b3c bb00 26b7
00000280: 6e8f aeb5 7cbe e2b4 6a04 5434 1c1f 21b3
00000290: 35b7 d53a a80c 513c 16f0 843c 715b b53c
000002a0: a9ad a83c 0505 903c 243c 963c c432 9837
000002b0: 11ce 97b3 eeaa b43c 024e 0f3c 203d 51a4
000002c0: 0e68 25b7 a0a3 c03c 8f27 b33c da71 c3ae
000002d0: 74f5 b93c 1a67 9b3c c223 80b3 1fff cf3c
000002e0: 5ef2 e4b5 1353 473c 71fc 4938 49f1 97b1
000002f0: 5b48 603c e39e 973c 1c0d 05b7 436b 691c
00000300: 69a1 853c 2c01 9d3c 2476 a13c ca78 05aa
00000310: dc50 591c 8518 c63c 9424 0ea3 2459 a63b
00000320: a422 393c b9f2 4eb3 54b1 3bb2 aa6e 8138
00000330: faf8 113c 9f48 0a24 40d9 5e3c 4f74 a73c
00000340: eea4 973c 0ee2 ab3c b1a6 3396 bcfd 50b3
00000350: beb8 8aba e7ea 82b6 96c7 4d3c d414 783c
00000360: 50b4 a63c bb18 7c3c ab62 0f3c 5bdc 533c
00000370: 4dcb 919e dcf0 51b3 cd06 cc3c 78c6 17b1
00000380: 5147 84a4 3cfa d8af ca90 60ad 647d 7db1
00000390: 8a80 6b3c 36a2 4cb4 b532 0db7 866e eea7
000003a0: a8f1 a13c 1ead 243c f711 ab3c 9566 53b1
000003b0: 849e 15b2 7bd1 12ab 4fc6 10b3 fdf9 82b5
000003c0: 6f69 c1a9 4166 b73c 2d4a 8ab0 91fd 87b8
000003d0: 9b9d 833c ce48 d3ba f969 3bb5 9686 b73c
000003e0: 35a9 a9b2 c101 9fb3 dc22 22ba 0a5f ab3c
000003f0: 53b6 4f3c 978a 70a1 9703 c13c f048 9b39

f0.4.weight f4 [130, 256]
-1.5815869e-09 3.942035e-19 -0.00025345324 -1.0126616e-18 -3.2472955e-09 0.0028898383 3.576289e-21 -3.5883807e-07
-7.819994e-07 2.13693e-09 3.105189e-39 -6.1403163e-09 -6.9834656e-05 6.414071e-39 3.4652534e-05 1.3201944e-23
-9.9018114e-05 4.065625e-39 -4.9636834e-05 -0.00029799232 -0.0002692743 -8.555984e-05 -0.000385568 -2.1188003e-28
5.095574e-39 -0.00030713892 5.2235096e-09 8.616812e-05 -4.795897e-06 -4.172373e-39 8.372832e-05 3.6636297e-06
3.328852e-39 -0.00027131935 2.760949e-05 7.1804203e-09 1.4865579e-24 -7.951338e-18 4.820006e-39 -9.4484067e-23
-2.2982505e-19 -0.00018859791 -2.964853e-39 1.6753111e-06 -0.0001961397 -0.00012291232 -0.001205501 -0.00056653895
-0.00023481369 -6.360829e-05 -1.8278428e-31 -0.00031429177 -3.0299451e-24 -6.735672e-39 -2.662869e-39 -8.325597e-05
-7.3189476e-05 -0.00023047501 -0.00010342501 -4.774415e-06 -0.011151832 -0.00042298052 -0.0002206855 -7.467815e-05
-9.601405e-27 -2.301103e-26 1.5538241e-07 -1.4184198e-09 -2.725432e-39 -9.783491e-05 -0.00085521 -1.3056093e-05
-1.7634362e-05 6.859053e-39 -1.2042792e-06 4.2018073e-21 -0.00085613976 -0.0010690687 5.208298e-39 -0.00010538515
-3.112634e-07 -0.00021725432 -2.756267e-07 -7.423625e-05 -0.00014917685 -2.0560705e-05 -2.873595e-20 4.249843e-39
-0.0002187893 -1.5641037e-07 -2.6690025e-31 -0.00023477296 -2.739216e-20 -0.0007872893 -6.662004e-05 -1.2357491e-26
3.602164e-39 -0.00023894434 1.4616999e-05 -6.599522e-12 -2.6388884e-07 1.039607e-39 8.173683e-17 -0.00014908754
6.3617414e-08 1.32186e-39 -9.601362e-05 1.994314e-39 8.1138245e-26 -5.4849493e-19 -1.4685376e-05 -8.489345e-30
-5.4879445e-05 -0.002499879 -0.00018877897 2.979624e-39 1.6372072e-21 -9.094083e-05 -6.558416e-05 -6.149636e-29
-3.343895e-39 -2.858969e-19 -0.0006966905 -1.8706057e-09 -2.0021693e-10 -0.0055722115 -1.34334305e-05 -0.0001876625
-1.5741392e-19 -1.089676e-39 -9.950865e-05 -1.1722676e-05 -0.00011595097 -9.697813e-05 2.5781677e-05 -3.097717e-06
4.295312e-30 -0.00022260456 -0.00010027926 -1.0189341e-06 -8.677292e-05 -5.221791e-05 -8.79381e-05 1.0479201e-30
-1.0497304e-08 6.341124e-08 -2.4000057e-05 -0.000105983454 -8.341491e-05 -0.00040880538 2.4884487e-24 -9.882599e-05
1.8090852e-26 -5.2903397e-05 -5.4527907e-09 -3.1771597e-06 -5.756789e-39 -8.851748e-06 -0.000323612 -9.360493e-08
-6.190777e-39 -9.5614e-40 -1.0732043e-10 7.293864e-17 0.00049256446 -0.0015606132 -1.0267304e-05 -9.984514e-05
-6.200429e-05 -4.511608e-05 -6.762e-05 1.3853808e-07 5.617042e-39 -8.506444e-05 -8.851734e-05 4.0544462e-19
1.5496699e-20 -0.00027427805 -9.17596e-05 -3.8833514e-31 -0.00010317152 -0.0024285521 -3.884451e-39 -0.0011547595
1.4992867e-20 -0.00012946677 1.33904585e-08 -2.9139994e-08 -1.0525694e-05 -0.00026528927 -3.2316474e-37 7.878203e-25
-0.00022202988 -0.0003352408 -0.00017225026 1.585565e-39 -2.4929589e-23 -0.0024007452 1.9088138e-18 -2.5634674e-05
-0.00024302129 -2.289502e-39 -4.0829953e-13 -1.2037509e-06 -0.00010150669 9.784989e-19 -1.2120395e-05 -7.247276e-05
-0.002608288 -7.642294e-05 1.04561385e-27 1.1190472e-27 1.30084445e-05 -4.600173e-39 1.7329397e-05 0.000914883
-9.873609e-05 -0.00080474344 -0.0002889973 -0.00018940435 2.120251e-39 -8.11799e-40 -0.008069886 -8.540467e-05
-7.047643e-39 8.236931e-06 6.1097706e-32 1.1330983e-20 -0.00020323327 -4.1733812e-05 6.5581675e-14 3.297038e-39
-0.00020242044 -0.00010649565 -0.00018906003 -1.1434576e-19 -2.2807272e-29 3.36702e-35 8.81547e-40 -8.586356e-08
-2.4465244e-16 -0.00010705446 -5.754111e-39 -2.3121868e-06 -0.0061251316 -4.361238e-05 7.255287e-27 -9.387676e-05
6.715102e-39 -3.979574e-23 1.6834478e-09 -8.9729576e-05 -0.00030759218 -4.238848e-20 -0.00012642996 -0.0018680103
00000000: 245f d9b0 59b2 e820 ebe1 84b9 4671 95a1
00000010: 0727 5fb1 7163 3d3b bf1b 871d 54a6 c0b4
00000020: 97ea 51b5 45d9 1231 01d0 2100 cbfa d2b1
00000030: 3274 92b8 d2d7 4500 e057 1138 dc5c 7f19
00000040: f2a7 cfb8 4f45 2c00 2531 50b8 da3b 9cb9
00000050: 622d 8db9 976e b3b8 1026 cab9 804b 8691
00000060: 637c 3700 7d07 a1b9 7a7a b331 28b5 b438
00000070: 71ec a0b6 e16e 2d80 4d97 af38 aedc 7536
00000080: 7c3f 2400 de3f 8eb9 ee9a e737 a5b7 f631
00000090: a008 e617 22ad 12a3 377c 3400 ce72 e49a
000000a0: 2eaa 87a0 5ec2 45b9 ce48 2080 40db e035
000000b0: daaa 4db9 06e2 00b9 e701 9eba c983 14ba
000000c0: 5238 76b9 7165 85b8 7f44 6d8c 87c7 a4b9
000000d0: 3f6e 6a98 5058 4980 fffe 1c80 b599 aeb8
000000e0: 4d7d 99b8 aaab 71b9 e1e5 d8b8 ea33 a0b6
000000f0: 2cb6 36bc 7cc3 ddb9 d067 67b9 879c 9cb8
00000100: e82c 3e94 e4e3 e394 31d7 2634 36f2 c2b0
00000110: 65ad 1d80 b82c cdb8 2c30 60ba 7e0b 5bb7
00000120: 81ed 93b7 40b0 4a00 b8a2 a1b5 63bd 9e1d
00000130: 916e 60ba fe1f 8cba 9eb6 3800 3902 ddb8
00000140: b71b a7b4 c3ce 63b9 d8f9 93b4 49af 9bb8
00000150: 5b6c 1cb9 c779 acb7 a2b3 079f d546 2e00
00000160: ce6a 65b9 c1f1 27b4 693a ad8c 632d 76b9
00000170: 175b 019f 1762 4eba 5db6 8bb8 ecc3 7494
00000180: 5e39 2700 228d 7ab9 883b 7537 3633 e8ac
00000190: 9bac 8db4 0052 0b00 e978 bc24 6254 1cb9
000001a0: 0b9e 8833 cf64 0e00 eb5a c9b8 56b7 1500
000001b0: 79e3 c815 1be3 21a1 3661 76b7 332f 2c8f
000001c0: 5b2e 66b8 03d5 23bb f8f2 45b9 fb71 2000
000001d0: 6368 f71c 7db7 beb8 3a8a 89b8 6be9 9b90
000001e0: 6b69 2480 85c3 a8a0 1ca2 36ba 0b8c 00b1
000001f0: 0e24 5caf 1997 b6bb 2560 61b7 45c7 44b9
00000200: 70d7 39a0 93dd 0b80 4daf d0b8 83ac 44b7
00000210: b42a f3b8 bd60 cbb8 bb45 d837 5fe2 4fb6
00000220: 123d ae0e f56a 69b9 054d d2b8 4fc2 88b5
00000230: dbf9 b5b8 8e04 5bb8 686b b8b8 e608 aa0d
00000240: a257 34b2 b32c 8833 bb53 c9b7 6f43 deb8
00000250: 0aef aeb8 ee54 d6b9 ce88 4018 cd40 cfb8
00000260: c229 b314 97e4 5db8 415b bbb1 3037 55b6
00000270: 96af 3e80 f881 14b7 78aa a9b9 db03 c9b3
00000280: 5e69 4380 5469 0a80 0800 ecae 602f a824
00000290: 711f 013a 7d8d ccba bc41 2cb7 f463 d1b8
000002a0: 4d08 82b8 063b 3db8 36cf 8db8 0fc1 1434
000002b0: 072a 3d00 a064 b2b8 63a2 b9b8 0f55 ef20
000002c0: b85c 921e facc 8fb9 0f6f c0b8 3e0b fc8c
000002d0: ca5d d8b8 5828 1fbb 454c 2a80 4d5b 97ba
000002e0: 879a 8d1e 79c1 07b9 dc0b 6632 864f fab2
000002f0: 8397 30b7 8616 8bb9 3def db82 8ed1 7317
00000300: b1d0 68b9 42c3 afb9 149e 34b9 e943 1100
00000310: ac1a f199 d255 1dbb 79d8 0c22 0b0a d7b7
00000320: 88d3 7eb9 33ee 1880 2ada e5aa 9190 a1b5
00000330: fddf d4b8 a566 9021 b358 4bb7 84fc 97b8
00000340: d0ef 2abb 4145 a0b8 23af a512 f351 b112
00000350: d83e 5a37 6917 3280 995e 9137 c2d4 6f3a
00000360: 8910 cfb8 6bf5 52ba 9084 97b9 d89a 46b9
00000370: 6616 1700 f7d6 0880 8e37 04bc 481b b3b8
00000380: f6bd 4c80 5931 0a37 649e 9e0b 4609 561e
00000390: 041b 55b9 570b 2fb8 43ad 9329 cde6 2300
000003a0: d340 54b9 6b56 dfb8 6a3e 46b9 e3fe 06a0
000003b0: 104b e78f 8005 3306 6599 0900 fe63 b8b3
000003c0: 5408 8da5 6d82 e0b8 1fa8 3e80 112b 1bb6
000003d0: 54b5 c8bb 70ec 36b8 adb4 0f14 b4df c4b8
000003e0: f91e 4900 bd70 409a 0e5f e730 332d bcb8
000003f0: 5344 a1b9 872c 489f 4992 04b9 06d8 f4ba

f0.4.bias f4 [130]
0.008426451 0.031563766 0.022209622 0.0039093043 -0.00095307437 0.02191477 0.026186476 -0.0006369663
-0.0030876528 -0.00060872384 -0.00044644982 -0.0013696247 -0.02250143 -0.009635442 -0.0010047423 0.014835468
-0.000588504 0.00064191286 -0.00015615669 -0.0028240518 0.0018429448 0.025616623 0.021903757 -0.00019622059
-0.00061361433 -0.00019894178 0.0037064292 -0.0008522251 -0.027798614 -0.00067024305 -0.0040505715 -0.0004273622
-5.0092913e-06 -0.0005650149 0.005475815 -0.00065157993 -0.00033582086 0.008969611 -0.00029946546 0.013882539
-0.029213969 0.0014414301 -0.000575385 0.046248358 -0.00062957086 -0.020937923 -0.015714118 -0.00039672456
0.0008509388 -0.0005947876 -0.0002389173 -0.00048303968 0.008751075 -0.00076652167 -0.032935683 0.0022986305
-0.013324103 -0.00067029544 -0.0005214906 -0.0005541988 0.021757677 -0.0005369801 -0.00062730856 0.028895076
-0.007568023 0.018689042 -0.014786293 -0.00075303763 -0.0006066854 0.014924277 0.009637593 0.008872778
-0.023413489 -0.0025816094 -0.000503794 0.041457087 -0.00077301793 -0.00055698864 0.02874674 0.11347773
-0.0025153076 -0.020954086 0.011491383 -0.0006043256 0.0018871686 -0.006544866 0.008199886 -0.0005883559
0.02148 -0.03900216 0.0076813013 0.0024220587 0.016003098 -1.226951e-05 1.6156855e-05 -0.0019548382
0.005793258 -0.017831052 -0.005331187 -0.006317112 0.022219567 -0.0005942429 -0.00055483234 -0.0005427155
-0.00059174607 0.004018846 -0.0009389568 0.0044689314 -0.008176912 0.00806075 -0.00059855945 0.030496148
-0.011839846 -0.00045242443 0.00047449148 0.034095712 0.018078357 -0.017404648 -0.013335837 -0.00069610914
0.00021933857 0.0044862246 0.024729874 -0.0020752056 -0.00061491027 -0.0005996948 -0.000577445 -0.0006180366
-0.02603323 0.021144446
00000000: 190f 0a3c 0249 013d f4f0 b53c 9f19 803b
00000010: bdd7 79ba 9b86 b33c 0585 d63c 16fa 26ba
00000020: 385a 4abb c492 1fba 7b11 eab9 fb84 b3ba
00000030: eb54 b8bc f9dd 1dbc 8fb1 83ba 7610 733c
00000040: d645 1aba 0b46 283a febd 23b9 ba13 39bb
00000050: f78e f13a f4d9 d13c 826f b33c 90c0 4db9
00000060: f6da 20ba 079b 50b9 90e7 723b dc67 5fba
00000070: ebb9 e3bc 40b3 2fba a8ba 84bb 950f e0b9
00000080: 7c15 a8b6 821d 14ba 776e b33b cace 2aba
00000090: 1d11 b0b9 46f5 123c 9301 9db9 9773 633c
000000a0: 2252 efbc 5eee bc3a 6fd5 16ba eb6e 3d3d
000000b0: c909 25ba 0286 abbc e5ba 80bc 78ff cfb9
000000c0: 8911 5f3a 85eb 1bba e085 7ab9 7d40 fdb9
000000d0: ab60 0f3c 66f0 48ba 91e7 06bd 9fa4 163b
000000e0: 574d 5abc c4b6 2fba a4b4 08ba a747 11ba
000000f0: 283d b23c 20c4 0cba f771 24ba 5eb5 ec3c
00000100: 2efd f7bb c319 993c 3542 72bc 8067 45ba
00000110: f809 1fba f484 743c ffe6 1d3c 215f 113c
00000120: a5cd bfbc 3830 29bb 0b11 04ba e8ce 293d
00000130: 5ba4 4aba e002 12ba 497e eb3c 0367 e83d
00000140: dcd7 24bb e7a7 abbc 5b46 3c3c 9b6b 1eba
00000150: df5a f73a 5176 d6bb d158 063c e53b 1aba
00000160: d3f6 af3c bbc0 1fbd 6db3 fb3b 67bb 1e3b
00000170: ee18 833c 25d9 4db7 9588 8737 be1c 00bb
00000180: 5fd5 bd3b 6d12 92bc 3db1 aebb c7ff cebb
00000190: cf05 b63c f7c6 1bba 2b72 11ba 0545 0eba
000001a0: 681f 1bba 86b0 833b 5324 76ba 1d70 923b
000001b0: 74f8 05bc 3c11 043c a5e8 1cba 0fd3 f93c
000001c0: eafb 41bc 6133 edb9 2bc5 f839 f2a7 0b3d
000001d0: 1019 943c 3194 8ebc 8e7e 5abc 187b 36ba
000001e0: 40fe 6539 2e01 933b 4e96 ca3c 2c00 08bb
000001f0: ee31 21ba d634 1dba ae5f 17ba bc03 22ba
00000200: a443 d5bc 1e37 ad3c
