model/model.pth (torch, 799047 bytes, 6 tensors)

f0.0.weight f4 [256, 390]
0	0x00097ff2	8.72418e-40
1	0x0030a6bc	4.467917e-39
2	0x8032ae8b	-4.654389e-39
3	0xb7e63bd3	-2.7445994e-05
4	0x8031924f	-4.552425e-39
5	0x803a555a	-5.357077e-39
6	0xb8dd3088	-0.00010547141
7	0x0097127e	1.3873794e-38
8	0x008c28ad	1.2871561e-38
9	0x37649b13	1.3625965e-05
10	0x800fa8c5	-1.438076e-39
11	0x80302c2b	-4.423948e-39
12	0x8031c3be	-4.570158e-39
13	0x800b9e3c	-1.066954e-39
14	0x0045115b	6.342875e-39
15	0x80198f6e	-2.34734e-39
16	0x003bbb50	5.48549e-39
17	0x001a2cda	2.403813e-39
18	0x00361ffe	4.970593e-39
19	0x0016b20e	2.084255e-39
20	0xb90ab8c7	-0.0001322954
21	0xb7db1560	-2.6116788e-05
22	0x8047c6d1	-6.591642e-39
23	0x00187cc7	2.248814e-39
24	0x3888e045	6.526759e-05
25	0x020b9c3b	1.0256943e-37
26	0x812ce788	-3.1757526e-38
27	0x80817070	-1.1887114e-38
28	0x800879af	-7.78336e-40
29	0x800cff34	-1.193576e-39
30	0x0013c652	1.816018e-39
31	0x00409f54	5.934628e-39
32	0x002389af	3.263634e-39
33	0x0028be02	3.741582e-39
34	0xb7ab3f66	-2.041431e-05
35	0x00b66f73	1.6754041e-38
36	0x002c9bcb	4.09665e-39
37	0x01e844ce	8.532207e-38
38	0x005648a4	7.923911e-39
39	0x801ee92b	-2.83871e-39
40	0x0003e687	3.58204e-40
41	0x000c85fc	1.15009e-39
42	0x0c54a350	1.6381031e-31
43	0x00063000	5.68232e-40
44	0x001d0ed4	2.668549e-39
45	0xb535de4b	-6.7751233e-07
46	0x021b81d8	1.1424865e-37
47	0x00297d01	3.810098e-39
48	0x8031d2ba	-4.575534e-39
49	0x800bfd15	-1.100979e-39
50	0x8034dd74	-4.854888e-39
51	0xb7ab160f	-2.039506e-05
52	0x827be009	-1.8504863e-37
53	0x8045b7bd	-6.402562e-39
54	0xb7ed3b4a	-2.828021e-05
55	0x00485876	6.64389e-39
56	0x01739f10	4.4746173e-38
57	0x8a6c8b10	-1.13891414e-32
58	0x80333b9c	-4.704994e-39
59	0x8012f4da	-1.740875e-39
60	0xb7a5538d	-1.970844e-05
61	0x80445e32	-6.278605e-39
62	0x8023bd34	-3.282116e-39
63	0xb7d3cce0	-2.5248562e-05
64	0x0029a734	3.825237e-39
65	0x81c152d8	-7.101588e-38
66	0x09149615	1.788542e-33
67	0x00060fbb	5.56656e-40
68	0x00b6c48c	1.6784568e-38
69	0x0028134b	3.680341e-39
70	0x00476ec7	6.56006e-39
71	0x80307cdb	-4.452894e-39
72	0x38c2320d	9.2599636e-05
73	0x0004c35a	4.37421e-40
74	0x003f305a	5.802982e-39
75	0x8049d284	-6.77951e-39
76	0x81f3f2f0	-8.96127e-38
77	0x8027b43c	-3.64624e-39
78	0x800fb351	-1.441859e-39
79	0xb69085b0	-4.3070977e-06
80	0x801f1111	-2.853023e-39
81	0xb894b4d0	-7.090869e-05
82	0x000cf772	1.190793e-39
83	0x00abf528	1.5791815e-38
84	0xb8a30bae	-7.774621e-05
85	0x0005ef65	5.45056e-40
86	0x0011d596	1.637824e-39
87	0xb8214d35	-3.8457296e-05
88	0x00215830	3.062207e-39
89	0x001b77e8	2.522573e-39
90	0x802e0c73	-4.228899e-39
91	0x8825efb4	-4.993465e-34
92	0x8027e14d	-3.662407e-39
93	0x8197f9ea	-5.582725e-38
94	0x800c81bc	-1.148566e-39
95	0x8015c408	-1.998868e-39
96	0x80436348	-6.188594e-39
97	0x808d7d7d	-1.2993822e-38
98	0x803d69f5	-5.639975e-39
99	0xb81f6da0	-3.801065e-05
100	0x8046347e	-6.447315e-39
101	0x8035a221	-4.925442e-39
102	0xb838b1cf	-4.4034616e-05
103	0x0002c388	2.53814e-40
104	0x8016029d	-2.021318e-39
105	0x000d4775	1.219495e-39
106	0x0072b6e7	1.053486e-38
107	0x0024d4b4	3.382381e-39
108	0x00821368	1.1945576e-38
109	0x00830248	1.2031268e-38
110	0x00471baf	6.530251e-39
111	0x014b9c75	3.7397464e-38
112	0x002c99de	4.095959e-39
113	0x0c16c6da	1.1615419e-31
114	0x0006c685	6.22228e-40
115	0x80345730	-4.806723e-39
116	0x004a7a4e	6.839701e-39
117	0x800a1277	-9.24979e-40
118	0x801ab357	-2.452058e-39
119	0x802bcb17	-4.021781e-39
120	0x8cfb3570	-3.8704835e-31
121	0x8047ac45	-6.582119e-39
122	0x001318eb	1.753813e-39
123	0x38d20fd7	0.00010016531
124	0x01356be9	3.332187e-38
125	0x800366f0	-3.12434e-40
126	0x0040cb2e	5.950359e-39
127	0x006eb908	1.0168281e-38
128	0x803389dc	-4.733065e-39
129	0xb7ab5d15	-2.0428133e-05
130	0x003f349b	5.804508e-39
131	0x80286ab0	-3.711692e-39
132	0xb816ea76	-3.5981146e-05
133	0x00401c05	5.887523e-39
134	0x00466242	6.463733e-39
135	0x88821c09	-7.830681e-34
136	0x004c042a	6.980991e-39
137	0x800aecb0	-1.003262e-39
138	0xb79b9982	-1.8548923e-05
139	0x801189d6	-1.61065e-39
140	0x802b15b3	-3.95671e-39
141	0x3704a80b	7.906939e-06
142	0x00247c3d	3.350646e-39
143	0x802ea12e	-4.282253e-39
144	0x8b8f9a5e	-5.531386e-32
145	0x81d76efa	-7.913777e-38
146	0x801d5a5a	-2.695641e-39
147	0x001e73f3	2.79666e-39
148	0x00306e3c	4.447648e-39
149	0x00203a1b	2.95958e-39
150	0xb6e42387	-6.7990654e-06
151	0x000aaefc	9.81128e-40
152	0x80171e4e	-2.123088e-39
153	0x8078aca8	-1.1082197e-38
154	0x003834ca	5.161725e-39
155	0x001500e0	1.92886e-39
156	0xb7f68277	-2.9386238e-05
157	0x8a69186c	-1.1223135e-32
158	0x815b9690	-4.033197e-38
159	0xb88a3a36	-6.5911954e-05
160	0x0002dd86	2.63139e-40
161	0x00ada972	1.5948326e-38
162	0x3883aee0	6.27914e-05
163	0x00317625	4.542322e-39
164	0x0006a5ca	6.10487e-40
165	0xb92a2f95	-0.00016230189
166	0x0043c464	6.22343e-39
167	0x0137583c	3.3675097e-38
168	0x804c7d58	-7.024463e-39
169	0x80282961	-3.688264e-39
170	0xb7ec28c5	-2.8152377e-05
171	0x0008cc2a	8.07924e-40
172	0x0047e303	6.601757e-39
173	0x00033877	2.95762e-40
174	0x800561b9	-4.94234e-40
175	0x804c354b	-6.998616e-39
176	0x000f3925	1.398032e-39
177	0xb7cc6f23	-2.4370447e-05
178	0x80131b2f	-1.754626e-39
179	0x000a9724	9.72574e-40
180	0xb8f894d9	-0.000118532866
181	0x0009c184	8.9594e-40
182	0x018321f5	4.8170526e-38
183	0x00003a3a	2.0888e-41
184	0x0029bd98	3.833269e-39
185	0x00005015	2.8728e-41
186	0x0000773a	4.277e-41
187	0x80090ddd	-8.31493e-40
188	0x8013cc23	-1.818105e-39
189	0x004a1911	6.804819e-39
190	0x802c6767	-4.077856e-39
191	0x803f8d42	-5.83631e-39
192	0x0030e8d0	4.491621e-39
193	0x8037b398	-5.115378e-39
194	0x8023c1b4	-3.28373e-39
195	0x803db966	-5.668474e-39
196	0xb7c7adbe	-2.3803554e-05
197	0x00385d94	5.176357e-39
198	0x8d37f759	-5.6688963e-31
199	0x80032e64	-2.92148e-40
200	0x803b478a	-5.443958e-39
201	0xb85ee51b	-5.3142296e-05
202	0x81582014	-3.969595e-38
203	0x00057407	5.008e-40
204	0x80a7fd86	-1.5427475e-38
205	0x00fcd0b8	2.3217419e-38
206	0x80a2e469	-1.4959289e-38
207	0xb7a850da	-2.006481e-05
208	0x002f5290	4.345886e-39
209	0x80244cd7	-3.333643e-39
210	0xb841fb20	-4.6248664e-05
211	0x0036ccf3	5.032639e-39
212	0x80249a32	-3.361393e-39
213	0x89819713	-3.119769e-33
214	0x0012c7f2	1.724766e-39
215	0x004c40a4	7.002686e-39
216	0xb7ad28df	-2.064224e-05
217	0x002e377f	4.244341e-39
218	0x80000e85	-5.209e-42
219	0xb8e412a8	-0.00010875362
220	0x802087e4	-2.987484e-39
221	0x001f2fdd	2.86407e-39
222	0x8871da52	-7.2779934e-34
223	0x0048650e	6.648407e-39
224	0x804297a6	-6.115544e-39
225	0x81722c4c	-4.4480162e-38
226	0x002f25fc	4.329895e-39
227	0x80c657bc	-1.8214901e-38
228	0x388fdda8	6.860058e-05
229	0x001bf330	2.566798e-39
230	0x00d4bce4	1.9536886e-38
231	0x80441968	-6.253928e-39
232	0x801643d1	-2.044709e-39
233	0x805bfa15	-8.446743e-39
234	0x0017d96c	2.190213e-39
235	0x8041edde	-6.054638e-39
236	0xb7bab577	-2.2257429e-05
237	0xb7afb2d4	-2.0944899e-05
238	0x002dfbd5	4.222938e-39
239	0x0029defe	3.84525e-39
240	0xb8773874	-5.8941965e-05
241	0x00096ef7	8.66326e-40
242	0x0046de6f	6.508279e-39
243	0xb915a77f	-0.00014272144
244	0x80111da4	-1.571836e-39
245	0x810864bc	-2.5051528e-38
246	0x817eda3e	-4.6809013e-38
247	0xb7af4f17	-2.0898455e-05
248	0x8074acb4	-1.0714872e-38
249	0x81871f38	-4.9635965e-38
250	0x800b4a33	-1.036808e-39
251	0x804a4605	-6.820945e-39
252	0x803a149b	-5.33385e-39
253	0x000c2926	1.116787e-39
254	0x80132195	-1.756921e-39
255	0x3505bf3d	4.982465e-07

f0.0.bias f4 [256]
0	0xb950f7ae	-0.00019928694
1	0xb9566307	-0.00020445521
2	0xbd94d090	-0.07266343
3	0x3c2aed4c	0.010432553
4	0x3de74373	0.11292162
5	0xbc33a6c2	-0.010965051
6	0xbdad84f4	-0.084726244
7	0x3dab9cf7	0.08379548
8	0xbda000fe	-0.07812689
9	0xbcc8198b	-0.024426242
10	0x3d39b0a4	0.045334473
11	0xbdc23d49	-0.094843455
12	0xbcd84cf2	-0.026403878
13	0x3d486f15	0.04893406
14	0xbdcfba92	-0.10143007
15	0x3d2964b7	0.041355815
16	0xbceae49d	-0.028673464
17	0x3cf63083	0.030052429
18	0x3b1850d7	0.0023241544
19	0xbd75a13a	-0.05996821
20	0xbd1791fc	-0.037004456
21	0xbdbafc2e	-0.09130131
22	0x3d873446	0.06601767
23	0xbd1d8abf	-0.038462397
24	0xbc2e2a17	-0.010630152
25	0xbde95d16	-0.11394708
26	0xbd9bf9b1	-0.07615984
27	0xbd7a1267	-0.061052706
28	0x3db48c3e	0.088158116
29	0xbc9c398a	-0.019070406
30	0x3de33ed1	0.11095966
31	0xbc0b807b	-0.008514519
32	0xbcecf4ac	-0.028925262
33	0x3d7cf298	0.061754793
34	0xbd6019cc	-0.0547121
35	0x3cf38fef	0.029731719
36	0xacd1c519	-5.9620195e-12
37	0xbd3af86a	-0.045647062
38	0xbc375d6d	-0.011191708
39	0x3dcc3977	0.09971898
40	0xbd117653	-0.035513233
41	0x3c705cb7	0.014670542
42	0xbce907fc	-0.02844619
43	0xbd359f39	-0.0443413
44	0xbcb698d6	-0.022289675
45	0xbda96420	-0.082710505
46	0xbcb77c44	-0.022398122
47	0xbdd0c8ae	-0.101945266
48	0xbd78bdbd	-0.060727824
49	0x3dc4d9c8	0.09611851
50	0xbd282771	-0.04105324
51	0x3d6789a3	0.056527745
52	0xbd89d51b	-0.067301
53	0xbdd85663	-0.10563352
54	0x3d9368c5	0.071977176
55	0xbd5c826e	-0.053835325
56	0xbdd7d394	-0.10538402
57	0xbcbb834d	-0.022889758
58	0xbdc2c950	-0.095110536
59	0x3d3e5c4c	0.04647474
60	0xbd9a6249	-0.07538278
61	0xbd67ff91	-0.05664021
62	0x3de0958e	0.10966025
63	0x3dde819a	0.10864563
64	0x3db3cde0	0.08779502
65	0xbd8e1a2e	-0.06938587
66	0xbb580494	-0.0032961713
67	0x3cd3729f	0.025811492
68	0xbd447fa1	-0.04797328
69	0x3cc62d3b	0.02419149
70	0x3da3eb60	0.080038786
71	0x3d60c24e	0.054872803
72	0xbdd4d53d	-0.103922345
73	0xbd3cc781	-0.0460887
74	0xbbe89bb1	-0.007098638
75	0xbc4f37d5	-0.012647589
76	0x3d8a64ec	0.067575306
77	0xbbcd403a	-0.00626376
78	0xbd10255f	-0.03519189
79	0xbc234650	-0.009965494
80	0xbd062f2b	-0.032759827
81	0xb8ae5ba8	-8.314039e-05
82	0xbca481df	-0.020081459
83	0xbcf84917	-0.03030829
84	0x3c3809a9	0.011232772
85	0x39e2a671	0.00043230088
86	0xbd80cb9e	-0.06288837
87	0xbdc5c82d	-0.09657321
88	0x3c984691	0.018588336
89	0xbc75cc77	-0.0150023615
90	0xbc904357	-0.017610235
91	0xbc15d5e7	-0.009145237
92	0xbcd6033e	-0.026124593
93	0xbd27d0ae	-0.040970497
94	0x3d48144a	0.048847474
95	0xbdd18f4b	-0.10232409
96	0xbd7b1e1d	-0.061308015
97	0xbd83892b	-0.06422647
98	0x3dd2637f	0.102728836
99	0xbddb3ea7	-0.10705309
100	0x3d2a7e8d	0.041624594
101	0x3d5284c6	0.051396154
102	0xbd402055	-0.046905834
103	0xbd50a41d	-0.05093776
104	0xbda84036	-0.08215372
105	0xbd71ac6c	-0.059002325
106	0xbd136538	-0.0359852
107	0xbcbdb47e	-0.023157354
108	0x3d2a3268	0.041551977
109	0xbd36a126	-0.044587277
110	0x3d77a01a	0.06045542
111	0xbd294c5b	-0.041332584
112	0xbd3ef11b	-0.046616655
113	0x3dd6cdb0	0.104884505
114	0xac2f2997	-2.4892083e-12
115	0xbda9e4d2	-0.08295597
116	0xbd9d740f	-0.07688152
117	0xbdb7df9f	-0.08978199
118	0x3c090124	0.008362088
119	0xbd916813	-0.07099929
120	0xbb905a00	-0.00440526
121	0xbd3e6e41	-0.046491865
122	0xbc6ef273	-0.014584172
123	0x3db48b89	0.08815677
124	0xbd2c2428	-0.04202667
125	0xbd42d194	-0.04756315
126	0xbd1ef104	-0.03880407
127	0xbac32b68	-0.0014890255
128	0xbc5fb722	-0.013654502
129	0x3dac9869	0.084275074
130	0x3bca900b	0.006181722
131	0x3d666d3c	0.056256518
132	0xbd9085de	-0.07056783
133	0x3d25f987	0.04052117
134	0x3d0e314d	0.034714986
135	0x3ac67db9	0.001514367
136	0xbd03b5a0	-0.032155633
137	0x3d81298b	0.06306752
138	0xbdb0e7b1	-0.08637942
139	0xbd974430	-0.073860526
140	0xbcaa3709	-0.020778196
141	0x3dd4b130	0.10385358
142	0xba8920d4	-0.0010462054
143	0x3cda52c7	0.0266508
144	0xbd885f66	-0.06658821
145	0xbcd64afc	-0.026158802
146	0xbc928563	-0.01788587
147	0x3d87c8d2	0.066301
148	0x3d8baa5c	0.06819603
149	0xbd89bde2	-0.067256704
150	0xbd96e1d3	-0.07367291
151	0xbd8ed787	-0.06974702
152	0xbbcaa761	-0.006184504
153	0x3d29bec9	0.041441713
154	0xbcdafdf3	-0.02673242
155	0xbc8d6da7	-0.0172642
156	0xbd03cdfe	-0.03217887
157	0xbc0e525e	-0.00868663
158	0xbdcfabea	-0.10140212
159	0x3cca4377	0.024690373
160	0xbd4c0563	-0.049809825
161	0xbd8ca451	-0.06867278
162	0xbb1da23a	-0.0024052993
163	0x3d9ab759	0.07554502
164	0xbd1660cb	-0.036713403
165	0x3da9966e	0.08280645
166	0xbb1ab0e0	-0.002360396
167	0xbdc36355	-0.095404305
168	0xbd98b784	-0.07456878
169	0xbd9e38fb	-0.07725712
170	0x3d72556a	0.05916349
171	0x3d1a730b	0.03770737
172	0xbd2c34a8	-0.042042404
173	0x3b4002f9	0.0029298647
174	0xbcfc6751	-0.030810984
175	0x3d462395	0.048373777
176	0xbd6188fa	-0.05506227
177	0x3d82460a	0.06361015
178	0x3db5e4db	0.08881541
179	0xbdc345d4	-0.09534803
180	0xbcf9f985	-0.030514488
181	0xba04667c	-0.0005050672
182	0xbc673d51	-0.01411374
183	0xbd332c6e	-0.043743543
184	0xbd177760	-0.03697908
185	0xbce57207	-0.028008474
186	0xbd2cd9b9	-0.042199824
187	0xbcd39183	-0.025826221
188	0xbc11ea10	-0.0089059025
189	0xbd12dc3e	-0.03585457
190	0xbd8952a0	-0.067052126
191	0xbd511f21	-0.051055077
192	0x3dcb8332	0.09937133
193	0xbc357274	-0.011074651
194	0xbddeff3a	-0.10888524
195	0x3cca0e9e	0.024665173
196	0xbd0ad4b8	-0.03389427
197	0xbd0c9780	-0.03432417
198	0xbdb0fe18	-0.086422145
199	0xbdbffce0	-0.09374404
200	0xbdc0ba2e	-0.09410511
201	0xbdc4e3ea	-0.09613784
202	0xbd9ad0e0	-0.07559371
203	0x3cda6766	0.026660632
204	0xbd3cea6b	-0.046121996
205	0x3dbea9d6	0.093097374
206	0x3ddb8e4d	0.10720501
207	0xbb3107e6	-0.0027012764
208	0xbd80b026	-0.06283598
209	0xba9e50dc	-0.0012078541
210	0xbd1d9945	-0.038476247
211	0xb60ea40f	-2.1255144e-06
212	0xbda70819	-0.081558414
213	0xbcda18cb	-0.02662315
214	0xbcab6430	-0.020921797
215	0xbc56b50a	-0.0131046865
216	0xbd8b1af4	-0.0679225
217	0xbd89213a	-0.066957906
218	0xbd4f7689	-0.050650153
219	0x3d5c261e	0.05374729
220	0xbd95fe37	-0.07323878
221	0xbdbc7362	-0.09201695
222	0xbd89a3cb	-0.06720694
223	0x3b8fe5a1	0.0043913876
224	0x3ddfbf3e	0.109251484
225	0xbbc864e1	-0.0061155413
226	0xbce6bc9e	-0.028166112
227	0xbd70bc4d	-0.058773328
228	0xbd4d73cb	-0.050159257
229	0xaa1f4ed6	-1.4149389e-13
230	0x3c9a16b1	0.018809648
231	0x3d8a70aa	0.0675977
232	0x3db5ddd6	0.088802025
233	0x3c1a6961	0.009424538
234	0x3d33c8e9	0.043892775
235	0xbd8922cf	-0.06696092
236	0x3de8d6e7	0.11369114
237	0x3c3e4814	0.011613864
238	0xbc05abb5	-0.008158614
239	0xbda45022	-0.080230966
240	0x3b86816d	0.004104784
241	0xbd7e2c52	-0.062053986
242	0xbc807a70	-0.015683383
243	0xbde12f66	-0.10995369
244	0xbcd4a9d2	-0.025959883
245	0x3d3e689a	0.046486475
246	0xbd033493	-0.03203256
247	0xbd25237e	-0.04031705
248	0xbd854f18	-0.065092266
249	0xbcba8be7	-0.022771789
250	0xbd6ee8c1	-0.05832744
251	0xbd6f96d4	-0.05849345
252	0xbdc84fee	-0.097808704
253	0x3c513808	0.012769707
254	0xbdc98296	-0.098393604
255	0xb240bea0	-1.1219214e-08

f0.2.weight f4 [256, 256]
0	0xb4c0914e	-3.586851e-07
1	0x3a97f65b	0.0011593805
2	0xbcbb613e	-0.022873517
3	0x3cd45d4a	0.02592339
4	0xbd3693ba	-0.044574477
5	0xbc4b218a	-0.012398133
6	0xbd108ad6	-0.035288654
7	0xbd0ce3b8	-0.034396857
8	0xbd54ef07	-0.051985767
9	0xbc556cba	-0.013026411
10	0x3d068592	0.032842226
11	0xbd2e0a33	-0.042490195
12	0xbd3a07ef	-0.045417722
13	0xbcc0f0da	-0.023552347
14	0x3cdd848a	0.027040739
15	0xbcbf384a	-0.02334227
16	0xbbe6ad45	-0.0070396983
17	0xbb9cb7df	-0.0047826613
18	0xbd53157a	-0.051534154
19	0x3cb0afad	0.021568144
20	0xbd8c67e0	-0.0685575
21	0xbd45e6bd	-0.048315752
22	0x3c86db23	0.016461914
23	0xbda3511b	-0.07974454
24	0x3b51fbfc	0.0032041064
25	0x3c1cde0d	0.009574425
26	0xbcd795e7	-0.026316596
27	0xbd8bc548	-0.06824738
28	0xbd258816	-0.040412985
29	0xbda0b21d	-0.078464724
30	0x3d0700fa	0.032959916
31	0xba6d8e89	-0.0009062072
32	0xbd941fa9	-0.07232601
33	0xbd42e594	-0.047582224
34	0xbdb87d0c	-0.09008226
35	0xbcfa312c	-0.030541025
36	0x000f4e3b	1.405596e-39
37	0xbc044d10	-0.008075014
38	0x3c78d8bd	0.015188393
39	0x3cae0152	0.021240864
40	0x3cecbaf6	0.028897744
41	0xbb776022	-0.0037746509
42	0xbbaa8450	-0.005203761
43	0xbda14310	-0.07874119
44	0x3c7b5624	0.015340362
45	0xbd902d44	-0.07039884
46	0xbcce5196	-0.025185388
47	0xbd09471d	-0.033515085
48	0xbd7ff0f9	-0.06248567
49	0xbc6602ea	-0.014038781
50	0xbb3ac60b	-0.002849939
51	0xbc9bf4fe	-0.01903772
52	0x3c8b5600	0.017008781
53	0xbbd1ceab	-0.0064028106
54	0x3c8c8eeb	0.017157992
55	0xbc4a2dbc	-0.0123400055
56	0xbd99b218	-0.07504672
57	0x3ba56063	0.0050468906
58	0xbd1604d6	-0.036625706
59	0x3d1c4469	0.03815118
60	0xbc9ca484	-0.019121416
61	0xbdbf6798	-0.09345931
62	0xbbd465ec	-0.0064818766
63	0x3c244f81	0.010028721
64	0xbd2c3daa	-0.042050995
65	0xbd359c02	-0.044338234
66	0xb9aa1b6f	-0.00032445366
67	0x3cd86d06	0.026419174
68	0xbd408fb3	-0.047012042
69	0x3ce570b8	0.02800785
70	0x3d276799	0.040870283
71	0xbb54fddb	-0.0032499942
72	0xbd349344	-0.044085756
73	0xbd8274e2	-0.0636995
74	0x3cff3c8d	0.031156803
75	0xbaa1a723	-0.0012333136
76	0x3c1cbd45	0.00956661
77	0x80280c14	-3.677753e-39
78	0x3af4279e	0.001862753
79	0x80095d0f	-8.59903e-40
80	0x3c6724db	0.014107908
81	0x32e51ad1	2.6671303e-08
82	0xbcad435f	-0.02115029
83	0xbc81c6d4	-0.015841879
84	0xbd968876	-0.073502466
85	0x3cdd0200	0.026978493
86	0xbd5b89c7	-0.05359819
87	0xbd2ab468	-0.041675955
88	0xbd2cde11	-0.042203967
89	0x92d82bc3	-1.3642305e-27
90	0xbcc51b0b	-0.024060747
91	0x03fd3699	1.48825385e-36
92	0xbd348947	-0.04407623
93	0xbdd0c882	-0.10194494
94	0x3c1e1985	0.009649639
95	0xbd974f1c	-0.07388136
96	0xbcaa95fa	-0.020823468
97	0x3c6f9859	0.014623725
98	0xbdac2101	-0.084047325
99	0x3be58fdf	0.007005676
100	0xbd05ea46	-0.032694124
101	0xbce9d434	-0.02854357
102	0xbba83fd8	-0.005134564
103	0xbd7ede9f	-0.062224027
104	0xbd7cd914	-0.06173046
105	0xbd57115e	-0.052506797
106	0xbd945968	-0.072436154
107	0x801dfc45	-2.753727e-39
108	0x3da7ce6a	0.08193667
109	0x3d7a0ca2	0.061047204
110	0x3c3d2958	0.011545502
111	0x050493dd	6.2337684e-36
112	0xbbb4132f	-0.005495451
113	0x3cbc1e7f	0.02296376
114	0x00097683	8.69033e-40
115	0xbd42c653	-0.047552418
116	0xbce9dab6	-0.028546672
117	0xbdcf8dc6	-0.10134463
118	0xbd65a989	-0.056069884
119	0xbda05341	-0.078283794
120	0x27dc4a65	6.1142925e-15
121	0xbc673e44	-0.014113966
122	0x0826da06	5.0210093e-34
123	0x3ce5cb45	0.028051028
124	0x38394d91	4.4179676e-05
125	0xbd97af9d	-0.074065425
126	0x3c9c6324	0.019090243
127	0x80225640	-3.153348e-39
128	0xbd5cc8ec	-0.05390255
129	0x3d23d07c	0.039993748
130	0x3caaebcb	0.020864388
131	0x3d442c20	0.047893643
132	0x3c60cb7d	0.01372039
133	0x3c4710fa	0.012150044
134	0xbc3ddaf4	-0.011587847
135	0xbd192c85	-0.037395973
136	0x3c157683	0.009122494
137	0x3d4c2cdf	0.04984748
138	0xbd845394	-0.06461254
139	0xbd034603	-0.03204919
140	0xbcd07090	-0.025444299
141	0x3c868684	0.016421564
142	0x8018484f	-2.229991e-39
143	0xbca51ea8	-0.02015622
144	0xbd7453ef	-0.059650358
145	0x3d0d2539	0.034459326
146	0xbdc3e2c9	-0.0956474
147	0x3dc13487	0.09433847
148	0x3d7c66d4	0.061621502
149	0x3c1334b5	0.008984734
150	0xbcdd2848	-0.026996747
151	0xbd62dcbd	-0.055386294
152	0x3cce2bcf	0.025167374
153	0xbd96e771	-0.07368363
154	0x3b31c763	0.00271269
155	0x3d1c9f41	0.038237814
156	0xbd9c4116	-0.07629602
157	0x3c5410ce	0.01294346
158	0xbcc50b66	-0.024053287
159	0x3d302d05	0.043011684
160	0xbcb31bac	-0.02186378
161	0xbcef4b6c	-0.029210769
162	0xbcb245e4	-0.021761842
163	0xbcb9534a	-0.022622723
164	0xbd1134e3	-0.035450827
165	0xbd2dffc8	-0.04248026
166	0x003dffc7	5.693721e-39
167	0xbd5193f9	-0.05116651
168	0xbdba8b6d	-0.091086246
169	0xbca127b5	-0.019672254
170	0xbd8503f1	-0.064948924
171	0xbdd9566a	-0.10612185
172	0xbd87d8b2	-0.06633128
173	0x3cb2d5dd	0.021830494
174	0x35c6ff85	1.4826516e-06
175	0xbd361dc4	-0.04446198
176	0xbd8985a5	-0.06714944
177	0xbcff0a50	-0.031132847
178	0x36aac9f5	5.0899057e-06
179	0xbb6372fd	-0.003470599
180	0x3a184e99	0.0005810052
181	0x8011b094	-1.624548e-39
182	0xbacd503f	-0.0015664174
183	0xbbedce65	-0.00725727
184	0xbd95f4cc	-0.07322082
185	0xb997a775	-0.0002892573
186	0xbc894029	-0.016754227
187	0xbc9f8c70	-0.019476146
188	0xbbbbb4df	-0.0057283486
189	0x386c5c81	5.6352936e-05
190	0xbcf74328	-0.03018339
191	0x3c647a3c	0.013945159
192	0x3c81c7df	0.015842376
193	0xbab07895	-0.0013463671
194	0xbad5e133	-0.0016317725
195	0x3ca48278	0.020081744
196	0xbd28b2a3	-0.041185986
197	0xbbbe3e81	-0.005805791
198	0xbde82aef	-0.11336314
199	0xbd3995ef	-0.045309003
200	0xbc0f5721	-0.0087488005
201	0xbdc192c0	-0.094518185
202	0xbce9fff4	-0.02856443
203	0xbcc0ceca	-0.023536105
204	0xbde59eb5	-0.112119116
205	0x3c0ed6a4	0.0087181665
206	0x3d0e31da	0.03471551
207	0x001dc0e5	2.732427e-39
208	0xbd9182ac	-0.07105002
209	0x001d16ed	2.671454e-39
210	0xbc5e7a1d	-0.013578919
211	0x90a76a8c	-6.603405e-29
212	0xbd88f6f2	-0.06687726
213	0xbc5306c1	-0.012880028
214	0x1d7e50b4	3.3658343e-21
215	0xbc6e0100	-0.014526606
216	0xbda27866	-0.079331204
217	0xbd4814d7	-0.048848
218	0xbc85410b	-0.016266366
219	0xbd6878ea	-0.056755938
220	0xbb6c8072	-0.0036087302
221	0xbd0315eb	-0.032003324
222	0xbcd1c53a	-0.02560674
223	0xbcc62541	-0.024187686
224	0xbd89b684	-0.06724265
225	0xbce28c2a	-0.027654726
226	0x3d20d40b	0.03926472
227	0xbcd1070f	-0.025516061
228	0xbd8ee189	-0.06976611
229	0x80338654	-4.731798e-39
230	0xbda145fc	-0.078746766
231	0x3d8b5bec	0.06804642
232	0xbd3f9c18	-0.046779722
233	0x3be0a493	0.0068555563
234	0x3c8fe747	0.017566336
235	0xbc47c9e9	-0.012194135
236	0xbd0c45c7	-0.034246232
237	0x3cf28f11	0.029609235
238	0x80316a49	-4.538067e-39
239	0xbd90eda4	-0.07076576
240	0xbd8ed33e	-0.06973885
241	0xbd2c815f	-0.042115565
242	0xbd4ff76e	-0.050773077
243	0x3d054125	0.03253283
244	0x3d274acf	0.040842827
245	0xbd7bdbc5	-0.061488885
246	0x3a220561	0.0006180611
247	0xbd97f17b	-0.074191056
248	0xbd462da6	-0.048383377
249	0x37a34079	1.9461137e-05
250	0xbd9d776f	-0.07688796
251	0xbd9a0f33	-0.0752243
252	0xbdb41f4f	-0.08795034
253	0xbc029335	-0.007969667
254	0xbc789280	-0.015171647
255	0x001b8e76	2.530664e-39

f0.2.bias f4 [256]
0	0x3c0ccbf2	0.008593546
1	0xb6b1e106	-5.3012072e-06
2	0xbd866ab4	-0.06563321
3	0xbca44d7d	-0.02005648
4	0x3d24a74a	0.0401986
5	0xbcfe8677	-0.031069977
6	0xb932ad15	-0.00017039881
7	0xbc1ea5be	-0.009683071
8	0x3dc9410c	0.0982686
9	0xbccdc71a	-0.025119353
10	0x3d83e2bc	0.064397305
11	0xbcaa03c3	-0.020753747
12	0xb715deaf	-8.93294e-06
13	0x3d3b313c	0.04570125
14	0xb9a518c5	-0.00031489707
15	0x3d09bdb3	0.033628177
16	0xbc0f2e00	-0.008738995
17	0xbb9772b1	-0.0046218266
18	0xbd4802ce	-0.0488308
19	0x3c7ab795	0.015302558
20	0xbd0fe860	-0.03513372
21	0xbcfb6dd7	-0.030692024
22	0xbc0a890a	-0.008455524
23	0x3d453527	0.048146393
24	0xbdacb127	-0.08432227
25	0xbd43ef6b	-0.04783575
26	0xb4c67910	-3.6968459e-07
27	0x3d14a23c	0.03628753
28	0xbcf92f1c	-0.030417971
29	0xbdbe4304	-0.09290126
30	0x3a787a3b	0.0009478663
31	0xbafa1e80	-0.0019082576
32	0xbd0dfb99	-0.03466377
33	0x3c93c360	0.018037498
34	0xbca0f454	-0.019647755
35	0x3d86095d	0.06544755
36	0xbbe2769b	-0.0069111115
37	0x3d26ae30	0.040693462
38	0xbab372ea	-0.0013690863
39	0x3c0901d0	0.008362249
40	0x3d8fb757	0.07017391
41	0xbcac5804	-0.021038063
42	0xbd8441d0	-0.06457865
43	0xbd038c07	-0.032115962
44	0x3b803b3d	0.0039133118
45	0x3c9e2ca3	0.019308394
46	0xbc8e3ee3	-0.017363971
47	0x3d6698c6	0.05629804
48	0xb95dec54	-0.00021164241
49	0xb5d07cb7	-1.5533504e-06
50	0xbc46862c	-0.01211695
51	0xbd020264	-0.03174056
52	0x3d010398	0.031497568
53	0x3da2690d	0.07930193
54	0x3c0a4e77	0.008441559
55	0xbbc0c080	-0.005882323
56	0x3a8d44db	0.0010777967
57	0xbd63852c	-0.055546924
58	0xbbc654fe	-0.0060526123
59	0xbd247f02	-0.040160187
60	0xb0fb9ef1	-1.8307827e-09
61	0xbd17fe8c	-0.03710799
62	0x3af9870f	0.0019037443
63	0x3cba04fd	0.022707457
64	0xbc80424f	-0.015656618
65	0x3d412d87	0.04716256
66	0x3c7439be	0.014906345
67	0xbcefb7e4	-0.02926249
68	0x3d153a0f	0.036432322
69	0xbcd31cec	-0.025770627
70	0xbc9384df	-0.018007694
71	0xbd73cfc1	-0.0595243
72	0xbd50b5bc	-0.050954565
73	0xbc3e4a64	-0.011614416
74	0x3d2bdb10	0.04195696
75	0xb9b47a7a	-0.00034423528
76	0xbab21f95	-0.0013589734
77	0x3cd29811	0.025707277
78	0x3c51ebec	0.012812596
79	0xb58b5222	-1.0380211e-06
80	0xbcd6bc8d	-0.026212955
81	0x3da1f80a	0.07908638
82	0x3d8b42ac	0.06799826
83	0x3d29bcca	0.04143981
84	0x3ca074b2	0.019586895
85	0xbc988e5d	-0.018622572
86	0x3c04fe47	0.008117265
87	0xbc44e517	-0.01201751
88	0xbd85afd6	-0.06527679
89	0xbd66bea2	-0.056334145
90	0xb1296ad2	-2.4653457e-09
91	0xbc5fe0fc	-0.01366448
92	0xbd0b2573	-0.03397126
93	0x395aaa7f	0.00020853615
94	0xbb5f59bc	-0.0034080585
95	0xbcd5afa5	-0.02608473
96	0xbd41fc2f	-0.04735964
97	0xbd935be2	-0.0719526
98	0x3c4e9d34	0.012610722
99	0x3d99603c	0.074890584
100	0x3c938a05	0.018010149
101	0xbc3dfd2c	-0.011596005
102	0xbd3097aa	-0.043113388
103	0xbce6f358	-0.028192207
104	0xbc477ed0	-0.012176231
105	0xbdab69e1	-0.08369804
106	0x3bd6b8ed	0.0065528066
107	0xbd2fd6f2	-0.042929597
108	0xbce225d3	-0.027605927
109	0xbc8e26fe	-0.017352577
110	0xbc7e9931	-0.015539453
111	0xbcb6f7e4	-0.022335
112	0x3d950d89	0.07277972
113	0xbd7a758c	-0.061147258
114	0xb7173937	-9.013623e-06
115	0xbdb86da5	-0.09005288
116	0xbc56ba66	-0.013105964
117	0x3ca05e46	0.019576203
118	0xbcbd7884	-0.023128755
119	0xbcc5b93c	-0.024136178
120	0x3d932303	0.07184412
121	0x3cc0dd4e	0.023543026
122	0x3c2ee381	0.010674358
123	0xbc070124	-0.008240018
124	0xb2bce237	-2.1988951e-08
125	0x3d3fe30f	0.0468474
126	0xbd7129d2	-0.058877774
127	0xbc4b7e68	-0.012420274
128	0xa51bab20	-1.3502086e-16
129	0xbd6337c4	-0.055473104
130	0xbd4d86c6	-0.050177358
131	0x3d0965c9	0.033544336
132	0xbc68f6c0	-0.014218986
133	0x3a822f2d	0.0009932272
134	0xbce7b416	-0.028284114
135	0xbcd1624d	-0.025559569
136	0xbd522573	-0.051305246
137	0xbd889e3c	-0.06670806
138	0x3b0cbdd6	0.0021475456
139	0x3af9b6b0	0.0019051638
140	0xbcf6ada3	-0.030112093
141	0xbc7e58d4	-0.015524108
142	0x3cdd34ba	0.027002681
143	0xb3f118d0	-1.12269504e-07
144	0x3d25a2f7	0.04043862
145	0xbc80fc56	-0.015745323
146	0x3a46f9d3	0.00075903273
147	0x3c2a1ede	0.010383336
148	0xbd0d2fbf	-0.034469362
149	0xbc9cfbf1	-0.019163104
150	0xbd8fef96	-0.07028119
151	0xbc174afa	-0.009234184
152	0xbd46dc09	-0.048549686
153	0xbd5c2e0d	-0.053754855
154	0x3dac6f05	0.08419613
155	0xbd7e7140	-0.062119722
156	0x3c9d52f1	0.019204589
157	0xbbfd8234	-0.0077364687
158	0xbd6c9f64	-0.057769194
159	0xbd13dead	-0.036101032
160	0xbd854532	-0.065073386
161	0xbc947b55	-0.018125216
162	0xbcf212da	-0.029550005
163	0xbd5b50e5	-0.053543944
164	0xbd2b6e9f	-0.041853543
165	0x3bc58b98	0.0060286038
166	0x3dbe5833	0.092941664
167	0x3d3ad936	0.045617305
168	0x3dd822c7	0.10553508
169	0xbc48473d	-0.012224016
170	0xaf3f5a29	-1.740338e-10
171	0x3c91e63a	0.017809976
172	0xbc9c721d	-0.019097382
173	0xbc3f44da	-0.01167413
174	0xbb6af2f3	-0.0035850375
175	0xbc916e92	-0.01775292
176	0xbd88cbcd	-0.06679497
177	0xbd06be07	-0.032896068
178	0x3b8ecf90	0.0043582395
179	0xa3f0066f	-2.6023577e-17
180	0xbd6a2423	-0.05716337
181	0xbc495a76	-0.012289634
182	0x3d37e1d3	0.044893097
183	0xbc652e97	-0.013988159
184	0xbd7637fb	-0.06011198
185	0xbc034d06	-0.008013969
186	0x3d78f944	0.060784593
187	0xb8ff19d6	-0.0001216416
188	0x3d171675	0.03688665
189	0xbca0c44f	-0.019624857
190	0xbc784de4	-0.015155289
191	0x3d678871	0.056526605
192	0x3b6a5ee1	0.0035762119
193	0xbda31842	-0.07963611
194	0xb3db1794	-1.0202271e-07
195	0xbb63ff56	-0.0034789643
196	0xbc205643	-0.009786191
197	0xbd26772d	-0.040641
198	0x3bf3dfae	0.007442436
199	0xbbbd0d32	-0.0057693953
200	0x3dc3d7f5	0.09562675
201	0xbc1b6ad2	-0.009485917
202	0xbcc094c6	-0.02350844
203	0xbd2b8b52	-0.041880913
204	0x3da45dde	0.08025716
205	0x3d65def5	0.05612083
206	0x3d6d4c18	0.057933897
207	0xbcf873cb	-0.030328652
208	0x3d890b1a	0.066915706
209	0x3db127b3	0.0865015
210	0xbd199ece	-0.037504964
211	0x3d1d0b13	0.03834064
212	0x3d0f5c20	0.034999967
213	0x3c79dfa3	0.015251073
214	0xbcb60ddd	-0.022223407
215	0x3c2547f1	0.010087953
216	0xb9ca4442	-0.00038579298
217	0xbcbc8596	-0.023012917
218	0xbcca5879	-0.02470039
219	0x3d12ce85	0.035841484
220	0xbdb1ab03	-0.08675196
221	0xb5c7bfd3	-1.4882484e-06
222	0xb523c726	-6.101203e-07
223	0xb38dfa68	-6.611373e-08
224	0xbd924fc0	-0.07144117
225	0xbcd25ba5	-0.025678465
226	0x3b959154	0.0045644436
227	0xbd0ba66f	-0.03409427
228	0x3b439aa5	0.0029846814
229	0xb87ec86f	-6.0744987e-05
230	0x3b5618b3	0.003266853
231	0xbd2d45e9	-0.042303
232	0x3cdee24b	0.027207514
233	0xbcf668c2	-0.03007925
234	0x3aa71ab6	0.0012749049
235	0xbc9124c3	-0.017717725
236	0x3bcd99a2	0.006274418
237	0xb4273041	-1.5570642e-07
238	0xbc6f77b7	-0.014615945
239	0xbcddd998	-0.027081296
240	0x3c92074f	0.01782575
241	0xbd3e0a85	-0.04639675
242	0xbcaca49a	-0.021074582
243	0x3b92100d	0.00445748
244	0xbd79fd18	-0.061032385
245	0xbc3f4a65	-0.011675452
246	0xbc9b73ca	-0.018976111
247	0xbc73357c	-0.014844295
248	0xbd60714c	-0.05479555
249	0xbbd9dc7a	-0.0066485973
250	0x3c4b6d70	0.012416229
251	0xbb33414d	-0.0027352155
252	0xbd171a01	-0.036890034
253	0x3dae34ec	0.08506188
254	0xbc5627f5	-0.01307105
255	0xbd2826b1	-0.041052524

f0.4.weight f4 [130, 256]
0	0x3d7b24bc	0.06131433
1	0x000c973a	1.156276e-39
2	0x3cb114c8	0.021616355
3	0x2102a36c	4.4262e-19
4	0x3d28f210	0.041246474
5	0xbd2ccfc8	-0.042190343
6	0x3dcc4098	0.09973258
7	0xbb20e83f	-0.0024552492
8	0x3e57e13e	0.21082017
9	0x3c9d34da	0.01919024
10	0x3cb6425b	0.022248438
11	0x803528b9	-4.88189e-39
12	0x801747d3	-2.137982e-39
13	0x3c29328e	0.010326995
14	0x371741f9	9.015662e-06
15	0xbcf10902	-0.02942324
16	0x3bac3a1d	0.005255951
17	0x0026942a	3.5429e-39
18	0xbabd798a	-0.0014455777
19	0x98642561	-2.948718e-24
20	0xbd0da29c	-0.034578905
21	0xbd1ad264	-0.0377983
22	0x801d5f00	-2.697309e-39
23	0x3db092db	0.086217605
24	0x3c8443ea	0.016145665
25	0xbca8f00d	-0.020622278
26	0x01655b56	4.2126188e-38
27	0x33246350	3.827455e-08
28	0xbd0da8a7	-0.034584668
29	0x3ca16c10	0.019704849
30	0x3db48b0a	0.08815582
31	0xbaad70b3	-0.001323244
32	0xbd1a7c39	-0.037716124
33	0x3c989f12	0.018630538
34	0x3c385fa4	0.011253271
35	0x3dcc2036	0.09967081
36	0xbd08ed91	-0.033429686
37	0xbd37da7a	-0.04488609
38	0x3d43af8a	0.04777483
39	0xb1c0d2f1	-5.6119167e-09
40	0x3d3ed191	0.046586577
41	0x3c1eb3cf	0.009686424
42	0x3c86ea54	0.016469158
43	0x3e168826	0.14700374
44	0x36dfe8e8	6.6730317e-06
45	0xbccbe124	-0.024887629
46	0xb30cc5d8	-3.2776228e-08
47	0x3d431b45	0.047633428
48	0x0159ae66	3.998173e-38
49	0x00485d11	6.645542e-39
50	0x2ce11369	6.3970396e-12
51	0xbd3e9ebc	-0.0465381
52	0xbc6ebb46	-0.014571017
53	0x3c81ec1a	0.015859652
54	0xbc8306f5	-0.015994528
55	0xbd224fac	-0.039626762
56	0xbd193546	-0.03740432
57	0xbd1726fb	-0.03690241
58	0xbc074886	-0.008257037
59	0xbcaa3f3e	-0.02078211
60	0x001a6d6e	2.426979e-39
61	0xbcbe3277	-0.023217423
62	0xbcce9c91	-0.025221141
63	0x82b4359a	-2.6479389e-37
64	0x3da7c29c	0.08191416
65	0xbca6b935	-0.020351985
66	0x3be76dc2	0.0070626447
67	0xbd25dd25	-0.040494103
68	0xbda26049	-0.07928521
69	0xbd0ff4ed	-0.03514569
70	0x3d0334cd	0.032032777
71	0xbc1b46e7	-0.009477354
72	0xbd0a1f70	-0.033721387
73	0x0015eee9	2.01425e-39
74	0xbd20e3a9	-0.039279614
75	0x00240f79	3.311628e-39
76	0x3c9ae467	0.018907739
77	0x3cc8fcfd	0.024534697
78	0xbdaa2eeb	-0.0830973
79	0x000cce67	1.176069e-39
80	0xbcd0c8f8	-0.025486454
81	0x3e4ed987	0.20200168
82	0xbc7bdaf4	-0.015372027
83	0x3dfc035f	0.123053305
84	0x3e2eb5a8	0.17061484
85	0xbd5b8cc2	-0.053601034
86	0x3b15e8ab	0.0022874277
87	0x3ce3e814	0.027820624
88	0x3a848858	0.0010111434
89	0x373e860b	1.1356092e-05
90	0x003e1769	5.702199e-39
91	0x9fb4e42c	-7.6610444e-20
92	0x3db04f58	0.086088836
93	0x8234a923	-1.3272851e-37
94	0x3e2639dc	0.16233009
95	0x007e8f7c	1.1622745e-38
96	0xbbc64fae	-0.006051979
97	0x3e13a047	0.1441661
98	0x0af57d8b	2.3639866e-32
99	0x3d845731	0.06461943
100	0x3e3b32de	0.18281123
101	0x3cf3abd1	0.029745014
102	0xbbb99069	-0.005662967
103	0xbcd40bf7	-0.025884612
104	0x3cb70036	0.022338968
105	0xbcc7fc8f	-0.024412422
106	0x3db240dc	0.08703777
107	0x3d1e9796	0.038718782
108	0x3db6327b	0.08896347
109	0x80232aec	-3.22964e-39
110	0xbd110c78	-0.03541228
111	0xbd1e042d	-0.0385782
112	0xbc4973d6	-0.012295684
113	0x3c686e2b	0.014186422
114	0x000edd93	1.365183e-39
115	0xbc9656d2	-0.018351946
116	0x80226565	-3.15878e-39
117	0x3da2ea2b	0.0795482
118	0xbd51f291	-0.05125672
119	0x80efcd28	-2.202228e-38
120	0x3c9c6488	0.019090906
121	0xbd8dc2ed	-0.06921945
122	0xbd4306ba	-0.047613837
123	0x3c729b84	0.014807586
124	0x0003f527	3.6345e-40
125	0x3e0903be	0.13380334
126	0x3dad49ae	0.08461319
127	0xba9adfd9	-0.0011815979
128	0x002feda5	4.401519e-39
129	0x3cf9bc40	0.030485272
130	0xbcfbf656	-0.03075711
131	0x3a9a60dc	0.0011778134
132	0x3beb14bd	0.007174103
133	0x803510b4	-4.873273e-39
134	0xbcb99341	-0.022653224
135	0x3c9d386c	0.019191943
136	0xbc2741a6	-0.010208523
137	0x3d2d33e7	0.042285826
138	0x3d0200a6	0.0317389
139	0xbce15c28	-0.027509764
140	0xbd29c16b	-0.041444223
141	0x3c996354	0.018724121
142	0x3d30a81d	0.043129075
143	0x0045b1c4	6.40042e-39
144	0x3dbee438	0.09320873
145	0xbd38f921	-0.045159463
146	0x3c02dc77	0.007987133
147	0x03b76659	1.0779271e-36
148	0xbd21a0dd	-0.03946005
149	0x3e2896bf	0.16463755
150	0x3c6d937e	0.014500497
151	0xbcfb60d5	-0.030685822
152	0x3d8a5fd8	0.06756562
153	0xa42d5b16	-3.7590548e-17
154	0x3c11ee60	0.008906931
155	0xbada40ed	-0.001665143
156	0x3c592eef	0.013255819
157	0xbcf6fa96	-0.030148786
158	0xbc6563d6	-0.0140008535
159	0xbc9577fe	-0.018245693
160	0xbcde2cb8	-0.027120933
161	0x3d9ac40f	0.075569265
162	0x20d0b4d3	3.535623e-19
163	0xbba64612	-0.005074271
164	0x3b5ef7e3	0.0034022264
165	0x3e140617	0.14455448
166	0x3e2315af	0.1592624
167	0x3c347233	0.011013555
168	0x3e55b0e2	0.20868257
169	0xbaa21f70	-0.0012368988
170	0x8020f062	-3.024969e-39
171	0xbcca254e	-0.024675991
172	0x3db483d6	0.08814208
173	0xbd3c2c05	-0.045940418
174	0x3bc4916e	0.005998782
175	0x3de13782	0.109969154
176	0x3d8484b2	0.06470622
177	0xbcb5f122	-0.022209708
178	0xbb79d0fa	-0.0038118945
179	0x000e8fed	1.337328e-39
180	0x804aa5b7	-6.855274e-39
181	0x00380825	5.14571e-39
182	0xba3ece29	-0.0007278645
183	0xbd383b4e	-0.044978432
184	0xbd0e720a	-0.034776725
185	0x8123c04f	-3.0076346e-38
186	0x3df3688d	0.11885176
187	0x001b51d0	2.508907e-39
188	0xbd2cb86e	-0.042168073
189	0xbcd698b5	-0.026195863
190	0x3b24054d	0.0025027574
191	0x3dce23ed	0.10065446
192	0xbcc4ce12	-0.024024043
193	0xbce9e078	-0.028549418
194	0x803f3e90	-5.80808e-39
195	0x00198b09	2.345764e-39
196	0xb91a1a98	-0.00014696491
197	0xbc4a261a	-0.012338186
198	0x34dbd779	4.0948706e-07
199	0x800d13ff	-1.201035e-39
200	0x3e40dd76	0.1883448
201	0x3cdf29a1	0.02724153
202	0xbd2f7ccf	-0.042843636
203	0xbd85f617	-0.065410785
204	0x3dba6e3f	0.09103059
205	0xbd27b82c	-0.040947124
206	0x3e2821cc	0.16419142
207	0xa5818eda	-2.2474733e-16
208	0x3db27e14	0.08715454
209	0x3cf3ff4c	0.029784821
210	0xbcd57ed5	-0.026061455
211	0x3c0ec6c0	0.008714378
212	0xbc0c857f	-0.00857675
213	0x3ddda209	0.108219214
214	0x9a34bb77	-3.737456e-23
215	0xbcc8a955	-0.024494806
216	0x00432844	6.167423e-39
217	0xbc6d38cf	-0.014478876
218	0xbd12d3d9	-0.035846565
219	0x3cfcf8c4	0.03088034
220	0x3dc10efe	0.09426688
221	0x00040be7	3.71612e-40
222	0x3c1a8639	0.009431415
223	0x800b6b56	-1.048695e-39
224	0xbc831719	-0.016002225
225	0x9abbcab5	-7.766888e-23
226	0x3d6469db	0.055765014
227	0xbc275115	-0.010212203
228	0xbc3cf3b7	-0.0115327155
229	0x80331909	-4.692591e-39
230	0xbd3406ce	-0.043951802
231	0x803edb44	-5.772458e-39
232	0x0d2a653c	5.250715e-31
233	0x333e05d5	4.4243126e-08
234	0xb9d3fb94	-0.00040432496
235	0x3c91fddf	0.01782125
236	0xbcff9366	-0.031198215
237	0x35374a7c	6.82812e-07
238	0xbd0d45d5	-0.034490425
239	0x3d141ebf	0.036162134
240	0xbd3bdf56	-0.045867287
241	0xbd0ea409	-0.034824405
242	0x801dbc7a	-2.730842e-39
243	0x3c3b6bde	0.011439292
244	0xbc90684c	-0.017627858
245	0x3ad2e7be	0.0016090793
246	0x0069db0f	9.72131e-39
247	0xbcd4aa0e	-0.025959995
248	0x3c6617d5	0.014043768
249	0x9a030db4	-2.7101234e-23
250	0x3dadbe79	0.084835954
251	0x0045361e	6.356063e-39
252	0x3e1d74f7	0.1537665
253	0x3e20e3f8	0.15711963
254	0xbd07b9bd	-0.03313612
255	0x1fb63452	7.7166555e-20

f0.4.bias f4 [130]
0	0xbcc93e4d	-0.02456584
1	0x3c9c8b7e	0.019109484
2	0xbd923193	-0.07138362
3	0xbdb5eb55	-0.08882777
4	0xbcff1a10	-0.031140357
5	0xbc445c49	-0.011984893
6	0x3c2fcb54	0.01072963
7	0xbbc7dc37	-0.0060992497
8	0x006d8404	1.0057427e-38
9	0x0067da1c	9.537299e-39
10	0xbd07de5f	-0.033171054
11	0xbc67f8bc	-0.014158424
12	0xbcc66fda	-0.024223257
13	0xbd4428b6	-0.047890387
14	0xbd03039e	-0.03198587
15	0xbd894368	-0.0670231
16	0xbd8c974b	-0.06864794
17	0xbcfcc14d	-0.030853892
18	0xbcc1b75d	-0.023647005
19	0xbcb44ed4	-0.022010244
20	0x0031c370	4.570049e-39
21	0xbc3cb4ee	-0.011517746
22	0xbaad1dcb	-0.0013207732
23	0x800bef98	-1.09614e-39
24	0x80278af1	-3.631427e-39
25	0x80fc14bc	-2.3149983e-38
26	0xbd5e7618	-0.05431184
27	0x0029f4b4	3.853038e-39
28	0x0029e3d4	3.846985e-39
29	0xbd46b6bb	-0.04851411
30	0xbd803e90	-0.06261933
31	0xbd0632c1	-0.032763246
32	0x002dbcab	4.200279e-39
33	0xbd4a1c6e	-0.04934352
34	0xbd604a78	-0.05475852
35	0xbc9a8144	-0.018860467
36	0x8008ab30	-7.96094e-40
37	0x3d6bc715	0.057562906
38	0x0002aa9e	2.44877e-40
39	0xbcab4c20	-0.020910323
40	0xbd9a47a1	-0.075331934
41	0xbc883af6	-0.016629677
42	0xbd75f979	-0.06005237
43	0x3c416610	0.011804119
44	0x802846c8	-3.698811e-39
45	0xbcca6cf9	-0.024710165
46	0xbc90f296	-0.017693799
47	0x0015a026	1.985996e-39
48	0xbd152ba0	-0.036418557
49	0x00408535	5.925257e-39
50	0xbd0b50a4	-0.03401245
51	0x001343a8	1.769145e-39
52	0xbcbd7088	-0.023124948
53	0xbceefcca	-0.029173274
54	0xbc9cd3e0	-0.019143999
55	0xbc3c5ef2	-0.011497246
56	0xbcd39dec	-0.025832139
57	0x81bacdf6	-6.862115e-38
58	0xbbbad2ec	-0.0057014134
59	0x00672e5a	9.475684e-39
60	0xbd2809f2	-0.04102511
61	0x800a39fa	-9.39153e-40
62	0x00197d10	2.340751e-39
63	0xbb7763d9	-0.0037748723
64	0xbc0393f3	-0.008030879
65	0xbd61f84f	-0.055168446
66	0xbc13ad6e	-0.009013517
67	0x00acce66	1.5869747e-38
68	0x0002e51c	2.6586e-40
69	0xbc6c5942	-0.014425578
70	0xbd14b093	-0.036301207
71	0xbd395605	-0.04524805
72	0xbd15e8e3	-0.03659905
73	0xbc9e8345	-0.019349704
74	0x801ade74	-2.467524e-39
75	0xbd12581c	-0.03572856
76	0xbd247c95	-0.040157873
77	0x00db4112	2.0135316e-38
78	0x3d1364cf	0.03598481
79	0xbd25ebb1	-0.040507976
80	0xbd3e0f8e	-0.046401553
81	0xbd7e37f6	-0.062065087
82	0xba306ce5	-0.0006730094
83	0x00081e56	7.45566e-40
84	0xbd9d6fe0	-0.07687354
85	0x001a4d42	2.415438e-39
86	0xbc39fcc9	-0.011351773
87	0x00006334	3.5587e-41
88	0xbce2c655	-0.027682463
89	0xbd848ed7	-0.06472557
90	0xbc7672f2	-0.015042054
91	0x3be07b5d	0.0068506435
92	0xbcd6abfc	-0.026205055
93	0x3cee85cb	0.029116532
94	0x002317c9	3.222775e-39
95	0x3c808183	0.015686756
96	0x3b602376	0.0034200824
97	0xbca05df3	-0.019576048
98	0x3c6ebf29	0.014571943
99	0x3d0afefc	0.03393458
100	0xbd0413c8	-0.032245427
101	0xbd12aa8c	-0.035807177
102	0xbce92a49	-0.028462546
103	0x00e3d01c	2.0921313e-38
104	0xbcbd64d4	-0.023119368
105	0x803a028c	-5.327372e-39
106	0x000eb1a1	1.349418e-39
107	0xbd663e37	-0.056211676
108	0x3b18f239	0.0023337735
109	0xbcb7abf3	-0.022420859
110	0xbd3c8843	-0.046028387
111	0x3bbe8c1d	0.0058150426
112	0x80663638	-9.38667e-39
113	0x802c18fa	-4.049722e-39
114	0xbbd2e6af	-0.006436191
115	0xbc1ec96b	-0.0096915765
116	0xbc978d45	-0.01849998
117	0xbb1f925f	-0.0024348719
118	0xbd2a1767	-0.041526224
119	0xbc91672b	-0.01774939
120	0x8069052a	-9.64458e-39
121	0xbd4f0670	-0.05054325
122	0xbcfd85f5	-0.030947665
123	0xbcbf9314	-0.023385562
124	0x00081839	7.43373e-40
125	0x802ca5b2	-4.100202e-39
126	0x8021ac13	-3.0923e-39
127	0x003295ef	4.645561e-39
128	0x3cb58a25	0.022160599
129	0x00168756	2.06893e-39
