model/model.pth (torch, 504595 bytes, 4 tensors)

linear1.weight f4 [256, 390]
0	0x3db68363	0.08911779
1	0x3d00be27	0.031431343
2	0x3d22616a	0.039643683
3	0x3d7ef144	0.062241808
4	0x3d059154	0.0326093
5	0x3c5647a3	0.013078603
6	0xbcccec26	-0.025014948
7	0x3d34efea	0.044174112
8	0xbd0b4433	-0.034000587
9	0xbde29b95	-0.11064831
10	0x3c8256a6	0.015910458
11	0xbd252036	-0.040313922
12	0xbd2c38f8	-0.042046517
13	0xbe616889	-0.22012533
14	0xbd3ad477	-0.04561278
15	0x3d710671	0.058844034
16	0x3d08b141	0.033372167
17	0xbd43ab7f	-0.047770973
18	0x3d945737	0.072431974
19	0x3c6ed88c	0.014577996
20	0xbcdfc6be	-0.027316447
21	0x3dad44e7	0.08460408
22	0x3cc7e3d3	0.024400627
23	0x3cd0d3a7	0.025491549
24	0x3d2c6002	0.042083748
25	0x3ca7ce41	0.020484092
26	0xbd324a9b	-0.04352818
27	0x3b3a2281	0.0028401914
28	0x3d3181a9	0.043336544
29	0xbcd16196	-0.025559228
30	0xbd028c8c	-0.031872317
31	0x3c8e7bdf	0.01739305
32	0x3d4d4928	0.050118595
33	0xbc60ac05	-0.013712888
34	0x3c56d2a3	0.013111743
35	0x3d3ec80a	0.04657749
36	0xbe46dd2d	-0.1942031
37	0x3cb8984e	0.022533562
38	0xbcc192b8	-0.023629531
39	0xbcb3cf52	-0.021949444
40	0xbc126b62	-0.008936735
41	0x3cd4a560	0.025957763
42	0xbc170f3b	-0.00921994
43	0xbcd85bb4	-0.026410915
44	0xba583f93	-0.00082492194
45	0x3d47414c	0.048646256
46	0x3c8254f1	0.015909644
47	0x3d02a599	0.031896207
48	0xba8a46e4	-0.0010549692
49	0xbc46f53f	-0.012143432
50	0x3c980d52	0.01856104
51	0xbbe11511	-0.0068689664
52	0x3d39b306	0.045336746
53	0x3c079fab	0.008277814
54	0xbc72deb4	-0.014823604
55	0x3d17e65b	0.03708492
56	0x3f2b9d16	0.6703657
57	0xbc29ee79	-0.010371798
58	0x3d8d75ca	0.06907232
59	0x3c216b22	0.009852203
60	0xbc3c0c47	-0.0114775365
61	0xbcd3b004	-0.025840767
62	0x3c9aae1f	0.018881856
63	0xbe6fd3ec	-0.23420686
64	0xbbd2cc2c	-0.0064330306
65	0x3cf75d61	0.030195894
66	0xbd573394	-0.052539423
67	0x3d10f82f	0.035392936
68	0x3d4c3aaa	0.049860634
69	0x3d4900a8	0.04907289
70	0xbcc22a57	-0.02370183
71	0x3d23ff6f	0.040038522
72	0xbd8a62c7	-0.067571215
73	0xbc8a6c22	-0.016897265
74	0xbd22d8b9	-0.039757464
75	0x3d037143	0.032090437
76	0x3d1615e2	0.036641963
77	0xbc66dbc6	-0.014090484
78	0x3d932a97	0.07185858
79	0x3b91f63c	0.0044544023
80	0x3d33a85a	0.043861724
81	0x3dadd627	0.08488112
82	0x3bc22353	0.005924621
83	0xbcc4e5da	-0.024035383
84	0x3a871b05	0.0010307735
85	0x3caf6d5f	0.021414457
86	0xbcc7d757	-0.024394674
87	0xbd795810	-0.060875
88	0xbc9b9075	-0.01898978
89	0x3c4cdfd9	0.012504541
90	0x3d1d5637	0.0384123
91	0xbe0e0e90	-0.13872743
92	0x3d02b418	0.031910032
93	0x3da690ea	0.08133109
94	0x3ccf1b16	0.02528147
95	0xbd3f504e	-0.046707444
96	0x3d624a71	0.055246774
97	0xbc604f49	-0.013690778
98	0xbcf8a9d6	-0.030354422
99	0x3d4fbc08	0.05071643
100	0x3b5e64aa	0.0033934512
101	0x3d1481d3	0.036256623
102	0x3d55df06	0.052214645
103	0x3d012784	0.031531826
104	0xbd078e2c	-0.03309457
105	0x3c8a2ed3	0.01686803
106	0x3c007f25	0.007842814
107	0xbd00a998	-0.031411737
108	0xbd211d18	-0.039334387
109	0xbc6a0f0e	-0.014285816
110	0x3540d359	7.1833125e-07
111	0xbcc56f8b	-0.02410104
112	0x3d28f9b2	0.041253753
113	0xbc914463	-0.017732805
114	0xbe0c7ba2	-0.13719037
115	0x3d217886	0.03942158
116	0xbc940644	-0.018069394
117	0x3c676872	0.014124023
118	0x3df02cf2	0.11727323
119	0x3d482181	0.048860077
120	0xbd486d78	-0.048932523
121	0x3d0ad08a	0.033890285
122	0xbce95886	-0.028484594
123	0xbaba04a0	-0.0014192052
124	0x3cfba1f6	0.030716877
125	0x3f10bf80	0.56542206
126	0xbd99e412	-0.07514204
127	0x3c92ab7a	0.017904032
128	0x3d01399d	0.031549085
129	0xbc83f0cb	-0.01610603
130	0xbc8f4e04	-0.017493255
131	0x3bf053b7	0.0073341983
132	0x3bc092a2	0.005876855
133	0x3d0bf49b	0.03416882
134	0x3c88a9fe	0.016682621
135	0x3c1c870f	0.009553685
136	0x3d4c1b66	0.049830817
137	0x3d100e32	0.035169788
138	0xbd087372	-0.033313222
139	0x3b18e6e2	0.0023330976
140	0x3b6a5143	0.0035754002
141	0xbe851d59	-0.25998953
142	0xbd4c4f65	-0.049880404
143	0x3c8f9a3a	0.017529596
144	0xbd892432	-0.06696357
145	0x3ce08d47	0.027411116
146	0x3d44881d	0.04798137
147	0x3c839ff1	0.016067477
148	0x3bd72512	0.0065656984
149	0x3c806d75	0.015677193
150	0xbd43ab27	-0.047770645
151	0xbb955d58	-0.0045582466
152	0x3cc0b4f4	0.023523785
153	0xb9bbf0bc	-0.0003584678
154	0xbca4ca99	-0.020116137
155	0xbc8c86b1	-0.01715407
156	0x3dfedeb9	0.12444825
157	0x3cf5ea43	0.030018931
158	0xbcaffdb0	-0.021483272
159	0x3cb24ef9	0.021766173
160	0x3caee29d	0.021348292
161	0x3ccbf5e5	0.024897525
162	0xbc5a6bd0	-0.013331369
163	0xbca152aa	-0.019692738
164	0xbd1f8725	-0.038947243
165	0xbd865440	-0.06559038
166	0x3d024ce8	0.031811625
167	0x3c5f11cb	0.013615082
168	0xbb6120f9	-0.0034351929
169	0xbd27c098	-0.040955156
170	0x3f1dcdbd	0.61642057
171	0x3da0f5b8	0.07859367
172	0xbcd69df6	-0.026198369
173	0x3d138d46	0.0360234
174	0x3d966fe1	0.07345558
175	0xbc811217	-0.015755696
176	0xbcc89b2e	-0.024488058
177	0x3d53c0c8	0.051697522
178	0x3d18db3b	0.03731845
179	0xbc9da2e8	-0.019242719
180	0x3d85e703	0.065382026
181	0x3ca54d6e	0.020178523
182	0xbca3d1a0	-0.019997418
183	0xbbb9d224	-0.0056708027
184	0x3bef1128	0.0072957464
185	0xbc3f4303	-0.011673692
186	0xbd7d18f6	-0.061791383
187	0x3c1b7510	0.009488359
188	0xbb09a748	-0.0021004248
189	0xbbaa58a6	-0.005198556
190	0xbcf9d8ec	-0.030498944
191	0xbd46398e	-0.048394732
192	0xbe3882f7	-0.18018709
193	0xbc784469	-0.015153029
194	0xbd139550	-0.036031067
195	0x3a2c472e	0.0006571886
196	0x3d8e5288	0.06949335
197	0x3bbe49fb	0.005807159
198	0xbc955588	-0.018229261
199	0x3d1788b4	0.036995605
200	0x3d161375	0.03663965
201	0x3cba6f14	0.022758044
202	0xbdd0f20d	-0.102024175
203	0x3d11c5fa	0.035589196
204	0xbca63f6c	-0.020293914
205	0x3d4c5fa9	0.049895916
206	0x3d421997	0.047387686
207	0x3d446744	0.047950044
208	0x3d46ccca	0.048535146
209	0xbcea4c19	-0.02860074
210	0x3cab1379	0.020883309
211	0x3d6804ed	0.056645323
212	0x3d2f8c7e	0.042858593
213	0x3c8d8c66	0.017278861
214	0x3d2ba4cf	0.04190522
215	0x3d07c6fd	0.033148754
216	0x3ca4c03e	0.0201112
217	0xbd2d4255	-0.042299587
218	0xbc2dcb91	-0.010607616
219	0xbe81db28	-0.25362515
220	0x3cf64731	0.030063244
221	0x3d4a23f8	0.04935071
222	0xbdba48c8	-0.09095913
223	0x3ae2c7e5	0.0017302005
224	0xbd33bccf	-0.043881234
225	0x3ced77f3	0.02898786
226	0xbb9466b1	-0.0045288433
227	0xbd44947d	-0.047993172
228	0xbdca7b4e	-0.098868
229	0xbd2de7d2	-0.04245741
230	0xbcd46935	-0.025929073
231	0xbd343473	-0.043995332
232	0xbd2e130d	-0.042498637
233	0xba21d525	-0.00061734236
234	0x3d913afb	0.07091328
235	0xbb7caf69	-0.00385567
236	0xbce4ef47	-0.027946128
237	0x3d13b6cc	0.036063
238	0xbc991c9f	-0.018690405
239	0xbd1b4284	-0.03790523
240	0x3cfbf298	0.030755326
241	0xbd02e884	-0.031960025
242	0x3d45cfd8	0.04829392
243	0xbd774c98	-0.06037578
244	0xbc3b0885	-0.011415605
245	0xbd0b81ae	-0.03405922
246	0xbe651df2	-0.22374704
247	0x3e1444af	0.14479326
248	0xbc19432b	-0.009354393
249	0x3df39d93	0.11895289
250	0x3c8a1747	0.016856803
251	0x3ca4ea2e	0.020131197
252	0x3dce04dd	0.10059521
253	0x3c4630cd	0.012096596
254	0x3d21611f	0.039399263
255	0x3df264f8	0.118356645

linear1.bias f4 [256]
0	0x3f265877	0.64978737
1	0x3f1010bd	0.5627554
2	0x3f296281	0.6616593
3	0x3f191a71	0.5980597
4	0xbd323b29	-0.04351345
5	0x3f0d78eb	0.5526263
6	0x3f1109c2	0.56655514
7	0xbcf16541	-0.029467227
8	0x3f23d75d	0.64000493
9	0xbd18118c	-0.03712611
10	0x3f0ae538	0.5425601
11	0x3ec47d57	0.38376877
12	0x3eed96c1	0.4640408
13	0x3f2172f9	0.6306606
14	0xbd9b5054	-0.07583681
15	0x3f11a31b	0.56889504
16	0x3ca4faaf	0.020139067
17	0xbc871164	-0.016487785
18	0xbd4e795c	-0.050408706
19	0x3f1f0b2a	0.6212641
20	0xbcad4c44	-0.02115453
21	0x3c61b024	0.013774905
22	0x3f21b415	0.6316541
23	0xbd494e21	-0.049146775
24	0x3f2721a1	0.6528569
25	0x3f17d73f	0.59312814
26	0x3f0cb221	0.54959303
27	0x3c4a2399	0.012337589
28	0x3ba6a813	0.005085954
29	0xbcb2826a	-0.021790702
30	0xbd57d7ee	-0.05269616
31	0x3f15a875	0.5846017
32	0x3f1f31e2	0.6218549
33	0x3d16c1cf	0.036805924
34	0x3f1c128f	0.6096582
35	0x3f170954	0.5899861
36	0x3f035ca8	0.5131326
37	0xbd73fa5b	-0.05956493
38	0x3f29b9cb	0.6629912
39	0x3f17b8fe	0.5926665
40	0x3cc3bf1c	0.023894839
41	0x3f2588d0	0.64661884
42	0xbd2c4cb2	-0.04206533
43	0x3f265f42	0.649891
44	0xbc92aea5	-0.017905543
45	0xbbdcd0d2	-0.0067387605
46	0xbd013951	-0.0315488
47	0x3f2b01f8	0.6679988
48	0x3f2371c6	0.6384548
49	0x3f1b8499	0.607492
50	0xbd1604ee	-0.036625795
51	0x3f148ae0	0.58024406
52	0x3f1cdf8e	0.6127862
53	0xbd683237	-0.056688514
54	0x3f246241	0.64212424
55	0xbcba9974	-0.02277825
56	0x3f281495	0.65656406
57	0x3d0fc98b	0.035104316
58	0x3f1a0d19	0.60176235
59	0xbbe2f845	-0.0069265687
60	0x3f1168f9	0.568008
61	0x3f11ec1a	0.5700089
62	0x3f0d8af4	0.5529015
63	0xbcf5ffed	-0.030029261
64	0x3c6fca96	0.014635703
65	0xbbcc4de8	-0.006234873
66	0x3f267fd7	0.6503882
67	0x3c000cf1	0.0078155855
68	0xbd81196d	-0.06303678
69	0x3c4dd79e	0.012563614
70	0xbd479184	-0.04872276
71	0x3f2275b2	0.6346084
72	0x3f09d609	0.53842217
73	0x3f164811	0.58703715
74	0xbc763176	-0.015026441
75	0x3f2078bb	0.6268422
76	0x3f180341	0.59379965
77	0x3f013f8d	0.50487596
78	0x3f151980	0.58242035
79	0x3caecdbc	0.021338336
80	0xbcafee50	-0.021475941
81	0x3f2442b0	0.6416426
82	0x3f140991	0.578271
83	0x3f1cf65e	0.61313426
84	0x3f23357c	0.63753486
85	0x3f1ea70d	0.6197365
86	0x3f22333f	0.63359445
87	0x3f0d375b	0.5516259
88	0xbc0e2226	-0.008675134
89	0x3f17ab64	0.59245896
90	0x3cf7baa6	0.030240368
91	0x3f1ebc08	0.6200566
92	0x3b9b1516	0.0047327382
93	0x3f22d158	0.63600683
94	0x3b45b48d	0.003016743
95	0x3ce05254	0.027383007
96	0xbce4db2a	-0.027936537
97	0x3c41424e	0.011795593
98	0x3f11a682	0.56894696
99	0x3cecde96	0.028914731
100	0x3c8d4a68	0.017247394
101	0x3f1d0405	0.6133426
102	0x3ef82ead	0.4847311
103	0x3f29813c	0.6621282
104	0x3cb2ebe2	0.021840993
105	0xbd26b27d	-0.040697563
106	0x3c9e3636	0.01931296
107	0xbcc1a475	-0.02363799
108	0x3f15714c	0.58376
109	0x3ed572e8	0.4168923
110	0x3f2b6f07	0.6696629
111	0x3c430f00	0.011905432
112	0xbd81a87f	-0.06330966
113	0xbca69189	-0.020333068
114	0x3f197223	0.59939784
115	0x3f1f9780	0.62340546
116	0xbd7631c0	-0.06010604
117	0x3c43bfac	0.011947554
118	0x3f185d00	0.59516907
119	0x3f1c1f64	0.609854
120	0xbc16ddd5	-0.009208162
121	0x3f12c874	0.5733712
122	0x3ced3be5	0.028959224
123	0x3f2078f1	0.6268454
124	0xbc09d5dd	-0.008412805
125	0x3f17fafc	0.59367347
126	0x3c4e01f5	0.012573709
127	0x3f2a121a	0.6643387
128	0xbc935887	-0.017986549
129	0x3f1c7e52	0.6113025
130	0x3f2a7812	0.6658946
131	0x3f2a0907	0.66420025
132	0x3f0ce71d	0.5504015
133	0xbd118a1e	-0.03553211
134	0x3c927400	0.017877579
135	0x3f14a216	0.58059824
136	0x3f1df442	0.6170083
137	0xbd24b424	-0.040210858
138	0x3c9eef88	0.019401327
139	0x3c67cda3	0.014148149
140	0x3f113d6d	0.56734353
141	0x3f1f2250	0.6216173
142	0x3f1a0ed3	0.6017887
143	0xbd5d3fff	-0.05401611
144	0xbd1d464e	-0.038397126
145	0x3f1c8a1c	0.6114824
146	0x3f1c1ce5	0.6098159
147	0xbd7c6699	-0.061621282
148	0x3f1f1255	0.6213735
149	0xbcf907b7	-0.030399187
150	0x3f200273	0.6250374
151	0xbd037f71	-0.03210396
152	0xbd141185	-0.03614952
153	0x3f15d7b9	0.5853229
154	0xbd8ca45f	-0.06867289
155	0xbd79bf76	-0.060973607
156	0x3f12ea77	0.57389015
157	0x3f24cfab	0.64379376
158	0x3f17f424	0.59356904
159	0x3f0c38a9	0.54773957
160	0x3f29a1fd	0.662628
161	0x3f0c3317	0.54765457
162	0x3cfdc32e	0.030976858
163	0x3f1be7de	0.60900676
164	0xbbb54b5e	-0.005532666
165	0x3f251d3e	0.64497745
166	0x3f02ff29	0.51170594
167	0xbb799d71	-0.0038088227
168	0x3f184f89	0.5949636
169	0xbab1bc38	-0.0013560122
170	0xbd2e7d13	-0.04259975
171	0x3f249dd9	0.64303356
172	0xbccf7036	-0.025322061
173	0x3f18d17a	0.59694636
174	0x3f156661	0.5835934
175	0x3ca77fb7	0.020446641
176	0x3f0f4bf9	0.559753
177	0x3f2f027a	0.68363154
178	0x3f17599a	0.59121096
179	0x3f1cec4b	0.61298054
180	0x3f1c9ce4	0.61176896
181	0xbb65a7a6	-0.0035042553
182	0xbc39721a	-0.011318708
183	0xbcb13781	-0.021632912
184	0x3f1e9c3f	0.6195716
185	0x3c3dcb94	0.011584181
186	0x3f16ca90	0.58902836
187	0x3f20b23c	0.62771964
188	0x3f12de72	0.57370675
189	0xbd427431	-0.04747409
190	0x3cd46c0f	0.025930433
191	0xbd402594	-0.046910837
192	0xbd388f8f	-0.045058783
193	0x3f26eb8e	0.6520318
194	0x3f1702a7	0.5898842
195	0xbc0210f2	-0.00793861
196	0x3f14004e	0.57812965
197	0x3f139b50	0.57658863
198	0x3f16cfcf	0.5891084
199	0xbd1029e2	-0.035196193
200	0x3f0fc2b7	0.56156486
201	0xbd48f855	-0.049064953
202	0x3f2d160a	0.67611754
203	0x3cb61af0	0.022229642
204	0x3bfbf00c	0.007688528
205	0xbd410250	-0.047121346
206	0x3c501e43	0.012702527
207	0x3f14dd70	0.58150387
208	0x3f27da73	0.655677
209	0x3a9cc01b	0.0011959107
210	0x3f09a3fa	0.53765833
211	0x3f14cf21	0.58128554
212	0xbce80cb9	-0.02832638
213	0x3ac6ba52	0.0015161729
214	0x3f08951d	0.5335253
215	0x3f209d49	0.6274
216	0xbc826af5	-0.015920142
217	0x3f12a83b	0.5728795
218	0x3f1cb1f9	0.61209065
219	0x3f223261	0.6335812
220	0xbd13ef64	-0.036116973
221	0xbc90d737	-0.017680747
222	0x3ba68391	0.005081602
223	0xbcf29d42	-0.029616002
224	0x3f1dfc16	0.6171278
225	0xbd3cb070	-0.0460667
226	0x3f1efc89	0.6210409
227	0x3f224bd5	0.6339696
228	0x3f277163	0.6540739
229	0x3c2d7e85	0.010589247
230	0xbd62386b	-0.055229586
231	0x3f0bfb23	0.5468008
232	0x3f1abbea	0.60442984
233	0x3f1335d9	0.5750404
234	0xbc6b8a0b	-0.014376174
235	0x3bcd7938	0.006270554
236	0xbd0ce349	-0.034396444
237	0x3f1cc2ee	0.6123494
238	0x3bf9afc4	0.00761983
239	0x3f0d2451	0.5513354
240	0x3f0bafbb	0.5456502
241	0xbd1cd123	-0.038285386
242	0x3f17839d	0.591852
243	0x3f17342f	0.59064
244	0x3f281f64	0.656729
245	0x3f26879f	0.6505069
246	0x3f249b30	0.642993
247	0xbd2b27b7	-0.041785922
248	0x3f289dd3	0.6586582
249	0x3f0dad63	0.5534269
250	0x3f22f4ed	0.6365498
251	0x3f151a20	0.5824299
252	0xbd294324	-0.041323796
253	0xbd6148c2	-0.055001028
254	0xbc779067	-0.015110112
255	0x3f1b6c28	0.6071191

linear2.weight f4 [100, 256]
0	0xbd06ad4c	-0.032880113
1	0xbc5ba7f0	-0.013406739
2	0xbd48a712	-0.048987456
3	0x3ccfafec	0.02535244
4	0xbc66c188	-0.014084227
5	0xbbe4bf00	-0.006980777
6	0x3d3d8562	0.046269782
7	0xbd49a222	-0.049226888
8	0x3d20ea64	0.039286032
9	0xbc4eaeeb	-0.012614946
10	0xbd0ece64	-0.0348648
11	0xbd3d558d	-0.046224166
12	0x3d164dbe	0.036695234
13	0x3d549abb	0.051905375
14	0xbd7350a8	-0.05940309
15	0xbb8c3010	-0.0042781904
16	0xbcedd33b	-0.029031387
17	0x3d35953c	0.044331774
18	0xbc99aad4	-0.018758215
19	0x3c859adc	0.016309194
20	0x3d05ec86	0.03269627
21	0xbd5af5b8	-0.053456992
22	0x3ce2d41d	0.027689034
23	0x3cf50fa8	0.029914692
24	0xbcbd856c	-0.02313491
25	0x3c142c80	0.009043813
26	0x3c9354a4	0.017984696
27	0xbd484ab8	-0.048899382
28	0x3cf4545c	0.029825382
29	0x3cc474bc	0.023981445
30	0xbcb0a2e0	-0.02156204
31	0xbd28da78	-0.041223973
32	0x3d773ff7	0.060363736
33	0x3d8c301f	0.06845116
34	0xbc864cd4	-0.016394056
35	0x3d6e24b8	0.058140486
36	0x3d441b46	0.047877572
37	0x3d4a554a	0.049397744
38	0x3d3e69c6	0.046487592
39	0x3c2c7370	0.010525569
40	0xbbecd2f6	-0.007227297
41	0xbcc05b9c	-0.023481183
42	0x3d69f604	0.057119384
43	0x3c4508c0	0.012026012
44	0x3d70c600	0.058782578
45	0x3bfcf6bc	0.0077198427
46	0x3d4007aa	0.04688231
47	0x3b9bcd64	0.004754709
48	0x3d3eb179	0.04655597
49	0xbc8a7fa4	-0.016906567
50	0xbc4b9c03	-0.012427333
51	0x3cbe024f	0.02319446
52	0x3c5ada40	0.013357699
53	0xbd63b07e	-0.055588238
54	0xbcb2394c	-0.021755837
55	0xbd4cc04a	-0.04998807
56	0x3d2e9732	0.04262466
57	0xbd6e5ff2	-0.05819697
58	0xbcb1c6a8	-0.021701172
59	0xbcaebbc8	-0.021329775
60	0x3c90e358	0.017686531
61	0x3d717609	0.058950458
62	0x3d146884	0.036232486
63	0xbc9d2460	-0.019182384
64	0xbd035a3a	-0.03206847
65	0xbd01eda2	-0.031720765
66	0xbd1d2c49	-0.03837231
67	0xbbb49a30	-0.0055115446
68	0x3d6f16a0	0.058371186
69	0x3bb439e0	0.0055000633
70	0xbd0ce28e	-0.034395747
71	0x3c8eb2f8	0.017419323
72	0x3cb337fc	0.021877281
73	0x3d74216a	0.05960218
74	0xbd30521c	-0.043047056
75	0x3d6ab21a	0.057298757
76	0x3d8add1e	0.06780456
77	0xbcc82a46	-0.02443422
78	0xbd2bdcac	-0.041958496
79	0x3c6f8590	0.014619246
80	0xbd705c1a	-0.058681585
81	0x3c886d83	0.016653782
82	0x3c61cbb1	0.013781474
83	0x3d77d781	0.060508255
84	0xbc560010	-0.013061538
85	0xbc948160	-0.018128097
86	0xbc9dc09c	-0.019256882
87	0xbd288c54	-0.041149452
88	0x3c79bb73	0.015242445
89	0xbd0e15d3	-0.034688782
90	0x3d2a21fd	0.04153632
91	0x3d8da092	0.06915392
92	0x3d6881ea	0.05676452
93	0xbcd2ef67	-0.025748922
94	0x3cf0ef84	0.029411085
95	0x3d1c4e8a	0.03816084
96	0xbd50f7ca	-0.05101756
97	0x3d1fb974	0.03899522
98	0x3ce7c04e	0.02828994
99	0x3d4d38cc	0.050102994
100	0xbd342c8c	-0.043987796
101	0xbbbb8951	-0.0057231565
102	0x3d11c4da	0.035588123
103	0x3d4ebfb0	0.050475776
104	0xbc0401a0	-0.008057028
105	0xbd67edaa	-0.05662314
106	0xbca04be9	-0.019567447
107	0x3d0554cc	0.03255157
108	0x3d00b230	0.031419933
109	0x3d05287e	0.03250932
110	0xbab1fded	-0.0013579704
111	0x3c9b2658	0.018939182
112	0xbced7024	-0.028984137
113	0xbcd2cfaf	-0.025733797
114	0xbccd28f9	-0.025043951
115	0x3cd1eaca	0.025624651
116	0xba783d80	-0.00094696134
117	0x3d5d47ea	0.05402366
118	0x3d3654f8	0.044514626
119	0xbd7dba30	-0.06194514
120	0x3d5c7452	0.05382187
121	0x3cf4e58c	0.029894613
122	0xbd2a61b0	-0.04159707
123	0xbcda0aec	-0.026616536
124	0xbcbc7e68	-0.023009494
125	0x3d21ae7c	0.039473042
126	0xbc8f3838	-0.017482862
127	0xbd4c2414	-0.049839094
128	0x3ced413c	0.02896177
129	0xbc24322b	-0.010021727
130	0x3cfca75c	0.030841522
131	0xbc73ab09	-0.014872321
132	0x3c21a4b0	0.009865925
133	0x3c5b7e73	0.013396847
134	0x3d6139c6	0.054986738
135	0x3d8e8009	0.069580145
136	0x3d62a7be	0.055335753
137	0x3b4e7f40	0.0031508952
138	0xb9a1e26f	-0.0003087702
139	0xbc14aac8	-0.009073921
140	0x3bdcb560	0.006735489
141	0xbce9ef51	-0.028556498
142	0x3d5bde1e	0.053678624
143	0x3c994bf3	0.018712973
144	0x3d8f4485	0.06995491
145	0x3d2523ea	0.040317453
146	0xbd499126	-0.04921069
147	0x3cd68bb0	0.026189655
148	0x3d2eb350	0.042651474
149	0x3cdb0b04	0.026738651
150	0xbd3b6002	-0.045745857
151	0xbbbc2060	-0.005741164
152	0xbb757ce0	-0.0037458465
153	0x3d2132aa	0.039354958
154	0x3d0c7ae7	0.034296896
155	0x3d208108	0.039185554
156	0xbaa254f1	-0.0012384934
157	0x3d66c60e	0.056341223
158	0xbc905530	-0.017618746
159	0x3a80ceb6	0.000982723
160	0x3cc43927	0.023953034
161	0xbc8f0df8	-0.017462716
162	0x3d33fb82	0.04394103
163	0x3d0d93a9	0.034564648
164	0xbd64f576	-0.055898152
165	0xbd6dfde6	-0.058103465
166	0xbceecee0	-0.02915138
167	0x3bc26b60	0.0059332103
168	0x3d243acc	0.040095136
169	0x3d630f3e	0.055434458
170	0x3cf255c8	0.02958192
171	0x3c8aacf4	0.016928174
172	0xbce0be60	-0.027434528
173	0x3cc36828	0.023853377
174	0x3c1ca589	0.009560951
175	0x3cef7141	0.029228808
176	0xbd006296	-0.03134402
177	0xbd24ad6e	-0.040204458
178	0x3cdb46c4	0.026767142
179	0xbc997b40	-0.018735528
180	0x3d02b7e0	0.031913638
181	0xbd2082e8	-0.039187342
182	0xbd096b74	-0.03354974
183	0xbcef0a9c	-0.029179864
184	0x3c6e2a80	0.0145365
185	0x3d1ea862	0.0387348
186	0xbcf919fe	-0.030407902
187	0xbd29ad5c	-0.041425094
188	0xbc2507bf	-0.010072648
189	0x3d4d6346	0.050143503
190	0xbc183c90	-0.009291783
191	0xbb1ecde0	-0.0024231598
192	0x3b91dda0	0.0044514686
193	0x3d923947	0.07139831
194	0xbc84c31c	-0.016206317
195	0xbc070c80	-0.008242726
196	0x3d1faf58	0.03898558
197	0x3b8ea8a6	0.0043536006
198	0x3c15c540	0.009141266
199	0xbd0e4b2e	-0.034739666
200	0x3ca2e7f9	0.019886004
201	0xbd125dcc	-0.035733983
202	0x3d8c7c8c	0.06859693
203	0xbc6e33d8	-0.014538728
204	0xbb968169	-0.0045930636
205	0x3d4c5fa6	0.049895905
206	0xbc805018	-0.015663192
207	0x3c6276ec	0.0138222985
208	0xbd53d89e	-0.051720254
209	0x3c53f840	0.012937605
210	0xbd22361a	-0.039602377
211	0x3d57770c	0.052603766
212	0xbd743350	-0.059619248
213	0x3d26d7c2	0.040733106
214	0x3d1f6754	0.0389169
215	0x3ab9e31d	0.0014182065
216	0xbc8b311c	-0.01699119
217	0xbc0b9c0a	-0.008521089
218	0x3d085fad	0.03329437
219	0x3d93d40a	0.072181776
220	0x3d3fe70e	0.04685121
221	0x3d5b5111	0.053544108
222	0xbc43bd09	-0.011946925
223	0xbc5851d8	-0.013203107
224	0xbcc309d1	-0.023808392
225	0xbccc6e30	-0.024954885
226	0xbcc84c04	-0.02445031
227	0xbd7b1e9e	-0.061308496
228	0x3d9366d0	0.07197344
229	0x3c797018	0.015224479
230	0xbd03ee90	-0.032209933
231	0x3ca0eeac	0.019645058
232	0x3d05322c	0.03251855
233	0xbd781f62	-0.060576804
234	0x3d62b7f4	0.055351213
235	0x3b229ec0	0.002481386
236	0xbd7b82ea	-0.061404146
237	0x3d62aa94	0.055338457
238	0xbca3db60	-0.020002067
239	0x3d797b19	0.06090841
240	0xbc2d301b	-0.010570551
241	0x3cabd44f	0.02097526
242	0x3d1ff260	0.039049506
243	0xbcf943dc	-0.030427866
244	0x3c98c69c	0.018649392
245	0xbbcae97e	-0.006192385
246	0x3d589ad2	0.052882023
247	0xbd0644b0	-0.03278035
248	0xbd4e4d9c	-0.050366983
249	0xbd65628a	-0.056002177
250	0x3c5bf4b0	0.013425037
251	0x3d790d19	0.060803507
252	0x3cd24b49	0.025670664
253	0xbd66ac46	-0.056316637
254	0x3d63cef2	0.05561728
255	0xbd4ab9a2	-0.04949344

linear2.bias f4 [100]
0	0x3cb82565	0.022478769
1	0xbd0432cf	-0.032275017
2	0xbc4e3d12	-0.0125878025
3	0x3c8ecd22	0.0174318
4	0xb9f703bd	-0.00047114296
5	0x3d713f45	0.05889823
6	0x3c9da8ac	0.019245468
7	0x3c18dc90	0.00932993
8	0x3cf92426	0.030412745
9	0x3c292b92	0.010325329
10	0x3d17c626	0.037054203
11	0xbc7ad73a	-0.015310103
12	0xbcc976ab	-0.024592718
13	0xbc5b1fd8	-0.013374291
14	0xbcfd8c5c	-0.030950718
15	0x3ae68141	0.0017586128
16	0x3d675526	0.05647769
17	0x3d7111c5	0.058854837
18	0x3d27f8e9	0.041008864
19	0x3d6f8a1d	0.058481324
20	0x3c7a3404	0.015271191
21	0x3d3d91d9	0.04628167
22	0x3d937f3b	0.07202002
23	0x3d4bbcab	0.049740475
24	0xbd0db584	-0.034596935
25	0x3cb63a2c	0.022244535
26	0x3d10d4a4	0.03535904
27	0x3d725053	0.059158634
28	0xbd11976f	-0.03554481
29	0x3d1a520a	0.037675895
30	0x3ce94ce4	0.028479047
31	0x3d04aa9a	0.03238926
32	0xbca8c192	-0.020600114
33	0xbcf42b87	-0.029805912
34	0xbd29185e	-0.041283004
35	0xbd2675b2	-0.040639587
36	0x3c8356c2	0.01603258
37	0x3d749090	0.059708178
38	0x3cb3a3e1	0.02192873
39	0x3c7ddd8c	0.015494715
40	0xbd04a5a7	-0.03238454
41	0x3d1350f8	0.03596589
42	0xbb0a3835	-0.002109063
43	0xbd038cf3	-0.03211684
44	0xbd88efb3	-0.06686344
45	0x3d1c734d	0.038195897
46	0xbc15b747	-0.009137935
47	0xbd295762	-0.0413431
48	0x3c0507d8	0.008119546
49	0xbc771292	-0.015080111
50	0xbc47bb73	-0.0121906875
51	0x3d2a4ee4	0.041579142
52	0x3d841901	0.064500816
53	0xbc809f3f	-0.015700934
54	0xbc9b4d53	-0.01895777
55	0xbcdac59e	-0.02670556
56	0xbb04c644	-0.0020259777
57	0xbc5b9462	-0.013402076
58	0x3ef57b84	0.47945797
59	0xbcc60f69	-0.02417727
60	0x3d8607bb	0.06544443
61	0x3d8d1d87	0.068903975
62	0x3d07de29	0.033170853
63	0x3c9d9d46	0.019240033
64	0xbd522ef0	-0.051314294
65	0x3d7d53c6	0.06184747
66	0xbd8a28fc	-0.067460984
67	0xbcc67f46	-0.02423061
68	0x3cd18b7c	0.025579207
69	0xbd0e0d84	-0.03468086
70	0x3d7038b2	0.05864782
71	0xbcd73a04	-0.026272781
72	0x3c79ba75	0.015242209
73	0x3d3640f7	0.04449555
74	0x3d3ce892	0.046120234
75	0x3d2219ad	0.039575268
76	0x3c7299a6	0.01480714
77	0x3d905354	0.070471436
78	0x3c073e4d	0.0082546
79	0x3d321efb	0.043486577
80	0x3d9d4de6	0.076808736
81	0x3d0c91a1	0.03431857
82	0x3b1dea40	0.0024095923
83	0xbbdcaa06	-0.0067341356
84	0xbd4bfaa8	-0.04979959
85	0x3beaecf3	0.00716936
86	0xbd19fd13	-0.037594866
87	0xbd3162bb	-0.043307047
88	0xbd4eb0bc	-0.050461516
89	0xbd699e4c	-0.05703573
90	0xb96d886d	-0.00022652904
91	0x3ce6195a	0.02808826
92	0xbd1a52b0	-0.037676513
93	0xbd83007a	-0.06396575
94	0x3c2c1f68	0.010505535
95	0x3c6fc655	0.014634688
96	0x3c0ae3e6	0.008477187
97	0xbd51a848	-0.051185876
98	0x3d29683c	0.04135917
99	0x3d15e2c5	0.036593217
