model/model.pth (torch, 799047 bytes, 6 tensors)

f0.0.weight f4 [256, 390]
000000 5a e7 36 3d 12 b6 40 bc 69 87 9a 23 31 94 0c 3d
       0.044654228 -0.011762159 1.6754062e-17 0.034321014
000010 36 68 36 3d 74 5b b5 bd e4 f9 3d 3d f7 43 eb 3c
       0.044532977 -0.08855334 0.046380892 0.028718932
000020 07 87 fb bb ca b3 98 bc 58 54 81 3c 3e cb 10 22
       -0.0076760086 -0.018640418 0.015787289 1.9623235e-18
000030 fd 7c 7f bb 6f 68 41 3c 9c f9 ec a0 c2 38 06 3d
       -0.003898441 0.011804684 -4.0145133e-19 0.032768972
000040 8c 22 5f a2 97 33 19 bc 99 64 69 bd 35 d6 2e 3d
       -3.0240425e-18 -0.009350679 -0.056980703 0.042684752
000050 1c d5 cb 3c 78 40 77 bb b2 a8 34 3d be 68 ae bc
       0.024881892 -0.0037727635 0.044106193 -0.02129018
000060 87 24 03 3d ce 00 40 a4 9f 14 b1 22 5a 6d 09 3c
       0.032017257 -4.1634045e-17 4.799778e-18 0.008387888
000070 5e 16 45 24 b0 b1 ce a1 23 a4 90 3c 1e 50 0d bc
       4.273651e-17 -1.4006136e-18 0.017656391 -0.008625058
000080 c8 76 82 bd 17 a3 c8 bc 87 5b b3 bb 70 df fd a1
       -0.06370312 -0.02449183 -0.0054735574 -1.720309e-18
000090 42 67 41 3c a6 40 4b 23 67 13 ae 3c 12 d0 4b bc
       0.011804404 1.1018342e-17 0.021249486 -0.012439745
0000a0 b2 79 10 a0 68 15 86 20 aa 9b 6c 3c 2d 0c dc a2
       -1.223754e-19 2.2714648e-19 0.01444141 -5.964401e-18
0000b0 20 8e 0d 20 b2 e5 49 3d f7 52 92 bc c6 ab 3e a3
       1.199019e-19 0.04929132 -0.017861826 -1.0336295e-17
0000c0 6d 9a 7c bc d7 a0 b1 22 5a 6b 6b a3 d5 f7 f8 3c
       -0.015417677 4.814624e-18 -1.2762108e-17 0.030391613
0000d0 4e 5c f8 3c b7 a8 59 a4 2c d6 15 bc c4 49 cb 3c
       0.030317452 -4.719728e-17 -0.009145301 0.024815448
0000e0 2a 4e 3b 3a 99 98 d8 3c 58 9b 00 3c 5c dc 57 3c
       0.0007145131 0.026439952 0.007849537 0.013175096
0000f0 ab af 9a 3a 40 b3 83 a4 78 a4 cf a2 c0 01 44 3c
       0.0011801621 -5.7115855e-17 -5.62816e-18 0.011963308
000100 f6 85 8c a3 85 63 70 a4 46 cd af 3b 78 00 8d 23
       -1.5235565e-17 -5.2126e-17 0.0053650467 1.5287449e-17
000110 74 be f1 23 50 06 f5 bc 78 5e bf a2 b3 48 b1 24
       2.6209932e-17 -0.029910237 -5.1870676e-18 7.688467e-17
000120 46 ee 64 3d 06 1a 40 24 a0 3f cb 23 34 50 29 3d
       0.055891298 4.1655406e-17 2.203625e-17 0.041336253
000130 ca c5 b1 23 e8 a3 04 22 4e f3 13 3d af 92 39 ba
       1.9274145e-17 1.7976107e-18 0.036120705 -0.00070790475
000140 c3 21 a4 3b 85 b4 05 3d e8 4e 2d a4 90 b6 30 22
       0.0050089075 0.03264286 -3.758023e-17 2.3949096e-18
000150 b0 90 82 3c d1 e8 80 23 b2 d3 18 23 fd 1e 74 bc
       0.015938133 1.397639e-17 8.284765e-18 -0.014899966
000160 0e ec 0d 22 3a 75 0e a4 3d b9 3d bc 1a d0 19 3c
       1.923403e-18 -3.0890636e-17 -0.011579809 0.009387994
000170 89 cf 4b bb a4 bb 07 3d 14 2e 8a a0 3c de 64 a2
       -0.0031099042 0.033137932 -2.34086e-19 -3.1017412e-18
000180 1b df 78 3c 6f 09 71 a0 7c b1 41 a2 4c a6 f1 3c
       0.015189911 -2.0416615e-19 -2.6250337e-18 0.029498242
000190 c6 6b e0 3b a8 2d 7e 3c b1 d3 e8 bc ad a8 0b 3c
       0.006848785 0.015513815 -0.028421255 0.008524102
0001a0 04 c7 54 23 de 58 09 3c 8d 2d c8 a3 e8 d6 e8 21
       1.1534686e-17 0.008383004 -2.1703335e-17 1.5777817e-18
0001b0 96 7e 9b 3c de 99 a5 23 82 e7 00 23 7d 25 27 bd
       0.01898126 1.7954501e-17 6.987918e-18 -0.040807236
0001c0 f7 8f f9 3c f2 5d 5f bc 27 8c 3c 3c 7e ca d2 bc
       0.030464156 -0.013633238 0.011508024 -0.025731321
0001d0 85 c8 3e 24 1f 78 30 3d 87 bc c5 23 00 2e 08 a3
       4.136953e-17 0.043083306 2.1438627e-17 -7.382316e-18
0001e0 be 6f 70 3b 9c 9f a6 a3 31 e9 f7 3c c9 58 3b 3d
       0.0036687697 -1.8065353e-17 0.030262562 0.04573897
0001f0 80 98 02 1f e0 59 19 23 a2 ff 82 bc 93 8e 0c 24
       2.7654716e-20 8.313178e-18 -0.015991036 3.0478426e-17
000200 c8 b7 7b 22 d3 0f 23 3b c3 57 3a 3c cb e4 c9 bc
       3.4114136e-18 0.0024881258 0.011373463 -0.02464523
000210 5d 8b 2d bc 60 8c fa a1 16 67 1a a3 c9 7f 24 3d
       -0.010592309 -1.6977816e-18 -8.370186e-18 0.040160928
000220 74 1d 15 ba 10 de 87 a4 93 fe 2c bd d6 ce 22 3c
       -0.0005688288 -5.8923106e-17 -0.04223497 0.009937009
000230 50 3a 32 a3 4b a8 43 3c d6 29 f2 a3 9d 50 fd a3
       -9.6617475e-18 0.01194198 -2.625541e-17 -2.7464456e-17
000240 6f 7f a5 3b 00 8f d8 1c a1 c8 17 a4 c7 20 41 bc
       0.0050505917 1.4330646e-21 -3.2912845e-17 -0.0117876
000250 45 59 d2 23 61 80 6c a3 5a aa 58 3d a9 ae a6 3c
       2.2806053e-17 -1.2820771e-17 0.052896835 0.020346956
000260 c0 29 0b a1 cd 30 26 3d 9c 33 12 a1 e8 28 cf a1
       -4.715029e-19 0.040573884 -4.953503e-19 -1.4037693e-18
000270 50 22 fb 3c 04 f0 54 3c 2b 19 05 bd bd 08 e7 bc
       0.03065601 0.012996677 -0.032494705 -0.028202409
000280 7c cb 81 bc 28 e5 0a a0 ba c1 94 3d ef b4 b6 22
       -0.0158441 -1.1764876e-19 0.07263513 4.952277e-18
000290 4a a8 2c 24 c2 4c 31 3c 3c a5 b3 3c af 83 36 3d
       3.74391e-17 0.010821523 0.021929376 0.044559177
0002a0 d0 ec 89 3c 58 f4 0d 3d e3 76 c9 ba 8b c0 c7 3c
       0.016836554 0.034656852 -0.0015370514 0.024383804
0002b0 91 c3 d4 b9 59 a5 71 23 56 18 80 bd 92 aa bf 3c
       -0.000405815 1.309965e-17 -0.06254642 0.023396764
0002c0 b6 a8 80 a3 dc 27 11 3a 3c 1a ff 3b 49 79 a5 21
       -1.394924e-17 0.00055372505 0.00778511 1.1212939e-18
0002d0 bb f5 41 ba 68 d8 2f 3b 68 b0 a1 23 c8 ee 09 3c
       -0.00073989824 0.002683187 1.7530366e-17 0.008418746
0002e0 8a 6b 65 a3 7a 7f 8f a2 3f 15 9b 3c d8 f7 4c 20
       -1.2436887e-17 -3.88952e-18 0.01893103 1.7361477e-19
0002f0 e8 f5 5e a2 5e fe 53 3c 58 eb 87 3c ac 74 a5 22
       -3.0216792e-18 0.012939064 0.016591713 4.484687e-18
000300 c2 e3 57 3c e5 b6 6b 3c 0f fc 52 a3 3a 27 0b bb
       0.01317686 0.014386867 -1.1437498e-17 -0.0021233098
000310 70 15 cb a2 18 ba 88 a3 1e c0 3e 3c 44 f6 0c 3d
       -5.504596e-18 -1.4823963e-17 0.011642484 0.034414545
000320 55 18 ac 22 1b 99 1b 3d aa 68 bd 22 2a c9 33 bd
       4.6646456e-18 0.03798781 5.133937e-18 -0.043893017
000330 ff a8 8b bc 5c 7b 9b 24 76 c8 9d 22 7b e8 ff 3c
       -0.017048357 6.7429514e-17 4.276718e-18 0.031238785
000340 4e 0e 9a 3c c0 c9 6e 3c d6 43 15 3d f4 82 6e 3c
       0.01880565 0.014574468 0.036441647 0.014557589
000350 16 bd 23 a3 f5 54 2c 3c 80 cf e2 a2 05 3f 70 3a
       -8.876288e-18 0.010518302 -6.147712e-18 0.0009164664
000360 52 e6 56 bc 70 8d e7 a2 a7 30 74 3c a3 3e 43 3c
       -0.013116436 -6.276243e-18 0.014904178 0.011916789
000370 d3 2b 6e a3 9a 72 41 22 e5 b2 0e bc 3c cf 05 22
       -1.2911286e-17 2.6217047e-18 -0.008709644 1.813457e-18
000380 a9 12 0b 24 ac 80 84 ba f6 95 9f 23 e3 cf 0b a4
       3.0156626e-17 -0.0010109148 1.7302325e-17 -3.0316907e-17
000390 0b 2d 04 3d d3 34 3b 3c 2c e6 a1 bc 8c e2 21 3d
       0.03226952 0.0114261685 -0.019763075 0.039522693
0003a0 46 df e9 23 9f c8 86 23 2b 35 5c 3d 67 c6 04 bd
       2.535647e-17 1.4613275e-17 0.053761642 -0.032415774
0003b0 a8 ad aa bc bc 82 3d 3d ae 2e 43 3c b1 7d d4 bb
       -0.020834759 0.046267256 0.011912985 -0.00648471
0003c0 cc 57 2c 3d da e4 70 a3 1e 79 f8 bb b6 0c 35 3c
       0.042075917 -1.3058887e-17 -0.0075827977 0.011050394
0003d0 3a 8c fa 3c 19 2b 02 24 ea d9 71 3d 2c cf b0 3c
       0.030584443 2.822576e-17 0.05904571 0.021583162
0003e0 d0 eb 82 3c 96 e8 fe 3c 14 e1 88 3c 28 4f 58 a3
       0.015981585 0.031116765 0.016708888 -1.17261455e-17
0003f0 83 b7 12 ba f6 dd 47 bb b2 77 a0 24 47 c2 f7 3c
       -0.00055968034 -0.003049729 6.959171e-17 0.030244006

f0.0.bias f4 [256]
000000 af 1c 06 bd ba 68 82 bd 90 d0 3d bc 2d 47 ab bc
       -0.0327422 -0.06367631 -0.01158537 -0.020907963
000010 d5 ba 5f bd a6 8a a8 3c de 86 8f bd 58 5e 03 bb
       -0.054621536 0.020573925 -0.07008146 -0.0020045247
000020 bf ed 83 bd 26 9d 8d bc 08 9a 2c 3d ce f1 98 bd
       -0.06441831 -0.017286848 0.042139083 -0.074679956
000030 71 1c 3b 3c 98 4f c4 bc 3a cf 4e bd 9f 48 c2 bc
       0.011420355 -0.023963735 -0.050490595 -0.023716269
000040 00 fe d2 bc b9 db 7f bb 77 b0 4d bd e5 d8 96 bd
       -0.025755882 -0.0039040877 -0.050217118 -0.07365588
000050 f9 b2 ef bc f0 4d 9e bc 16 de 7e 3b 62 7f b2 bc
       -0.029260146 -0.019324273 0.0038889698 -0.021789256
000060 d8 87 23 3d 30 fc e7 bc 1c 69 f7 bc 29 56 a0 bb
       0.039924473 -0.028318495 -0.030201487 -0.0048930836
000070 a7 95 7d 3c 46 e1 41 3c 0f fa 61 bd 78 57 de bc
       0.015477574 0.0118334945 -0.055170115 -0.027141318
000080 06 5e 7d 3d 30 b9 6f 3d e5 63 b2 3b db bb 8f bc
       0.061857246 0.058526218 0.0054440373 -0.017545631
000090 a3 d3 05 39 38 45 aa 3d 8c 7c 67 bd 8c 37 08 bd
       0.00012762709 0.08313984 -0.05651526 -0.0332561
0000a0 32 97 92 3d b1 51 c0 3c b5 96 11 bd 11 a4 76 3d
       0.071577445 0.023476453 -0.035544116 0.06021506
0000b0 51 f2 23 bc e0 28 81 bc 6a 56 c9 3b a6 ec b2 ba
       -0.010006503 -0.015766561 0.0061443346 -0.0013650849
0000c0 1f 64 bf bc bf f5 2a 3d 7b b2 9e 3d 76 b0 c3 3d
       -0.023363171 0.041738268 0.07748886 0.09555142
0000d0 96 fd 92 bc cf 78 8b bd 7d a1 02 bd 14 69 92 3d
       -0.017943185 -0.06810152 -0.03189229 0.07148948
0000e0 ce 79 31 bc a1 79 11 bd e4 37 ba 3c 2a 23 f9 bc
       -0.010832263 -0.035516385 0.022731729 -0.030412275
0000f0 e8 e7 0f 3c 42 3c 8c 3c 69 38 ac ba b8 18 6e bc
       0.008783318 0.017118577 -0.001313937 -0.014532261
000100 b7 c3 26 bd fd 70 d2 3d df 58 f0 bc c8 d3 9f bc
       -0.040713992 0.10275457 -0.029339252 -0.019510165
000110 68 eb 4e bd 50 d5 11 bd 0a 79 e4 3d 6b 7c 4f 3c
       -0.05051747 -0.03560382 0.11155899 0.012663941
000120 cb 25 e3 bc be e2 86 bd c0 ac c3 3d 3d eb 88 3d
       -0.027727982 -0.065862164 0.09554434 0.06685493
000130 e2 35 02 3d 7f 9e 81 bd b7 49 1a bc f5 16 94 bd
       0.031789668 -0.06329059 -0.009416989 -0.07230941
000140 21 d6 13 bc be 71 29 bd b2 b1 52 bd 50 66 86 bb
       -0.00902322 -0.04136824 -0.051438995 -0.004101552
000150 f9 73 54 bc 11 3c d2 bc 99 ce 85 bd 13 5a aa bc
       -0.012967103 -0.025663408 -0.06533546 -0.020794904
000160 04 2e 09 bd c6 97 0f bc 3e b2 83 3d 56 78 04 3b
       -0.03349115 -0.008764213 0.064304814 0.0020213327
000170 b1 a4 7d bd 06 58 ef 3b 83 9c 3a bd 59 3d 0f bd
       -0.06192464 0.0073041944 -0.045559417 -0.034970615
000180 ef a0 86 3c e6 57 1c bd 7f 25 0e ba d8 dd 34 bd
       0.016434161 -0.038169764 -0.00054224575 -0.04415688
000190 02 97 5c bd 47 a4 56 3d 5b 7a b5 bc ea 76 05 bd
       -0.05385495 0.05240276 -0.02215307 -0.03258411
0001a0 6a 48 5d bd 45 f6 f0 bc fd 90 18 bd bd 63 6d bd
       -0.054024138 -0.029414305 -0.037247647 -0.057956446
0001b0 47 66 32 bc d0 b1 ec 39 91 ff 64 bd 98 ae 23 bc
       -0.010888643 0.00045145908 -0.05590779 -0.009990357
0001c0 4a 1b 61 bd 8a 1e 6c bc 83 d4 1d bd 05 30 c4 bb
       -0.054957666 -0.014411578 -0.038532745 -0.0059871697
0001d0 5a e1 f2 3c dc 78 8e bd 21 fe ec bc b1 6b 18 3c
       0.029648472 -0.06956646 -0.028929772 0.009303019
0001e0 53 ea 9f bc ae f3 30 bc 0b e2 b5 bd 3f 24 29 bd
       -0.019520914 -0.010800285 -0.08881005 -0.041294333
0001f0 29 5e f5 bc 61 85 af 3b 20 a0 c3 3d 9a a7 88 bc
       -0.029952126 0.005356476 0.09552026 -0.016681481
000200 53 d6 b7 bc 64 17 12 3e 1e d9 da bc 1a 32 da bc
       -0.022441065 0.14266735 -0.026714858 -0.026635218
000210 f8 aa bc 39 36 b6 89 bc 63 97 1a bd b8 f0 22 bd
       0.00035985536 -0.016810518 -0.03774203 -0.03978035
000220 71 99 89 3a c6 95 74 bd 79 3f 29 3d 7a 6e bf bc
       0.0010498 -0.059713148 0.041320298 -0.023368109
000230 8e 98 75 bb a9 72 45 bd 7a 6b 9b 3d 1e e4 d6 bc
       -0.0037474963 -0.04820505 0.07588859 -0.026231822
000240 3e af d1 3b ca bd 4b bc 86 26 ab bc 72 a9 2e bd
       0.0063990643 -0.012435386 -0.020892393 -0.042642064
000250 09 6d a3 3d 61 79 76 3d d1 19 68 bb b8 cf 04 3b
       0.07979781 0.06017435 -0.0035415778 0.0020265412
000260 8c d5 cb bc f8 46 c3 3d b5 ba 81 bd be 66 2f bd
       -0.0248821 0.095350206 -0.0633444 -0.042822592
000270 45 e8 47 bd f0 88 46 bd ca 38 ec bc 28 8e ab b5
       -0.048805494 -0.048470438 -0.028835673 -1.2781866e-06
000280 de 6d ff 3c 90 b8 8c 3c bf 2e 04 3d db 1f 4b bc
       0.031180318 0.01717785 0.032271143 -0.012397732
000290 1b e0 fb 3c 51 90 8f bc 27 85 55 bc 7c a1 07 bc
       0.03074651 -0.01752487 -0.013032234 -0.008278247
0002a0 53 c2 1b bd b3 16 77 3d 08 19 e9 bc 51 80 4d bd
       -0.03802712 0.060324382 -0.028454319 -0.0501712
0002b0 e4 80 4b 3d 4f 13 c2 bc 43 ed cf bc b9 d2 3a bc
       0.049683467 -0.023690848 -0.02538169 -0.011402779
0002c0 1b aa 11 bd 07 c0 47 3c ba 15 b6 3d 9a b9 01 bd
       -0.035562616 0.012191779 0.08890863 -0.031671144
0002d0 03 ba 61 bd 0a bc 09 bc 4c 98 06 3d aa 5a 1b bd
       -0.055109035 -0.008406648 0.032860085 -0.03792826
0002e0 06 5c ba bb 8a 21 db bc 70 67 5a bb 0d 91 91 bd
       -0.0056872396 -0.026749391 -0.0033325814 -0.07107744
0002f0 ae e3 2e bd d5 32 75 bd 14 31 c3 3d f1 7d f9 bc
       -0.0426976 -0.05986293 0.09530845 -0.030455561
000300 8b 89 93 bc ea e1 ad bb 75 ea 1a bd c2 dd d5 3d
       -0.018009922 -0.005306472 -0.037821252 0.104426876
000310 9f 08 a1 bb 16 18 62 ba 76 f4 8c bd 41 8e a1 3b
       -0.004914358 -0.0008624805 -0.06882565 0.004930288
000320 24 9a 9f bc f9 d6 c9 bb f2 3f 0a bd 2e 44 f1 bc
       -0.01948268 -0.00615966 -0.03375239 -0.029451456
000330 03 45 b2 bc 57 3c 84 bd c5 46 36 bd b9 ed 8d 3d
       -0.021761423 -0.064568214 -0.044501085 0.069301076
000340 04 f2 97 3a 82 f7 cd bc b6 a6 a1 3d 41 a9 15 bb
       0.0011592512 -0.025142435 0.07893126 -0.002283648
000350 5e 4f 97 ba 49 9b 5c bb f6 0f c9 3d b4 7f 4f bc
       -0.0011544039 -0.0033661893 0.098174974 -0.012664724
000360 a5 61 fa bc c8 2f 8b bc 0d 16 7c bd 92 27 ca 3c
       -0.030564139 -0.016990557 -0.061544467 0.024677072
000370 00 89 52 3d 5a 25 84 bd d2 46 0a bb f8 85 2b bd
       0.051400185 -0.06452437 -0.002109934 -0.04187581
000380 9b 8a 84 3c 44 53 76 bd bb 72 87 bd dd be ee bb
       0.016179373 -0.060138002 -0.0661368 -0.0072859363
000390 a5 46 84 3b 21 47 65 bc a8 ff 29 bc e1 de 06 bb
       0.004036742 -0.013994009 -0.010375895 -0.0020579624
0003a0 38 16 4e 3d 03 4d 78 bd ea 29 02 bd c5 23 80 bd
       0.05031416 -0.06062032 -0.031778254 -0.062568225
0003b0 99 c9 42 bd 29 f8 4f bd de fe 03 bd e0 84 32 bd
       -0.04755554 -0.050773773 -0.032225482 -0.04358375
0003c0 16 69 67 bd d9 b5 11 bd 30 0f 5c 3d d5 84 d7 bb
       -0.056496702 -0.035573814 0.05372542 -0.006577114
0003d0 cc 30 23 3b bb 14 8c bd 7e c9 8f 3d 86 b9 c6 3c
       0.0024900911 -0.068398915 0.070208535 0.024258386
0003e0 d4 3a f1 3c 7d 12 5f bd fd 19 73 bd c5 af 81 3c
       0.029446997 -0.05446099 -0.059350956 0.015830884
0003f0 a4 0f d9 bb 6a f4 d9 b8 f7 f2 8a bd 48 2b 5e bd
       -0.006624179 -0.00010392892 -0.06784623 -0.054240495

f0.2.weight f4 [256, 256]
000000 e0 bd a6 bb eb d1 bf bb 34 60 ed bb 19 bd bf bb
       -0.005088553 -0.0058538816 -0.0072441343 -0.0058513996
000010 37 b4 c1 bb 70 84 9c 23 ed 7c a6 2c fd 4f e4 bb
       -0.005911376 1.6969643e-17 4.7318733e-12 -0.006967543
000020 ea 98 f7 bb 09 e5 d6 bb 76 c0 85 a6 b3 82 e3 b9
       -0.0075560706 -0.006558065 -9.280896e-16 -0.00043394192
000030 54 e4 7b a5 1f f3 90 bb 00 af b6 bb 09 84 db bb
       -2.184814e-16 -0.0044235135 -0.005575061 -0.0066990894
000040 64 1d fd a4 a9 4b db bb 11 59 b4 bb 82 3a d0 bb
       -1.0977105e-16 -0.006692369 -0.0055037816 -0.006354631
000050 d5 b4 c8 bb 79 38 db bb 78 eb b3 bb d0 01 e4 bb
       -0.0061250725 -0.0066900817 -0.0054907165 -0.006958224
000060 2c bc 3a 2e ab e1 ce bb bc 25 b8 bb 96 f5 98 27
       4.2458634e-11 -0.006313523 -0.0056197327 4.245474e-15
000070 47 d1 ce bb 40 4b 48 a5 54 b8 4e bb 4f 5b 7a bb
       -0.006311569 -1.737273e-16 -0.0031542974 -0.0038201397
000080 9b 0f 76 26 2a 4a 48 bb 19 4f d3 bb c8 ca ee 27
       8.5369544e-16 -0.0030561783 -0.006448638 6.6278126e-15
000090 97 d6 ac bb 6c d2 75 25 bd b8 8c bb 60 36 ee bb
       -0.0052746045 2.1321656e-16 -0.0042944835 -0.0072696656
0000a0 bc a5 9a a0 79 57 e8 bb 3c fb 94 ba 2b cc 94 a5
       -2.6198289e-19 -0.0070905057 -0.0011366378 -2.5812257e-16
0000b0 03 dc 30 25 62 6f db bb 23 32 c8 bb a5 e0 7f 23
       1.534011e-16 -0.0066966275 -0.0061094924 1.3871148e-17
0000c0 64 4b 02 bc 9a cc 89 aa 7f 86 b0 26 5f eb 02 a6
       -0.007952545 -2.447806e-13 1.2248909e-15 -4.54218e-16
0000d0 dd be 88 23 a8 38 b5 bb 05 76 fc bb 50 56 1c a2
       1.4825983e-17 -0.0055304356 -0.0077044987 -2.1187636e-18
0000e0 d2 9d 25 b6 40 1e 34 a3 6c c7 c9 a3 66 da c3 23
       -2.467878e-06 -9.764225e-18 -2.1876922e-17 2.1234438e-17
0000f0 4b 0f 92 26 8e 74 e9 bb 39 0c 00 a4 39 0d 9b 24
       1.013493e-15 -0.00712449 -2.776593e-17 6.7242935e-17
000100 d1 ea 0f bc ce 6a 16 24 58 48 be 23 82 84 dc bb
       -0.008784012 3.2616532e-17 2.063048e-17 -0.0067296633
000110 9b 16 be bb 7f 93 ae bb e3 21 41 ba ef 4d f0 bb
       -0.0058010346 -0.0053276415 -0.0007367415 -0.007333509
000120 c2 9a dd bb 35 37 0d bc 46 8f 47 24 92 55 e9 a6
       -0.0067628333 -0.008619119 4.3272604e-17 -1.6190817e-15
000130 54 83 01 28 e2 ad e7 bb 72 40 be bb 19 16 13 bc
       7.189416e-15 -0.007070289 -0.0058060223 -0.008977436
000140 04 ba ea bb a2 32 cb bb 79 9b d3 bb 4a e5 31 a3
       -0.007163288 -0.0062011043 -0.006457743 -9.643743e-18
000150 29 10 ca bb d9 ff a3 bb aa 29 04 bc c0 8e ee a4
       -0.006166477 -0.0050048647 -0.008066574 -1.03457875e-16
000160 9a a2 b9 bb 60 01 d5 bb bc 2e 31 a3 c4 6b ec bb
       -0.0056651356 -0.006500408 -9.605086e-18 -0.007214995
000170 5c 9d 60 a6 5e 2a 02 39 7a 7f d6 bb 2f 8e b8 bb
       -7.7928873e-16 0.00012413549 -0.006545958 -0.005632184
000180 b1 bc 92 3a de 02 13 bc fd a4 b1 b8 75 1f f2 bb
       0.001119515 -0.008972852 -8.470749e-05 -0.007389004
000190 75 72 ab bb ee 1e a6 25 02 c5 e7 bb 6f 47 22 bc
       -0.00523215 2.8817368e-16 -0.0070730457 -0.009904726
0001a0 b5 2a 9e bb c8 4d bf bb 5b 2b e5 bb 6f aa a1 bb
       -0.0048268684 -0.0058381297 -0.0069936938 -0.0049336473
0001b0 32 f0 d9 bb e4 c3 be bb f5 31 3d bb b2 7f df bb
       -0.006650948 -0.005821692 -0.0028868888 -0.0068206424
0001c0 13 60 af 22 59 61 8d bb 6d 00 e4 bb db 0b a5 26
       4.7535568e-18 -0.0043145833 -0.0069580586 1.1452388e-15
0001d0 74 49 9f bb 0f e8 96 39 d4 0d e9 bb e5 4e b6 33
       -0.004861051 0.00028783127 -0.007112244 8.489386e-08
0001e0 ed d5 0c bc 68 bf ea b8 13 2a bc a3 7e 97 aa bb
       -0.008595926 -0.00011193642 -2.040082e-17 -0.0052060476
0001f0 aa a7 13 bc be ba 60 a6 e9 8d 69 a6 bc 1c 31 bc
       -0.009012142 -7.7968695e-16 -8.103044e-16 -0.010810073
000200 cc 81 e1 bb 2b ed 29 25 2f e9 e1 bb 72 35 a9 a8
       -0.006881928 1.4738769e-16 -0.0068942527 -1.8785947e-14
000210 eb 01 f7 bb 89 2f c2 bb 54 02 c7 bb cf a2 9a ba
       -0.0075380704 -0.005926077 -0.0060732756 -0.0011797788
000220 63 9d cd bb f7 85 64 bb 23 97 f4 a3 4a 65 b6 bb
       -0.0062748655 -0.0034869888 -2.6518542e-17 -0.005566274
000230 17 77 41 23 b1 df ef bb 85 ec cd b1 28 28 ad bb
       1.0487769e-17 -0.0073203673 -5.9931744e-09 -0.005284328
000240 c2 61 0b bc 59 30 23 39 9a df 00 bc e2 23 8f ba
       -0.008507194 0.00015562902 -0.007865811 -0.0010920728
000250 85 b1 0b 25 8b f5 d8 b8 1d 94 fa bb cb 55 f6 bb
       1.2116474e-16 -0.000103454186 -0.007647051 -0.0075175515
000260 45 84 1d a4 7e 8f ed 25 cc 4b 2b 23 42 4e 00 bc
       -3.4155985e-17 4.121018e-16 9.285979e-18 -0.007831158
000270 27 e3 9c bb 2d ad de bb d0 ae ee bb ca 8e 9e 21
       -0.004787821 -0.0067955465 -0.007284023 1.0744292e-18
000280 f6 ba 8c 23 bc 8a 2b 26 a8 86 2e b9 ba 04 f5 bb
       1.5258011e-17 5.9515563e-16 -0.00016644096 -0.00747737
000290 a1 a7 5a 39 28 5c cd a6 4a f6 c7 b9 05 2f c1 23
       0.00020852547 -1.4249712e-15 -0.00038139737 2.0945015e-17
0002a0 39 d9 e1 bb 46 30 64 b6 ca 84 c5 ba 58 65 e0 bb
       -0.00689235 -3.4002746e-06 -0.0015069481 -0.0068480186
0002b0 0f 79 93 27 64 8f 90 b4 71 66 3e bc c0 81 aa a3
       4.093195e-15 -2.692642e-07 -0.011621104 -1.8486388e-17
0002c0 e6 10 c7 bb 3e 87 d1 22 43 06 ec bb 84 11 e7 bb
       -0.0060750125 5.6792757e-18 -0.007202895 -0.0070516486
0002d0 94 49 20 bb f1 ac de bb 6d 2e 53 ab 92 02 f9 bb
       -0.0024457918 -0.0067955186 -7.502669e-13 -0.0075991834
0002e0 d4 8b dc a5 dc 23 e8 bb 01 9b d7 24 59 6a d3 bb
       -3.8258668e-16 -0.007084353 9.3503974e-17 -0.0064518866
0002f0 bf e9 16 25 db 95 d6 bb 37 b9 15 21 a5 fc 1b bc
       1.3089622e-16 -0.006548626 5.0728293e-19 -0.009520684
000300 f2 3e 88 a4 1a 3e db 23 e8 8d 58 ba d5 df 81 26
       -5.908723e-17 2.3770329e-17 -0.0008260892 9.011843e-16
000310 1b a7 3f a7 7d 9f b3 bb 57 44 08 bc cc 6b d9 bb
       -2.6597163e-15 -0.005481659 -0.008317075 -0.006635165
000320 7c ca 85 26 88 f9 9d a3 2d 92 d8 bb b4 07 ed bb
       9.283612e-16 -1.7127655e-17 -0.0066092224 -0.0072335843
000330 cf 42 fa a6 00 45 1c bc 8e ac 0b bc 2e 64 ad 25
       -1.7365343e-15 -0.009537935 -0.008525027 3.00786e-16
000340 f9 67 f6 b6 76 31 50 24 86 ab 90 a6 cf 55 71 23
       -7.3434753e-06 4.5144705e-17 -1.0038499e-15 1.3082807e-17
000350 ba 96 e2 bb 21 ed da bb da 61 cf 22 eb 68 f8 bb
       -0.0069149407 -0.0066811 5.6211067e-18 -0.0075808666
000360 92 2d 48 a7 87 13 ad bb 4b a9 02 bc c1 ea a0 ba
       -2.778028e-15 -0.005281869 -0.007974933 -0.0012276993
000370 e2 17 c9 28 9f e2 df bb 22 a6 01 bc 4a 29 4b bb
       2.232584e-14 -0.0068324353 -0.007913144 -0.0030999952
000380 d3 22 e2 bb 33 0d 58 b7 29 84 ff bb 6c 0c bf bb
       -0.006901124 -1.2877676e-05 -0.007797737 -0.005830338
000390 6b 7b 57 ba b8 58 e7 bb dd ae 95 bb 20 65 56 26
       -0.000821999 -0.0070601366 -0.0045679645 7.4383215e-16
0003a0 8e 80 98 25 f9 81 de bb e9 2b da bb 0b 09 90 bb
       2.645491e-16 -0.0067903963 -0.0066580665 -0.0043956093
0003b0 52 fa 45 34 cf db c8 bb e7 45 82 bb 2d 20 f7 bb
       1.8438121e-07 -0.006129719 -0.003975618 -0.0075416774
0003c0 9c b1 4e a5 5b 0c 6e ba d9 b9 55 a7 e9 3d 39 a4
       -1.7927828e-16 -0.00090808206 -2.9660436e-15 -4.016792e-17
0003d0 c9 94 6d bb 21 39 9e bb 42 4b 72 2b a0 c8 08 bb
       -0.0036252013 -0.0048285876 8.608011e-13 -0.0020871535
0003e0 ce d7 68 a4 24 2e c1 bb 60 24 ec bb 1f 07 e6 bb
       -5.0489774e-17 -0.005895393 -0.0072064847 -0.007019892
0003f0 ad d6 82 22 3b f4 0d 25 35 b3 38 bb 96 18 5e bb
       3.5463867e-18 1.2312549e-16 -0.0028182988 -0.0033889166

f0.2.bias f4 [256]
000000 e5 80 0c bc 3a 02 09 bd b5 bf 8c bd 7c df 45 bd
       -0.008575653 -0.03344939 -0.06872503 -0.048308834
000010 6d 9b 12 3c df 58 7b 3d 38 3b c7 3d f0 43 ad bc
       0.008948189 0.06136405 0.09728092 -0.02115056
000020 2c 08 3f bb 9a aa ae bc b1 77 52 bc 59 27 32 bd
       -0.0029149158 -0.021321584 -0.0128459195 -0.043494556
000030 f2 69 45 3d 4f ce bb 3b 70 86 ab 3d 84 15 3d bd
       0.04819674 0.005731381 0.08375251 -0.046163097
000040 fb 41 64 bd 16 6f 80 3d 23 4b a6 3c 5e 42 0c 3c
       -0.055726986 0.06271188 0.0202995 0.008560745
000050 2d 1c 89 ba 21 e9 ab 3c aa 5c ac bb 1a a1 73 bc
       -0.0010460668 0.020985188 -0.00526007 -0.014869953
000060 c3 46 0f 3d 42 ed 57 3d 6f bd fc bc ff 49 5c bd
       0.034979593 0.0527165 -0.030852048 -0.053781506
000070 c1 56 a5 3c cd 70 e0 3c 62 77 16 3d 48 48 99 3c
       0.020182969 0.027397538 0.036734946 0.018711224
000080 b4 38 c9 bb e5 2b 23 3d 43 ba 2b 3d 7f 30 0c 3e
       -0.0061407927 0.039836783 0.04192568 0.13690375
000090 cb 9c 99 3d 50 43 91 bc 66 1c 98 3d a1 69 80 3d
       0.07500609 -0.017732292 0.074272916 0.06270147
0000a0 eb b8 7e 3c ee c8 93 bb 7d 1b 99 3d a2 7a 60 bc
       0.015547018 -0.0045100367 0.07475946 -0.013701113
0000b0 d1 07 b2 bb 6b 40 9c 3b 3c 7c 84 bd 27 17 b8 bb
       -0.0054330607 0.0047684214 -0.06469008 -0.0056179943
0000c0 95 a9 11 3d 96 bc 64 3d af f8 c3 3d b5 34 c9 3d
       0.035562117 0.055843912 0.09568917 0.09824506
0000d0 74 f9 12 bd 38 81 9e bc bc 25 ec bc a2 ec c7 bc
       -0.03588243 -0.019348726 -0.028826587 -0.024404828
0000e0 4d a6 10 b9 4c ff 08 3d 53 e3 55 3c fa c0 00 3d
       -0.00013794862 0.033446595 0.013054687 0.031434037
0000f0 f9 71 4d bd 5c 8e a2 bc 39 25 90 b7 a4 02 d3 ba
       -0.05015752 -0.019843273 -1.718347e-05 -0.001609881
000100 27 6a f6 bc 59 47 97 3d 04 db cf 3c 19 77 8a bd
       -0.030079914 0.07386655 0.02537299 -0.06760997
000110 6f ab 4d 3d 50 a8 cb 3d 44 4c 5f bb 3d f6 e2 bc
       0.05021232 0.099442124 -0.0034072557 -0.027705306
000120 20 97 af bb e6 7e 26 ba 33 6b 6b 3d 90 1e 23 3d
       -0.0053585917 -0.0006351307 0.05747528 0.03982407
000130 53 5f 9a bc 9e 72 ae 3d c8 5f 56 3d a7 e7 82 3d
       -0.018844282 0.08517955 0.052337438 0.063918404
000140 54 16 b4 b9 12 04 09 bc bf b6 f5 bc 37 0f 11 3d
       -0.0003434891 -0.008362787 -0.029994367 0.0354149
000150 9b ee 8b 3c 38 68 ff 3c d9 cf 3a b5 7b 55 c2 b5
       0.01708155 0.031177625 -6.959286e-07 -1.4479004e-06
000160 1b 8b 37 3d 4c ac d1 bc 3d d4 02 3d 5e 04 c0 ba
       0.044810396 -0.025594853 0.031940687 -0.0014649739
000170 e6 3f 3f 3d b6 9f aa 3c 61 a2 12 bd e1 e5 57 3d
       0.046691798 0.02082811 -0.035799388 0.052709464
000180 0c 35 b2 3d 0e 7a 7e b7 6a 7e f8 3d c0 46 89 38
       0.08701524 -1.5167998e-05 0.121334866 6.545847e-05
000190 03 fd 04 bc c1 ee 80 bd 92 10 60 bc a7 ff 01 3d
       -0.008116963 -0.06295539 -0.013675826 0.03173795
0001a0 30 81 28 bb dd 7c 76 3d 75 d4 2b bd f4 f4 c3 bb
       -0.0025711767 0.060177673 -0.04195066 -0.0059801284
0001b0 9a b0 81 3d 78 8c af 3c bc 27 8f 3d 82 80 11 3d
       0.06332512 0.021429285 0.069900006 0.035522945
0001c0 6b 8a b2 3d 4e 17 5d bd 7b eb 69 3c 2f f0 90 3c
       0.087178074 -0.053977303 0.014277334 0.017692653
0001d0 06 54 10 3d e2 2d 14 bb 9c 96 22 3d 37 48 a9 ba
       0.03523638 -0.0022610356 0.039694414 -0.0012915198
0001e0 f4 a5 bb bb 3f 03 08 bd b0 7c bf bb e1 d7 88 3b
       -0.0057265703 -0.03320622 -0.0058437213 0.0041761254
0001f0 d4 7f 09 ba bf e3 10 b9 84 d5 80 3b 33 b5 db bb
       -0.0005245183 -0.00013817752 0.003931703 -0.0067049502
000200 b1 8b 1a ba ef 30 4e 3d 89 91 8d 3d fb f3 22 3d
       -0.00058954494 0.050339635 0.06912524 0.03978346
000210 e7 c3 20 bd fd 5a ab bc ad 2c 82 bd 89 6f 05 bc
       -0.039249327 -0.02091741 -0.063561775 -0.008144268
000220 b3 66 89 3d 9e c7 22 3d 54 3b 2c bd 4d a7 23 bd
       0.067090414 0.03974115 -0.042048767 -0.039954472
000230 ad 43 70 3d 1a 09 b1 bc ea b1 8a bc 7b af b7 3d
       0.05865829 -0.021610785 -0.01693054 0.08969017
000240 29 19 25 bc ec da 32 3d 00 d6 37 bb 4d e5 c1 bb
       -0.010076799 0.04366581 -0.0028051138 -0.0059172274
000250 56 c4 7a bd 19 ce 8c 3d ec e6 6d bd 17 7d 80 3d
       -0.061222397 0.068752475 -0.058081552 0.06273859
000260 94 91 af bc d8 47 20 bd 4a d8 84 3d ff ab 75 bc
       -0.021431722 -0.039131016 0.06486566 -0.01499462
000270 83 67 f2 3d 66 ac a7 3c 88 3c 15 bd 0f a8 23 bd
       0.118361495 0.020467948 -0.03643468 -0.039955195
000280 53 1a 00 3d ea 90 17 bd f0 22 c7 b2 d1 78 2c bc
       0.031275105 -0.037003435 -2.3182537e-08 -0.010526852
000290 d3 fb 9b 3c 4a d5 cd ba b1 57 72 3c 9a c4 1e 3d
       0.019040978 -0.0015703824 0.014791415 0.038761713
0002a0 cc 33 a4 b9 8d 8e f6 3c bb 8b ff bc bf ba a5 3d
       -0.0003131911 0.03009727 -0.031194558 0.080922596
0002b0 81 e8 24 3d bb 1e 6c 3d f3 61 46 bb 66 62 47 bb
       0.040260796 0.057646494 -0.0030270785 -0.003042364
0002c0 05 29 9a 3d ad c5 2c 3c b2 c5 e2 3c 01 f1 67 bc
       0.07527355 0.010545176 0.02768216 -0.014156581
0002d0 1e 18 9b 39 46 dc 8e 3c 06 cb 18 3d 28 10 e3 bc
       0.00029581873 0.017439019 0.037302993 -0.027717665
0002e0 b6 e5 f5 bc be 83 5e 3d 1e dc 6c bd 79 40 7c 3d
       -0.030016761 0.054324858 -0.057827108 0.061584923
0002f0 b2 01 1d bc 19 12 7e 3d 81 ac f6 bc 42 f4 14 bd
       -0.009582924 0.062028978 -0.030111553 -0.036365755
000300 41 15 67 b8 6a cd 80 3d eb 64 19 3d ef 2f 2d 3d
       -5.5094486e-05 0.062891796 0.03744976 0.04228204
000310 b6 8c 9a bc 4b 5f c3 bc 8a 9f be 3d a2 56 a3 3d
       -0.018865924 -0.02384915 0.093077734 0.07975508
000320 79 13 79 bd cc 83 26 3d d5 fd 06 3d dd c1 86 bc
       -0.060809586 0.040653035 0.032956917 -0.016449863
000330 03 52 16 bd 3c 4d 9b 3d d0 28 79 3d ca 7a 1f bd
       -0.036699306 0.07583091 0.060829937 -0.03893546
000340 8f 3d 48 3d 10 43 86 bc 9c ed c3 3d dd ba 6e bd
       0.04888683 -0.0163894 0.09566805 -0.058283675
000350 ef e1 82 3c 63 2e 4d bd 98 f9 af 3c fc c8 37 3d
       0.015976874 -0.050093066 0.02148132 0.044869408
000360 b9 15 83 3d 3f 67 8b 3d a4 23 e9 bb 87 96 63 bd
       0.06400628 0.06806802 -0.0071148444 -0.055563476
000370 31 fd 50 bd e0 c0 91 3d 54 c0 94 b6 e2 7e db bc
       -0.051022712 0.07116866 -4.4331337e-06 -0.0267939
000380 90 0a b2 3d d4 c3 96 bc d1 0e ab 3c 93 3c 00 ba
       0.08693421 -0.018403925 0.020881088 -0.0004891839
000390 28 88 d7 3d 01 e1 26 3d 0e d4 35 3c 8b 90 00 3d
       0.105240166 0.040741924 0.011097921 0.031387847
0003a0 fc a3 b2 3a 7d f1 02 b6 6b af 70 bc 7d da 80 3d
       0.0013629193 -1.9512074e-06 -0.01469026 0.06291673
0003b0 05 01 4e bd ab 75 b7 3c 3e 8d 6d bc ea e0 8a 3d
       -0.05029394 0.022394976 -0.014499007 0.0678118
0003c0 0c ee aa 3d 8e 5e 16 bd 28 14 32 bc d6 56 d1 bb
       0.08346185 -0.036711268 -0.010869063 -0.0063885255
0003d0 5b 87 27 b7 81 25 f2 ba a5 4a 32 bb 99 1c c4 b8
       -9.985491e-06 -0.0018474312 -0.0027205136 -9.351335e-05
0003e0 9b 57 3b 3a 8e f1 38 bd 54 a6 eb bc 4f 06 a8 bc
       0.0007146538 -0.04515224 -0.028765835 -0.02051082
0003f0 df e9 66 3d d1 02 42 bc fe 07 75 bc b2 0f f2 3c
       0.05637538 -0.011841492 -0.014955519 0.0295485

f0.4.weight f4 [130, 256]
000000 9b 6a 3e bc 6d 1d 62 bd a9 bf a4 ba 14 0f 68 bd
       -0.011622096 -0.055203844 -0.0012569326 -0.056655005
000010 62 b4 0a bd fe a7 53 bc 38 4f f1 3c dd 26 aa bb
       -0.033863433 -0.01291847 0.02945672 -0.005192621
000020 cc 51 02 3d f0 4d 84 22 b5 ec 57 29 fc 21 16 bd
       0.03181629 3.586119e-18 4.79449e-14 -0.036653504
000030 a1 b0 99 bb 2d a8 17 3c 06 ba b9 bc 6f 24 c6 b8
       -0.0046902453 0.009256405 -0.02267171 -9.448162e-05
000040 17 62 56 bc f7 50 4a 3b ba 60 dc 3c 73 31 c0 3c
       -0.01308491 0.0030871013 0.026901592 0.02346108
000050 8c 12 61 a3 a3 8f ad bd ae 8f d7 bb 8a 60 89 bc
       -1.2201202e-17 -0.08474662 -0.0065784073 -0.016769666
000060 83 8d a6 b9 88 79 e0 bc 0c c7 3c a2 22 3b 11 3d
       -0.00031767422 -0.0274017 -2.5584126e-18 0.035456784
000070 e2 29 77 3c b9 96 12 3c f0 a5 f7 bc e0 f9 f3 bc
       0.015085669 0.008947068 -0.030230492 -0.029782236
000080 46 6c 89 24 14 d9 9d 3c 3c 00 26 bc 31 b1 ec 3b
       5.95977e-17 0.01926855 -0.010131892 0.0072232713
000090 4e 3c 5a 3b 0b ff 9b bb e8 9c df 3c e4 56 88 3d
       0.0033300105 -0.004760628 0.027296498 0.06657198
0000a0 cd 2e 29 3d 92 d1 93 24 94 b5 f7 3c 47 5e 84 bc
       0.0413044 6.4106114e-17 0.03023795 -0.016158236
0000b0 79 45 d0 bb c1 af ff bc 07 4e 9b 3c b7 2b 10 bc
       -0.006355938 -0.031211736 0.018958105 -0.008799485
0000c0 f8 a4 1b bd f8 38 9d bd 58 34 19 3d 6b f7 ae 3d
       -0.037999123 -0.076768816 0.037403435 0.08543285
0000d0 ef 7c 14 bd c8 d3 fd 3c 3e 91 1e a3 65 d5 84 bc
       -0.03625196 0.030984774 -8.595953e-18 -0.016215036
0000e0 a3 8b ac a4 6b 41 d5 bc 6f 37 4a bc 68 7a 89 b9
       -7.482966e-17 -0.02603217 -0.012342318 -0.00026221876
0000f0 bd f0 99 38 15 7d 14 bd 0e da 1e a4 1f 1f 3e a5
       7.3404495e-05 -0.0362521 -3.4445488e-17 -1.6490417e-16
000100 4a d4 bd bb 2e 49 65 3d 6e 60 97 3b a2 e1 6f bd
       -0.005793129 0.055977993 0.0046196496 -0.05856479
000110 f9 43 62 bd be 47 92 3d 09 7f c1 3c c2 9d d0 b8
       -0.055240605 0.0714259 0.023620145 -9.9475976e-05
000120 61 45 a5 bb 56 45 b7 3b a9 f0 2a bd f4 d1 26 3b
       -0.005043671 0.0055929823 -0.041733418 0.0025454732
000130 b1 71 c6 23 e3 b1 13 3d 65 f2 30 3d 39 1c d3 3d
       2.1515353e-17 0.036058318 0.043199915 0.103081174
000140 bd ce be 24 e0 39 1f bd bc a9 94 bd 2d a1 a7 bd
       8.2749593e-17 -0.038873553 -0.07258937 -0.08185039
000150 21 a5 66 bd 54 91 94 bd 06 89 62 a4 d4 ae 00 24
       -0.056309823 -0.07254282 -4.9122e-17 2.790366e-17
000160 ef 99 d8 bc eb e7 27 3b 3c 15 39 3d bf cf 00 bd
       -0.026440589 0.0025620412 0.045186266 -0.031448122
000170 ea 40 99 bc 0c 54 06 3d 78 3b 36 bc 3c d4 02 3a
       -0.018707711 0.032794997 -0.011122577 0.0004990732
000180 13 6c de 3c 25 41 b7 a3 d3 3c 79 3d 0b bd 87 bd
       0.027151143 -1.986849e-17 0.060849022 -0.06627854
000190 68 bc 66 2e ca a2 c2 b6 e8 41 a3 23 2a b3 40 bd
       5.2463284e-11 -5.8006017e-06 1.7700408e-17 -0.047045864
0001a0 88 3a 3b a2 81 9c bb 3d 87 07 57 3b 26 b5 e1 bb
       -2.5374212e-18 0.0916071 0.0032810883 -0.0068880497
0001b0 21 c2 88 3b c5 18 0f 3d bb 71 9a bb 60 1c 5d bd
       0.0041735326 0.03493573 -0.0047132648 -0.05398214
0001c0 87 7d 23 3d fb c7 c9 ab 0c 6d 00 b8 0a 71 7c a3
       0.039914634 -1.4337415e-12 -3.0619136e-05 -1.3684884e-17
0001d0 4a f6 8c bb 01 c1 cc bd 54 15 f7 3b 1a 11 a8 27
       -0.004301821 -0.0999775 0.0075403843 4.664791e-15
0001e0 27 ab f8 bc d9 3a f0 bc 50 2c b8 bb 31 35 dd 3c
       -0.03035505 -0.029324936 -0.005620517 0.027002903
0001f0 c0 01 e4 a4 2d 22 d7 21 d2 a8 a1 bd 14 5a 06 bd
       -9.88822e-17 1.4578013e-18 -0.07893528 -0.03280075
000200 a3 4b 96 2c f1 37 99 bd 07 de 65 3d 06 7c 19 3d
       4.2716538e-12 -0.07481373 0.056119945 0.037471794
000210 09 2e d1 bc 80 96 e6 bc bf 8c 0e bd 08 bd 8a 3b
       -0.025534647 -0.028147936 -0.034802195 0.00423396
000220 bc 74 74 3c ac c7 af 3c 85 df f4 bc e4 84 87 3a
       0.01492041 0.021457516 -0.029891739 0.0010339287
000230 c6 a9 8e 3b d9 24 19 b0 80 c1 73 bc 42 14 86 3d
       0.0043537347 -5.571344e-10 -0.014877677 0.065468326
000240 c3 7f 52 bc 34 c1 ce bb 5f 74 ae bc 42 54 87 bb
       -0.012847844 -0.0063096527 -0.021295724 -0.0041299174
000250 2d 94 cb bc 2f 99 1e 3c ad 77 ac 3b c6 bb b7 3c
       -0.02485093 0.0096800765 0.00526329 0.022428405
000260 d4 b0 81 bd 47 91 3e bd 2e 90 99 bd 3d 93 31 bd
       -0.063325554 -0.046525266 -0.07498203 -0.043353308
000270 bb ad a6 3d 37 01 14 a7 85 74 13 bd 60 4c eb bc
       0.08138605 -2.0539785e-15 -0.035999794 -0.028722942
000280 53 80 06 bc 5b 6d 80 b9 96 5d 81 24 b0 32 a3 a3
       -0.008209306 -0.0002449554 5.610337e-17 -1.7693962e-17
000290 db ad 40 bd 92 1a 37 b9 fd 53 0c bc da aa 48 bd
       -0.0470408 -0.00017462138 -0.008564946 -0.04899106
0002a0 ec 01 a3 a3 2d d9 ce 3c d2 52 25 33 d8 9e 59 3d
       -1.767331e-17 0.025250042 3.849238e-08 0.05313
0002b0 be 6d e3 bc 51 ee c8 3b 72 7a cd 22 da b7 69 bc
       -0.02776229 0.006131925 5.5695005e-18 -0.014265025
0002c0 71 f3 19 3d eb e5 17 bd 4a 9e 78 bc 26 1a f0 a4
       0.03758568 -0.0370845 -0.015174458 -1.04127706e-16
0002d0 5c 97 47 3b ad 1d df ba 4b 50 a5 bb 99 8b cb 3c
       0.0030455207 -0.0017022394 -0.005044972 0.024846839
0002e0 30 21 f4 a2 b8 2a 59 bd 67 df 9b a6 ea 5e 33 3c
       -6.617147e-18 -0.053019255 -1.0815839e-15 0.010947922
0002f0 31 51 40 bc 31 2e ac 39 05 f9 92 3c d3 6f b8 bb
       -0.011738108 0.00032840812 0.017941007 -0.005628565
000300 f2 8d 69 29 30 14 23 3c 8b 03 8d bd 42 ab 66 bc
       5.185951e-14 0.009953544 -0.068854414 -0.014078917
000310 da 4c 48 a6 bf 3b 67 a9 01 ea a8 3c ae 5a 8b 3d
       -6.949309e-16 -5.1344125e-14 0.020619394 0.06804405
000320 31 29 80 b8 97 69 42 3d 06 fc 30 3d b9 cf e6 23
       -6.111188e-05 0.04746398 0.0432091 2.5024624e-17
000330 11 b2 9c bc fd 75 fd 3b 83 26 8e 3d 29 81 a9 bc
       -0.019127877 0.0077350126 0.06940939 -0.020691471
000340 0a e0 16 bd bf ab 07 bd 4b 23 db 3c d3 9b 48 bd
       -0.036834754 -0.033122774 0.026750227 -0.04897673
000350 06 51 4a 3d f9 ae be b8 be e1 2b bb 00 2e 8e 3d
       0.049393676 -9.092497e-05 -0.0026227082 0.069423676
000360 84 d3 77 3c 4a 64 3a 3d d4 01 c9 a4 71 28 39 bd
       0.015126113 0.0455058 -8.717295e-17 -0.045204584
000370 03 9c ab bc c1 5d 88 bd ce 3b 46 22 c8 f4 b1 a4
       -0.020948416 -0.06658507 2.6865664e-18 -7.717619e-17
000380 6f 3c 78 3d c4 5d ff bc 02 c4 a0 3d ad a8 00 32
       0.06060451 -0.03117264 0.078498855 7.488933e-09
000390 8f aa 36 3d 57 e7 0b 3d 5f 02 8f 38 a1 78 8e bd
       0.04459625 0.03415617 6.819213e-05 -0.06956602
0003a0 82 ac 14 bd b0 92 a6 a3 0d bd e1 bc b4 da 88 3a
       -0.03629733 -1.805988e-17 -0.027555967 0.0010441155
0003b0 48 83 e0 24 4b 12 69 3d 0b 1e bc bd 62 6d 4c bc
       9.7366914e-17 0.05690221 -0.09185418 -0.012477251
0003c0 dc a9 28 3d fd 95 c1 bc 87 a4 de bc 64 dd 81 bc
       0.041177616 -0.02363109 -0.027178062 -0.015852638
0003d0 09 e5 9f a3 c4 94 3a 25 f1 3e a7 bd ad c1 c0 a3
       -1.7335815e-17 1.6183332e-16 -0.08166302 -2.0898707e-17
0003e0 6d 07 ac aa 34 11 ac a4 c1 47 4f 21 64 18 29 bd
       -3.055849e-13 -7.462225e-17 7.0229294e-19 -0.041283026
0003f0 7d a0 62 3b 3c 61 5e 24 88 b9 2e 24 73 84 db 3c
       0.0034580522 4.8220937e-17 3.7887387e-17 0.026796555

f0.4.bias f4 [130]
000000 b2 d2 8e 3c 7a 15 bb 3c 89 18 d0 bc 90 50 1e 3c
       0.017434452 0.02283739 -0.025402324 0.009662762
000010 ca e3 8e bc 6e 1b ff bc 67 d3 d1 3b b4 c3 46 bc
       -0.017442603 -0.03114101 0.006403375 -0.01213162
000020 04 44 58 bc c8 6e 1b a2 e7 54 01 3b 8d 89 a4 bc
       -0.01319981 -2.1065064e-18 0.0019734444 -0.02008512
000030 e5 48 db bc 79 5f 1b 3c 55 c1 78 bc 8a 64 34 bd
       -0.026768157 0.009483212 -0.015182813 -0.044041194
000040 7e 0b 22 23 e8 89 d2 bc ad 6a ac 3c dd e0 80 bd
       8.784471e-18 -0.025700524 0.02104696 -0.06292889
000050 ec 95 5d 25 22 d1 23 bb 68 cc 91 bd fb 56 73 24
       1.921949e-16 -0.002499648 -0.071190655 5.27659e-17
000060 1d 02 b6 24 7f 34 82 a3 a4 03 98 3c 73 f7 7e 23
       7.89335e-17 -1.4116861e-17 0.018556423 1.3821767e-17
000070 64 26 37 a1 2e 8c 82 20 77 88 2b 3d a7 4f 03 a3
       -6.205362e-19 2.211562e-19 0.04187819 -7.118391e-18
000080 08 cc 9c 23 bb 7e db b8 b9 46 b4 3c 1e 87 b6 24
       1.6999964e-17 -0.00010466339 0.02200638 7.9158816e-17
000090 4b bc 06 a4 67 46 12 bb b7 19 82 bc c4 14 9a bd
       -2.921611e-17 -0.0022319795 -0.015881402 -0.07523492
0000a0 98 70 59 bd c6 5f 5b a3 ba 39 46 3c d4 39 71 bd
       -0.053085893 -1.1892295e-17 0.012098724 -0.05889304
0000b0 a6 a3 3f 24 c9 87 29 bd a2 35 5f bc c3 77 11 a5
       4.155514e-17 -0.04138926 -0.013623627 -1.2617322e-16
0000c0 c3 ab 50 bc a8 7d ef bc bc 2a 14 bd 4f d5 08 25
       -0.012736264 -0.029234722 -0.036173567 1.1868391e-16
0000d0 9e e4 3e 3b cf 00 44 bd 51 87 12 a3 4d 14 57 bd
       0.0029127966 -0.047852334 -7.94333e-18 -0.052509595
0000e0 51 87 ce 3c 1e b5 ca bc bd 30 31 3d 73 ba 1e bd
       0.025211008 -0.024744567 0.04325937 -0.03875203
0000f0 e5 90 3b 3d 62 f5 dc 24 a6 11 78 bc 2a 47 11 bd
       0.04579248 9.5825486e-17 -0.015140926 -0.035468258
000100 d5 c1 62 bc 61 91 e8 bc 8e 5d 92 bd 63 57 0c bc
       -0.0138401585 -0.028389635 -0.071467504 -0.0085657565
000110 b4 d1 9a 20 25 a5 93 bc f5 6f a7 bb f9 9a 8e bc
       2.6227385e-19 -0.018023083 -0.005109782 -0.017407881
000120 fd 45 24 bc bc 09 c9 bc 89 d7 46 bd 8f 1a e0 a3
       -0.010026452 -0.024540775 -0.048545394 -2.4297377e-17
000130 ca b6 a0 bc 3c 0f 2f 24 9c dc b5 bc 18 ed 83 bd
       -0.01961841 3.795998e-17 -0.022199921 -0.064417064
000140 0a 45 88 bd 35 6b 2e bc 3d 0a 8a bd 05 9c 35 bd
       -0.06653793 -0.010645677 -0.06740234 -0.044338245
000150 60 73 a7 3b a0 5d ef bc c1 f1 d8 bb 0e d4 f9 bb
       0.0051101893 -0.029219449 -0.006620616 -0.007624156
000160 d0 22 d3 22 69 d0 8e bd b4 15 9a bc 43 09 d2 bc
       5.7228524e-18 -0.06973345 -0.018809177 -0.025639182
000170 99 4c 75 bc 88 de 8a 3b c9 b2 83 a4 42 d9 48 3c
       -0.014971876 0.0042379536 -5.711507e-17 0.01225883
000180 da e7 1d bb 2a fc 56 3b 9c b3 8b bb 98 6d 92 3c
       -0.0024094493 0.003280411 -0.0042633545 0.017874524
000190 0e 05 c5 a3 5e a2 0d 24 c3 63 c8 a3 87 c0 4c 3c
       -2.1360924e-17 3.071203e-17 -2.1726294e-17 0.012497074
0001a0 31 ec 78 bc 70 2f 43 23 0a 1b 94 3c 6f 38 2f bd
       -0.015193031 1.05810165e-17 0.0180793 -0.04277843
0001b0 52 d3 9a 3b 65 6a f2 bc 39 45 f6 bc ba 7a 83 bc
       0.0047248984 -0.029591748 -0.030062305 -0.016049732
0001c0 5d 29 95 bc 09 a6 40 24 06 74 25 bd e0 97 1f bd
       -0.0182082 4.1774e-17 -0.04039385 -0.0389632
0001d0 9b 47 11 bd 76 c0 40 bb 6d 3b bf bc db fa 23 bd
       -0.03546868 -0.002941159 -0.023343766 -0.040034156
0001e0 c3 87 90 24 41 c2 c0 bc 7d 41 7a 3b c7 13 12 bd
       6.2680034e-17 -0.023530127 0.0038186007 -0.035663392
0001f0 22 24 42 23 be ad 99 22 46 77 1a a4 78 46 38 a4
       1.05244125e-17 4.165469e-18 -3.3494455e-17 -3.995833e-17
000200 f2 d1 82 bd e0 ea 2a a4
       -0.063877 -3.706182e-17
