model/model.pth (torch, 768263 bytes, 6 tensors)

f0.0.weight f4 [256, 390]
00000000: f55f 583d 3b6d 053d 770c 28bd 3aff 303c
00000010: 7bd3 193d 6cea e63c 345d 90bd 3d70 3f3d
00000020: c196 42bc 2677 6f3d 7401 5cbb 6127 02ba
00000030: b36d a73d f8c2 00bd 3aaf 483d 5a95 0ebc
00000040: ab7d 463e 381e 9ebd b071 75be 05d5 d5bd
00000050: 77ac 9d3e 1dbb 513d 2482 da3c 5759 98bc
00000060: a92d 853d 1c7c 333b f721 e53c 61ae 183d
00000070: e00f 36bd 4d9f 34bd 833e 933c 726f 0d3d
00000080: ae3c 8b3c e990 d53d ec62 933c 397b d93c
00000090: 9449 0cbc e056 dd3c ba64 4bbd 4926 a63e
000000a0: c280 ddbd e108 61be bfda 173c f516 4e3b
000000b0: 3641 4dbd 32ea a83d 449e 8abc 3529 27bb
000000c0: c3b6 213a 5712 d6bc b621 b639 6607 f0bd
000000d0: 3c31 333e 234a a8be 06bd 753d ba34 313d
000000e0: 017e 46ba b91e fcbd 6333 84bc 5721 9ebb
000000f0: 299b 253e e6bc 2e3d 880d 033d 64c4 523e
00000100: 5b9a 11bd 5bef 743c 282c c43d fc3a c0bc
00000110: 3b2a 52bd cee4 9abc b5a7 a7bc cedc c33c
00000120: bb88 31be 974d 603c 7ef6 2cbd db49 0dbd
00000130: f998 4bbd 5351 023d bedd df3d 4a49 e43d
00000140: 8476 853d 0c91 c7ba b577 e0bc 3e31 8f3c
00000150: 6586 b5bd db7d 3a3c 082a 0cbd 2c33 cd3d
00000160: 9338 043d 990f 343d c3f0 f33b adc2 973d
00000170: fb85 73be 8451 86bc 8dff e7bc 44e3 483d
00000180: 1421 65be c9ec 793c 3d11 733c 8821 293b
00000190: af8f 9a3b fee1 3dbc 22fe bd3d 1b61 af3b
000001a0: 61c9 b53c 0bc5 fabb 1148 61bc 4b23 beba
000001b0: b388 1fbb 79d1 8c3b 0484 2d3c 5129 bb3d
000001c0: d112 92bc e343 503d 476a 3cbc 7523 313c
000001d0: 2ad2 7ebc 2f23 b53e 3665 48bd 0686 d13c
000001e0: d385 af3c 08b1 2dbb 6d66 6e3d e638 c03d
000001f0: f9c1 90bc 2820 303d 3950 15bd 3a96 f0bc
00000200: 992a c1bc 8052 dcbd 2f2d 81bc b876 b13d
00000210: 3ddf 9d3c de2b 02bd ece0 133d 9879 32bd
00000220: 5eda e73d 9229 a93c 1d6f 193e ffec 123e
00000230: 772f 0abe 0dfb 723e e3eb 3e3c 3093 d33c
00000240: d209 963d 3636 adbc ac15 633a 41cd 833c
00000250: f20c 05bd 36f3 0dbd f68b 4ebe 4438 5c3d
00000260: 4892 a53c 9038 99bb e9db 2f3a c0ba 0a3d
00000270: 1c08 5e3d 3a8b aebd 222c 3abd 993d 393d
00000280: 29d9 25bd fa44 343d 9d69 5dbd 7a36 26bd
00000290: 71a6 63bc ac1a 3c3d 3aae 1b3c 615e 95bc
000002a0: e104 7f3d 191a 3abe 782f 9b3e c742 863d
000002b0: f9bf 62bc 256d 45bd e295 59be bbc6 6c3d
000002c0: 34cb 1f3d 8784 183a c3a8 24bc aa7b e6be
000002d0: 60bb e83d 3273 803c 169b 0739 71f9 023d
000002e0: 910b e4bb 31ed 8dbb 808d 01bd 788e 36bd
000002f0: 4b0d 99bb 9a53 8d3c 783c 9abc 258e 37bc
00000300: 3a76 b13b 2fc0 f9bb 9664 1e3d 5739 b03e
00000310: 1a47 48bb c98b 90bd 07f1 e53c 7afb 25bd
00000320: af54 39bc 98ea 873d e293 c3bc 099d 36bd
00000330: a176 19bd 5dc6 3f3a ce47 91bc 9e29 01be
00000340: 57ac 3dbd 4e01 ae3c bbf3 023d 0164 653d
00000350: 2bc9 e83c 2f76 e7bd cfd1 a53c 2ada 603b
00000360: d6b6 e63d 7718 4c3d d55a 1abd 23c9 543e
00000370: 4eef 583d 1f24 46be 016e 9b3b 8e19 6bbd
00000380: e35d 9dbd a611 fa3c 70c7 723c db36 2cbd
00000390: 4e1f 21be cb2d 993b 597c 1fbd b3ea afbc
000003a0: 29eb 233d 20ba 383d 5c8f 073e 3263 d2bd
000003b0: 04b7 84be 3afb 5f3d fa0d ab3c 0cff 19bd
000003c0: b3c1 dcbd 9a09 41bd b978 b33c 4629 653d
000003d0: 8c87 763d 7da2 453b 4b96 2ebd 099a 813b
000003e0: 9abc 9f3e 88b5 e73c 1eee 0e3d a133 4d3c
000003f0: 10f5 5fbe 9557 093d 424f 32bd e17e 653c
0.052825887 0.032574873 -0.041027512 0.010803038 0.0375552 0.028187953 -0.07049027 0.0467379
-0.011876763 0.05846324 -0.0033570202 -0.00049649744 0.0817522 -0.031435937 0.048995234 -0.0087026
0.19383876 -0.077206075 -0.2396915 -0.10441021 0.30795643 0.051203836 0.026673384 -0.018597288
0.065028496 0.0027387207 0.027970297 0.037275676 -0.044448733 -0.044097234 0.017974144 0.03453011
0.016996708 0.1042803 0.017991506 0.026548015 -0.008562464 0.027018964 -0.049656607 0.32451084
-0.10815574 -0.21976043 0.009268462 0.003144679 -0.050111018 0.08247794 -0.01692117 -0.002550674
0.0006168896 -0.026131792 0.00034738862 -0.11720161 0.1749925 -0.32869062 0.05999472 0.043263175
-0.00075718766 -0.123105474 -0.016137784 -0.0048257518 0.1617247 0.042660616 0.031995326 0.2058273
-0.035547595 0.014949645 0.09578735 -0.023465626 -0.051309805 -0.01890793 -0.020465711 0.023908999
-0.17337315 0.013690374 -0.04222726 -0.034494262 -0.049706433 0.031815838 0.10930966 0.11146791
0.06516746 -0.0015225722 -0.02740083 0.017479535 -0.08863524 0.011382545 -0.03421977 0.10019526
0.032280516 0.043960188 0.0074444725 0.07410178 -0.23781578 -0.016396292 -0.028320098 0.049044862
-0.223759 0.015254208 0.014835653 0.002580734 0.0047168355 -0.011589525 0.092769876 0.005352152
0.022190752 -0.007652884 -0.013750092 -0.0014506368 -0.0024342954 0.004297432 0.010590557 0.0913874
-0.017831238 0.05084599 -0.011499948 0.010811676 -0.015553037 0.35378405 -0.048924647 0.025576603
0.021426117 -0.0026503224 0.05820315 0.093858525 -0.017670618 0.042999417 -0.03645346 -0.029368509
-0.023579882 -0.10757923 -0.015768616 0.08665222 0.019271487 -0.031780116 0.036103174 -0.043572992
0.11320947 0.020649705 0.14983793 0.1434822 -0.13494669 0.23728581 0.011652919 0.02582702
0.07326092 -0.021144014 0.0008662592 0.016089084 -0.03248305 -0.034655772 -0.20170578 0.053764597
0.020211354 -0.004675932 0.00067084894 0.033869505 0.054206952 -0.08522649 -0.045452245 0.04522476
-0.040490303 0.044011094 -0.0540558 -0.040579297 -0.013894663 0.045923874 0.009501988 -0.01823348
0.062260512 -0.18174018 0.30309653 0.065557055 -0.013839715 -0.04819979 -0.21248582 0.05780671
0.03901215 0.0005818088 -0.010050002 -0.45016223 0.11363864 0.01567993 0.00012932377 0.031976167
-0.0069593866 -0.004331254 -0.031629086 -0.044569463 -0.004670774 0.017251778 -0.018827662 -0.0112033235
0.005415705 -0.007621787 0.038670145 0.34418747 -0.0030559958 -0.07057912 0.028069032 -0.04052303
-0.011311694 0.06636542 -0.023874227 -0.044583354 -0.03746665 0.000731563 -0.017734434 -0.12613532
-0.046306934 0.021240856 0.03197072 0.056003574 0.028416237 -0.113018386 0.020241646 0.0034309723
0.11265342 0.04982802 -0.03768428 0.20779853 0.052962594 -0.19349717 0.004743338 -0.057397418
-0.07683923 0.030525994 0.014818057 -0.0420445 -0.15734598 0.0046746484 -0.038936947 -0.021474218
0.040019188 0.045099378 0.13238281 -0.10272826 -0.2592088 0.054682948 0.020880688 -0.037596747
-0.10779133 -0.047128297 0.021908151 0.055947565 0.06018786 0.0030156665 -0.0426238 0.00395513
0.3119858 0.028284803 0.034895055 0.012524516 -0.21870828 0.03353079 -0.043532617 0.014007301

f0.0.bias f4 [256]
00000000: 468d 2a3d dabd 08bb dc2f 653d 7274 f0bd
00000010: e296 38bd 0a18 91bd 92b1 953c fe25 bebd
00000020: 0c35 bd3c 5af9 5e3e 5f66 d4bd 5e83 33bd
00000030: 91d3 7c3e 6aa8 423e cacb 6f3e 11bc 22be
00000040: d322 8abd 9461 efbd b9c6 113d 7dc6 51bc
00000050: e9fc 863e 81d3 4a3e 66e9 b33d 4f8c ddbb
00000060: 9065 863e f491 0fbe 0f18 283c db38 8f3d
00000070: 4968 1dbd 07d4 113d 8177 2c3d 74c2 04be
00000080: b7db de3c 18df 013e 2594 1bbd 19a5 fcbc
00000090: 6e69 123d 7d3c 3e3e 0f9f 1fbb 3c77 133e
000000a0: 035f b3bd 8588 edbd 872d 1a3e d2a5 a73d
000000b0: 97a3 d13d 4415 3abe f415 c13c b5fe 31bd
000000c0: dba9 3e3e b490 02be b744 f03d f1e0 7a3e
000000d0: ecd8 a03d 2e2f 733d e5a7 40bc fece a23d
000000e0: fcec a0bd e3bb 77bd 4485 a53d 5d39 113e
000000f0: 315c abbd 6027 9c3d f003 443d 3575 5b3d
00000100: 6f3d e43b 5f58 5dbd 7a84 a83d 148c d33d
00000110: cd0a c9bd 5c4c bcbd e52b e13d 136f 773e
00000120: b07c 6cbd 0f5b 143d 54a1 363e 472c 433b
00000130: 68c4 bb3d e4ea 053e 99e2 1d3a 2cda 313e
00000140: 481e c4bd a976 13bd 76a4 28bd 5439 5a3e
00000150: b68f b53d 820c ed3d ad78 763e 93b3 ca3d
00000160: ed71 60be 4f3d 323d 9d58 6d3b b6fc 19bd
00000170: 27ed 683d c846 35be d24d 4e3d 2b9a 7f3e
00000180: 6e41 3b3e 9713 4b3e 646f 15bd 3a33 1e3e
00000190: 0b01 e13d a8c1 36be cf55 903c dd5e 833b
000001a0: 1105 b3bd b71c 68bd 4378 e9bd f0ea 063e
000001b0: d566 95bd a971 4f3e 7200 6bbd 4607 c4bd
000001c0: 6eb2 cbbc edfd d7bb 8773 ed3d 5b66 acbd
000001d0: ea3f dabd 4c5f 84bd bc0f 05be 1372 d9bd
000001e0: c5db cdbc bc0e 7fbc bd2d 533c 1fb5 113e
000001f0: 9d26 d9bc e128 be3d 16a4 5f3c 2731 523d
00000200: 3aab 15bc ef97 9cbd 51ee 273b e4ab 1c3e
00000210: 3d8b a1bc b454 903e 60b3 c53c e240 2e3e
00000220: 8f35 313d b393 a83d 01f2 113e 2bdf 72bc
00000230: 4180 313e 0fa9 293c fb45 d13d e4d4 173e
00000240: ea1c 183c 75c8 c43d 5909 3b3e 99b7 3d3e
00000250: 9450 11be a7c1 9ebd 55ad 7d3d 1744 08bb
00000260: edb3 2a3e b407 15bd c890 42bd dfcf 85bd
00000270: f133 a43e 79cb 04bc 1364 6fbd cf6e aabb
00000280: 22ed b13d 85a6 563d e8ea 80bd ff46 4abd
00000290: 6b89 153c 5d6c f1bd e2cc 12be 5577 613e
000002a0: a0bb e13d 281d 1bbd 2ff3 5c3d c42f 05be
000002b0: 9ee9 37bd 7638 493e c445 38bd 883c f3bd
000002c0: 6e07 3ebd abf6 ef3d 656a 04be 3b32 e1bd
000002d0: b89e 4f3d f941 8ebd 713a 023e 3087 3f3d
000002e0: bab5 eb3d 7095 383d 7d13 d5bd 4a6a 273e
000002f0: dcdc 543e 3d25 be3d 7491 bc3c daed 283d
00000300: de19 5b3e fc69 56be 4a34 f73b e548 b9bc
00000310: 6d91 e63d 1f4f 8d3e 8862 c4bc 9cbe af3d
00000320: 758f babd d515 19be d1e8 933d b796 963e
00000330: d02b 8fbd 70f7 5abd bf8b 083e d78c 4c3e
00000340: 294b 023e 31e1 213e c086 fbbd c123 053e
00000350: 85a5 e9bc 1a14 a63a c35f aa3e d2d7 9f3d
00000360: d49d 573b 5563 6c3e 616c 4b3e d009 3b3e
00000370: 91ca 3b3e e7bc 593e 0206 6e3e 7377 a03d
00000380: 9cf2 653e e1e2 3d3e 5daf e2bd 8bf0 b1bd
00000390: 5e98 cb3d 75b5 e4bd 2019 8d3e a1ea 79bd
000003a0: 746d ba3e 9f1e d23d 8405 1f3d 01b5 f73c
000003b0: 82ac 77bc 3d65 30bc f1b0 d53d 739a 55bd
000003c0: 93d6 f33d 41f2 4f3e 853a c7bd c836 9a3d
000003d0: 29ca b63d 2c13 9dbd 85d5 20bd 8af9 de3d
000003e0: c874 a13e a3a5 7f3d f0c7 183e f9cc 2d3e
000003f0: 2586 d13d 65e0 c13d 64ea 7d3e 28d3 66bd
0.041638635 -0.0020865113 0.055953845 -0.1174096 -0.045065768 -0.07084663 0.018273149 -0.0928459
0.023096584 0.21774808 -0.10371088 -0.043826453 0.24690081 0.19009557 0.23417583 -0.15892054
-0.067449234 -0.116885334 0.035589907 -0.012803671 0.2636483 0.19807245 0.087847516 -0.006761111
0.2624936 -0.1402052 0.010259642 0.06993266 -0.038429532 0.035602596 0.042106155 -0.12964803
0.027204378 0.1268276 -0.03798308 -0.030840443 0.035745077 0.18577762 -0.002435628 0.14400953
-0.087583564 -0.11598305 0.1505643 0.081859246 0.102362804 -0.18172175 0.023570038 -0.0434558
0.18619482 -0.12750512 0.11731856 0.24499871 0.078538746 0.059371166 -0.011758779 0.07949637
-0.07857701 -0.060481917 0.08082059 0.14182039 -0.083671935 0.07624698 0.047855318 0.053578574
0.0069653313 -0.054039355 0.08228393 0.10329452 -0.09816513 -0.09194252 0.109947 0.24163465
-0.0577361 0.036219653 0.1783498 0.002978103 0.09168321 0.13077885 0.00060228404 0.17368382
-0.09576088 -0.036001835 -0.041172467 0.21310931 0.08865301 0.11574651 0.24069472 0.09897532
-0.21918459 0.0435155 0.0036216148 -0.03759452 0.05686679 -0.17702782 0.050367184 0.24961154
0.18286678 0.19831692 -0.036483184 0.15449229 0.10986527 -0.17847311 0.017619042 0.0040091113
-0.08741201 -0.05666801 -0.11399891 0.13175559 -0.07295004 0.20258202 -0.05737347 -0.095717
-0.024865355 -0.0065915496 0.11594301 -0.0841796 -0.10656722 -0.06463489 -0.12994283 -0.10617461
-0.025129208 -0.015567478 0.012889323 0.14229248 -0.02650767 0.09285141 0.013649961 0.051316407
-0.009135062 -0.076461665 0.0025624225 0.15299946 -0.019719714 0.28189623 0.024133384 0.17016938
0.043263968 0.082312964 0.14252473 -0.014823715 0.17334081 0.010355248 0.10218426 0.14827305
0.009284237 0.09608547 0.18265285 0.18527068 -0.14190894 -0.0775178 0.06193288 -0.0020792538
0.16670199 -0.0363843 -0.047501355 -0.06533789 0.32070878 -0.008105152 -0.058445048 -0.0052011977
0.086878076 0.0524049 -0.06294805 -0.049384113 0.009127001 -0.11788247 -0.14335969 0.22018178
0.11022115 -0.037869602 0.053942855 -0.13006502 -0.04490053 0.19650444 -0.04498841 -0.1187678
-0.046393804 0.1171697 -0.12931211 -0.10995909 0.050688475 -0.06946177 0.12717606 0.046759784
0.11509271 0.04506439 -0.10404108 0.1634914 0.20787376 0.092844464 0.023018576 0.041242458
0.21396586 -0.20938867 0.007544075 -0.022617767 0.112582065 0.27599427 -0.023972765 0.08581278
-0.091093935 -0.14949735 0.072221406 0.2941186 -0.069907784 -0.05345863 0.13334559 0.19975601
0.12723984 0.1580856 -0.12281561 0.1300192 -0.028521309 0.0012670786 0.33276185 0.07804836
0.003290047 0.23084767 0.19865562 0.18265462 0.18338992 0.21263467 0.2324448 0.07835283
0.2245583 0.18543579 -0.11068604 -0.08688458 0.09941171 -0.11167423 0.2755823 -0.061014775
0.3641163 0.10259747 0.03882362 0.030237677 -0.015116813 -0.010766325 0.104341395 -0.052149247
0.11906161 0.20307256 -0.097279586 0.0752998 0.08925278 -0.07669672 -0.039266128 0.108874395
0.3153441 0.062413823 0.1492002 0.16972722 0.10230664 0.09466628 0.24796444 -0.056353718

f0.2.weight f4 [256, 256]
00000000: ea9f 933d 5388 7fbc 32a5 f1bc feb2 f8bc
00000010: 7ab3 403c 3995 05bd 7187 86bd 41c3 853d
00000020: 4d3c 0b3e c27c 82be 9116 69be 7f94 85bd
00000030: 52f3 1ebe 6cef 96be d116 0bbe 8c52 b4bd
00000040: 61e0 06be 501b 913b da63 ccbd 6f2a 8bbc
00000050: a087 2a3d 3281 48bd 62c8 f8bd aae3 d03d
00000060: 54a6 2e3d f109 14be 1065 f8bd b677 573d
00000070: c08b 263e da73 0dbd b8ed 483e d98a e43b
00000080: 3704 14be 058d e93b 4d8e 67bd f74c dd3d
00000090: e0c8 583d 30e6 f9bd 9bbe 5a3d cd99 303e
000000a0: c686 7dbd 610a 613c 8114 18be 4968 363e
000000b0: 2ae8 e4bd f270 c7bd f203 c0bd ffb1 f33a
000000c0: 791b 57be 9615 6cbd a3eb a3bd d6c4 d53d
000000d0: 8c2a f13d 4abc 7d3c 45be ddbd f754 09be
000000e0: b55f 133d 281b cd3c fc5b a5be 9801 2bbe
000000f0: 2909 58bd d0dd 06be 95f9 683d b647 3c3d
00000100: adc1 afbd bf1a e7bd 26d0 fd3c 96d4 27be
00000110: d113 633b 516b cbbd 8289 433e ca58 e1bc
00000120: 682f 823d 2016 3d3e 60c1 113d 8db5 793d
00000130: 8f46 1abe 0d13 12bc d25f dcbc 7f4f 5b3d
00000140: a202 91bb 9c97 3d3c 2cda 233e 9975 233d
00000150: a5b6 4e3e 5459 8d3e bcd1 9cbe cdcd 543d
00000160: 1819 9dbd 7752 273c f0e7 d23c b7ef c03c
00000170: 12b4 19bd 8db9 ccbd d9da ca3d d7c2 5cbc
00000180: 4b2e de3d 98e0 c83d 6437 5bbe 534c a2bd
00000190: 775a 033e 70f5 dfba 22a8 2cbd 5b31 b4bd
000001a0: 0dcb 7e3c b79b aabc f94a 91bc 18c3 e3bd
000001b0: 79d2 2ebd 0ac8 843e 1c53 0a3e 20b0 e2bc
000001c0: a620 2c3e d06b 3fbe 1f3a 38be 3cf5 08be
000001d0: e654 3abe 5617 9f3c ceec 20bd 6f64 3b3d
000001e0: 12d0 2cbe 214f 073d d5b9 5f3e 5f05 603d
000001f0: 8b58 08bd f392 173e dd92 403e 6f7b ebbd
00000200: eb7e 7dbe 645b 353e b7fd 18be 9bf0 97bd
00000210: 6636 adbd 277b 04be 504f 443e b330 053e
00000220: ec95 0cbe 1b48 95be 7222 a9bb 5f82 1f3e
00000230: eb0e 84be ff13 65be e036 7d3c 2447 6f3e
00000240: e763 29be ce1b c1bc af91 5ebe c0db 08be
00000250: 1b52 e03c 8334 983d 713a c33d a103 913c
00000260: 7d54 2bbd 889a 993d 7d4e ebbc 6fe3 1c3d
00000270: f02b f1bd 9bc8 a3bd bd72 413d cfba c53c
00000280: 8ec8 3bbd 7cb7 c03b 0718 493c 0a88 ee3d
00000290: b4c7 c63d 52b4 6a3b e5cd 42be 41b4 073d
000002a0: 9c46 59be aab6 2abe 3fb0 f8bd e77b b73c
000002b0: df14 873c 7446 cbbe a788 b13d e445 00bd
000002c0: e15b e93b 44df f43d 2a47 5abd b5fd 113d
000002d0: 92dd 0fbd 887c 1fbd 3570 33bd 1674 4cbe
000002e0: 6f7a cd3b 79a4 0b3e 56ba 353d 0e0f 70bd
000002f0: 5ed7 48be 6da2 f5ba a4a1 793d 5fbd 3cbe
00000300: f74b 5c3d 7148 c3bd 2fe9 a03a 0e7d 82bc
00000310: 6070 f6bd c448 8bbe 5804 d3bd dc6c c53d
00000320: 8578 5f3d a551 a9bd 39c2 24be cf62 babe
00000330: e95d d23c 538d 30bd f7fc a93d 893b 353e
00000340: c634 423e 83ae 46bd 2c8e 40be ce22 a3bd
00000350: c287 b63a 2cb3 d4bc 7020 71be 7e1c f43d
00000360: bf41 3dbe 8bcc fcbd 6e37 d6bd 1af8 8dbe
00000370: 99b8 1c3e e2bd d43b 990d 8dbe 47b1 e1bd
00000380: 47d4 9a3d 2d9a 4ebe d3f3 c2bd 8ae6 1fbe
00000390: df89 18be ce9d 15be 6ab6 83be dcb5 feba
000003a0: 660d 8abe 6695 743e 89d9 533d f3c2 283e
000003b0: 2f66 523e aac1 ef3d d342 4cbe 7375 843c
000003c0: 5a1d 96be cf37 bb3d 063a 02be 3d25 57bd
000003d0: cdd0 0a3e 8829 1bbe 2e2e 0bbe 0292 81bd
000003e0: bd55 21be 91fa e13d ad89 3ebd 4587 373e
000003f0: fc7a a83d 855f 63be 4047 78be 9d2b 42bd
0.072082356 -0.015596467 -0.029497717 -0.030358788 0.011761541 -0.032613013 -0.06568802 0.06531382
0.13597222 -0.25485808 -0.22762515 -0.06522464 -0.15522507 -0.2947954 -0.13582923 -0.08804807
-0.13171531 0.0044283047 -0.09979983 -0.016988007 0.04163325 -0.048951335 -0.12147595 0.101996735
0.04263909 -0.14456917 -0.12128651 0.0526044 0.16264248 -0.034534313 0.19621933 0.0069745597
-0.14454733 0.0071274065 -0.056532193 0.108056955 0.052925944 -0.12202108 0.05340443 0.1724617
-0.061896108 0.013735385 -0.14851572 0.17813219 -0.11177094 -0.097383395 -0.093757525 0.0018592476
-0.21006574 -0.057637773 -0.080039285 0.10437934 0.11775693 0.015486786 -0.10827307 -0.13411318
0.035979945 0.025037363 -0.3229674 -0.16699827 -0.05274311 -0.13170552 0.056878645 0.045966826
-0.085818626 -0.11284398 0.030983042 -0.16389689 0.0034649263 -0.09932578 0.19095424 -0.027508158
0.06356698 0.18465471 0.035584807 0.060964156 -0.15065978 -0.008915675 -0.02690116 0.05354261
-0.0044253627 0.011571791 0.16001195 0.03990707 0.20186861 0.27607214 -0.30628765 0.05195408
-0.07670802 0.010212532 0.025745362 0.023551805 -0.037525244 -0.099963285 0.09905023 -0.013474188
0.108486734 0.09808463 -0.21407849 -0.07924714 0.12827478 -0.0017086696 -0.04215253 -0.08798476
0.015551341 -0.020826204 -0.017735945 -0.111211956 -0.04268119 0.25933868 0.13508266 -0.027671874
0.1680933 -0.18693471 -0.17990921 -0.133748 -0.18196449 0.019420307 -0.039288335 0.045750078
-0.16876248 0.033034448 0.21848233 0.054692622 -0.033287566 0.1480215 0.18806024 -0.114981525
-0.24755447 0.17710644 -0.14940535 -0.07418939 -0.08457641 -0.12937604 0.1917088 0.13006859
-0.13729066 -0.29156575 -0.005161577 0.15577076 -0.25792632 -0.22370909 0.015454978 0.23366982
-0.16542016 -0.023572829 -0.21735261 -0.13365078 0.027382901 0.07431891 0.09532631 0.017701926
-0.04182862 0.075001776 -0.02872395 0.038302835 -0.117759585 -0.07997247 0.047228564 0.024136929
-0.04584556 0.005881248 0.012273795 0.11647041 0.09706059 0.0035813046 -0.19023855 0.033130888
-0.21218342 -0.16671243 -0.12142991 0.022397948 0.016489444 -0.3970219 0.086686425 -0.031316653
0.0071215485 0.11956647 -0.053290524 0.035642345 -0.035123415 -0.03893712 -0.04380818 -0.19966158
0.0062706987 0.1363696 0.044367157 -0.058608107 -0.19613406 -0.0018740423 0.06094517 -0.18431614
0.053783383 -0.095353015 0.0012276525 -0.015928771 -0.120331526 -0.27203953 -0.10303563 0.09639904
0.054558296 -0.082675256 -0.16089715 -0.3640351 0.025679545 -0.043103527 0.08300202 0.17698492
0.18965444 -0.04850627 -0.18804234 -0.07965623 0.0013925957 -0.025964342 -0.2354753 0.11919497
-0.18482111 -0.12343701 -0.10459791 -0.2772835 0.15304793 0.0064923624 -0.27549437 -0.11020141
0.0756002 -0.20176001 -0.09519162 -0.15615287 -0.14896344 -0.14610979 -0.25725108 -0.001943286
-0.26963347 0.23885116 0.05172113 0.16480617 0.20546792 0.1170686 -0.19947366 0.016169285
-0.29319268 0.09141504 -0.12717447 -0.052525748 0.13556214 -0.15152562 -0.13591835 -0.06326677
-0.15755363 0.1103412 -0.046518017 0.17922695 0.082265824 -0.22204407 -0.2424593 -0.047404874

f0.2.bias f4 [256]
00000000: 8378 5d3d 936f f6bd 3cb9 093c 564a 81bd
00000010: 4824 dbbc be7c 453e 0d0e e33d 3b04 9ebd
00000020: 3b7f afbd 45f4 193e ca56 093e c055 213e
00000030: 9c9c 7abd f9b2 4d3e ddc2 c83d b516 78bc
00000040: da59 27bd 7d30 29bc d3e0 6dbd f9bc 093d
00000050: e304 36bd a4a0 eb3d 2b7f 95bc 970e 863d
00000060: 8ec9 1bbd 8ec7 b7bd 1724 873d b019 8cbc
00000070: 427c 43be 95ad 21bd ad76 c33d 2ff8 a23d
00000080: 4d61 f23d 76cc 0b3e 8118 64ba 4a9e b53d
00000090: 0dd4 583d 430d 2e3e 4abf 153e 36bf 3e3e
000000a0: 9f43 38bd 2b2f 6fbb 6b1a 923e 4a33 4c3e
000000b0: 7ab5 7cbb d5c9 d33d 8ad1 753d d763 26bc
000000c0: dc95 17bd 7f75 d3bd ab32 29be 49ac e03d
000000d0: c0d9 703e b3ae fc3c 2793 7abd 6135 a83d
000000e0: abb6 5a3e 8329 86bd c789 973d 5cce 503e
000000f0: dd2d 113d 2d5c 8dbd 7061 6c3e 0b50 2e3d
00000100: 1bfc 173e 2a14 8ebd 085f 48bd b4c4 3f3b
00000110: 78bf 3ebd 6fa1 193c 0028 043e 025d e03d
00000120: 10f3 a13d 9c32 2e3e 9e8d 3a3e b515 91bd
00000130: ce3e 983c f89e dd3d 35f0 b6bd 88f1 bdbc
00000140: 816c 793e edd0 f3bd 1087 3dbc 903f bbbc
00000150: d92e a33d a2a3 e63c 571d 323e 8294 1a3b
00000160: 8304 edbd fcaa 07be 4825 463e 9eed 213e
00000170: cfd4 2d3c 6c83 42be 424b 783e 5dfd 23be
00000180: 97be abbc ca8a 413e 5889 463d 6c6d 823d
00000190: 49fb c4bd 0944 ad3e 5f25 17bd 33ac 9abb
000001a0: 1441 febc e909 90bc 990b 17be b8b7 ff3d
000001b0: a93d 563d 75ae 393e b9e0 983b a8a9 a0bd
000001c0: f675 debd 98ad 213e 15fb a93d af92 5e3e
000001d0: 7bfc 863d 5608 86bd f6d4 523d c0c8 3bbe
000001e0: 8b94 4fbc 6283 d03d 78a0 cd3d 1084 87bb
000001f0: 7097 073e 89d0 42bc 0bfe 38bd 16d5 3d3d
00000200: 90d3 07bd f266 c63c cd47 253d a60c bd3c
00000210: f9ae c43c 7968 6d3d 9a77 373c ddc4 8bbd
00000220: d051 433d 3402 173e 7170 c2bc d9d3 9c3e
00000230: 7632 9b3d 3d14 f23d 15e9 29bd 79f3 75bd
00000240: 3599 bd3d fa0c 90bd 02a5 62bd 49f0 c7bd
00000250: a442 3cbd eedd 143e fe78 f33e f6c1 fa3d
00000260: 758b e13c 95b5 083e 9ca4 aa3d 648c d93d
00000270: d2a3 c3bd cd1b 5e3e d7fd 593d 4412 cabc
00000280: 0f77 493e caca e03c 9b37 4fbb e864 a63d
00000290: ee99 113e 357f ca3d 8488 08be d1ac e83d
000002a0: 2e82 21be b0bc 203c 84c3 eebc 8945 0d3e
000002b0: eb39 203c 3ac3 a33d e327 573e be01 493e
000002c0: aee5 173e 1276 0a3e 12b1 4e3c d344 ef3c
000002d0: 37ea 9cbd 0c4e 743e 992d 4f3e 50ed 37bd
000002e0: 2c49 653e 7aae 8c3c 0a66 8b3d 024e 36be
000002f0: 0bab 21bd d3fb ecbc b860 763d 15db 163c
00000300: 6bba 33bd 197b 8bbd 1938 563d 164f d43c
00000310: 41d6 bb3c a3e1 82bd d90c 2e3d 0253 dfbc
00000320: 4fbb e8bd 5e81 443e dca3 a63c a5ed 4b3e
00000330: 4c1b debd 261e 2b3e 1ad6 c93d c4a9 c13d
00000340: 6f1f 5bbd 4b45 9b3d d592 a73d 13a9 88bd
00000350: b1ed c43d 21ab 323d e717 e93b 035f babd
00000360: 93c0 1cbd 22c7 1f3d 2e46 073e a7c9 f33c
00000370: 4c6f f93c a2e6 313e bb6a cfbc 10dc be3d
00000380: c7fd 92bc cbff 8cbd 95b8 653d d2f4 e1bd
00000390: 6406 823e 162d bc3c f583 86bd f798 1f3e
000003a0: 3a4f 243e a9dc a8bd 2c7b 843c 3105 723d
000003b0: 15b1 2c3d bb82 123e 9ffe 80bd 976c 9abd
000003c0: b50b 513e 3021 0d3e 4d4e d63d de3a 67bc
000003d0: 9753 ff3d 52ea 1bbe 938e 71bd 5840 e1bb
000003e0: 97fd 96bd ea57 87bd 573a 96bd 6b40 6e3e
000003f0: 615b 4d3e 09d1 e13d 5617 11be 708f 04bc
0.054070007 -0.12033 0.00840598 -0.063130066 -0.026750699 0.19285867 0.11086664 -0.07715651
-0.08569189 0.15034588 0.13412014 0.15755367 -0.06118451 0.20087804 0.09802792 -0.0151421325
-0.040857174 -0.010326502 -0.058075737 0.033627484 -0.044438254 0.11505249 -0.018249115 0.065457515
-0.038034014 -0.08973609 0.065986805 -0.017102093 -0.1909037 -0.03947218 0.0954412 0.079574935
0.11834965 0.13652214 -0.0008701161 0.08868082 0.052936602 0.16997246 0.14623752 0.18627629
-0.044986364 -0.003649662 0.2853578 0.1994144 -0.0038560317 0.10341231 0.060014285 -0.01015564
-0.03700815 -0.10325145 -0.16523235 0.10970361 0.23520565 0.030845022 -0.06117549 0.08213306
0.21358745 -0.065508865 0.07399326 0.2039122 0.03544413 -0.06902347 0.23084044 0.042556804
0.14842264 -0.0693744 -0.048918754 0.0029261531 -0.046569318 0.009376868 0.12905884 0.1095524
0.079076886 0.17011493 0.18218085 -0.070842184 0.018584635 0.108213365 -0.089325346 -0.02318646
0.24357797 -0.11905084 -0.011567846 -0.022857457 0.0796792 0.028154198 0.17394005 0.0023587053
-0.11573126 -0.13248819 0.19350159 0.158133 0.01060982 -0.18995446 0.24247459 -0.16014619
-0.020964904 0.189006 0.048470825 0.06368527 -0.09618241 0.3384097 -0.036900874 -0.004720235
-0.031036891 -0.01758285 -0.14750518 0.124862134 0.052304897 0.18132956 0.004665461 -0.07844859
-0.10862343 0.15788877 0.08299843 0.21735643 0.065911256 -0.06544559 0.051472627 -0.18338299
-0.012669693 0.10181309 0.100403726 -0.004135616 0.13241363 -0.011890539 -0.04516415 0.046345793
-0.033160746 0.02421901 0.040351678 0.02307732 0.024009215 0.05796096 0.011197949 -0.06824658
0.047685444 0.14746934 -0.023735257 0.30630377 0.07577984 0.118202664 -0.04148205 -0.060046647
0.092577375 -0.07033725 -0.055333145 -0.09762628 -0.04596199 0.14537784 0.47553247 0.12244026
0.027532319 0.13350518 0.08332178 0.106224805 -0.095527306 0.21690293 0.053220596 -0.024666913
0.19674323 0.027440447 -0.0031618837 0.08124715 0.14218876 0.09887544 -0.13333327 0.11361087
-0.15772316 0.009810612 -0.029145963 0.13796057 0.009779434 0.07996221 0.2101131 0.19629571
0.1483371 0.13521603 0.012615459 0.029207623 -0.076618604 0.23857898 0.20232238 -0.044904053
0.22391194 0.01717304 0.06806572 -0.17803195 -0.03946976 -0.028928673 0.060150832 0.009207507
-0.043878954 -0.068105884 0.052299593 0.025916617 0.022929313 -0.06390693 0.04249272 -0.02726126
-0.11363851 0.19189975 0.020341806 0.19914873 -0.1084505 0.1671072 0.0985529 0.09456208
-0.053496774 0.07581576 0.08182303 -0.06672873 0.096156485 0.043620232 0.007113445 -0.09100153
-0.03826959 0.039008267 0.13210365 0.029759241 0.030448578 0.17373136 -0.025319448 0.09319317
-0.017943276 -0.06884726 0.056084234 -0.11033024 0.253955 0.022970717 -0.065681376 0.15585695
0.16045848 -0.082452126 0.016172014 0.059086982 0.042161066 0.14307682 -0.06298565 -0.07540243
0.20414622 0.13782191 0.104641534 -0.014113156 0.12467115 -0.15226105 -0.05897386 -0.0068741255
-0.07372587 -0.06608565 -0.07335346 0.23266761 0.2005439 0.110261984 -0.14169058 -0.008090839

f0.4.weight f4 [100, 256]
00000000: 5401 10bc a044 a03c 1561 633d 67db 0f3d
00000010: 881e 8fbd c355 513d 1503 233d c4fe 3f3d
00000020: 042d 18be 34cf 8c3c 27e8 8ebc 827e 923c
00000030: 60fc 96bd f909 0ebd 037f 92bd 35e0 553a
00000040: 59a9 243d a031 a93c e5bb 1d3d 21c4 fa3c
00000050: e6a6 5b3d db43 debc 95d9 22bd 91dd 90bd
00000060: e2c8 68bd 5c81 b83b 69ba 3ebd a2ca 9bbd
00000070: 02da b23c dbc6 b63c fa00 88bd 2934 fd3b
00000080: ab20 04be 72f6 99bd f5b8 083d f436 d1bd
00000090: 74dd 2dbd 9226 83bd 0348 63bd 1455 80bd
000000a0: 34be fb3c 90ca 12bc 9fb8 873d 8090 8cbc
000000b0: 02b8 7abc eb16 d4bc 31f3 66bd a95f 65bb
000000c0: 8e04 0b3d bcd9 99bd 3b8b 333d 937f 17bd
000000d0: 18bb 3bbd 99ea 203d 64e1 053d 272b 87bd
000000e0: ea86 023d 940b 0cbd 5c63 efbd 2155 c53c
000000f0: 831b f13c bdc6 12bd 3f03 c7bd 1912 393d
00000100: 11a7 56bd 8ecd 1cbd eb92 b8bc 5511 d1bb
00000110: 2857 e83a 4379 f73c babb 06be 1d35 26bd
00000120: e281 c5bc 88f1 64bd 03e7 97bd 25cc 0cbd
00000130: f1fc 823d ed99 c9bd 3b0f 31bd a544 25bd
00000140: f26b 94bd 0ca3 563c 8335 9cbc d6f2 61bd
00000150: a3a8 803b d225 bebc 419d 0bbd 84dc 9cbd
00000160: 31e6 10bd 8df8 99bd 08ff cb3c 6535 773d
00000170: fbef 18bd 32a9 94bd 175e afbd 7e1d 54bd
00000180: e6b1 fb3c aa53 6cbd e2c5 993c a291 a2bd
00000190: af47 8b3c 302d 7a3c 8d72 66bd 3b04 ffbc
000001a0: 8115 223d 6d7d 0c3d 5db5 1c3d b870 3fbd
000001b0: b427 a9bd d238 6dbd cc5b c8bd e4b4 dfbb
000001c0: fad1 34bd c89a 85bd 4078 97bd c1f2 1e3d
000001d0: c950 243d e00c 4e3c 1759 23bd 9742 64bd
000001e0: 537b 69bb 688e 713d eb4d bfbd 2026 343c
000001f0: 99b2 8c3c f425 4a3d 76da 7abc 4c38 76bc
00000200: 4f3c d1bc f1c3 c7bd 2355 863d 73fb 11be
00000210: ae07 c0ba 3be8 0ebe fc10 28bd 63a8 4e3d
00000220: c730 89bd b978 31bd bf6e c93c 6968 fcbc
00000230: 4586 4f3b 446e 93bd e346 9cbb e841 7c3c
00000240: ff1d 5539 885a 863d 5990 bfbb 0517 293c
00000250: 3731 853c f782 71bd 04f7 a03c 7d9f 843c
00000260: f3ec a5bd 1c4c 923a 4841 b1bd 2968 f1bc
00000270: 3c77 bebc 78ff 90bc 11bf a2bc f4aa 9b3c
00000280: cad0 86bd 8f4f 4abd 6ca5 76bd 5232 03bd
00000290: f9c4 30bc f4a9 2dbc 9c36 24bd b3db b0bc
000002a0: d4c7 6dbb 6668 853b 4f3c 13bd ee48 17bd
000002b0: 4183 23bd c807 75bd 87df 86bd 0c27 51bd
000002c0: 63da 2f3d dcb6 a43c 0a39 34bb 6a54 01bd
000002d0: ca89 1a3d 6aaa ecbb 6b65 1fbd 2d9c cc3c
000002e0: 18d4 bbbd 62fa e7bc 1dc4 1bbe f22b d33c
000002f0: bce6 b5bb 19a1 4d3d 19a1 083d 4191 24bd
00000300: b293 1e3d 04a9 aebb 6977 b33b 3317 63bb
00000310: a643 a6bd ecaa d1bb 3f25 a13b c24a a5bd
00000320: 82f6 8ebd 014e debc 50cc abbc cf2d 88bd
00000330: c48f 803b f9d2 3ebd 2152 c93a a39d a8bd
00000340: f507 47bd 560c 74bd 1da1 ae3c 7ad4 1ebd
00000350: c49b e0bd cc18 6ebd 0acc 82bb 4e0b 5abd
00000360: 01b0 a4bd 2a46 e13c c23e 6ebc 3d50 5fbd
00000370: 58e4 16bd 8eba 84bc af18 b8bd 7446 cebc
00000380: a108 8fbd 522d 26bd e4d6 44bc 8235 493c
00000390: b4e9 213d 827b cebd 998a 90bc 0baa 4f3d
000003a0: a80f bbbd c0ab 153d 19b9 c5bd 6eba 183d
000003b0: 26f5 07be 5dd1 43bd f5a3 b2bc 64f8 7ebd
000003c0: 63b5 05bd 79bc c6bc 0b4e 16bd 2b28 623d
000003d0: 75b2 fabd e4f8 c0bc 6a90 903b 9a55 e9bc
000003e0: 959a 94bd 9a09 72bd c4d2 eebb c105 9abd
000003f0: 7650 c5bd 3690 b8bd a33c f4bb 0057 9c3c
-0.008789379 0.019563973 0.055512507 0.035121348 -0.06988245 0.05110718 0.03979786 0.046873823
-0.14860922 0.017188646 -0.017444683 0.01788259 -0.073723555 -0.03467748 -0.07153132 0.00081587146
0.040200565 0.020653546 0.03850927 0.0306111 0.053625964 -0.027131965 -0.039758284 -0.070735104
-0.0568322 0.005630655 -0.046564493 -0.076070085 0.02183247 0.022311619 -0.06640811 0.0077271652
-0.12903087 -0.07517709 0.033379514 -0.102155596 -0.042447522 -0.06403841 -0.055488598 -0.06266227
0.030730344 -0.0089594275 0.066270106 -0.017158747 -0.01530266 -0.025889834 -0.05638427 -0.0034999645
0.03393989 -0.07512233 0.043833952 -0.0369869 -0.045832723 0.03928623 0.032685652 -0.066000275
0.031866945 -0.03419073 -0.11688873 0.024088444 0.029432064 -0.035834063 -0.09717416 0.045183275
-0.05240542 -0.03828197 -0.022530993 -0.00638024 0.001772617 0.03020919 -0.1315755 -0.040577997
-0.024109785 -0.055894405 -0.07417109 -0.034374375 0.06395901 -0.09843812 -0.043227416 -0.040348668
-0.072471514 0.013100397 -0.019068485 -0.055163227 0.003926353 -0.023211394 -0.034085516 -0.076592475
-0.035375778 -0.075181104 0.024901882 0.060353655 -0.03733824 -0.07258834 -0.08562868 -0.05178594
0.030724477 -0.057696976 0.018771116 -0.079379335 0.017001955 0.015269563 -0.056261588 -0.031129947
0.03957129 0.034299303 0.0382589 -0.046738356 -0.08259526 -0.057915516 -0.09783134 -0.0068269838
-0.04414556 -0.06523663 -0.07395983 0.038805727 0.040116105 0.012576312 -0.039879885 -0.055727568
-0.0035626485 0.0589737 -0.093410335 0.010995418 0.017175006 0.0493526 -0.015310874 -0.015028071
-0.025541453 -0.0975417 0.06559207 -0.14256077 -0.0014650726 -0.13955776 -0.041031823 0.050453555
-0.06698757 -0.04332802 0.02458894 -0.030811505 0.0031665724 -0.07198766 -0.0047691925 0.015396573
0.00020324437 0.06560236 -0.005846065 0.01032043 0.016258819 -0.05896279 0.019649036 0.016189331
-0.08101835 0.0011161598 -0.086550295 -0.029468613 -0.023250215 -0.017699942 -0.019866498 0.019002415
-0.06582792 -0.04939228 -0.060216352 -0.03203041 -0.010789149 -0.010599602 -0.040091142 -0.021589136
-0.0036282437 0.004071283 -0.035946187 -0.036934786 -0.039920095 -0.059821874 -0.06585603 -0.05106263
0.04293288 0.020106725 -0.0027499818 -0.031574644 0.037729062 -0.0072224634 -0.03891508 0.024976814
-0.09171313 -0.028317634 -0.1521153 0.02577779 -0.0055511873 0.050202463 0.03335676 -0.040177587
0.038715072 -0.005330207 0.0054768813 -0.003465128 -0.08118372 -0.0063985493 0.00491777 -0.080708995
-0.069806114 -0.027136805 -0.020971447 -0.06649362 0.003923388 -0.046587918 0.0015359559 -0.08233192
-0.048591573 -0.059582077 0.02131706 -0.038776852 -0.1096721 -0.058129117 -0.0039916085 -0.053233437
-0.080413826 0.027499277 -0.01454133 -0.05451988 -0.03683886 -0.016202237 -0.08989083 -0.025180079
-0.06984068 -0.040570565 -0.012014125 0.012280824 0.039529517 -0.10082151 -0.017644214 0.050699275
-0.091338456 0.036540747 -0.09654445 0.03728717 -0.1327711 -0.047807086 -0.021806696 -0.062248603
-0.032643687 -0.024259793 -0.03669552 0.05521409 -0.12241069 -0.02355618 0.0044117467 -0.0284832
-0.07256047 -0.059091188 -0.007288309 -0.07520629 -0.09634487 -0.09011881 -0.0074535175 0.019084454

f0.4.bias f4 [100]
00000000: 8567 99bd 53bc bb3c e15a 06bd 5c50 8a3b
00000010: 57b3 123b 78dd 9bbd 82f8 b3bb 43e1 a03c
00000020: f7a3 51bd 32c0 a6bd b99d 1f3d c71d de3c
00000030: 2c48 01bd 6c13 28bd f0b7 2e3c a07d 46bb
00000040: 7577 413e 31b7 9abd 51f5 9ebd 31ed e1bb
00000050: 5a14 ae3c ec92 b7bd aa99 593c d817 80bd
00000060: d021 ab3b fb0d 3ebd fb86 d0bb b56a 21bd
00000070: 1b7c 99bc c8e5 90bd fdeb b1bd 5b8c 1e3c
00000080: 44e5 8fbd 068d 64bd 5495 f9bc 90d1 5bbd
00000090: e576 4bbd fcaa 61bd 4f58 423a 41ab 4abd
000000a0: 0f36 88bd 36e6 77bd 124a c2bc 798d b33c
000000b0: e969 19bc 66c2 32bd 67c5 b1bd 2bf1 bd3c
000000c0: 1b37 1d3c 5a76 fe3c 5e66 88bc c6f2 7ebd
000000d0: 4eb0 cebc 7e29 02bd d87b 5c3c a29b fc3c
000000e0: 21f0 1d3c 64f6 ca3b 527b 67bd 143d 20ba
000000f0: b3f2 2ab9 0a3a 52bd d987 43bc 456a 3dbc
00000100: 22cf b1bd 399d 71ba 2d13 64bd 1100 95bd
00000110: d70f 37bc 057b 183d daae 8b3c acf6 2abd
00000120: 6ee0 acbb de73 d03d 0b85 4ebd f425 bc3c
00000130: bb14 99bd b29d 99bd e0ea 993b 3fbc 733e
00000140: 5af1 94bd 9219 7cbd 096e 023d 9bb8 f7bc
00000150: b952 c03c d092 0cbd c509 3d3c 951b a7bc
00000160: 4ce7 6bbd 4099 58bd fcbc 79bd e61b 04bd
00000170: 0574 e23b a612 32bd 58b2 0dbd 7030 97bd
00000180: 404c 08bd 68ef d9bc b90b 693c 0fb0 eabc
-0.07490448 0.022916948 -0.032801513 0.0042210054 0.0022384727 -0.07610601 -0.005492271 0.019638663
-0.05118176 -0.08142127 0.038968775 0.027113808 -0.03156297 -0.041034147 0.010663971 -0.003028728
0.18893225 -0.07554472 -0.07761634 -0.0068947305 0.021249939 -0.0896357 0.013281265 -0.06254548
0.0052225366 -0.04640005 -0.006363747 -0.039408404 -0.018735936 -0.07075077 -0.08687589 0.009677018
-0.07026151 -0.055798553 -0.030466713 -0.05366665 -0.049673934 -0.055094704 0.00074136717 -0.049479727
-0.06650936 -0.06052228 -0.02371696 0.021918045 -0.00936363 -0.043642424 -0.0868023 0.023186287
0.009595658 0.031062294 -0.016650375 -0.062243246 -0.025230553 -0.03177785 0.013457261 0.03083593
0.009639771 0.006193923 -0.05651409 -0.0006112617 -0.00016302876 -0.05132488 -0.011934244 -0.011560981
-0.086820856 -0.00092168484 -0.05568235 -0.07275403 -0.01117321 0.037226696 0.01705115 -0.04173915
-0.0052757775 0.1017835 -0.05041985 0.022967316 -0.07474657 -0.07500781 0.0046971887 0.23802279
-0.07272597 -0.061547823 0.03184322 -0.030239394 0.023476945 -0.0343197 0.011537974 -0.020398894
-0.05759363 -0.052880526 -0.060971245 -0.03225317 0.0069108033 -0.043474816 -0.03459391 -0.073822856
-0.033275843 -0.026603416 0.014223986 -0.028648404
