model/model.pth (torch, 504595 bytes, 4 tensors)

linear1.weight f4 [256, 390]
0.044390634 -0.023155957 0.04905855 -0.04219447 -0.03187883 0.031019367 0.00484873 0.026480382
0.01089877 0.01031706 0.017448599 0.0075934497 -0.026097246 -0.015794626 -0.006263269 0.0270986
-0.013369316 -0.05005327 -0.031831976 -0.037208803 0.022895522 -0.032598127 0.035499305 -0.0059563606
0.022971684 -0.050450083 -0.049771834 -0.0365091 -0.048714474 0.021116717 -0.017930176 0.041427493
-0.04558744 0.03954296 0.03951788 0.0064448803 -0.032307822 0.036855772 -0.02243689 -0.019550122
0.047969583 0.039585177 0.019646076 0.012013517 -0.010790253 -0.04053434 -0.0031236606 0.007004116
-0.010475678 0.0072723436 -0.00026010233 -0.014181024 0.042615876 -0.04698481 0.049873866 -0.041623656
0.034249026 -0.02555106 -0.040336 -0.011150125 -0.00261111 0.025347574 -0.017596545 0.044866487
-0.010801517 0.03435494 -0.028758507 -0.031486094 0.01773624 0.008661886 -0.024439145 -0.04158014
0.022354415 0.017562408 -0.015245326 -0.008347589 0.034530323 -0.027185349 -0.046763238 0.03413957
0.036410317 0.016402515 0.043766234 0.010183076 0.047488596 -0.00084431085 0.033436958 0.030270401
0.017661177 0.038145725 -0.0100374 0.040084727 0.010691733 -0.018592738 0.032423854 0.03138747
0.033193056 0.036864188 -0.024310594 -0.021442309 -0.0044288384 -0.0382194 0.024643019 0.03518339
-0.023969483 -0.011830982 -0.042519234 -0.019383052 0.02174588 -0.0042187837 -0.025960425 -0.03241526
-0.0061150696 0.023927318 -0.045172364 -0.0041984227 0.028541775 -0.0043516993 -0.041508984 0.02208344
-0.047564354 -0.0072504617 0.046251643 -0.036368556 0.04712387 -0.007808629 0.0031291174 0.0040457924
-0.021897689 0.029034497 -0.004281043 0.03270631 -0.03959139 -0.012927253 -0.0151932975 0.022995932
-0.018513793 0.048296325 -0.022307295 -0.03460148 -0.037508175 -0.007898505 -0.0013440762 -0.048520803
-0.046126936 0.023792043 0.03498259 -0.0021227957 0.02092371 0.034021195 0.026033744 -0.034227446
-0.04490541 -0.028773688 0.023117831 0.030843828 -0.005998362 0.010752206 0.039132398 0.023269104
-0.0064532105 0.042947337 0.046830006 -0.019914774 0.017196845 -0.045115985 -0.033431686 0.013653998
0.0036684151 0.039226983 0.04648374 0.04275325 0.021373536 -0.010849736 -0.014331518 -0.031729985
0.042253867 -0.032951586 -0.0020127823 0.012766575 0.0500384 0.031172281 -0.018011015 -0.03488478
0.030825092 -0.036581714 -0.016919756 0.035028953 -0.009433459 0.043770585 -0.044859566 -0.020778729
0.009219117 0.0042043747 -0.011825079 0.023827422 -0.025004271 0.0211967 0.0039920504 0.007390198
0.026461441 -0.00081977894 -0.0071745417 0.025983388 -0.03785968 0.046588767 0.027657824 0.019654134
-0.03129421 0.029607352 0.016245708 -0.030809402 0.035055447 -0.020617357 0.040135734 -0.03085511
0.0025622211 -0.0005298267 0.034019534 0.036135256 0.026599288 -0.04969852 -0.020205276 0.020582618
-0.011035235 0.039832614 -0.008095671 0.015041573 -0.020907274 -0.01002083 -0.046143245 0.040673714
0.03476765 -0.0037991574 0.03454958 -0.029350117 -0.041225564 0.023169365 -0.041074105 0.018462356
-0.022232082 0.046647485 0.02749495 0.010966438 -0.027494913 0.026127277 -0.012693619 -0.015201779
0.029508257 -0.034471087 -0.039253727 0.034877934 -0.037244838 0.019084703 -0.0010807203 0.0007741981
00000000: f4d2 353d 90b1 bdbc 9ef1 483d 1cd4 2cbd
00000010: 6093 02bd 541c fe3c 18e2 9e3b 63ed d83c
00000020: c190 323c e308 293c 5df0 8e3c 79d2 f83b
00000030: e4c9 d5bc bb63 81bc 1c3c cdbb e2fd dd3c
00000040: fa0a 5bbc a804 4dbd 3f62 02bd 4268 18bd
00000050: 648f bb3c 9d85 05bd b867 113d 932d c3bb
00000060: 1d2f bc3c bfa4 4ebd 8ddd 4bbd 918a 15bd
00000070: d488 47bd f7fc ac3c 4ee2 92bc e0af 293d
00000080: e5b9 3abd ccf7 213d 80dd 213d 932f d33b
00000090: 3555 04bd 14f6 163d 92cd b7bc 9427 a0bc
000000a0: c17b 443d 1124 223d cff0 a03c 58d4 443c
000000b0: 9ac9 30bc 5607 26bd 54b6 4cbb c982 e53b
000000c0: 2ea2 2bbc d74c ee3b 585e 88b9 8757 68bc
000000d0: fc8d 2e3d 2573 40bd 8a48 4c3d 917d 2abd
000000e0: b548 0c3d 7550 d1bc 5d37 25bd 04af 36bc
000000f0: 281f 2bbb b7a5 cf3c a126 90bc ecc5 373d
00000100: d9f8 30bc c4b7 0c3d f696 ebbc 90f7 00bd
00000110: 974b 913c 95ea 0d3c 9a34 c8bc f04f 2abd
00000120: 9b20 b73c 0adf 8f3c 88c7 79bc 53c4 08bc
00000130: ab6f 0d3d cfb3 debc cf8a 3fbd efd5 0b3d
00000140: fc22 153d 915e 863c 3944 333d ebd6 263c
00000150: 6783 423d be54 5dba 31f5 083d a2f9 f73c
00000160: 2cae 903c b13e 1c3d e873 24bc e22f 243d
00000170: 612c 2f3c cc4f 98bc e0ce 043d 2690 003d
00000180: 71f5 073d e7fe 163d 0327 c7bc c8a7 afbc
00000190: ca1f 91bb f28b 1cbd 28e0 c93c 751c 103d
000001a0: a65b c4bc bcd6 41bc a628 2ebd 35c9 9ebc
000001b0: 6a24 b23c b93d 8abb f5aa d4bc ddc5 04bd
000001c0: ec60 c8bb 3903 c43c a806 39bd ec92 89bb
000001d0: 71d0 e93c b398 8ebb 5305 2abd 55e8 b43c
000001e0: d7d2 42bd 4895 edbb 5d72 3d3d 32f7 14bd
000001f0: f604 413d 87df ffbb e111 4d3b 9192 843b
00000200: c862 b3bc c1d9 ed3c fe47 8cbb 0df7 053d
00000210: 952a 22bd d4cc 53bc 4fed 78bc f761 bc3c
00000220: 3daa 97bc 5ed2 453d cabd b6bc 48ba 0dbd
00000230: 2ca2 19bd bb68 01bc b72b b0ba c0bd 46bd
00000240: 99ef 3cbd 88e7 c23c e749 0f3d 9a1e 0bbb
00000250: 3368 ab3c cf59 0b3d b844 d53c 1432 0cbd
00000260: bcee 37bd ccb6 ebbc 9b61 bd3c 32ac fc3c
00000270: e88d c4bb 052a 303c 4b49 203d d99e be3c
00000280: 7475 d3bb 8ce9 2f3d d2d0 3f3d 4f24 a3bc
00000290: 66e0 8c3c 8acb 38bd aaef 08bd 05b5 5f3c
000002a0: cb69 703b 79ac 203d bc65 3e3d 081e 2f3d
000002b0: 8e17 af3c 17c3 31bc bece 6abc 4df7 01bd
000002c0: 6412 2d3d 3ef8 06bd e2e8 03bb e62a 513c
000002d0: 11f5 4c3d 035d ff3c d68b 93bc 58e3 0ebd
000002e0: e784 fc3c b5d6 15bd 4d9b 8abc 857a 0f3d
000002f0: cb8e 1abc c948 333d aabe 37bd 2738 aabc
00000300: c80b 173c dac4 893b fabd 41bc ba31 c33c
00000310: c2d5 ccbc b4a4 ad3c bfcf 823b 7929 f23b
00000320: aac5 d83c 6fe6 56ba 6b18 ebbb 1ddb d43c
00000330: c012 1bbd ddd3 3e3d a992 e23c b501 a13c
00000340: 5c2e 00bd 1e8b f23c b815 853c 0064 fcbc
00000350: 4d96 0f3d bbe5 a8bc 5e65 243d dbc3 fcbc
00000360: f0ea 273b 11e4 0aba 1158 0b3d 9002 143d
00000370: c0e6 d93c ad90 4bbd 8985 a5bc e19c a83c
00000380: 21cd 34bc 8627 233d b5a3 04bc ee70 763c
00000390: bb45 abbc 682e 24bc b300 3dbd 7b99 263d
000003a0: 8668 0e3d 49fb 78bb dc83 0d3d a86f f0bc
000003b0: 23dc 28bd aecd bd3c 523d 28bd 5e3e 973c
000003c0: 0e20 b6bc 6f11 3f3d 173d e13c 93ac 333c
000003d0: 033d e1bc df08 d63c e6f8 4fbc e210 79bc
000003e0: 4dbb f13c 8e31 0dbd 84c8 20bd 2adc 0e3d
000003f0: 0b8e 18bd 8657 9c3c f5a6 8dba 8ef3 4a3a

linear1.bias f4 [256]
-0.03686416 -0.049511943 -0.030309185 -0.036670756 -0.042176127 -0.03459325 0.007775634 0.011029753
0.029112814 0.039325044 0.011152817 0.01252113 0.048450302 -0.032494657 0.028313685 0.026835661
0.0064556794 -0.016297167 0.019613871 0.0212518 -0.015472415 -0.04974644 0.04898873 0.004977589
0.0064735226 0.019626077 0.0017861216 -0.03391546 0.024122307 0.042855624 -0.0042168642 -0.04834827
-0.009875618 -0.021253195 -0.016863031 -0.013991536 -0.045866694 -0.034859803 -0.04064072 -0.02189545
0.009982034 -0.011684244 0.0070229857 -0.017926862 0.0011464144 0.013668479 -0.03988167 -0.033322398
0.0059046284 0.022105467 0.025458166 0.0071155843 -0.016059587 -0.035979 -0.0035969864 0.028415693
0.026332865 -0.027609665 0.001934629 -0.019648671 -0.001988347 0.0052136844 -0.00921424 -0.010187259
-0.018094892 0.00045039973 0.021419376 0.033074934 0.027655046 -0.008466542 0.008279009 0.034486946
-0.03329675 0.008531657 -0.022075122 -0.024928382 -0.04890995 -0.009515867 -0.02977104 0.04511977
-0.0022249497 -0.029302537 0.025419708 0.03691025 -0.03105753 -0.036614418 -0.007790876 -0.049439233
0.043908868 -0.03897488 0.01761496 -0.00039054282 -0.03767575 0.024822788 -0.003474357 0.02651598
0.031457085 -0.010994851 0.037208382 0.030539805 -0.048539612 0.048143387 0.022025654 -0.019562237
-0.02930355 0.02764461 -0.020705374 0.01589434 0.038154364 0.028510284 0.029329604 -0.03510089
-0.0027196142 0.017823555 0.001231757 -0.01056818 -0.018043244 0.025185285 0.01577016 0.027195774
-0.040790096 -0.020200742 -0.01152251 -0.036214635 -0.022786368 0.041247662 -0.021298347 0.020055983
-0.021918943 0.033522878 0.043106057 -0.04053929 0.04659289 -0.023792472 -0.046163004 -0.006940456
-0.008474945 -0.02639682 -0.04853154 0.033477653 0.015990049 -0.004470085 0.035945375 -0.004887115
-0.00942651 -0.0395418 0.020958805 0.046282012 -0.015913108 0.01366053 -0.009367891 0.047796723
-0.01708726 0.01597166 -0.041101605 -0.02775653 0.02659692 -0.021879906 0.0055592624 0.047953356
0.034946598 0.03721623 0.009128209 -0.017290233 0.050609708 0.044376593 -0.0057631535 -0.041997846
0.018709222 0.014397815 -0.013667882 -0.03584635 0.02553044 0.0040473803 0.008012279 -0.027536312
-0.031232385 -0.01828656 0.008952937 -0.0025710645 0.04751783 -0.041092314 0.0037745049 -0.03212179
0.023660317 -0.039389856 0.03808304 0.0069483942 0.017111218 0.030756421 -0.0066378214 0.0075904857
-0.02448292 -0.0045572566 -0.0009471228 0.0056470977 -0.023931617 -0.021622272 -0.03615968 -0.038109683
-0.040603995 0.03624871 0.03536115 -0.020974861 -0.038866024 0.02124379 -0.0031693862 0.028786492
0.0049781324 -0.0145289255 0.046663728 -0.030334756 0.026263785 -0.0030195145 -0.04389906 -0.019596439
0.047271974 0.021197267 0.011858019 -0.004268415 -0.04784965 0.0045619407 0.039405793 -0.046360467
0.033995945 0.0396791 0.02430088 0.0065016462 -0.03969818 -0.020122698 0.0045805206 0.041592877
-0.024448676 -0.022058727 0.007602637 0.030305743 0.008851151 -0.013929005 0.04135448 0.0060523394
-0.023016812 -0.034000468 -0.04510536 0.015855588 -0.002600824 -0.050186455 0.0010947912 0.021017678
0.041319743 0.050604288 0.02521851 -0.011549041 0.0041446746 0.025789667 -0.048874866 -0.0062595927
00000000: e0fe 16bd 09cd 4abd f84a f8bc 1334 16bd
00000010: e0c0 2cbd a7b1 0dbd bfca fe3b 23b6 343c
00000020: ff7d ee3c 4c13 213d 4eba 363c 6d25 4d3c
00000030: d373 463d 1e19 05bd 1af2 e73c 76d6 db3c
00000040: 2a8a d33b a381 85bc 45ad a03c 4118 ae3c
00000050: 0380 7dbc ecc2 4bbd 68a8 483d 0b1b a33b
00000060: d81f d43b dec6 a03c 4c1c ea3a f0ea 0abd
00000070: 259c c53c 6189 2f3d 9f2d 8abb d608 46bd
00000080: 58cd 21bc 2e1b aebc 5724 8abc c13c 65bc
00000090: b7de 3bbd 27c9 0ebd e276 26bd 165e b3bc
000000a0: af8b 233c 456f 3fbc 1321 e63b 5bdb 92bc
000000b0: 4943 963a c2f1 5f3c f65a 23bd 117d 08bd
000000c0: 9d7b c13b 8616 b53c a58d d03c d929 e93b
000000d0: 658f 83bc b75e 13bd 6bbb 6bbb 07c8 e83c
000000e0: 05b8 d73c aa2d e2bc 6193 fd3a 40f6 a0bc
000000f0: ed4e 02bb 8ed7 aa3b 53f7 16bc 76e8 26bc
00000100: bd3b 94bc a123 ec39 b077 af3c 9579 073d
00000110: d68c e23c 40b7 0abc aea4 073c 2f42 0d3d
00000120: 2c62 08bd 5dc8 0b3c e3d6 b4bc 9b36 ccbc
00000130: cd55 48bd 70e8 1bbc 65e2 f3bc 82cf 383d
00000140: 76d0 11bb e00b f0bc fe3c d03c 342f 173d
00000150: 5c6c febc 00f9 15bd 9b4a ffbb cb80 4abd
00000160: c9d9 333d 20a4 1fbd 404d 903c c5c1 ccb9
00000170: e351 1abd 2959 cb3c 0ab2 63bb 0a38 d93c
00000180: 25d9 003d bf23 34bc d167 183d 9d2e fa3c
00000190: 79d1 46bd 0032 453d 256f b43c fc40 a0bc
000001a0: 000e f0bc f376 e23c 519e a9bc d934 823c
000001b0: c047 1c3d 668e e93c a344 f03c f3c5 0fbd
000001c0: 8e3b 32bb b402 923c e872 a13a 2926 2dbc
000001d0: 6dcf 93bc 5f51 ce3c 6c30 813c acc9 de3c
000001e0: 8413 27bd 077c a5bc e9c8 3cbc cc55 14bd
000001f0: 7aaa babc 4ff3 283d df79 aebc 724c a43c
00000200: 5b8f b3bc 494f 093d fa8f 303d 870c 26bd
00000210: 30d8 3e3d 6ee8 c2bc 6b15 3dbd c46c e3bb
00000220: 7fda 0abc 253e d8bc 02c9 46bd dd1f 093d
00000230: 90fd 823c ca79 92bb 753b 133d 1824 a0bb
00000240: a671 1abc 95f6 21bd cdb1 ab3c 3592 3d3d
00000250: 355c 82bc 6ad0 5f3c c87b 19bc 7fc6 433d
00000260: 95fa 8bbc 00d7 823c 285a 28bd aa61 e3bc
00000270: c9e1 d93c 7d3d b3bc 792a b63b bd6a 443d
00000280: 2a24 0f3d 0c70 183d 7c8e 153c 3fa4 8dbc
00000290: 204c 4f3d 3bc4 353d d6d8 bcbb ef05 2cbd
000002a0: 1544 993c d0e4 6b3c 41ef 5fbc 9fd3 12bd
000002b0: 3725 d13c e39f 843b ef45 033c d593 e1bc
000002c0: 0fdb ffbc b2cd 95bc 57af 123c 4e7f 28bb
000002d0: 0ea2 423d 6a50 28bd af5d 773b 2392 03bd
000002e0: 48d3 c13c 4257 21bd f6fc 1b3d 5baf e33b
000002f0: d32c 8c3c e4f4 fb3c 1582 d9bb 9cb9 f83b
00000300: 6890 c8bc 0a55 95bb 5648 78ba 4a0b b93b
00000310: 3d0c c4bc 3121 b1bc 2c1c 14bd e618 1cbd
00000320: 6050 26bd 8779 143d dad6 103d 79d3 abbc
00000330: fb31 1fbd 7507 ae3c 7ab5 4fbb a6d1 eb3c
00000340: 9a1f a33b bb0a 6ebc 7722 3f3d 9880 f8bc
00000350: 2627 d73c 0ce3 45bb 80cf 33bd b688 a0bc
00000360: 42a0 413d e4a5 ad3c 2348 423c 0fde 8bbb
00000370: fffd 43bd 557c 953b f867 213d 79e4 3dbd
00000380: 553f 0b3d 8d86 223d a412 c73c c30b d53b
00000390: 8f9a 22bd 5bd8 a4bc 3118 963b 4b5d 2a3d
000003a0: 9748 c8bc 81b4 b4bc 8b1f f93b c043 f83c
000003b0: 6b04 113c 7b36 64bc 5163 293d b452 c63b
000003c0: c18d bcbc 1344 0bbd 66c0 38bd 94e3 813c
000003d0: 9672 2abb 5090 4dbd 197f 8f3a 442d ac3c
000003e0: e43e 293d 7146 4f3d 0c97 ce3c 3038 3dbc
000003f0: 0dd0 873b da44 d33c 0331 48bd 451d cdbb

linear2.weight f4 [100, 256]
-0.058864288 -0.009333037 -0.045245983 -0.012373932 -0.005075574 0.016318128 0.0033135712 0.019775264
-0.020825498 -0.029092796 -0.02049753 0.047140613 0.047571503 0.032431565 -0.031189136 3.324449e-05
-0.05768115 -0.038754746 0.030200735 0.008637764 0.033129074 -0.03798254 -0.043015152 -0.037042893
0.001956217 -0.02022262 -0.026194863 -0.046756245 0.04182846 -0.04907321 0.026858017 -0.036394835
-0.020180807 0.018541083 -0.02256336 -0.05801434 -0.02745869 -0.056587636 -0.021516182 0.042449385
-0.05353018 0.046840668 0.0068028346 0.05667021 0.026707865 0.03841704 0.05987782 0.013723217
-0.042678416 0.043274157 0.029693045 -0.00852415 -0.0070950463 0.03622797 -0.054508917 0.039345056
0.03107915 0.02450116 -0.019075207 -0.039535366 0.05831726 -0.0379029 0.013121337 0.04321052
-0.0015506372 0.02671238 0.06162198 -0.013760194 -0.02980005 0.012971602 -0.031236172 -0.011273183
0.0340072 0.05074653 0.025873303 0.057783842 0.0610862 -0.060744457 0.010624826 -0.016302556
-0.020430565 0.030749686 -0.061951242 0.01171267 -0.03146735 0.006109558 0.039574288 0.027524613
0.032587744 -0.043932125 -0.023076855 -0.022875458 0.028122187 0.047404073 -0.015924506 0.029007941
-0.0015319511 -0.037482142 -0.02677802 -0.03545107 -0.028014995 0.043887675 -0.021025933 -0.060346015
0.035589203 -0.033028714 -0.039907873 -0.034158558 -0.0063574463 0.0001283586 -0.05568181 -0.044504307
-0.034708478 -0.061848015 -0.0315146 0.028683878 -0.00023562461 0.04826101 -0.010403663 -0.025568113
-0.024930537 -0.04037197 -0.05725325 0.030678816 0.018725075 0.011934198 -0.012723833 -0.043200925
0.038026392 -0.033424176 0.023342058 -0.047222324 -0.00093942136 0.060246423 0.035634838 0.050979927
-0.055943914 0.013401948 0.013562895 0.014173873 0.060667105 -0.0081761405 0.040840372 -0.0049688295
0.038211912 0.046358332 0.0068270937 -0.032505594 -0.052027397 0.061971024 0.061608158 -0.027759723
0.032622963 -0.030430488 -0.016321875 0.05757089 0.061151832 -0.0622089 0.019601397 0.033997044
-0.03818307 -0.03123694 0.017586581 -0.056422263 -0.0403871 0.031164587 0.026872702 0.004592411
-0.0012454987 0.012144469 -0.030519262 -0.021954477 -0.014681041 0.013276324 -0.057144977 0.05717729
-0.04682689 0.005345814 -0.043069057 -0.056768626 0.05853255 -0.035038896 0.0012138858 0.038264267
0.0052844435 0.043957315 -0.060903914 -0.037142336 0.036383368 0.05027201 -0.05641348 0.037729792
-0.020365 0.062329322 0.041340493 -0.033666484 -0.00566224 0.059633605 0.025610946 -0.023330107
0.014496446 0.03164787 0.03299368 -0.03838583 -0.032459 -0.024520278 -0.030576304 -0.050895408
0.04904846 0.035291106 -0.0053277537 0.047641568 -0.04199999 0.026292033 -0.01760456 -0.010842107
-0.03509996 0.04280723 -0.017200962 -0.01696983 0.061849512 -0.0376482 -0.032566868 -0.03623998
-0.04860784 0.033321798 -0.037736386 0.03596971 -0.048230357 -0.033783272 0.018859245 0.004235618
-3.6798418e-05 -0.056285016 0.00070569664 -0.048633076 0.013632104 -0.05425322 0.016411312 -0.019800365
0.05827029 0.009014852 -0.05924505 -0.021274768 0.042138487 -0.043686613 0.059739545 0.021099553
-0.047599584 0.060935594 -0.030724518 0.05665058 0.061829112 -0.009571552 0.05265805 -0.00080266595
00000000: ae1b 71bd 98e9 18bc da53 39bd 08bc 4abc
00000010: 0051 a6bb 98ad 853c 8028 593b bcff a13c
00000020: 3c9a aabc 0454 eebc 70ea a7bc 8416 413d
00000030: 56da 423d f6d6 043d 5c80 ffbc 0070 0b38
00000040: 1243 6cbd 4cbd 1ebd 8867 f73c 6885 0d3c
00000050: 5ab2 073d 9493 1bbd a830 30bd 4aba 17bd
00000060: e033 003b e8a9 a5bc 9c96 d6bc 7a83 3fbd
00000070: 5254 2b3d fe00 49bd 5805 dc3c c012 15bd
00000080: 3852 a5bc 78e3 973c ccd6 b8bc 72a0 6dbd
00000090: 0cf1 e0bc 70c8 67bd b442 b0bc 68df 2d3d
000000a0: 7642 5bbd 00dc 3f3d 50ea de3b 061f 683d
000000b0: 74ca da3c 305b 1d3d 7242 753d 58d7 603c
000000c0: 90cf 2ebd 3e40 313d d43e f33c e0a8 0bbc
000000d0: 907d e8bb c863 143d be44 5fbd 4828 213d
000000e0: b499 fe3c a8b6 c83c 9c43 9cbc d6ef 21bd
000000f0: 14de 6e3d 1240 1bbd e0fa 563c 84fd 303d
00000100: c03e cbba ecd3 da3c 5467 7c3d 7072 61bc
00000110: 3c1f f4bc d886 543c 00e3 ffbc 28b3 38bc
00000120: 224b 0b3d 98db 4f3d 40f4 d33c c0ae 6c3d
00000130: 8635 7a3d 2ecf 78bd c013 2e3c f08c 85bc
00000140: 005e a7bc c4e6 fb3c 96c0 7dbd 80e6 3f3c
00000150: e8e3 00bd b032 c83b a618 223d 4c7b e13c
00000160: ba7a 053d 2cf2 33bd ac0b bdbc 5065 bbbc
00000170: 8060 e63c c62a 423d 1c74 82bc 10a2 ed3c
00000180: c0cb c8ba e086 19bd 945d dbbc 2435 11bd
00000190: b47f e5bc 90c3 333d 943e acbc 622d 77bd
000001a0: fcc5 113d 1e49 07bd 7076 23bd d8e9 0bbd
000001b0: 2052 d0bb 0098 0639 9c12 64bd 264a 36bd
000001c0: 7a2a 0ebd 5854 7dbd 7415 01bd 74fa ea3c
000001d0: 0012 77b9 56ad 453d 2074 2abc 3874 d1bc
000001e0: 203b ccbc 145d 25bd 6282 6abd 2452 fb3c
000001f0: 5465 993c a887 433c a077 50bc 74f3 30bd
00000200: 90c1 1b3d cae7 08bd d837 bf3c 326c 41bd
00000210: 8043 76ba f4c4 763d d6f5 113d 54d0 503d
00000220: 7225 65bd d893 5b3c e836 5e3c 8839 683c
00000230: 127e 783d 38f5 05bc 3c48 273d 90d1 a2bb
00000240: 1884 1c3d 3ce2 3d3d d0b5 df3b 9624 05bd
00000250: ae1a 55bd 54d5 7d3d d658 7c3d 5c68 e3bc
00000260: a89f 053d 5c49 f9bc 74b5 85bc 74cf 6b3d
00000270: 587a 7a3d c2ce 7ebd 1c93 a03c 7c40 0b3d
00000280: da65 1cbd 9ce4 ffbc bc11 903c 081b 67bd
00000290: f26c 25bd e04c ff3c 2424 dc3c f07b 963b
000002a0: 0040 a3ba 98f9 463c 8803 fabc e0d9 b3bc
000002b0: c088 70bc f084 593c da10 6abd bc32 6a3d
000002c0: 8ecd 3fbd f02b af3b 2e69 30bd 3886 68bd
000002d0: d4bf 6f3d f284 0fbd 401b 9f3a feba 1c3d
000002e0: 2029 ad3b 960c 343d 6276 79bd 9022 18bd
000002f0: ba06 153d 06ea 4d3d d211 67bd 8e8a 1a3d
00000300: 80d4 a6bc 084d 7f3d a654 293d dee5 09bd
00000310: 508a b9bb 5e42 743d 0cce d13c c81e bfbc
00000320: 8082 6d3c 32a1 013d 6224 073d 763a 1dbd
00000330: baf3 04bd c0de c8bc 287b fabc b477 50bd
00000340: 0ae7 483d 688d 103d 7094 aebb ce23 433d
00000350: 2e08 2cbd 6462 d73c 7037 90bc 18a3 31bc
00000360: fac4 0fbd a256 2f3d 08e9 8cbc 5004 8bbc
00000370: ea55 7d3d 0035 1abd d664 05bd 6070 14bd
00000380: 0419 47bd 707c 083d 7891 1abd fa54 133d
00000390: 328d 45bd 5460 0abd b47e 9a3c f0ca 8a3b
000003a0: 0058 1ab8 1e8b 66bd 80fe 383a 7a33 47bd
000003b0: 3059 5f3c a038 5ebd 0471 863c 6034 a2bc
000003c0: d4ac 6e3d 08b3 133c f0aa 72bd 6c48 aebc
000003d0: 6899 2c3d bcf0 32bd 74b1 743d f8d8 ac3c
000003e0: c8f7 42bd 9a97 793d fcb1 fbbc 700a 683d
000003f0: 8640 7d3d 00d2 1cbc f8af 573d 006a 52ba

linear2.bias f4 [100]
-0.023239814 -0.047116272 0.044745974 -0.045070305 8.6933374e-05 0.009144716 0.04426927 -0.01649373
0.045798294 -0.03562577 0.032023415 0.0610732 0.040307537 -0.011878088 0.001779303 -0.011120483
-0.026040606 0.03047067 -0.059674308 0.014774106 -0.02842898 0.02807241 -0.036519594 0.05986456
-0.060402438 0.02855596 -0.05165445 -0.016397648 -0.0045148954 -0.015896477 0.021714494 0.038783662
-0.01740715 0.013635077 -0.05833596 0.023137748 0.002452612 0.062304452 0.0050296336 -0.0074615926
0.0041164234 -0.030395456 -0.017846413 -0.017332569 -0.05720505 0.012136139 -0.050021045 0.05277183
-0.0036106557 0.030525647 -0.020500101 -0.009940736 0.0005731359 -0.03198991 0.05874174 -0.046612695
0.036452323 -0.03966543 -0.008817583 -0.014002904 0.030188464 0.04312166 0.045529194 -0.04395491
0.023700364 -0.0431045 0.056897797 -0.026243493 -0.028919682 0.039684013 -0.029235058 -0.061824918
0.02534622 0.02765096 0.017858662 0.009540677 0.04328738 -0.05361174 0.05480337 -0.0069047883
0.04257551 -0.039923273 -0.011648729 -0.02054049 0.062441304 -0.04284226 -0.05718725 -0.0008455068
-0.05334732 0.011357769 -0.048381254 -0.009079635 -0.0016987398 -0.053714886 -0.06046834 -0.04051049
-0.051056907 -0.01210054 -0.006896965 -0.039109215
00000000: 6c61 bebc fefc 40bd 8e47 373d a49b 38bd
00000010: 0050 b638 b8d3 153c b253 353d dc1d 87bc
00000020: fe96 3b3d 54ec 11bd fc2a 033d e427 7a3d
00000030: 8419 253d 509c 42bc 8037 e93a b032 36bc
00000040: 1c53 d5bc a09d f93c 0c6d 74bd 180f 723c
00000050: e4e3 e8bc 1cf8 e53c 9295 15bd 8a34 753d
00000060: 8c68 77bd 30ee e93c 9e93 53bd 5c54 86bc
00000070: b0f1 93bb 5439 82bc 98e2 b13c 9edb 1e3d
00000080: 7099 8ebc a865 5f3c b0f1 6ebd 608b bd3c
00000090: 00bc 203b f432 7f3d a0cf a43b 6080 f4bb
000000a0: 10e3 863b e4ff f8bc a432 92bc 08fd 8dbc
000000b0: d84f 6abd a8d6 463c dee2 4cbd 4627 583d
000000c0: c0a0 6cbb ec10 fa3c d4ef a7bc 78de 22bc
000000d0: 803e 163a da07 03bd 2e9b 703d f4ec 3ebd
000000e0: 084f 153d 3878 22bd a077 10bc 706c 65bc
000000f0: cc4d f73c 56a0 303d d27c 3a3d 100a 34bd
00000100: 4427 c23c 588e 30bd aa0d 693d 98fc d6bc
00000110: f8e8 ecbc b48b 223d 5c7e efbc 203c 7dbd
00000120: e0a2 cf3c 4484 e23c 544c 923c 8050 1c3c
00000130: 1c4e 313d fc97 5bbd 8079 603d 9041 e2bb
00000140: a863 2e3d 9686 23bd 50da 3ebc 8844 a8bc
00000150: 74c2 7f3d 5e7b 2fbd 2e3d 6abd 00a5 5dba
00000160: b882 5abd f015 3a3c 6c2b 46bd c0c2 14bc
00000170: 40a8 deba 2404 5cbd a6ad 77bd 54ee 25bd
00000180: 0c21 51bd 5841 46bc f0ff e1bb fc30 20bd
