model/model.pth (torch, 799047 bytes, 6 tensors)

f0.0.weight f4 [256, 390]
000000 68 23 95 bc bf fc d0 3c f8 f0 b1 bc 70 3b 7d 3c
       -0.01820536 0.025511144 -0.021721348 0.015456066
000010 46 58 b1 3c 7d 17 bd 3c 68 5e 14 3d b6 37 0b bd
       0.021648537 0.02308249 0.036222845 -0.033988677
000020 2d 60 12 3d c0 9a 82 3c 61 70 20 bd 7d 18 dc bc
       0.03573625 0.015942931 -0.039169673 -0.026867146
000030 d3 b9 67 bd ba f2 d8 bc 84 a8 01 3d 3e 23 63 3c
       -0.0565737 -0.026482929 0.03165485 0.013863383
000040 7a 7e 07 bd 0b 76 0a bd ce e2 13 bd f9 5a f1 bc
       -0.0330796 -0.03380398 -0.03610497 -0.029462324
000050 8e 97 a2 bc f9 f5 e9 bc 46 40 fa ba bf d1 8c bd
       -0.019847658 -0.028559672 -0.0019092641 -0.068759434
000060 9d 2d c8 3b 49 36 05 3d d9 58 10 3d 30 ad aa 3c
       0.006108953 0.032522473 0.03524098 0.020834535
000070 6d 44 ab bc 63 8a 34 bc c2 bd 58 bd 70 a1 0c bd
       -0.020906651 -0.011019322 -0.052915342 -0.034333646
000080 a9 9a bd 3c 3b 90 aa 3c 73 5e cb 3c b3 ca 14 3c
       0.023145037 0.020820728 0.02482531 0.00908153
000090 8e de 1d bc a3 9f 28 bd 08 57 07 bd 0e 29 7c 3b
       -0.009635581 -0.041167866 -0.033041984 0.003847662
0000a0 b0 30 74 3d 36 10 4b 3d 68 ba 12 3d 3a 7c e8 3c
       0.059616745 0.049576007 0.035822302 0.028379548
0000b0 35 8f 10 bd 50 6d 0e 3d 59 46 24 bd fd d3 7b bd
       -0.035292823 0.034772217 -0.04010615 -0.061481465
0000c0 45 90 3a bd 57 47 28 bd 80 25 1b 3d 92 5f 6d bd
       -0.045547742 -0.04108366 0.03787756 -0.05795247
0000d0 35 70 00 bd be f4 9e bc a6 7c fa 3c eb 67 9a bd
       -0.03135701 -0.019403812 0.030577015 -0.07539352
0000e0 85 30 46 bd 26 e8 f0 3c 9b 2a bd 3c cf 85 21 bd
       -0.048386116 0.029407572 0.023091605 -0.03943425
0000f0 98 f6 14 3d 50 aa b4 3c 22 6a ce 3c 56 e2 21 3c
       0.036367983 0.022053868 0.025197092 0.009880623
000100 87 8c 90 bd 8a 7c 23 bd be 47 22 3c 30 cb 22 bc
       -0.070580535 -0.03991369 0.0099048 -0.009936139
000110 af 4c ee 3d 60 40 4f bd 29 56 2e bc ac e8 f9 3c
       0.1163572 -0.050598502 -0.010640659 0.030506454
000120 d9 78 f6 3c 6d e8 d5 3c 1b 5c 39 3c 1a 62 ff bb
       0.030086922 0.026111806 0.011313464 -0.007793677
000130 8c c4 b1 3c f5 19 4e bd 30 0a e6 3c d1 e5 9b bd
       0.021700166 -0.050317723 0.02808103 -0.076121934
000140 0f f3 9b bb fb 9d 20 3d fa 0a 42 bd 20 43 77 3c
       -0.0047591995 0.039213162 -0.04737375 0.015091687
000150 3d b7 12 3d 6a 15 d9 3b a1 75 03 bd 46 cd ab bc
       0.03581928 0.006624867 -0.0320946 -0.020971905
000160 69 66 18 3d 5f 0f 3d 3d c5 5e 0f 3d ae 9a 97 bd
       0.03720704 0.046157237 0.03500249 -0.0740255
000170 22 fc 8e 3d 8d 18 ca 3c d6 63 6c 3c 89 21 46 bc
       0.06981684 0.02466991 0.0144281 -0.012092956
000180 ac 53 f4 bc 15 53 5b 3b f8 b5 aa 3c 79 e0 12 3c
       -0.029825054 0.0033466269 0.020838723 0.008964651
000190 ac 46 75 bc d3 09 23 ba 21 6b 6d bc 25 2a 98 bc
       -0.014970463 -0.00062194205 -0.014490874 -0.018574784
0001a0 4e a1 c8 3c 2c b2 fe 3c 54 6c f5 3a 25 a6 b5 bc
       0.024490979 0.031090818 0.0018724301 -0.02217395
0001b0 fe d0 81 bd b6 2f 41 ba b6 e3 45 bd e8 f7 69 bc
       -0.0633869 -0.0007369475 -0.048312865 -0.014280297
0001c0 f8 3e 07 3d c6 fb 2d bd 77 12 2b ba 8f cb 31 bd
       0.033019036 -0.042476438 -0.0006525884 -0.04340702
0001d0 1d 1c 8a bc f0 d8 1e bd a2 be 2d 3d b3 ea 0f 3c
       -0.016859109 -0.038781106 0.04241813 0.008783984
0001e0 c0 e4 1b bd c8 1f 39 bc fe 8a 4f bb 64 81 e1 3c
       -0.03805995 -0.011299081 -0.003166854 0.027527519
0001f0 41 e8 a2 bb ba df 1d bd 51 73 5a bc 3f 1a ff bc
       -0.0049715345 -0.03854344 -0.013333158 -0.031140445
000200 03 a3 de bc 24 bc e0 3c f8 c6 1d 3c eb 80 56 3c
       -0.02717734 0.027433462 0.009629957 0.01309226
000210 68 8c ae 3c f3 79 22 3d 8b 29 0d 3d d5 5a 45 bb
       0.021307185 0.03966708 0.034463447 -0.0030113955
000220 83 c8 10 bc 3c 3b 89 3c 92 1f 56 bd ed e8 15 3c
       -0.008836868 0.016751878 -0.0522762 0.009149772
000230 de fa d4 3d 4c 08 13 3d 95 29 1c 3d 75 bf 24 bd
       0.103994116 0.035896584 0.038125593 -0.04022165
000240 c8 3e e9 bc 2a c2 ec 39 64 2a 80 3c 6e 0c d8 3c
       -0.02847232 0.0004515809 0.015645213 0.026373114
000250 dc 93 f3 bc be 84 0c 3d ff 6f ca bc f9 c9 e1 bc
       -0.02973359 0.03430628 -0.024711607 -0.027562128
000260 0d f0 29 3d 67 55 39 bd a7 33 7d bc 19 dc d2 3c
       0.041488696 -0.04524746 -0.015454209 0.025739716
000270 d5 b2 1d bb 3f b6 33 3d e3 37 f3 3c a4 18 26 3b
       -0.002406289 0.043874975 0.029689735 0.0025344277
000280 4c 6c 82 3c bc a3 9c bc 5f f1 0c bd 46 00 0a bc
       0.01592078 -0.019121043 -0.034409877 -0.008422917
000290 80 bb bd 3c 13 09 0e bd 82 2e ce 3b 5a 28 89 bc
       0.023160696 -0.034676623 0.0062921653 -0.016742874
0002a0 6f f0 b8 bc 8a 4c 7a bc d6 88 c2 bc 70 09 1b ba
       -0.022575585 -0.015277037 -0.02374689 -0.0005914187
0002b0 b3 ae 3f 3d 8c 60 17 bd dc 1a 44 bd e6 a2 21 bd
       0.046797466 -0.03695731 -0.047877178 -0.039461993
0002c0 5e f4 79 3c 68 66 1e bd 10 94 9e bc 54 5f 3d 3c
       0.015256016 -0.03867188 -0.019357711 0.0115583725
0002d0 85 1e 99 bc 43 ba 41 bd b6 0d b6 3b d2 5b ea 3c
       -0.01869131 -0.047296774 0.0055558337 0.028608236
0002e0 d2 3a 00 3d 99 66 01 bd 93 c2 0b 3c 90 71 de bc
       0.031306095 -0.031591985 0.008530277 -0.02715376
0002f0 8f 83 3d 3d 1e f2 59 bb ce 70 50 bc 83 34 1c bb
       0.046268042 -0.0033255885 -0.012722207 -0.002383501
000300 12 c2 f5 bc d3 88 b3 bc 6e 21 8f bc 65 41 2a bd
       -0.029999766 -0.021915829 -0.017471995 -0.04156627
000310 57 89 ce 3c 6e a2 a1 bc 9e eb 58 3c 8c 06 3c bd
       0.025211973 -0.019730773 0.013239769 -0.04590468
000320 9f b9 b5 3c e8 95 b7 bb 12 2d 0a 3d 1a 0b 35 3d
       0.022183238 -0.005602587 0.03373439 0.04420004
000330 4a 7c d9 3c a5 1d 01 3d a7 7e 4e bd e4 64 cc bc
       0.026548523 0.03152241 -0.050413754 -0.024950452
000340 cd ed 58 3c d8 84 78 bd eb 86 61 bd b5 90 4d bd
       0.01324029 -0.060673565 -0.05506031 -0.05018683
000350 4d c0 3f 3d 8c 69 9f bc bb 01 0d bd af bc 04 3d
       0.04681425 -0.019459508 -0.03442548 0.032406505
000360 c6 aa 7b 3c 43 f4 2a 3d eb f5 27 bd c2 c4 53 bd
       0.01536054 0.041736852 -0.04100601 -0.051701315
000370 17 4e 27 3c 1c 0c db bb 21 41 b1 ba 4c d2 12 3d
       0.010211489 -0.006684793 -0.0013523438 0.035845086
000380 b6 f5 3f bd 60 b6 56 3c bc 52 ad bc d2 a7 1c 3c
       -0.046865188 0.013105005 -0.021157615 0.009561496
000390 a7 32 95 3c 6a de 41 bd 07 db a4 3b 18 06 9b bc
       0.01821263 -0.04733125 0.005030993 -0.018923804
0003a0 ee f2 11 bd ee e7 a6 3b d7 ce cd 3c 7f 85 67 bd
       -0.035632066 0.005093566 0.025123043 -0.056523796
0003b0 f2 78 7f bc 57 40 8b bb 73 25 1a bd f1 4b 1d bd
       -0.0155928 -0.0042496133 -0.03763337 -0.0384025
0003c0 5e 1e 80 bc c9 90 2b bd 09 16 81 bd 4d 55 3d bc
       -0.01563948 -0.041886125 -0.06303031 -0.011555982
0003d0 27 21 c4 bc 3f 32 7a 3c 81 07 2a bd 6c 2b 82 bd
       -0.02394159 0.015270769 -0.041511063 -0.06355938
0003e0 13 38 64 bd 4c 13 4a bc 46 52 dd 3c 6a 3c f7 3c
       -0.05571754 -0.012333702 0.02701677 0.030180175
0003f0 5a ac 2f 3c 69 41 48 3e b5 c4 82 3c d0 a0 0b bd
       0.010722244 0.19556202 0.015962938 -0.03408891

f0.0.bias f4 [256]
000000 fc 04 8d bc b6 12 d0 bc a5 33 3a bd 31 25 30 bc
       -0.01721429 -0.025399547 -0.04545941 -0.010751055
000010 a9 eb 35 3d 7c cc 77 bd 6e a4 ac bc e6 2c dd 3b
       0.044414196 -0.060497746 -0.0210745 0.006749737
000020 68 38 89 bd ca cd 82 bd 50 84 92 bd 9d 1a 89 bb
       -0.06700212 -0.063869074 -0.07154143 -0.0041840808
000030 94 5a 9d bd 22 d3 7f 3c 14 38 87 bc f3 4c 10 bc
       -0.07683292 0.015614303 -0.016506232 -0.008807409
000040 c8 a6 02 bd f9 ba 6a bb 0c 5b 6b bd 81 16 40 bc
       -0.031897336 -0.003581701 -0.057459876 -0.011724115
000050 7e 52 ec bc 04 f3 2f bd 28 c0 4d bd d5 97 d6 3a
       -0.02884793 -0.042956367 -0.050232083 0.0016372154
000060 75 63 97 bd e9 fc 6c bd 43 c0 4d bd 87 af b5 bd
       -0.07392017 -0.05785838 -0.050232183 -0.0887137
000070 a2 fe 3a 3c 6c 53 0e bc e9 5d 54 bd 36 18 74 bd
       0.011413248 -0.0086868815 -0.051847372 -0.0595934
000080 33 f5 bf bc df 5a b0 3a f8 1d fd bd a0 c5 4f bd
       -0.02343235 0.0013454816 -0.12359232 -0.05072558
000090 71 51 ff bd a3 09 ad 3c e9 d0 40 bd 8d 1c 68 bb
       -0.124667056 0.02112276 -0.047074232 -0.0035417408
0000a0 be 94 9a bd e5 18 4d bd 10 35 a1 bd 8f c1 a6 3c
       -0.075479016 -0.05007257 -0.07871449 0.020355968
0000b0 30 d9 8c 3c d2 c3 84 bd 65 ff ef bc 49 bc 28 bd
       0.017193407 -0.06482662 -0.029296586 -0.041195188
0000c0 a5 1d f7 3b e9 ab 3d bd d8 91 12 3c 1c 6e 8d 39
       0.0075413757 -0.046306524 0.008945905 0.00026975654
0000d0 7c c4 87 3a c8 7e 03 3d b1 30 32 bd 38 c2 1f bd
       0.001035824 0.03210333 -0.043503467 -0.03900358
0000e0 f1 a6 17 3d 67 b3 08 bd 8c 61 31 bd de 79 a2 bd
       0.037024442 -0.033374216 -0.04330592 -0.079334006
0000f0 d2 07 19 bd fa e2 c0 ba 31 65 2c 3b 9f d5 8c bd
       -0.037360974 -0.0014716082 0.0026305432 -0.068766825
000100 b7 04 6c bd 1c f4 10 bd 2e b4 aa bc 2a 9b dc bd
       -0.057621684 -0.03538905 -0.02083787 -0.10771783
000110 4d 51 ae bc 45 ff b7 bd 62 4b 16 bb bd 25 11 bc
       -0.021279002 -0.08984236 -0.0022933115 -0.008859095
000120 6f c6 9d bb 30 b6 09 be 39 d9 e3 3c 36 6a 59 bd
       -0.004814915 -0.13448405 0.02781354 -0.053079806
000130 d0 3f cc bd 68 52 8f bd b2 b8 88 bd f2 ce 0d bd
       -0.09973109 -0.069981396 -0.06675853 -0.034621187
000140 bd ae 31 bd ee 95 11 bc 47 eb 0e bd 4a 2a 86 bd
       -0.043379534 -0.008885844 -0.034892347 -0.06551035
000150 6e 6a a4 bb a6 32 36 bd 3c 48 6f bd b9 22 a3 bd
       -0.00501757 -0.044481896 -0.058418497 -0.07965607
000160 d5 f0 f6 bc ef 51 8b bb 48 54 17 3d 43 22 de bd
       -0.030144135 -0.0042517106 0.03694561 -0.10846379
000170 37 b2 83 bc be 88 9a bd 55 87 3e bd 76 2f 35 bd
       -0.01607619 -0.07545613 -0.04651578 -0.044234715
000180 b0 4b 55 3c e0 5a 96 bd 40 ad 8e bd 2e e0 1e bd
       0.013018534 -0.07341552 -0.069666386 -0.038788013
000190 28 ff 67 bd d2 49 75 bd 78 0e 0d 3b fa 45 4b bc
       -0.05663982 -0.059884854 0.0021523517 -0.01240682
0001a0 25 b8 06 bd 0a be c8 bd 08 99 15 3d ee 0c bf bd
       -0.032890458 -0.09801872 0.036522895 -0.09328638
0001b0 68 1c 30 bc 2f 5d ad bd 08 92 a4 bd 12 d2 06 bd
       -0.01074896 -0.08465039 -0.08035666 -0.032915182
0001c0 ac 4a 6f bd 8e 62 08 bc e7 5b 74 3c 16 41 6d 3d
       -0.058420822 -0.0083242785 0.014914489 0.0579234
0001d0 e2 40 88 bb 8c d8 06 bd 53 76 be bc 8b 59 b9 bd
       -0.0041581253 -0.03292136 -0.02324978 -0.09050282
0001e0 cd e6 cf bd ae c3 0c bd e1 fd 96 bd e3 1d 01 3d
       -0.10151444 -0.034366302 -0.07372642 0.031522643
0001f0 97 42 3d bd b3 7a 6f bd c8 bd 2c bd eb 91 57 bd
       -0.046206083 -0.058466624 -0.042173177 -0.052629393
000200 3f ff 59 bc 11 88 ad bd 06 ef 2e bc c0 16 cf bd
       -0.013305484 -0.08473218 -0.010677105 -0.10111761
000210 4a e3 c6 bd 7f 9c 60 bd 1c f6 89 bd 2f 45 13 bc
       -0.09711321 -0.054836746 -0.06736395 -0.008988663
000220 7f 00 e4 bd aa 70 e1 bc d9 e8 4b bd 70 3b 65 bd
       -0.11132907 -0.027519543 -0.049782608 -0.055964887
000230 88 66 0c bd 20 d8 61 bd 26 84 12 ba 5f 78 8b bd
       -0.03427747 -0.055137753 -0.00055891497 -0.06810068
000240 45 4c 26 bd 89 70 9c bd 53 ab 7d bb e5 d5 84 bb
       -0.04060008 -0.07638652 -0.0038706854 -0.0040538185
000250 f1 59 9c bd 07 21 a3 3b dd da 7b bd b0 f5 0a bd
       -0.076343425 0.0049783024 -0.06148802 -0.033925712
000260 d2 8b 86 3a b9 96 a1 bd 17 2f 89 bd 8d 8a 29 3c
       0.0010265058 -0.07890076 -0.06698435 0.0103479745
000270 57 d9 1e 3c fc 24 70 bc 25 21 3e 3c 78 84 47 3c
       0.009695373 -0.014657255 0.011604582 0.012177579
000280 ea a5 9c bd c9 70 21 bc e0 0d 53 bd b0 be 4d bd
       -0.07648833 -0.00985355 -0.051526904 -0.050230682
000290 c1 17 81 3d 41 9d 53 bd 69 27 3c bd 55 a6 b3 bb
       0.06303359 -0.05166364 -0.045936022 -0.005482475
0002a0 04 71 a2 3b ca b5 23 bd 79 fc 17 3d e8 a9 22 bd
       0.00495732 -0.03996829 0.03710601 -0.039712816
0002b0 53 c1 39 bd 73 21 44 bd 83 a7 19 3c 2a 78 a3 bc
       -0.045350384 -0.047883462 0.009378317 -0.01995476
0002c0 83 20 81 bc 7e 50 91 bd 7a aa 24 bc c0 39 4a bc
       -0.015762573 -0.07095431 -0.01005041 -0.01234287
0002d0 51 b8 b8 bd 8a ae da bd 2e 45 05 3b 78 29 69 bd
       -0.090195306 -0.10677822 0.0020335424 -0.056924313
0002e0 0d 16 b9 bc bb c4 5d bc b7 f5 c1 bc 5f a0 67 bd
       -0.022593522 -0.013535674 -0.023676736 -0.056549426
0002f0 80 ee 6c 3c 3e bf 99 bd f9 79 8b bd d4 0f 39 bd
       0.01446116 -0.0750718 -0.06810374 -0.04518111
000300 0f 73 9b bd 99 e0 af bd d5 fe 05 3b cc 16 09 bc
       -0.07590305 -0.085877605 0.0020446081 -0.008367252
000310 82 ce 81 bd 38 ea 85 bd cf 2d 3d 3c cc 1f 23 bc
       -0.06338216 -0.06538814 0.011546566 -0.009956311
000320 fd 7d c0 3a e7 46 88 bd 1b 06 91 3c 57 db 00 bd
       0.0014685985 -0.066541485 0.017703107 -0.03145918
000330 a3 e5 d4 bc ed f3 0a 3d 1e b4 44 bd 7f 5b 87 bc
       -0.025988406 0.033924032 -0.048023336 -0.01652312
000340 5a 2b 08 bd a4 57 e0 bb 24 ec 56 bb c6 9a 4c bd
       -0.03324447 -0.006846385 -0.003279456 -0.04995229
000350 32 ea 1c 3b 8a c9 2d 3c 7b 8a 04 bd 54 d1 77 bc
       0.0023943302 0.010607133 -0.032358628 -0.015125591
000360 fa ff 19 bc 2e 37 82 bd 81 b5 8a bd 93 9c 18 bd
       -0.0093994085 -0.06358181 -0.067729004 -0.037258696
000370 9f a8 1f bd a9 a7 83 bd 26 af be bc aa 6f 51 bd
       -0.03897917 -0.06428463 -0.023276877 -0.05113188
000380 64 13 bd bd 5a 42 72 3a c0 d8 57 bd 45 2f f2 bd
       -0.09232214 0.00092414545 -0.052696943 -0.11825422
000390 e9 11 b3 bc cc 57 44 bd 79 75 55 3b f1 0c 7f bd
       -0.021859126 -0.047935292 0.003257124 -0.0622682
0003a0 71 13 83 bd 7a 45 4c bd 2d 22 9b bd 56 46 17 bd
       -0.064001925 -0.049870946 -0.07574878 -0.036932312
0003b0 cd 93 f8 bc f6 8f 98 bd 25 ed a3 bd 03 20 2b bd
       -0.030343914 -0.07449333 -0.08004216 -0.041778576
0003c0 07 d3 4c bd 8e b9 00 bc 4e a3 e2 bc 5a 2c 77 bd
       -0.05000594 -0.00785674 -0.02766576 -0.06034503
0003d0 1a 7d 0b bd 1b 8b fa bc 55 58 08 bd 6a 08 49 bd
       -0.034054853 -0.030583909 -0.033287365 -0.04908029
0003e0 34 63 84 3d 1a c9 38 bd 86 3d 0d 3d 4b 90 c8 bd
       0.06464234 -0.04511366 0.0344825 -0.09793147
0003f0 91 59 bd bd 69 fc 1f bd 4c ec c1 bd 27 73 ae bd
       -0.09245599 -0.039059076 -0.09468898 -0.08518057

f0.2.weight f4 [256, 256]
000000 71 24 03 bd 3f 21 44 bd 28 e6 a0 3c f3 1a 9b bc
       -0.032017175 -0.04788327 0.019640997 -0.018933749
000010 8d 6f 9a b9 6b fc 8b bd d7 78 52 3d 02 ff 8d 3c
       -0.0002945628 -0.06835254 0.051384773 0.017333511
000020 89 ee e5 3c 65 de 8d bd ba fe b3 bc 65 e2 13 3d
       0.028067844 -0.06927184 -0.021972049 0.03610458
000030 c5 a0 7e 3c b0 00 dd bc ea 94 92 bd 5c 59 a0 bc
       0.01554126 -0.026977867 -0.07157309 -0.01957386
000040 42 f8 97 bb 2a 8a 4e 3c 91 9d 02 3d 42 11 10 bd
       -0.004637749 0.012606183 0.03188855 -0.03517271
000050 16 e3 e3 3c 84 ad 79 3d 8b 73 de bc 6e 2d b2 bc
       0.027818244 0.060956493 -0.027154705 -0.021750178
000060 dd f5 ed 3c 93 38 35 3d 78 de 78 bb 91 69 64 3d
       0.0290479 0.044243407 -0.0037974399 0.05576474
000070 72 84 0a 3d cb d6 4a 3b 6c 5e 40 3d 3e d3 48 3c
       0.033817716 0.003095078 0.046965048 0.012257395
000080 50 5a 95 bc 22 e2 33 bd 8a 81 6b bc 20 b6 e9 3c
       -0.01823154 -0.04391683 -0.014374146 0.028529227
000090 23 b6 1e 3d a8 c3 7f bd 37 81 cd 3c 46 59 48 bd
       0.038747918 -0.06244245 0.025086029 -0.048913263
0000a0 f8 4c 83 bd 13 4d 68 bd 11 ca 2f 3c f4 1a 74 bd
       -0.06411165 -0.05671413 0.010729329 -0.059596017
0000b0 a2 2d 51 bd 60 5d e0 bc 1c 07 24 bb 50 31 11 bd
       -0.05106891 -0.027388275 -0.0025028652 -0.03544742
0000c0 85 f4 1c 3d 46 9c d9 3c be ff ec bc 85 f1 f7 3c
       0.03831913 0.026563775 -0.028930541 0.030266533
0000d0 68 d9 e4 3b e4 f1 d1 bc 18 0e 0d 3d c6 ad 0e 3d
       0.0069839247 -0.025628038 0.03443727 0.034833692
0000e0 6b 14 a0 bc dc 44 e3 3c 15 e0 94 bd a8 09 4b 3d
       -0.019540986 0.027742796 -0.07269303 0.049569756
0000f0 d8 74 49 3d 0a 17 45 3c d9 b6 d0 bc 5c eb 44 3d
       0.049183697 0.012029419 -0.025477814 0.04807602
000100 42 f0 4c 3d c1 4f 03 bd 35 d6 60 3d f3 23 38 bd
       0.050033815 -0.03205848 0.054891784 -0.04495616
000110 57 77 79 bd df 17 ee 3c 1e 80 86 bd 81 0c 33 3d
       -0.060904827 0.029064117 -0.06567405 0.043713097
000120 98 d5 29 bc 58 fd 72 3c aa 60 93 3b c7 72 29 bd
       -0.010365866 0.01483091 0.0044976072 -0.041369226
000130 b5 d7 78 3b 3a c7 ec bc 05 c6 a8 3c d6 47 8f 3c
       0.0037970368 -0.028903592 0.020602236 0.017490309
000140 bc 3c 22 3d a2 c8 19 bd 67 76 61 bd 13 01 8e bd
       0.039608702 -0.037544854 -0.055044558 -0.06933799
000150 8f e4 3b bb ae 2a 32 bc 8d 16 19 3d bf 4e dd 3c
       -0.0028670167 -0.010874433 0.03737502 0.027015088
000160 d8 1a a8 bc b6 a9 1d bd 75 c7 0f 3d 90 45 69 3c
       -0.020520613 -0.038491927 0.035102326 0.014237776
000170 d3 71 47 3d 8e be 44 bd 2a fe 3f bd 2a 39 09 3d
       0.048692536 -0.04803329 -0.04687325 0.03350178
000180 f1 8f 55 3b 9f f8 80 3d f7 8f bd 3b a0 9c 31 bd
       0.0032587016 0.06297421 0.005784984 -0.04336226
000190 ee d0 9b bd 6e 19 35 bc fc 88 35 3d 11 58 fc 39
       -0.076082096 -0.011053426 0.04432009 0.000481308
0001a0 72 c0 af 3c a7 22 0c bb b3 d9 60 bd 50 e0 d7 3c
       0.02145407 -0.002138296 -0.054895114 0.026352078
0001b0 c8 4c 11 bd 23 28 00 3d da d3 fa 3c 3c 67 8e bc
       -0.035473615 0.031288277 0.030618597 -0.01738321
0001c0 60 d4 94 bd 55 3e 97 bd 2a 53 27 3d cb 17 64 3d
       -0.0726707 -0.07384936 0.040850796 0.055686753
0001d0 b0 72 f6 3c 2f 2e e6 3c 41 b4 7f 3d 0f 16 8f bc
       0.030083984 0.028098194 0.062427763 -0.017466573
0001e0 64 73 18 bd 6e 42 d2 bc 51 47 80 bd 4b e1 61 bd
       -0.03721942 -0.025666442 -0.062636025 -0.055146497
0001f0 52 db 7e bd 46 b1 6c bd 0a ca 2f bd 55 2a 03 bd
       -0.06222088 -0.05778625 -0.04291729 -0.032022793
000200 35 80 52 bd 8e ea 04 bd aa 3b 16 bd 55 fe 11 bd
       -0.0513918 -0.03245025 -0.036677994 -0.03564294
000210 1f 07 ca bc 81 19 09 bd 60 ff e6 3c 50 c5 23 bd
       -0.024661599 -0.033471588 0.028197944 -0.039983094
000220 d0 3b 77 bd c7 a4 bb bc b1 ec bf 3c fa e3 09 3d
       -0.060359776 -0.02290572 0.023428293 0.03366468
000230 4b c0 4e 3d c9 b1 0d bd 01 22 ed ba e3 eb fe 39
       0.050476354 -0.034593377 -0.0018091799 0.00048622405
000240 64 34 1e 3d 0f 82 2d bd 88 91 6f bd 85 83 03 bd
       0.038624182 -0.04236036 -0.0584884 -0.03210785
000250 ea 3d f4 bc c2 65 65 bd 00 d4 46 3c 9d 6b 2e bc
       -0.02981468 -0.056005247 0.012135506 -0.010645774
000260 cc da 53 3d 56 ad 32 bd 77 a1 b6 3c 28 dd 0e bd
       0.051722333 -0.043622337 0.02229379 -0.03487888
000270 0f 86 06 39 fb 1a a4 3c a9 64 22 bd 12 a8 e1 bc
       0.00012829177 0.020032397 -0.03964678 -0.027545962
000280 49 8a 8d 3c 77 0b 2f bc d1 68 2d 3b 9c 34 3e bd
       0.017277854 -0.010683886 0.002646018 -0.04643689
000290 0e ee 0d bd 7e 61 f7 bc 98 a6 37 3d 8c 41 49 bd
       -0.034650855 -0.030197855 0.04483661 -0.049134776
0002a0 78 6a e0 bc 3b 34 06 3d 71 25 50 bd ae a7 11 bd
       -0.027394518 0.032764655 -0.050816957 -0.035560302
0002b0 e1 31 92 3c 9f ba fa b9 ba 39 4c bd de f9 11 bc
       0.01784605 -0.0004782276 -0.04985974 -0.008909671
0002c0 2e 50 dd bc 30 a0 95 3b e3 eb 53 3d 7d a6 55 bd
       -0.027015772 0.004566215 0.05173863 -0.05216073
0002d0 f8 9e 8d bc 33 dd 57 3c ca 52 3b 3d 26 4c 78 bb
       -0.017287716 0.013175297 0.04573325 -0.0037887185
0002e0 6d 80 1c bd b8 3c 5c bd c2 7e fc 38 92 8d 4b 3d
       -0.038208414 -0.053768843 0.00012039907 0.04969556
0002f0 ab be 56 3d d1 08 1c 3d 3e 03 85 bd ae e7 a1 3c
       0.05242793 0.038094345 -0.06494759 0.019763794
000300 ab 27 de bb 29 e8 af 3c 92 fd 0c 3d 38 5d de bb
       -0.006779631 0.021473007 0.03442151 -0.006786015
000310 3c 0e 91 bc 43 74 31 3d 6d 3e f2 bc ff 9d 90 bd
       -0.017706983 0.043323766 -0.029570783 -0.07061385
000320 14 55 3f bc 7d 11 0f bd ee c9 23 bd 95 b4 13 3d
       -0.011677999 -0.034928787 -0.039987497 0.03606089
000330 14 1d ec 3c 4e 29 1b bc d1 66 3d bc d7 ec 07 bd
       0.02882246 -0.009470297 -0.011560158 -0.033184852
000340 c6 1d e5 bc 2d 41 75 bc f4 13 5c bd 50 d9 25 3d
       -0.027968299 -0.014969152 -0.053729966 0.04049045
000350 84 57 52 bd 60 e1 13 3d fb ef 89 bd 01 2e e2 3c
       -0.051352993 0.036103606 -0.06735226 0.027609827
000360 24 85 24 3d 62 a7 22 3d de 3c 77 3d 51 5c 94 3c
       0.040166035 0.03971041 0.06036078 0.018110426
000370 3b f7 47 bc 53 c0 35 3c 95 2a b3 3c d4 c3 58 3c
       -0.01220494 0.011093217 0.02187089 0.013230283
000380 b3 53 ab bb 77 64 ba bc d3 2a b8 bc b8 b2 1a bc
       -0.0052284836 -0.022752983 -0.022481358 -0.009442024
000390 64 92 85 bd 1b 7b 8e 3b 3c 92 82 bd 8f d9 68 bd
       -0.065220624 0.0043481714 -0.06375548 -0.056848105
0003a0 5e 2b 2b 3d c0 d3 8d bd b2 a8 1b bd ec d3 06 3d
       0.041789405 -0.06925154 -0.038002677 0.03291695
0003b0 3f 54 f1 3c d6 f6 14 3d 7b d3 0a 3c 84 fe 6a 3d
       0.029459117 0.036368214 0.008473272 0.05737163
0003c0 0d 90 fb 3c 72 28 2e bd 19 bf 89 bd 31 09 73 3d
       0.030708337 -0.04251904 -0.06725902 0.059334937
0003d0 9c 18 d2 3c f1 83 15 3d 15 2f 42 bd 75 5e 82 bd
       0.0256465 0.036502782 -0.047408182 -0.063656725
0003e0 75 9f 25 bd d8 4f 5b 3c 07 34 6f 3c ab 1e 8a 3b
       -0.040435273 0.013385735 0.014599807 0.0042150817
0003f0 84 97 e0 3b a1 55 0b bd 05 4a 81 bc 6e 4e 2f bd
       0.0068539996 -0.03401721 -0.015782366 -0.042799406

f0.2.bias f4 [256]
000000 a5 18 6d bd d7 be 0c 3c c5 3b 9f bd 1a f0 d2 bd
       -0.05788483 0.008590422 -0.07775072 -0.10299702
000010 78 33 1e bd 7b 4c 16 bd f9 58 54 bd f5 44 89 bc
       -0.038623303 -0.03669403 -0.051842663 -0.016756514
000020 c4 17 ad bb c5 84 76 bd 79 99 83 bd 11 dd 98 bd
       -0.005282374 -0.060185213 -0.06425757 -0.0746404
000030 47 3c 85 bd 5f 60 8a bb 7e 24 1b bd 31 00 79 bd
       -0.065056376 -0.004222914 -0.0378766 -0.0607912
000040 eb 0f ba b9 10 15 b0 3c 81 d4 cf bd 97 20 2d 3d
       -0.00035488544 0.021494418 -0.10147954 0.04226741
000050 43 f8 c7 bc af dc 2b bc 82 7b 7b bd 18 20 9d bd
       -0.024410373 -0.010489627 -0.061397083 -0.07672137
000060 a3 6f 74 bd 30 f7 18 bd cb 96 99 bb 9a 47 0e bd
       -0.059676778 -0.03734511 -0.0046871654 -0.034736253
000070 23 07 5b bd 38 ee fc bc fc d2 a7 ba cf 96 52 bd
       -0.053473603 -0.03087531 -0.0012803967 -0.051413354
000080 29 78 a7 bc 4f 20 ee bd 16 d0 b9 bb 72 87 1b bd
       -0.020443039 -0.11627256 -0.0056705577 -0.037970968
000090 0c ce 17 bb 9d 07 11 3d 0c 4d 20 bd ee 58 81 bd
       -0.0023163585 0.03540765 -0.039135978 -0.0631579
0000a0 7e 59 03 3b ef 64 e5 bd aa 2d 90 3b 53 5b 22 bd
       0.0020042355 -0.11200892 0.004399975 -0.039637875
0000b0 6a c4 8c bb 96 de 66 bd 6e 2b c5 3a 00 c5 00 3c
       -0.0042958753 -0.05636462 0.001504285 0.007859468
0000c0 6d 75 88 bd b2 79 49 bd af 51 0c bd 44 f5 20 bd
       -0.06663022 -0.049188323 -0.034257587 -0.039296404
0000d0 1c 7b 8e bc ad fc 6d 3c 61 df b4 bc 24 20 25 bd
       -0.017392687 0.014525575 -0.022079172 -0.040313855
0000e0 59 fb 08 bd 1f 41 06 bd a8 e1 7f bd da db aa bc
       -0.03344283 -0.032776948 -0.062471062 -0.020856787
0000f0 0f 0a 31 3c fb a5 8c 3c 5b 93 83 bd ef 5b fd 3c
       0.010805621 0.01716899 -0.0642459 0.030927626
000100 8a da 16 bd d8 f6 8f 3b 10 fc d3 ba 72 8d fd bc
       -0.03682951 0.0043934397 -0.0016173143 -0.030951235
000110 8a b7 d3 ba 9a 64 d1 bd fb 75 ab bd 1c aa 68 3c
       -0.0016152721 -0.10224266 -0.08372112 0.0142007135
000120 38 d6 fd bc 89 b4 b4 bc 91 59 4d bd 3b e3 e3 3c
       -0.030985937 -0.022058742 -0.050134245 0.027818313
000130 ab 36 bf bc b6 43 d0 bd bb bd 8f 3c 2b bd 8f bd
       -0.023341497 -0.10169165 0.017546525 -0.07018503
000140 70 81 04 3c 2b 94 48 bd 11 b4 06 bd 9a d7 6b bd
       0.008087501 -0.04896943 -0.03288657 -0.05757866
000150 1b 03 a9 bd 0b a6 5e bd b2 59 c2 bd aa 42 e4 bc
       -0.082525454 -0.05435757 -0.09489764 -0.02786382
000160 bf 0c cb 3c 8d eb 7f 3b 34 f3 bb ba e4 a6 d3 bc
       0.024786351 0.0039050311 -0.0014339448 -0.025836416
000170 f9 e1 68 3c 5d 33 cd bd 46 65 93 bc 37 bf ff bc
       0.014214032 -0.100195624 -0.017992627 -0.031219108
000180 2f b2 31 bd 2f 59 99 bd 19 dd 3c bd 4d 92 b6 bd
       -0.04338282 -0.074877135 -0.046109293 -0.089146234
000190 ff f3 e7 3c 69 26 63 3c 5f 4e 06 bd 6a fb ff ba
       0.028314589 0.013864138 -0.032789584 -0.0019529883
0001a0 54 9d a4 bd 9b 36 3a bd 24 d0 7f 3c ea 79 6b bd
       -0.080378205 -0.045462232 0.015613589 -0.057489313
0001b0 d0 82 96 bc 4f f2 4a bc a5 46 89 bd 3a 1d 31 bb
       -0.018372923 -0.012386872 -0.067029275 -0.0027025477
0001c0 f4 61 cd bd cb 99 ea 3b 71 a3 c4 bc f4 36 34 bd
       -0.10028449 0.007159447 -0.024003716 -0.04399772
0001d0 41 54 36 bc 55 1c 76 bc 97 5e aa 3c b1 63 89 bd
       -0.011128486 -0.015021403 0.020797057 -0.06708468
0001e0 80 5c c2 bc 82 59 81 3c aa 9f 64 bd 61 17 23 bd
       -0.023725748 0.015789751 -0.05581633 -0.039817218
0001f0 31 5e ff bc be fa 02 bd af 2d 01 bb 16 37 5d bc
       -0.031172844 -0.031977408 -0.0019711067 -0.013501903
000200 a3 2c 4d bd aa 0c 41 bd 6b bf a4 bc b4 d0 61 3c
       -0.050091397 -0.047131218 -0.020110806 0.013782669
000210 78 a7 69 bd 9d ee d7 bd 7d 28 da bd a4 89 8a bd
       -0.057044476 -0.10543559 -0.10652254 -0.06764534
000220 79 55 f6 3c d1 fd 4c bd 10 42 2b bd 5d 73 9c bd
       0.030070053 -0.050046746 -0.04181105 -0.07639191
000230 e5 b3 51 bd 27 17 3c bd d1 7f 88 bc f0 96 a4 bd
       -0.05119695 -0.045920517 -0.01666251 -0.080366015
000240 88 ee 82 bd f9 a9 b2 bc c7 73 82 bd 3d 46 91 bd
       -0.063931525 -0.021809565 -0.06369739 -0.07093475
000250 41 38 87 bd 01 2d bc bd 71 cc ec bc 9b cf 97 bd
       -0.066025265 -0.09188271 -0.028906079 -0.074126445
000260 c1 e4 57 bd 97 54 40 bd bb 44 8b bd c6 bd 83 bd
       -0.05270839 -0.04695567 -0.06800219 -0.06432681
000270 e9 78 ae ba fd 9f 88 bd c8 13 3b bd 20 77 6b bd
       -0.001331118 -0.0667114 -0.04567316 -0.057486653
000280 13 01 19 bd cd 37 b2 bb 51 92 f8 bb 9a fb a2 bd
       -0.03735454 -0.005438781 -0.0075858016 -0.079581454
000290 d3 55 f3 bc 70 c5 9a bc 78 10 51 bb a3 cd 9c bd
       -0.02970401 -0.018892974 -0.0031900685 -0.076564096
0002a0 82 c3 06 bc ae d4 81 bd e9 4e c2 bc d8 c4 61 bb
       -0.008225324 -0.063393936 -0.023719268 -0.0034449603
0002b0 36 bf 0c be 49 8f bc bd ce 37 33 bd 1e 59 9d bd
       -0.13744816 -0.09207017 -0.04375439 -0.076830134
0002c0 74 e0 06 bc 19 7a 24 bb 45 ee 0e 3d e7 da 19 bc
       -0.008232225 -0.002509719 0.0348952 -0.009390569
0002d0 56 2a 3b bd be 50 34 bd bb be 9e bd 1e 54 ae bc
       -0.04569467 -0.044022314 -0.07751223 -0.021280345
0002e0 e4 83 a8 bd ad 1c 36 bd 89 6f e3 bc 00 4d 24 bd
       -0.08228281 -0.04446094 -0.027763145 -0.040112495
0002f0 c4 88 3f be 90 94 01 bc f3 b5 9a bd 0c 57 ed 3c
       -0.18704516 -0.007908955 -0.07554235 0.028972171
000300 e7 cc fe 3b f4 1f 24 bd 88 53 bb bd 6c 63 51 bd
       0.007775891 -0.040069535 -0.09146792 -0.051120207
000310 66 4a d6 3c fb 61 db bc 7a a8 49 bb 22 d1 a6 bd
       0.026158523 -0.02678012 -0.0030770586 -0.08145358
000320 63 1c c3 3c 7e 0c a3 bd 39 52 ca bd 47 3a 84 3a
       0.023817247 -0.07961367 -0.09878964 0.0010088169
000330 16 37 48 bd 5e 89 ab bd 38 62 9b bc c8 ae c6 bd
       -0.04888066 -0.0837581 -0.018967733 -0.09701306
000340 f9 64 fc 3c 2a 1d 2b bd 1d d8 88 bd 76 ef 54 3d
       0.030809866 -0.04177586 -0.06681845 0.05198618
000350 c2 f6 a0 bd 78 c1 3c bc d9 33 7a bd f4 45 97 bc
       -0.07859565 -0.011520736 -0.061084602 -0.018465973
000360 f1 2d 31 bd 64 18 b0 bd c1 6a a3 bd 86 cf d0 3c
       -0.043256704 -0.08598402 -0.07979346 0.02548958
000370 85 ea 03 bc 74 1e 9f bc db 43 14 bd 5f 4e 91 bd
       -0.008051519 -0.0194237 -0.036197525 -0.07095026
000380 4e 75 81 bc 62 d5 3c bd 3d ec 01 ba ab 34 2e 3c
       -0.015803006 -0.046101935 -0.0004956162 0.010632674
000390 da 4a 9b bd cf c9 9a bd b0 41 e6 39 a7 11 8d bd
       -0.07582636 -0.07558023 0.0004391796 -0.068881325
0003a0 da 27 3a bc da 04 77 bd dd b7 95 bd 06 32 a5 bd
       -0.01136204 -0.06030736 -0.0731046 -0.08066182
0003b0 82 ce c3 3c c0 1f 47 bd 4d df 1b 3c 31 f8 be 3a
       0.023902182 -0.048614264 0.009513688 0.0014569816
0003c0 fe b4 6e 3c 61 79 92 3a 51 5c c4 bc 2f 4e fb bc
       0.014569519 0.001117509 -0.023969801 -0.03067693
0003d0 e0 a4 82 bc ec 8b 0f bd 21 42 93 bd 7f df 99 bb
       -0.01594776 -0.03504555 -0.071903475 -0.0046958323
0003e0 46 2c aa bc e7 7a df bd d0 d1 c7 bc b3 f8 32 b9
       -0.020773064 -0.10912114 -0.024392039 -0.0001706805
0003f0 15 9a 77 3c 22 2d 84 bc 8d f6 3d bd d1 5a b4 bd
       0.01511242 -0.016134802 -0.046377707 -0.08806384

f0.4.weight f4 [130, 256]
000000 58 1b 31 bd e1 cc 8a bc ee 0c a7 bc bf d0 df bd
       -0.043238968 -0.016943397 -0.020391908 -0.10928487
000010 2b 8c f5 bc c1 2a 24 bd d7 2a 59 bd f3 44 72 bc
       -0.029974064 -0.040079836 -0.05301937 -0.014786947
000020 64 cc ae bc 74 bd 8e bb 27 34 51 bc c6 5a 66 3d
       -0.021337695 -0.0043560807 -0.012768782 0.056238912
000030 43 ee 95 3b 18 e7 1c bd 20 72 f8 bc c1 c6 5f bd
       0.004575522 -0.038306326 -0.030327857 -0.054632906
000040 b7 cb a4 3d 40 49 5f bd 3f 14 cf bc 07 c1 60 3d
       0.08046668 -0.054513216 -0.025278209 0.054871585
000050 f3 98 a5 3d 8f f8 e6 3d 94 7b a3 bd 61 98 a5 3c
       0.080858134 0.112778775 -0.07982555 0.020214261
000060 c0 56 ac 3c a8 89 37 bd 2a 87 b8 bc 14 e5 ee 3b
       0.02103746 -0.044809014 -0.022525389 0.007290492
000070 b9 60 3d bd 30 aa 8b bd a3 e5 27 3d 9e 4a 0f bc
       -0.04623482 -0.0681957 0.040990483 -0.0087458175
000080 22 15 f9 3c cd 09 83 bd 86 4c e6 3c e3 74 5a 3d
       0.030405585 -0.06398354 0.028112661 0.053334128
000090 5b d3 08 bd d0 41 1b 3d e7 7a 3e bc 22 d9 2f 3b
       -0.03340469 0.03790456 -0.011625982 0.0026832302
0000a0 5a 9d 3b 3c 1b 22 78 3c 43 1d b3 bc 41 ee da bc
       0.01145109 0.01514485 -0.021864539 -0.026724936
0000b0 34 af 1d 3d 2f 76 eb 3c 7e 60 e4 bc c7 6d 9d bd
       0.038497165 0.028742878 -0.027878042 -0.07686954
0000c0 b9 a9 8d bc 62 ed 50 3d c7 44 a6 bd 51 be 11 3d
       -0.017292844 0.051007636 -0.08118587 0.03558189
0000d0 e7 43 4e 3b 08 17 67 bc 87 02 0d bd 95 df 4e bd
       0.0031473578 -0.014104612 -0.03442624 -0.050506193
0000e0 4a 84 a3 bd 3c cc 7c 3d 31 4f 34 3d 31 36 4e 3d
       -0.079842165 0.06171821 0.044020835 0.05034465
0000f0 c3 30 6b 3d 62 ac 91 bd 6e 77 28 3d f7 66 85 bc
       0.05741955 -0.071129575 0.041129522 -0.016284449
000100 be 23 83 3d e2 1e dd bc 55 cb 8a bd d2 51 8a bc
       0.06403302 -0.026992265 -0.06777064 -0.016884718
000110 e6 58 18 b9 3c b5 59 bd 2f 5a cf 3d 17 9a f1 bc
       -0.00014528967 -0.053151354 0.10124623 -0.029492421
000120 30 4d e0 3d 48 43 31 3d 30 eb 9a bc bd df dd bd
       0.10952222 0.043277055 -0.018910974 -0.1083369
000130 c1 91 22 bc 41 7f f0 3b 12 68 af 3d 9d 53 9b bb
       -0.009922446 0.0073393886 0.08564772 -0.004740192
000140 b2 06 79 bc 10 4b f1 bc a8 2d 78 3d 11 64 13 bd
       -0.01519935 -0.029454738 0.060590416 -0.035984103
000150 1a a4 26 3d 9c e3 03 3d 71 dd 3d 3d 19 ef 1b 3c
       0.040683843 0.032199487 0.04635376 0.009517455
000160 5b 26 ed bb 75 f2 9c 3c 3c 4d 14 bd 96 dd 10 3d
       -0.0072372383 0.019158581 -0.03620647 0.03536757
000170 d9 1c d9 bc 5c ce ae 3d 4f 3f 9f bd 99 29 ab 3d
       -0.026503013 0.08535454 -0.07775747 0.083575435
000180 8f 5f c2 bc e7 98 46 bd c9 34 bd 3c 85 8f 85 bd
       -0.023727207 -0.048485663 0.023096459 -0.06521515
000190 5b 69 7f bc 7a b4 7e 3c 78 0c 6e 3d 92 8c da 3c
       -0.015589084 0.015545959 0.05811736 0.026678357
0001a0 90 18 03 3d 94 8c 90 bc cb 04 82 bc 2c 73 f2 bc
       0.032005847 -0.017645158 -0.015871426 -0.029595934
0001b0 81 c5 f1 bc db 33 87 bc f1 f3 e2 bc 18 49 97 bc
       -0.029513123 -0.016504219 -0.027704211 -0.018467471
0001c0 a7 32 87 bd 72 0a 74 bd a3 ba 54 bc 9d 60 08 3d
       -0.06601458 -0.059580274 -0.012983951 0.033295263
0001d0 29 ad 51 3c ab 99 ee 3c 87 70 cf bc 05 72 2c bd
       0.012797632 0.029126009 -0.025322212 -0.042100925
0001e0 e4 52 69 bd ed b8 8c bc a6 1f 36 3d f6 96 38 3c
       -0.056963816 -0.017178023 0.044463776 0.011266461
0001f0 4f 43 a4 3c 2b de 4a ba 25 43 a8 3d 75 7a af 3b
       0.020051626 -0.0007738794 0.08215932 0.005355174
000200 03 71 95 bc 39 36 2c 3d 77 7b 40 3d 52 83 94 bd
       -0.018242365 0.0420439 0.046992745 -0.0725161
000210 62 36 5e 3c bf e0 bf 3c ea d8 4b 3c a6 67 21 bd
       0.013562771 0.023422597 0.012441853 -0.039405487
000220 5f 44 e4 3c 98 8f 2b 39 18 60 b2 bd 70 01 95 3c
       0.027864633 0.00016361324 -0.08709735 0.018189162
000230 f7 45 dd bc 7c fc 01 3d 32 e6 1f 3d 63 b4 42 3b
       -0.0270109 0.03173493 0.03903789 0.002970957
000240 7d fa d4 3d 97 cd 1c 3d 40 73 a5 bc ff 0c 41 3d
       0.10399339 0.038282003 -0.020196557 0.047131535
000250 26 8e a6 bc ce 14 9e 3d b3 ff 31 bd 59 8e 13 3c
       -0.020331454 0.07718812 -0.043456744 0.009006106
000260 53 b7 3e bd 2c aa df 3b 7e 30 20 3a 94 39 39 3c
       -0.04656155 0.006825706 0.00061107415 0.011305232
000270 ee ee 76 bd 7e 9e e7 bc 69 98 13 bd 3d f3 57 bd
       -0.060286455 -0.028273817 -0.03603402 -0.052722204
000280 00 6f 10 3d 98 9b 59 3c 7d 55 a0 3b 07 16 b0 3c
       0.035262108 0.013281725 0.0048930035 0.021494878
000290 83 2d dd bc 94 11 f4 bc 7a 0a 8e 3d 50 12 0a 3d
       -0.02699924 -0.029793538 0.06935592 0.03370887
0002a0 2d 53 e1 3c 07 63 ff bc d3 82 5c 3d ac e8 8d bc
       0.027505482 -0.03117515 0.0538357 -0.01732286
0002b0 2e 3d 3a bd 00 31 a3 bd c8 c3 71 3d be f0 5b bd
       -0.0454685 -0.079683304 0.059024602 -0.053696387
0002c0 67 d0 58 bd 51 e3 ed bc 7c b7 d0 ba 24 35 cc bc
       -0.052933123 -0.029039057 -0.0015923823 -0.024927683
0002d0 be 05 7e bc 91 61 63 bc bd be 35 3d be 1e b1 3c
       -0.015504299 -0.013878242 0.044371355 0.021621104
0002e0 2d d8 c0 bc 62 26 2d bd cb 6e 11 3d 6b 38 a3 bd
       -0.02354058 -0.042272933 0.03550605 -0.07969745
0002f0 43 7b a9 3b 0f 42 e4 bc f2 2b b9 bb fb 06 5d bb
       0.0051721646 -0.02786353 -0.0056509906 -0.0033726085
000300 c1 17 a3 3d fe c3 2f 3b f2 1b e9 3c a1 ea bb b8
       0.07963515 0.0026819701 0.028455708 -8.960558e-05
000310 29 21 60 3d 9a c0 91 bc ab d6 14 bd 4a a0 04 3d
       0.054719124 -0.017792035 -0.036337536 0.032379426
000320 bd af 59 bd a1 da 6a bc f7 cd fd bc de eb 45 3c
       -0.053146113 -0.014334352 -0.030982 0.012080161
000330 3a cf 77 3d a6 e6 02 bd f1 a6 66 3d 0c 3f a9 bd
       0.06050036 -0.031958245 0.05631155 -0.08263978
000340 4b 77 99 3c 88 bf 6d 3a d6 5d 0d bd da ed cd 3d
       0.018733641 0.0009069373 -0.034513317 0.10055132
000350 b4 4a 82 bd 03 e1 3d bd c8 03 8b bc 38 58 13 3c
       -0.06361905 -0.046357166 -0.016969576 0.008993201
000360 d7 28 49 bb 12 5d 48 bd 14 1a dd bc bd 0d 34 3d
       -0.0030694508 -0.048916884 -0.026989974 0.043958414
000370 fb d9 8e 3d 47 4a c1 bd fd 16 c9 3d ca c6 68 3c
       0.0697517 -0.094379954 0.09818838 0.014207551
000380 5b 14 d5 3b 71 10 3d 3d 4c 30 c5 bc 54 46 45 bd
       0.0065026707 0.046158258 -0.024070881 -0.048162773
000390 e7 7b 32 bc a8 65 e2 3c 64 da f2 bc ad bf 03 3a
       -0.010893798 0.027636364 -0.029645152 0.00050258153
0003a0 60 d6 13 bd 92 dc a6 bd 43 55 92 3d 93 93 95 bd
       -0.036093116 -0.08147539 0.07145169 -0.07303538
0003b0 cb 6e 00 3d f5 d5 b7 3c 99 53 78 bd 31 a2 8b bd
       0.03135566 0.02244089 -0.0606266 -0.06818045
0003c0 c0 7d 4f bb 02 e9 29 bd c4 95 38 3d 50 9d 8e 3d
       -0.0031660646 -0.04148198 0.045064703 0.06963599
0003d0 90 a1 34 3d 5d 40 6a 3d f1 d3 c3 bd d6 f0 af bc
       0.04409939 0.057190288 -0.09561909 -0.021477144
0003e0 d6 74 c0 bc f5 7d 79 bd 4b ea 9a bd 11 b5 aa 3d
       -0.023493212 -0.060911138 -0.07564219 0.08335317
0003f0 ef ea 33 bd 07 5b 84 3c b9 62 93 bd 34 4b a9 bd
       -0.043925222 0.016156686 -0.07196564 -0.08266297

f0.4.bias f4 [130]
000000 80 56 f1 3b 90 b1 a4 3b 24 a5 4a bc 1c 35 e4 3b
       0.007365048 0.00502605 -0.012368474 0.006964339
000010 82 e9 07 3c d9 d8 c2 3c f3 36 f7 bb 7c ea c4 bc
       0.008295419 0.023785042 -0.0075443923 -0.024037592
000020 1c cc 78 3d d4 3d 65 bd 1f d9 bb bc 44 2c 8f bc
       0.06074153 -0.055967167 -0.02293068 -0.017477162
000030 da f3 f9 bc 81 f9 4b bd 71 14 a6 bb 02 0d e5 bc
       -0.030511785 -0.049798492 -0.005068355 -0.027960304
000040 a4 d6 63 bd 28 23 76 3c 81 ea c0 bc d9 00 85 bc
       -0.05562462 0.01502303 -0.02354932 -0.016235756
000050 4e d9 42 3d 36 89 8d bc 21 78 66 bd 46 dc 17 3d
       0.04757052 -0.017277341 -0.056266908 0.037075303
000060 38 c6 ba bc 3c 60 5e 3d 3e 92 70 bd 08 db 6c 3d
       -0.022799596 0.054290995 -0.058733217 0.057826072
000070 18 4a cc bc 76 d1 4b bd 5a dd 59 bd 76 26 66 bd
       -0.024937674 -0.049760304 -0.053189613 -0.056189023
000080 5a eb 12 bd 6a 80 4d bd dd 61 e4 bc 81 ff 82 bb
       -0.03586898 -0.050171293 -0.027878696 -0.0039977436
000090 8a 9f 6a 3d 64 af fa bc 10 ff 4d 3d da 19 4c bb
       0.057281055 -0.03060121 0.050292075 -0.0031143338
0000a0 8b 42 8e bc 76 de 11 bd 0b 9d 6f bd d9 56 0f bd
       -0.017365715 -0.035612546 -0.058499377 -0.034994934
0000b0 84 9b 8e 3c 26 61 62 3a a3 e0 7f bd ac e3 14 3d
       0.01740814 0.0008635692 -0.06247009 0.036349937
0000c0 50 fa f0 bc 98 61 bc bc b9 4b a3 bc 94 c7 1d 3d
       -0.029416233 -0.022995755 -0.019933568 0.03852041
0000d0 96 c3 22 bd 5b c4 f0 bc 6b a9 83 bd fb 78 02 bd
       -0.039737307 -0.029390505 -0.06428798 -0.031853657
0000e0 5a 69 20 bd 9e 39 6a bd 33 f7 e4 bc 00 0c 72 3b
       -0.03916297 -0.057183854 -0.027949905 0.0036933422
0000f0 69 69 b3 bb 2e 2a 3d bd a8 d1 1f 3c a1 f7 5b bd
       -0.0054752124 -0.046182804 0.009754576 -0.053702954
000100 d4 04 47 3a f6 b2 0c bd 5e 1b e6 bc 84 3a c4 3c
       0.0007591967 -0.034350358 -0.028089222 0.023953684
000110 46 70 32 bd 88 0d a4 bc 6e c4 60 bc 4c d8 49 bd
       -0.043564104 -0.020025983 -0.0137187075 -0.049278542
000120 49 00 52 bd ae 60 9e bc b8 0b 4c 3c 5f b4 04 bd
       -0.051269803 -0.01933321 0.012453966 -0.032398578
000130 5c 88 0a bc 48 47 64 bd b4 94 b0 bc d1 26 5e bd
       -0.008455362 -0.05573204 -0.021555282 -0.054236237
000140 7a 1f 3e bd c6 63 1d bd b1 d0 f9 3b 50 02 fc bb
       -0.046416737 -0.03842523 0.007623755 -0.0076907054
000150 ab c1 51 bc c0 ab ac bc a8 c8 1c bc 2c ac 51 3d
       -0.012802522 -0.02107799 -0.009569325 0.051189587
000160 27 7c 80 bd 0b 8a 0c bb 1e d7 4f bc c1 c5 2a 3c
       -0.0627368 -0.0021444585 -0.012685565 0.010423125
000170 a8 82 c3 3b 3c 5f 8b bd 04 87 60 bd 20 f5 9c bc
       0.005966503 -0.06805274 -0.05481626 -0.019159853
000180 b2 3e 5b bd ce 28 cd bb c4 6d d9 bb 02 c6 29 bd
       -0.053526588 -0.006260968 -0.0066353995 -0.0414486
000190 96 8a ad bc 0f 2c 88 bc fe ea 1f bd ae d8 6c 3d
       -0.021184247 -0.016622571 -0.039042465 0.05782383
0001a0 c9 bf c4 bc 74 7f c0 bc 50 8f 96 bc 2c 52 99 bc
       -0.024017232 -0.023498274 -0.018378884 -0.01871594
0001b0 46 02 ad bb f5 05 09 3c 1a 78 fd bc 84 3f 29 3d
       -0.005279812 0.008363237 -0.030941058 0.04132034
0001c0 40 96 11 3b d8 ad f6 3c ba af b8 3c 64 ec 59 bb
       0.00222148 0.030112192 0.02254473 -0.0033252472
0001d0 35 e6 ae bc bb 65 87 bc 4e c0 ad 3c 7a 68 7d bb
       -0.021350006 -0.016528001 0.021209862 -0.003866701
0001e0 c0 03 7c 3b b1 07 aa bc ca eb 56 3c 9b b2 ec bc
       0.0038454384 -0.02075562 0.01311774 -0.02889376
0001f0 c0 72 fa 3c 70 d1 4d 3d be 2a 29 bd 70 35 57 bd
       0.030572295 0.050248563 -0.041300528 -0.052541196
000200 7e 4b e2 3a 78 3e 7d 3c
       0.001726493 0.015456788
