model/model.pth (torch, 768263 bytes, 6 tensors)

f0.0.weight f4 [256, 390]
000000 d6 40 6e b9 23 73 2b bd 03 50 d7 bb c5 93 d0 bb
       -0.00022721602 -0.04185785 -0.0065708174 -0.0063652718
000010 25 bd 03 bd 82 1e f8 3c a2 ba 8d 3c f0 cb 82 bc
       -0.032162804 0.030287985 0.017300908 -0.015966386
000020 ad c6 32 bd b6 f3 ad 3c 25 67 29 bd ef d4 93 3c
       -0.043646503 0.021234374 -0.041358132 0.01804587
000030 fd 05 81 3b 32 b1 12 3d 8e 46 0b 3c 5d a8 75 bb
       0.0039374814 0.035813518 0.008500708 -0.0037484386
000040 f1 f5 84 3c f4 ea 0b 3d 0a 96 02 3d 35 e7 68 bb
       0.016230555 0.034159616 0.03188137 -0.00355382
000050 bc f4 17 bc 65 65 8c 3c d0 bf 58 bc ca 59 92 3b
       -0.009274658 0.017138192 -0.013229325 0.00446627
000060 2f b2 57 bc a8 9a 20 bd 54 40 4c 3d 8c 0f 48 bb
       -0.013165041 -0.03920999 0.049866036 -0.0030526845
000070 7f a6 38 3d 59 bf 1a bd b3 40 9b bc 5f 4f 0b bd
       0.045080658 -0.03778014 -0.01895175 -0.03401124
000080 39 57 33 3b 43 5f 0a 3d 00 00 37 3d 93 4e 2c 3d
       0.0027365221 0.033782255 0.044677734 0.04206712
000090 42 24 e9 bc 71 c1 17 3d 0c b1 bf bc ad c8 30 bd
       -0.028459672 0.037049714 -0.023399852 -0.04316013
0000a0 a4 b5 5d bd 3a a6 56 bb fd 23 13 3d ba d7 2f 3d
       -0.054128304 -0.0032752887 0.035922993 0.042930342
0000b0 1c c7 c5 3c 8b 1e 53 bd d6 9b 04 ba 52 07 2c bd
       0.024142794 -0.0515428 -0.0005058622 -0.04199917
0000c0 39 4a 2e bb 3c bd 49 bd 31 0c c8 3c 7a 89 4a 3c
       -0.0026594533 -0.049252734 0.024419876 0.0123618785
0000d0 e4 a5 13 3c 17 bb 0c bb a8 2b 05 bd 52 a8 d0 3c
       0.009011719 -0.002147382 -0.032512337 0.025470886
0000e0 03 2e dc bc 0e ef 57 bd 68 87 83 3b 8d 8d 69 bc
       -0.026877409 -0.052718215 0.0040139444 -0.01425494
0000f0 b5 2d 49 bd 73 4a 04 bd d0 59 06 3d 15 10 db 3c
       -0.049115855 -0.032297563 0.032800496 0.026741067
000100 a4 80 02 bd fc 57 0e 3b e6 32 e6 3c d8 af 23 bd
       -0.031860963 0.0021719923 0.028100442 -0.03996262
000110 f0 58 25 bc 21 e6 90 bc 14 02 16 bd 26 9f 1f bc
       -0.010092005 -0.017687859 -0.036623076 -0.009742534
000120 46 3a 78 3c 88 22 54 3c f4 f3 94 bc fb f6 2e bd
       0.015150612 0.012947686 -0.018182732 -0.042716008
000130 84 57 01 3d 00 fa 0d bd 3f 17 f7 bb b6 95 89 3b
       0.031577602 -0.034662247 -0.007540613 0.004198755
000140 8f d9 37 3d b1 d3 ae 3c ec 3f 5f 3b 41 72 3e 3d
       0.044885214 0.021341177 0.00340652 0.04649568
000150 83 fc 95 3b 3e 14 e8 3c 51 41 c2 3c 61 64 6b bb
       0.004577221 0.028329965 0.023712786 -0.0035917985
000160 62 c0 2e bd ca 1c 72 bc fe 43 07 ba ac 0c da bc
       -0.04266394 -0.014777372 -0.0005159973 -0.02661737
000170 07 de ee 3c b3 f3 a0 3c 05 0c d7 3c d7 c7 72 bc
       0.029158605 0.019647455 0.026250849 -0.014818153
000180 77 57 ff 3b 94 81 21 bd df d3 32 3a a1 46 e3 bc
       0.007792409 -0.039430216 0.00068217324 -0.02774364
000190 6c 43 29 bc ad 75 ee bc 9a b6 10 bd ad 24 4c bd
       -0.010331016 -0.029108847 -0.035330392 -0.049839664
0001a0 35 1a 62 bb ea 8e b7 3c dc 04 bc 3c 53 ed 1d 3d
       -0.0034500484 0.022407014 0.022951536 0.038556408
0001b0 82 2f e1 bc db ed 40 bc 3c 8a d4 bb 5f 42 91 3c
       -0.027488474 -0.011775459 -0.0064862054 0.017731844
0001c0 e3 10 db bc 52 8a 05 bd 02 0d a6 bc 25 e3 99 bc
       -0.02674145 -0.032602616 -0.020269874 -0.018785069
0001d0 ff b9 0d 3a be 86 b9 bb 79 ae 2d bd bd 66 40 bd
       0.0005406439 -0.0056618145 -0.04240272 -0.04697298
0001e0 83 7b 1d 3d 3b 6c 3a bd a0 95 3f bc 47 19 f1 3c
       0.038447868 -0.045513373 -0.011693388 0.029430998
0001f0 5d 0e 0e 3d f5 eb dd bc 62 f7 80 3c 5c 0c a3 bc
       0.034681667 -0.027090052 0.015742961 -0.019903354
000200 d4 9f a5 3c ef e4 43 3a 8a c5 40 bd e5 e8 ff b9
       0.020217814 0.00074727734 -0.047063388 -0.0004881091
000210 02 b6 51 3c 8d 9e 2d bc b0 ea 97 3c f0 c3 08 3d
       0.012799742 -0.0105968835 0.018544525 0.033389986
000220 ae 57 2e bd ac b2 73 bc 98 f7 ea 3c e8 fe 63 3c
       -0.042564087 -0.014874142 0.028682515 0.013915755
000230 83 0d 9b 3c 21 74 23 3d 6e bc 35 3d a8 f1 fa 3c
       0.018927341 0.03990567 0.044369154 0.030632809
000240 b4 6e 32 bd 9d 9c 10 3c 83 2a 9e bc be 15 8d bb
       -0.043562606 0.008826402 -0.01930738 -0.0043055704
000250 9f d7 a2 bc 86 94 f4 3c 9d 7e 83 3a 74 c5 26 bd
       -0.019878207 0.029855978 0.001003224 -0.04071565
000260 26 d0 46 3d dd da ac 3c 02 06 a2 bc 6a a3 61 b6
       0.04853835 0.021100456 -0.019778255 -3.3622732e-06
000270 9c 1d b1 bc 95 2f 2c 3c 17 25 34 bc ab 6d 80 3c
       -0.021620564 0.010509391 -0.010995171 0.015677294
000280 0b 64 af 3c 19 38 93 3c be fd f5 3c 0a c9 3a bd
       0.021410009 0.017971085 0.03002822 -0.045601882
000290 b0 75 9f 3c f0 0f e2 bc a1 39 27 bd 35 de 1e 3d
       0.019465297 -0.02759549 -0.040826444 0.038786132
0002a0 8c c8 ff 3c 48 d4 f0 3c 88 c5 00 3d 9c 77 2c 3d
       0.031223558 0.029398099 0.03143838 0.042106256
0002b0 43 d7 fc 3c 70 2b 07 3d 9c 7d 18 3c 3f df 4d 3d
       0.030864364 0.03300041 0.009307291 0.050261732
0002c0 de d1 93 bc 93 c3 ff bb 1b 6e e9 b9 3b a1 48 bc
       -0.018044408 -0.0078052967 -0.00044523258 -0.012245472
0002d0 f7 5c c3 bc 32 08 8d 3c f5 e9 ae 3c 6e 21 22 3c
       -0.02384804 0.017215822 0.021351794 0.009895666
0002e0 4f b0 14 bd a9 af c3 bc 10 1a 3b 3d 5b fa 71 bc
       -0.036300953 -0.023887472 0.045679152 -0.014769162
0002f0 28 33 47 3d 16 d3 d7 bc ff 08 26 3d c5 1d 82 bc
       0.04863277 -0.02634577 0.040535923 -0.015883336
000300 b7 38 7e 3c 8c 4d 1b bd 70 a9 b7 3b cd 2a be 3c
       0.015516452 -0.03791575 0.0056049153 0.023213768
000310 05 8e 0b bc 6d 82 1d bd 03 ce 30 3b 49 d9 96 bc
       -0.008517747 -0.03845446 0.0026978261 -0.018414157
000320 23 70 48 3d 93 e0 32 bd 56 28 2d bc 0b 9d 21 3d
       0.048935067 -0.043671202 -0.010568699 0.03945641
000330 a9 9e df bc 47 c4 de 3c 37 43 69 bc ac 9a 69 3a
       -0.027297335 0.027193202 -0.014237217 0.00089112925
000340 2f b2 ea 39 c5 a3 4c bc 23 5e 09 3d d5 e3 03 bd
       0.00044764715 -0.012490218 0.03353704 -0.0321997
000350 33 10 82 bc ff 18 a4 bc 27 10 43 3d 65 79 31 bd
       -0.015876865 -0.02003145 0.047622826 -0.04332866
000360 a7 cb 8c bb 72 e6 fb bc f0 c1 0f bb 25 7a 6a bd
       -0.004296738 -0.030749533 -0.0021935664 -0.057245392
000370 d6 08 0d bd 7b 72 3d bd bc 7f 3d bd 3f 9f 85 bb
       -0.034432255 -0.046251755 -0.046264395 -0.0040778215
000380 57 88 a9 b8 0a 1f 53 bd 4a 10 9f bc a4 3c 8e bc
       -8.083943e-05 -0.051543273 -0.019416947 -0.0173629
000390 15 98 bb bc f4 dd 45 3d 0e 42 a9 3a 17 71 28 bd
       -0.022899667 0.048307374 0.0012913363 -0.041123476
0003a0 ed 27 c9 3b ab c8 d2 bc e0 05 e7 bc 51 0b c3 3c
       0.0061387927 -0.025730452 -0.028201044 0.023809107
0003b0 91 42 db 39 4b 7e 5c 3c 8b 66 6d bc e8 04 02 3d
       0.0004182053 0.013457845 -0.01448978 0.03174296
0003c0 7c ac 95 bc fc dc d7 bc 81 67 ed 3a 24 c2 e7 bc
       -0.018270724 -0.02635049 0.0018112512 -0.028290816
0003d0 8e 3f 83 3b da 59 1f 3b a0 36 f3 3c 25 61 40 3d
       0.004005379 0.002431503 0.029689133 0.046967644
0003e0 58 9a 8e 3c 7c 5d 53 3d e6 e3 23 3d 14 9a bb 3b
       0.017407581 0.051602826 0.040012263 0.0057251547
0003f0 e3 2b 0e bd 7c 6e a4 3c 30 7a 0d 3d 5f b6 8e bc
       -0.034709822 0.020072214 0.034540355 -0.017420946

f0.0.bias f4 [256]
000000 26 41 83 bc 39 80 ba bc 81 81 27 bd b4 4e fb bb
       -0.016022276 -0.02276622 -0.04089499 -0.0076692943
000010 cd 56 e0 3c 20 3b 24 bd 39 1c d5 3d 94 ce 93 3d
       0.02738514 -0.04009545 0.10405774 0.07217136
000020 4d d3 36 bd 64 7f 96 3d b9 3b 0e bd 5b 85 9e 3d
       -0.044635106 0.073485166 -0.034724925 0.07740279
000030 bd 65 35 3d ac a1 14 bd 96 74 5c 3d 2b 73 4e bc
       0.04428648 -0.036286995 0.053822123 -0.0126007
000040 57 39 42 bd e6 8a 59 3c 83 e8 44 bd ad f2 93 3a
       -0.047417965 0.013277745 -0.048073303 0.0011287533
000050 bb cf 45 3a de 61 bf bc 7f 76 09 3d 5e 21 8e 3c
       0.0007545908 -0.023362096 0.033560272 0.017349895
000060 11 50 fa 3d 0a 1b 8e 3d d4 80 5d 3d a2 d7 54 bb
       0.12222303 0.06938751 0.05407794 -0.003247716
000070 c7 89 19 bd a2 09 79 3d 24 80 5a bd 24 d3 7d 3d
       -0.03748491 0.060800202 -0.05334486 0.061968938
000080 7c 55 51 3d cc bc 49 bd 42 79 c5 3b 68 21 ae 3d
       0.051106915 -0.049252316 0.006026418 0.085024655
000090 04 37 9b 3d a7 52 f4 3c 6f 4d 93 3d b1 b9 87 3d
       0.07578853 0.029824568 0.07192504 0.06627215
0000a0 65 23 8e bb 6f 0f 17 bc ab f9 e8 3c a0 06 de 3c
       -0.0043377155 -0.009219988 0.028439363 0.027102768
0000b0 a8 88 a7 3c d2 aa 88 3c 4e 59 46 bd b8 ce 8b 3d
       0.020450905 0.016683016 -0.04842501 0.06826538
0000c0 ab 5c 43 bd 02 2d 7c 3d a8 47 1e bd 69 eb 17 3d
       -0.047695797 0.06156636 -0.038642555 0.03708974
0000d0 30 c3 44 3d b0 f6 c7 3c 9e 5c c0 3c d6 12 39 3c
       0.048037708 0.024409622 0.023481663 0.011295995
0000e0 ad 93 c9 3b 6c d8 69 bb 30 65 af 3d cb 6f 91 3d
       0.0061516375 -0.0035681976 0.08564222 0.07101401
0000f0 66 0e 63 3d 68 8c 91 3d 62 fc 39 bd dd 88 57 bd
       0.055433653 0.071068585 -0.045406707 -0.052620757
000100 fe 91 bd 3c 30 04 ad 3c dd b1 1e 3d 8d a4 17 3c
       0.023140904 0.02112016 0.038743842 0.009255541
000110 13 0d 0a 3d b0 8c a4 3d 3d 87 0b bd f7 64 04 3d
       0.033703875 0.080346465 -0.03406452 0.03232285
000120 1e e6 55 bb 6b fd c2 bc 85 9d 06 bd f8 9c 12 3c
       -0.0032638381 -0.02380248 -0.032865066 0.008948557
000130 a0 84 a0 bb 64 d3 a6 3d f2 4b 7f bb 63 2a cd 3d
       -0.0048986226 0.08145788 -0.003895518 0.1001785
000140 80 40 64 3d fa 73 54 bc cc 53 17 bd 58 5b 68 3c
       0.055725574 -0.012967104 -0.03694515 0.014181934
000150 50 46 54 bc d7 c3 c0 3d 46 e5 8d 3d 7b 5e c3 3b
       -0.012956217 0.094123535 0.06928496 0.0059621907
000160 d1 21 02 bd 50 43 a4 3d 59 50 5a 3d c8 3b 9a 3d
       -0.03177053 0.08020651 0.05329928 0.075309336
000170 ce 36 6a 3b be 5d a4 3d 05 b5 ed 3c d7 12 88 3d
       0.0035738233 0.080256924 0.02901698 0.066442184
000180 3d 1d 4e bd 7d 74 9e bc f9 62 04 bc 30 e9 91 bc
       -0.050320853 -0.019342655 -0.008080238 -0.017811388
000190 7e 6d 87 3b cb 34 76 bc cc e2 3c bc 62 b8 8c bc
       0.0041329255 -0.015027235 -0.011528682 -0.017177764
0001a0 b0 3b a5 3c 5d a8 af 3d 28 a3 d2 3c ad 4b 99 3d
       0.020170063 0.085770346 0.025712565 0.07485137
0001b0 b2 77 e8 bc fa f5 d1 3c d3 2a a8 3c 12 c6 b8 3d
       -0.028377388 0.025629986 0.020528233 0.09022154
0001c0 3c 17 a4 bb 5b 71 46 3c 80 bd 87 3d 63 8d f0 bc
       -0.0050076526 0.012111987 0.06627941 -0.029364293
0001d0 d1 8c b3 3d b6 8a 1d bd 80 71 07 3d 37 39 e5 3d
       0.08767093 -0.038462363 0.033067226 0.111925535
0001e0 11 87 61 bd 6f 8a 5b bd 1e a3 34 3e a5 52 f1 3c
       -0.05506045 -0.053598817 0.1764035 0.029458353
0001f0 89 9e b7 3c 95 97 d7 3c 33 b1 64 3d be e4 9e bc
       0.022414463 0.026317397 0.055833053 -0.019396182
000200 ee 01 00 3d 2c 55 2d bd 2f d6 2f 3b 5c c2 19 bd
       0.03125184 -0.042317554 0.0026830544 -0.03753887
000210 1a 27 6e bc 83 4f 85 3d e9 9c ab bc c0 03 99 3d
       -0.01453569 0.06509306 -0.020948844 0.074714184
000220 ef 08 4e 3b 87 34 0c 3d e0 f1 13 bc 62 54 f9 bc
       0.003143843 0.03422978 -0.009029835 -0.030435745
000230 ba 58 87 bd 69 6c e6 bc 6a 58 a1 3d 30 1e c9 bb
       -0.0660872 -0.028127866 0.07878192 -0.006137632
000240 11 c9 06 3c 73 51 e8 bc cb 92 9f bc 92 f3 f1 3b
       0.008226649 -0.02835915 -0.019479176 0.007383772
000250 b2 98 90 3d 4b ab 4d bd e9 77 c4 3c fe b2 90 3c
       0.07060374 -0.050212186 0.023982959 0.017663475
000260 d1 d3 a4 3d 7b af 7a 3d c0 98 af 3d aa ae 65 bd
       0.08048213 0.061202507 0.085740566 -0.056074776
000270 dc b9 60 3d 68 19 98 3b 08 04 2b 3c 28 20 1c bd
       0.05486475 0.0046417005 0.010437973 -0.038116604
000280 f7 58 89 3d c0 46 5a bd 1d f3 bf 3c af 61 a8 bc
       0.06706422 -0.05329013 0.023431355 -0.020554392
000290 a3 0c 43 3b 7e 93 bb 3d e0 80 b5 3c ca 40 76 bc
       0.002976217 0.09158991 0.022156179 -0.015030095
0002a0 5e dd 52 3d 23 c6 c8 3c 9d a5 a3 3d 62 8d 43 bd
       0.051480643 0.024508541 0.079905726 -0.047742255
0002b0 1e 0a 6c bc 5e 66 ff bc ab 25 43 bd 0b d6 05 3c
       -0.014406709 -0.031176742 -0.047643345 0.008168708
0002c0 93 6c 3a bd 50 7d 8c 3d 14 5f 58 bd e6 c7 33 3d
       -0.0455137 0.06859839 -0.05282505 0.04389181
0002d0 de e3 b6 bc 56 cd 89 3b d5 f1 70 3c 15 a9 4d bd
       -0.022325452 0.004205386 0.014706095 -0.050210077
0002e0 55 23 93 3d ce c7 11 3d 08 34 8e 3d 25 1d 13 bb
       0.071844734 0.03559094 0.06943518 -0.0022447791
0002f0 9d da aa 3d ac 9f 44 bd 08 a0 15 bc a0 00 12 3c
       0.083424784 -0.048003837 -0.009132393 0.008911282
000300 e7 98 5f bd 6f 83 c9 3c c0 81 4d bd a8 22 13 3d
       -0.05458918 0.024598805 -0.050172567 0.035921723
000310 da a5 a9 3d f0 2e 0d bd e3 ff a6 3c 8c b3 07 bd
       0.08283587 -0.03446859 0.020385688 -0.033130214
000320 fd 51 fc 3c 07 7a ed 3b 2a 6c dd 3c be aa c7 3c
       0.030800814 0.007247213 0.027029116 0.024373408
000330 61 44 c4 3b 7f fb a4 bc 7f 37 4b bd 81 c6 0a 3d
       0.0059895967 -0.020139454 -0.049613472 0.033880714
000340 a3 cc 6c 3c dd fa 3a 3c 4f a4 67 bd 0f 8e cd 3c
       0.014453086 0.0114123495 -0.05655318 0.025092153
000350 f3 f6 bb bb 5e ca b7 3d 1a 97 b1 3a 5f 86 6c 3d
       -0.0057362258 0.08974145 0.001354906 0.057745334
000360 6d f5 50 3d b1 2f 02 3d 96 9b 7f 3c 07 5e 38 3d
       0.051015306 0.031783763 0.015601059 0.045011546
000370 44 f4 5a bd e1 1c 97 3d ef 3f 0b 3c a7 6f 8e 3d
       -0.053455606 0.07378555 0.00849913 0.0695489
000380 0b fc 71 bd 9b d3 9c 3d 9a 1b bd bc 61 5f 35 3d
       -0.059078258 0.07657548 -0.02308445 0.044280414
000390 67 16 aa 3c c1 14 c3 3d 6c 24 0d 3d 9b be 5b 3c
       0.020762635 0.09525443 0.034458563 0.013412143
0003a0 6a 6a 2e 3d 5c 1c af 3d 9f f6 90 bc c1 31 fb 3a
       0.042581953 0.08550331 -0.017695723 0.0019164608
0003b0 4e 49 82 3d 81 47 81 ba ea 32 12 bd 23 b4 2a bd
       0.06361638 -0.0009863229 -0.035693087 -0.041675698
0003c0 ef f3 af 3c 49 b7 a3 3d 4e 2e 2b 3c 9f 09 1d bd
       0.021478621 0.07993943 0.010448052 -0.038339254
0003d0 c9 22 b6 bc ce 0e 55 3c 08 30 a5 3d 7b b6 7c ba
       -0.022233384 0.013004018 0.08065802 -0.0009640229
0003e0 48 41 f9 bc ed 43 7b 3d 4f 63 b9 3c 2b 0c 99 3d
       -0.030426636 0.061344076 0.022630362 0.07473024
0003f0 b2 c1 9e 3d 24 83 50 bd 2a e9 2f bd d8 73 5f bd
       0.07751788 -0.050906315 -0.042946972 -0.054553837

f0.2.weight f4 [256, 256]
000000 4a 8d e3 3b 69 b7 f6 bb ca 41 57 bd d0 63 2c bd
       0.006944333 -0.0075291884 -0.052552976 -0.042087376
000010 59 c4 82 b9 95 55 5c bd 88 2f 13 bb ca cb fb 3a
       -0.00024941823 -0.053792555 -0.002245875 0.0019210514
000020 3d 9e c3 3c 4c 01 1e 3c e5 f2 82 bd 3f 38 04 3d
       0.023879165 0.009643864 -0.06393985 0.032280203
000030 f4 e9 0c bd 23 a1 3f bd c4 92 60 3d 64 f9 45 bb
       -0.034402803 -0.04678453 0.054827467 -0.0030208463
000040 c6 e9 17 3d 83 1f da bc ba a8 4e bd d1 e5 73 3d
       0.037088178 -0.026626354 -0.05045388 0.059545342
000050 f4 4c 3c bd 6d 5c 01 3d 19 39 68 bc b9 68 88 bd
       -0.045971826 0.031582285 -0.014173769 -0.06660599
000060 df 78 33 3e 28 48 38 3d 51 55 0b bc 4c d9 17 3c
       0.17526577 0.04499069 -0.008504228 0.009268116
000070 11 53 d8 bc f1 c0 84 bb fa e0 54 3d ec 55 e0 3d
       -0.026406797 -0.0040513207 0.051972367 0.10953888
000080 3d e2 73 3d 0e 1b 3c 3d 46 59 8d bd de 06 cd 3c
       0.05954193 0.04592424 -0.06901793 0.025027689
000090 a5 65 b2 3d 9b b8 c9 bc 1d ef 96 3d 16 26 f1 bb
       0.087107934 -0.02462416 0.07369826 -0.0073592765
0000a0 71 65 a0 3a 02 7d 99 bd f6 c8 2f bd f9 0f f8 bc
       0.0012237263 -0.074945465 -0.04291626 -0.030281054
0000b0 fa 5f 1b bc 5d 71 cd 3b 7e cb 60 bd d5 57 32 3c
       -0.009483332 0.0062696175 -0.054881565 0.010885199
0000c0 41 65 9c bb e1 e5 01 bd e3 01 67 bd 27 8d e9 bc
       -0.0047728126 -0.03171337 -0.056398284 -0.02850969
0000d0 2e 76 a3 3d 86 b0 5c bc 7c 4a 07 3c e5 ef 2e 3c
       0.07981525 -0.013469821 0.008257505 0.0106773125
0000e0 8f a8 c0 3c 8b 51 e3 bb b4 9c 88 3d 5e f7 c7 3c
       0.023517875 -0.006937211 0.06670514 0.024409946
0000f0 53 0e 20 3d 14 a4 25 3d f5 a7 6a bd 3a f5 79 bd
       0.03907616 0.04043968 -0.057289083 -0.061024882
000100 9c 7a 0a 3c 7f cc 81 3d 62 28 33 bd 8e e2 47 3d
       0.008452084 0.06337833 -0.043739684 0.048800044
000110 e6 3e 16 3c 96 cc cf 3c df a0 b5 3c 22 2d 4c 3d
       0.00917027 0.025366109 0.022171436 0.04984773
000120 12 d3 73 bc aa e2 e3 bc 30 14 39 bb 50 26 0d bd
       -0.014881866 -0.027818043 -0.0028240792 -0.034460366
000130 1f 26 8c bb 52 49 b4 bc 85 ba 1c 3d d6 a1 d9 3d
       -0.0042770053 -0.022007618 0.038263816 0.10626571
000140 ee 96 58 3d 66 60 04 3d 75 d5 26 3d 71 fb e5 3c
       0.052878313 0.032318495 0.040730912 0.028073998
000150 2d 1f 02 bd b7 9e 9d 3d 3b b7 50 3c 64 8e 31 3d
       -0.031768013 0.07696288 0.012738998 0.043348685
000160 d5 01 02 3d a8 ed 98 3d c4 d8 13 3d ed b9 29 3c
       0.03174003 0.07467204 0.036095396 0.01035927
000170 cd d7 ec bb 57 8d 3a 3d b3 fd 0f bd d9 29 10 3d
       -0.007227874 0.04554495 -0.035154056 0.03519616
000180 a6 ec 51 3d b4 2e 26 3d b4 ea fe bc 56 bc 09 bd
       0.051251076 0.040571883 -0.031117775 -0.033626877
000190 18 7b 91 3c cd 90 79 3d 00 11 a4 bc f1 3f 23 3d
       0.017758891 0.06092911 -0.020027637 0.0398559
0001a0 1b d3 17 3d 38 25 87 3d ba cf f6 3c 9e 22 c7 bb
       0.03706656 0.06598896 0.030128349 -0.0060771247
0001b0 3c e9 47 3d 00 ed 8a 3d 4c eb ef 3b 63 89 a0 3d
       0.048806414 0.067834854 0.0073217507 0.078387044
0001c0 b4 2c 8a 3c d4 50 9e 3d 0b 23 63 bb 66 d0 46 3c
       0.01686702 0.077302605 -0.0034658338 0.012134647
0001d0 ea e5 ba 3d 5d ef 87 bd c2 2e 1c 3c 2c 69 fc 3c
       0.09125884 -0.06637452 0.009532632 0.030811869
0001e0 e7 f7 e3 bc 90 5e 8b bc 6e 6b ff 3d 74 c3 3d 3d
       -0.02782817 -0.017012864 0.124716625 0.046328977
0001f0 c0 31 90 3c b7 37 a3 3d dc 09 27 3c e5 02 42 bb
       0.017601848 0.07969611 0.010195222 -0.0029603776
000200 9d 5d 04 3d c3 85 ad bc be e3 4b bc 12 01 e0 3c
       0.03231584 -0.021181947 -0.012444435 0.02734426
000210 9c 08 b1 3b ae 86 47 bc 80 00 ed 3b b6 a9 8a 3d
       0.0054026376 -0.012178106 0.0072327256 0.06770651
000220 aa c0 1a 3c ff e3 b6 3d f9 1a 17 3d 71 60 47 bd
       0.009445349 0.089302056 0.036890958 -0.048675958
000230 bc 2b 87 bc 75 ab 46 bd 8a 70 6d 3c 64 6f 25 3d
       -0.016500346 -0.048503358 0.014492163 0.040389434
000240 b4 7a 16 bd c7 af d6 bb c2 5d 6a bd 98 f0 90 3d
       -0.036738113 -0.006551716 -0.05721832 0.070771396
000250 a4 81 b9 3c d4 2e a2 bc 4b 9a 55 bd 29 2d 89 3d
       0.022644825 -0.01979772 -0.0521491 0.06698067
000260 fb 8b fd bc 4b 77 48 3d 57 61 c2 3d 20 b5 6b bd
       -0.030950537 0.04894189 0.09491222 -0.05754578
000270 8c 8e 5c 3c 95 55 1a bd 97 da fe bc 18 e8 60 bc
       0.01346172 -0.037679274 -0.031110091 -0.01372721
000280 94 00 d0 bb 07 c9 b1 3c a4 09 d6 3c 61 bc 17 bd
       -0.006347725 0.021702303 0.026127644 -0.037044886
000290 9a ff c5 3c 1d c7 af 3c 3d c1 0b bd 5d aa 11 bd
       0.024169732 0.02145725 -0.034119833 -0.03556286
0002a0 a2 9e 9a 3c 05 3e 06 bd c1 91 0f bd b9 25 0d bc
       0.01887447 -0.03277399 -0.03505111 -0.008614951
0002b0 7b 9c 9c 3c 90 79 3e bd 38 be 64 bd 37 c6 6e bb
       0.019117584 -0.04650265 -0.05584547 -0.0036434063
0002c0 32 ff 1a 3d 5c eb 8e ba 81 9c 8c bb 11 be 5f bc
       0.03784103 -0.0010903883 -0.0042911177 -0.013656155
0002d0 ec 91 3a 3c a3 d4 49 3c ed 41 fc 3c a3 1c 5e bd
       0.01138733 0.012318763 0.030793155 -0.05422653
0002e0 bf 8c ea 3a cf 25 14 3d 54 73 a1 bc e6 36 55 3c
       0.0017894729 0.03616887 -0.019708313 0.013013577
0002f0 ec b5 43 3d 42 84 93 3c 3f f3 5b 3d 3d 30 25 bc
       0.047780916 0.018007401 0.053698774 -0.010082302
000300 dd c7 4a bc af db 98 bc a2 05 32 3d c7 40 5b 3d
       -0.012376753 -0.01865944 0.043462403 0.053528573
000310 f2 c6 b1 3d 26 29 27 bd 31 a6 9f 3d 0a 29 d4 3b
       0.08680524 -0.040810727 0.0779537 0.006474619
000320 61 17 45 bd fc f3 a4 3d b5 cd b3 3d 05 b1 96 3c
       -0.048118 0.08054349 0.0877947 0.018394956
000330 5f 3f d1 3b 98 15 6c 3d ea de f1 bb a0 40 0c 3d
       0.0063857283 0.05763778 -0.0073813098 0.03424132
000340 15 fa d1 3c 58 4e 71 3d d7 5d 66 bd 1e ec 8c 3d
       0.025631944 0.058912605 -0.056241836 0.06880973
000350 a9 bf 5c bd f9 0d 6f bc 2b 08 ee bc dd dd fb 3c
       -0.05389372 -0.014590734 -0.02905663 0.030745441
000360 5a 2f 00 bd 4a 4c 8e 3d 85 40 30 3c 29 ce 8c 3d
       -0.031295158 0.06948145 0.01075757 0.068752594
000370 da 9e 5f bd b3 54 e0 3d 70 9c d7 bc 69 6f 30 b9
       -0.054594852 0.10953655 -0.026319712 -0.00016826171
000380 60 b9 16 bc 1b b1 52 3d 18 32 8a bb d4 19 38 bd
       -0.00919947 0.051438432 -0.0042173974 -0.044946507
000390 c9 c3 54 3d a9 24 20 bc 8a 7e c5 3d 0c 73 70 3c
       0.051944528 -0.009774365 0.09643276 0.014675867
0003a0 04 fb a8 3d 82 f0 48 3d bf f1 0a bd 3f 9b 86 3d
       0.082510024 0.04905749 -0.033921953 0.065725796
0003b0 5e 8d 72 3b 62 99 1d 3a 64 4e 3f 3d 23 29 fb bc
       0.003701053 0.00060119305 0.04670562 -0.030659264
0003c0 70 c9 8b 3d 34 a1 56 3d dc 08 82 ba 0d 49 75 3d
       0.068255305 0.05239983 -0.0009920853 0.05988412
0003d0 39 ca 97 bc 4c f2 60 3d fa 03 98 bc d1 0d 3f bd
       -0.018529044 0.054918572 -0.018556584 -0.046644036
0003e0 82 df 26 3d 47 83 83 3d 88 d9 2c 3d 61 d8 3b 3c
       0.040740497 0.064215235 0.04219964 0.011465163
0003f0 3b cf 95 3d b0 46 b9 bc 85 ed 52 bd 68 8a 42 bc
       0.07314917 -0.022616714 -0.051496048 -0.011873819

f0.2.bias f4 [256]
000000 51 c3 67 3d 76 14 46 bd 10 09 8a 3d 5c 07 69 3b
       0.056582753 -0.048359357 0.0674001 0.0035557365
000010 33 1a 10 bc 95 82 7c bd eb 36 4a 3d 3a 2a 8e b9
       -0.008795309 -0.06164797 0.04936878 -0.00027115812
000020 ac a1 23 3d 4c df 42 bd ce 12 9e 3d 26 4b 61 3d
       0.039949104 -0.047576234 0.077184305 0.055003308
000030 1a ab 83 3c 95 91 94 bb 3d 6d 90 3d ec 8f 4e bc
       0.016072799 -0.0045339563 0.070520855 -0.012607556
000040 d6 37 1c bd 70 d7 4b 3d 29 5b 3b bd 42 1b c3 3d
       -0.038139187 0.049766004 -0.045741234 0.095266834
000050 b2 fb 46 bd 90 d5 d8 3d b6 57 28 3d 3c d6 ba 3d
       -0.04857988 0.10587609 0.041099273 0.09122893
000060 cd e0 8f bc 55 8e 1d 3d 04 81 d1 3c 4a 6c a2 3c
       -0.017563248 0.038465817 0.025574215 0.019827027
000070 e3 03 8b bc 02 f2 eb bc 32 01 e8 3c ff 3e 6f 3c
       -0.016969627 -0.028801922 0.028320882 0.014602422
000080 9c 10 d9 3d 6f 56 0e 3d 29 9e 26 bd b9 bf f3 3b
       0.10598871 0.0347504 -0.040678177 0.0074386266
000090 85 f6 a0 3c 28 bd 18 bb 2f 2e 2d 3d 2e 54 77 bc
       0.0196488 -0.0023306105 0.042280372 -0.015095754
0000a0 95 cf 99 bc e7 8f e8 3c ea bf 71 3c 51 0b 56 bd
       -0.01877574 0.02838893 0.014755229 -0.052256886
0000b0 53 07 56 bd 54 7a f0 3c c1 8b 7a bd 87 7c 98 3b
       -0.05225308 0.029355206 -0.061168436 0.0046535167
0000c0 4c 57 4f 3d 6d e4 98 3c f3 d5 62 bd b5 70 58 bd
       0.050620362 0.01866361 -0.05537982 -0.05284186
0000d0 12 a5 6d ba 7a 93 80 bc b7 bf d6 3d 6b ec 9f 3c
       -0.000906543 -0.015695322 0.104857855 0.019521913
0000e0 af bf 8e bd e2 38 1e bd 59 1a ac 3d bc a7 70 bd
       -0.069701545 -0.038628466 0.08403463 -0.058753714
0000f0 57 01 80 bd a3 f9 19 3c fb 13 5e bd a6 43 0f bd
       -0.062502556 0.009397897 -0.054218274 -0.034976624
000100 7a f9 1e 3d 5f 6d 24 bd e5 b7 32 3c 0c 2b 2d ba
       0.03881214 -0.040143367 0.010908102 -0.0006605841
000110 78 cd ac 3c 17 36 77 bd 98 4a b2 bb 05 50 82 bd
       0.021094069 -0.06035432 -0.005441021 -0.06362919
000120 64 f7 b3 3c 6e b8 cd 3d 1e 21 a6 3c 33 fc a4 bc
       0.021968551 0.10044943 0.020279463 -0.02013979
000130 3d 64 c0 3d 94 4a 21 bd 4e 17 86 3c 9c 23 5a bd
       0.09394119 -0.039377764 0.016368534 -0.053256616
000140 2e 1a 01 bd e0 c8 ae 3d 74 31 7c bd f4 e5 25 bd
       -0.031519108 0.085344076 -0.0615706 -0.040502504
000150 93 52 b4 3d c0 14 38 bd 13 23 bf bc 75 4a 4b 3c
       0.08804812 -0.044941664 -0.023332154 0.012407889
000160 bb 62 fc 3c ea 02 96 bc 0c ca 19 bd e2 48 bc 3d
       0.030808797 -0.018311936 -0.037546203 0.09193589
000170 99 5b 66 bd 46 95 4c 3d 71 a3 3f 3c d9 61 d9 3c
       -0.056239698 0.049947046 0.011696682 0.026535915
000180 c9 9a 59 3d cc 00 0c bd e4 82 c0 3d b4 ba aa 3d
       0.05312613 -0.034180447 0.093999654 0.08336392
000190 9c 50 7f bd 17 b0 49 bd bd 4e 2d 3d 27 0c 12 3d
       -0.062332734 -0.049240198 0.04231142 0.03565612
0001a0 64 2f f3 bc ae 02 5b bd de 97 95 3d 1e 7f 34 bd
       -0.029685684 -0.053469352 0.07304357 -0.04406654
0001b0 98 a9 69 bd 62 4a 4e bd cb 65 dc 3a a8 0d 52 bd
       -0.057046503 -0.050363906 0.0016815005 -0.051282555
0001c0 d3 48 a2 39 55 4f 89 bc 8a f0 77 bd 31 4e b9 3b
       0.00030953306 -0.016761461 -0.06053213 0.005655073
0001d0 16 0e 38 3c 1d 77 3d 3d ae f7 a3 3d c0 bd 46 bc
       0.011233827 0.046256173 0.080062255 -0.012130201
0001e0 30 b4 a8 3d d6 5d 32 bd fb ff 4a bc f7 50 80 3d
       0.08237493 -0.04354652 -0.012390132 0.06265443
0001f0 08 7d 95 bc c0 d1 fc bc ae ec 44 bc 14 98 1a bd
       -0.018248096 -0.030861735 -0.012019319 -0.03774269
000200 04 af b0 3d 8d fd 7c bc 65 23 1c 3d 77 ad a8 3c
       0.086271316 -0.015441311 0.038119692 0.020590527
000210 08 8e 84 3d 43 47 a5 bc 29 8d a4 3c bb 6a d8 3d
       0.06472403 -0.020175582 0.020086842 0.10567232
000220 aa 8a 4b 3d ec 9e 96 bc 22 43 c1 3c 41 c4 38 bd
       0.049692787 -0.018386327 0.023591582 -0.045109037
000230 8a 68 8b 3d cf 74 8e 3c 48 fa 23 bd 32 13 d8 3d
       0.068070486 0.017389683 -0.04003361 0.10550536
000240 81 80 7d 3d 10 cf 7d 3c 4e 66 3e bd d4 ae 6e bd
       0.06189013 0.015491262 -0.046484284 -0.058272198
000250 37 69 9a 3b a7 5c 3e 3d 2d ac 45 bd 16 39 52 3d
       0.0047122496 0.04647508 -0.048259903 0.051323973
000260 5a 9a a6 3d 93 6e 61 bd 55 c4 f6 bc 88 bd 1c bc
       0.08134909 -0.055037092 -0.030122915 -0.009566672
000270 f1 ef b1 3d 34 ee 5f bd fd 36 27 bd fb ee 1c 3d
       0.08688343 -0.054670528 -0.040823925 0.038313847
000280 d8 60 05 bd d2 97 19 3d 2e bc 8b 3c 32 8c 26 3d
       -0.03256306 0.037498303 0.017057505 0.040661044
000290 22 e3 29 3d 4e ca ed 3c 30 99 62 3b 2a 34 9c 39
       0.041476376 0.02902713 0.003457617 0.00029793504
0002a0 1c ac da ba 81 12 ae bc 47 e5 89 bd 3e 63 1f 3d
       -0.0016683373 -0.021249058 -0.06733184 0.038913004
0002b0 1c 9e 28 3d 53 aa 18 3d 8e e1 1d bd ae 31 85 3d
       0.04116641 0.03727181 -0.038545184 0.06503616
0002c0 77 ff 85 bc 2a 86 16 3e 00 b5 2b bd e3 b7 69 bc
       -0.016357167 0.14699617 -0.041920662 -0.014265033
0002d0 c7 14 83 bd 60 a0 95 3d 3e 04 6f 3d 42 98 b0 3d
       -0.06400447 0.0730598 0.058353655 0.08622791
0002e0 14 c8 8f 3c 6f 80 28 3b b5 cd 60 3c fb ed 0b 3d
       0.01755146 0.0025711318 0.013720919 0.034162503
0002f0 8a ae 22 bc 77 c3 4d bd 88 28 a2 3b e1 5f 2e bc
       -0.009929309 -0.050235238 0.0049486794 -0.0106429765
000300 23 d5 5f 3d 20 aa 5e 3b 5a fc 53 3c 78 92 84 bd
       0.054646622 0.0033975914 0.012938583 -0.06473249
000310 5c 58 b0 bc 30 67 7c 3b 74 22 33 bc 4a fd 88 bc
       -0.021526508 0.0038513653 -0.010933507 -0.01672234
000320 ea 51 31 bb 51 5d 4c 3d 0c db 34 bd 6c 2d e9 3c
       -0.0027056881 0.04989368 -0.044154212 0.028464042
000330 8a c5 b9 3d 15 fa cf 3d a4 0c 6f 3d 30 1b d0 3c
       0.09070881 0.10155121 0.058361664 0.025403589
000340 23 54 0e bb 74 95 2a 3d 56 a2 0d bd 8a 39 02 3c
       -0.002171763 0.041646436 -0.034578644 0.007948289
000350 b1 5c d6 3b 7a 80 03 bb d4 33 c2 bc c9 a5 ac 3d
       0.0065418114 -0.0020065592 -0.023706354 0.084300585
000360 fe 84 27 bd e5 c6 1b 3a 40 f7 1a bd e6 9b ee 3c
       -0.040898316 0.00059424184 -0.037833452 0.029127073
000370 40 18 35 3c c4 34 b3 3c e4 34 05 bd d9 02 8b bc
       0.011053145 0.021875747 -0.032521144 -0.016969131
000380 6d c7 83 bc d5 d5 d8 3c 39 6a 05 bb 95 5a 06 3d
       -0.016086305 0.02646915 -0.0020357503 0.03280123
000390 f8 9b 89 3c 2d 46 11 3c 94 3c ff 3b 20 91 56 3d
       0.016798005 0.008866829 0.007789204 0.052384496
0003a0 3d 66 28 bd a6 7b 4e 3c a9 c9 7a bd 8e 2f 01 bd
       -0.041113127 0.012602722 -0.061227474 -0.031539492
0003b0 97 a7 0d 3d 78 74 2d 3b 36 80 8e 3d 66 c6 8f 3d
       0.034583654 0.0026467126 0.06958048 0.070202634
0003c0 d1 0a 9d 3c 00 7a e1 bb 08 63 02 bd c1 74 0a bd
       0.019170197 -0.0068809986 -0.031832725 -0.03380275
0003d0 44 4a 33 3c be c4 1e bd 9d e0 55 bd 68 31 79 bd
       0.010942999 -0.038761847 -0.05221616 -0.060838133
0003e0 26 c2 e3 3d b1 0a 2c 3d 42 f8 6c 3c 58 07 53 bd
       0.11121015 0.042002384 0.014463486 -0.051520675
0003f0 49 64 d4 bc 9a 52 54 ba 20 08 11 b9 3f 32 a4 3c
       -0.025926726 -0.0008099467 -0.00013831304 0.02004349

f0.4.weight f4 [100, 256]
000000 ce 98 25 3c fe 40 42 bb 7e 5f 73 ba 21 0f a2 bc
       0.010107232 -0.002964079 -0.0009283944 -0.019782605
000010 cd 4a cb 3c f4 3e 08 bc db 94 08 3c 40 34 69 3a
       0.024815941 -0.00831579 0.008336271 0.00088960305
000020 c1 c4 51 bb 2f 99 78 3d 79 df ab bd ec aa ea 3c
       -0.0032008144 0.060692962 -0.083922334 0.028645955
000030 4f 6a 72 3d c5 20 89 3d e9 5b f7 bc a9 86 49 3d
       0.059183415 0.066957034 -0.030195193 0.049200688
000040 96 3c 36 3d c3 01 51 3d 10 8c b6 bc 0b 8f 3a b8
       0.044491373 0.05102707 -0.022283584 -4.4479075e-05
000050 7d a0 85 3d ef 23 32 bd 5e a3 5d bd 27 e2 fb 3b
       0.06524751 -0.0434913 -0.054110877 0.0076868716
000060 3a 01 36 3d a3 92 2e 3d 22 92 eb 3c 3d ea 84 3b
       0.044434763 0.042620312 0.028756205 0.0040562437
000070 d1 4b 65 bc 5a 06 ac bb ff 2d 27 3c 75 44 9c 3c
       -0.013995127 -0.0052497806 0.010203837 0.019075612
000080 77 f3 96 bd 44 0e 9e 3c fb 4b 5e bd 72 1d 45 bd
       -0.07370656 0.019293912 -0.05427168 -0.048123784
000090 9d f4 2b 3d ad 8d 63 3d 4e b0 26 bd 78 40 a2 bc
       0.04198133 0.055555034 -0.04069548 -0.019806132
0000a0 bd 01 f5 3c 85 4d ce 3c 23 71 89 bc e3 77 82 3c
       0.029908055 0.025183449 -0.01677758 0.015926307
0000b0 a3 1b 28 3d d9 74 29 bd ca 70 11 bc 8f fd 28 3b
       0.04104198 -0.0413712 -0.008876989 0.0025785898
0000c0 34 fb 68 3d 3a 8a 12 3c 3c 60 3a 3d 85 f0 08 bd
       0.05688019 0.008944089 0.045501933 -0.033432502
0000d0 2b e8 e6 3b b3 89 d9 3c 16 69 1d bd 97 fd 75 bb
       0.0070467195 0.026554918 -0.038430296 -0.0037535185
0000e0 e9 f9 15 bc 9c 0d 9d 3d 57 54 99 3d 5c 85 0e bd
       -0.0091538215 0.076686114 0.0748679 -0.03479515
0000f0 49 f2 6d 3c 12 78 69 3c e6 0a 21 bd 04 dd 8b 3d
       0.014523097 0.014249818 -0.039317034 0.06829265
000100 52 ff a2 3b a4 a5 42 bd 52 5f 16 3d b1 d1 84 3c
       0.004974284 -0.04752125 0.036712 0.01621327
000110 fe 09 0b 3d a4 bf 45 bd b3 d3 c5 bc 8a 4a 8c 3c
       0.033945076 -0.048278466 -0.024148798 0.017125387
000120 81 9b 97 3c 9a 89 ac 3c ee a4 78 bb 94 62 10 3b
       0.018506767 0.021061707 -0.0037940103 0.0022031413
000130 4e e1 35 3c 3f 0d a7 bc e1 fb 6c bc 09 bc 37 3d
       0.01110108 -0.020392058 -0.0144643495 0.04485706
000140 b2 3f 7e 3c 45 d8 50 bc 55 56 fd bc 41 f1 16 bd
       0.015518116 -0.012746875 -0.030924955 -0.03685117
000150 0d f9 45 3c 43 37 b9 3c d8 d6 a4 bb 5a d5 9b 3b
       0.012083304 0.022609359 -0.005030494 0.004755658
000160 f7 3b e7 3c a9 ca 21 bc dd f3 db 3c 53 75 44 bc
       0.028226836 -0.009874978 0.026849682 -0.011990863
000170 e0 9b 7f bc 93 a0 dd 3c db d0 02 b9 b7 1b 0e 3d
       -0.015601128 0.027054107 -0.00012475571 0.0346944
000180 a6 81 01 bb 5d 91 3a 3c ff aa 5d bc 72 e0 84 3c
       -0.0019761114 0.011387196 -0.013529538 0.016220305
000190 44 6a 32 bd fd d8 19 bd 95 72 0d 3c 5d 95 04 3d
       -0.043558374 -0.03756045 0.0086332755 0.032369006
0001a0 40 e3 9c 3c 88 b1 8a 3c bb c3 b2 3c 99 f8 20 bb
       0.01915133 0.016930357 0.021821847 -0.0024562238
0001b0 3d 7a 67 bd 5c ec d8 3c e0 c4 4c 3c 11 cd c5 bc
       -0.05651306 0.026479892 0.0124981105 -0.024145635
0001c0 a5 79 58 3c 34 94 1c bd 82 5e 14 3d d5 42 1b bd
       0.013212596 -0.038227275 0.036222942 -0.037905533
0001d0 77 70 c1 3b 0e 18 7e 3b a6 ae a0 bd bf 6d 29 bc
       0.0059032994 0.0038771662 -0.078458115 -0.010341107
0001e0 88 b4 3c 3d c4 7c 84 3c b4 01 34 bd 33 c2 28 3c
       0.046070606 0.016172774 -0.043946937 0.010300207
0001f0 1a af 0f bd 0a 70 9a 3c e9 85 db 3c 13 35 12 3d
       -0.0350791 0.018852253 0.026797252 0.035695147
000200 51 ec 43 3d 5c 6c 5e 3c 2b 39 a6 3c f5 e4 54 3d
       0.04783279 0.01357564 0.020290932 0.051976163
000210 15 cc 57 3c e0 79 2e 3d 01 fd 97 3c 29 03 8f bc
       0.013171216 0.042596698 0.018553259 -0.017457562
000220 db 96 55 3d e7 c2 db bc 2f c6 61 3d 9d 13 42 bd
       0.05214582 -0.026826335 0.055120643 -0.047381986
000230 6a db d1 bd 53 a8 ac bb 91 f7 fb 3c 05 3f 1d bd
       -0.10246928 -0.0052690892 0.030757697 -0.03839018
000240 33 f1 c1 3c 7c 48 ee bc 54 58 46 bd f8 b6 07 3d
       0.023674583 -0.029087298 -0.04842408 0.033133477
000250 c2 a6 75 3c 63 45 52 bd ec 5e d1 3c cd 0d 1a 3d
       0.014993371 -0.051335704 0.025557958 0.037610818
000260 6e bd c6 bd da 6f e7 bc 16 57 79 ba 0c 83 1c bd
       -0.097040996 -0.028251577 -0.0009511573 -0.038210914
000270 bb 48 d9 bb 17 04 2e 3d c4 96 ff bc ba d7 48 bd
       -0.0066309846 0.04248437 -0.03119982 -0.049033858
000280 1b af 1c 3d 69 99 8d 3d 5e 54 59 bc 39 aa 1c 3c
       0.03825293 0.06914026 -0.013264744 0.009562069
000290 6f c3 a6 3b 0d c8 91 bc fd 9b 04 bd 0f 53 d6 bb
       0.0050892155 -0.017795587 -0.032375325 -0.006540663
0002a0 7d fc de bc 73 9a 11 bd ce ce 23 3d 4e 1c 79 3d
       -0.027220005 -0.035547685 0.039992146 0.06081801
0002b0 5a f1 0c bd a4 2b a1 bb c0 72 1c bd 19 b9 0e bd
       -0.03440986 -0.0049185324 -0.03819537 -0.03484449
0002c0 62 2f 3e bc 6b 2c 27 bd 10 f4 d3 3b a4 6d 16 3d
       -0.011607977 -0.040813845 0.0064683035 0.036725655
0002d0 8d 29 88 bc b5 9e a5 bd 30 6a 44 3c 37 b5 38 3c
       -0.016621375 -0.080869116 0.011988208 0.011273674
0002e0 9c 1f 94 3c 8b 69 d8 3c c2 ff a9 3d ab cf 58 bd
       0.018081479 0.026417514 0.08300735 -0.052932423
0002f0 02 a6 75 bd cd e1 2e bd 05 0c 1f bd 7d ab 2d 3d
       -0.05997277 -0.04269581 -0.038829822 0.042399872
000300 b6 c8 7b 3d 4c 83 1c 3d 0e 48 a5 bc c0 4e 22 bd
       0.06147071 0.038211152 -0.02017596 -0.039625883
000310 39 cc 30 bd c7 3e 09 3d 14 91 9e bc f9 67 98 bc
       -0.043163512 0.033507135 -0.019356288 -0.018604266
000320 31 69 5b 3d 94 4d ac 3d 74 4c 3e 3d 08 72 c2 bb
       0.053567115 0.08413234 0.04645963 -0.0059340037
000330 e1 4f 41 ba c8 81 93 3d 1a 0a df bb 5c 6b a3 bb
       -0.00073742686 0.07202488 -0.006806624 -0.0049871635
000340 45 44 44 3d a1 99 8f bb 86 af 59 bd fa af be bb
       0.04791667 -0.0043823277 -0.053145908 -0.005819318
000350 42 ed 6a 3d 67 ff b3 3c fa e1 48 3d 98 4c d0 bc
       0.057355173 0.021972371 0.049043633 -0.025427148
000360 36 72 74 3d 6a f6 cd 3c 81 05 2e bd bd f5 89 3d
       0.059679233 0.025141913 -0.042485718 0.06736324
000370 c1 58 40 bd af c4 fb 3a bb b4 fe ba dc 5a 2a ba
       -0.046959642 0.0019208397 -0.0019432524 -0.00064985245
000380 ae cb 60 bd 63 44 3b 3d 7c 62 1d bd f2 d5 58 3d
       -0.054881744 0.045719516 -0.038424 0.05293841
000390 60 c2 4d 3d 1a 96 32 3d 1b 62 65 3d 5a 90 14 bd
       0.0502342 0.04360018 0.056001764 -0.036270477
0003a0 f1 ee b8 bb 80 73 54 bc 1b 86 36 3d 80 de f0 ba
       -0.0056437184 -0.0129669905 0.044561487 -0.0018376857
0003b0 46 10 de 3c 90 81 02 3c aa 1c 31 3c 18 33 14 bd
       0.02710737 0.00796546 0.010810057 -0.03618154
0003c0 ca 85 35 bd b0 77 30 bd d0 a0 c6 bb 37 0c 18 3c
       -0.044317044 -0.043082893 -0.006061651 0.009280256
0003d0 36 5b 7a bd 2c 2e 0e 3b 83 b0 91 bc 03 ff 53 3d
       -0.06112214 0.0021695 -0.017784363 0.05175687
0003e0 bb 20 2e 3c 32 55 66 3d 8c 60 26 bd 08 5e c2 3c
       0.010627921 0.056233592 -0.040619418 0.023726478
0003f0 1d ae ed 3c bd 58 f2 3b f8 6b 8f 3d 29 f3 7a 3d
       0.029013688 0.0073958323 0.07003015 0.06126705

f0.4.bias f4 [100]
000000 9a 0c 70 3c cb 74 3e 3d 70 d6 73 3c 90 72 83 3d
       0.014651442 0.0464981 0.014882669 0.064183354
000010 48 40 00 3c ce d3 77 3b 43 d7 94 3d 6c e4 3f bc
       0.007827826 0.0037815454 0.072676204 -0.011712175
000020 12 b0 e7 3b 8a 06 46 3d 7b 68 a1 bc 0f 38 11 3c
       0.0070705498 0.04834608 -0.01970314 0.008863463
000030 e2 ea 75 3b 33 ca 38 3c 85 11 ba bb d3 0c 6d 3d
       0.0037524034 0.011278677 -0.005678358 0.05787356
000040 15 e0 2a bc 8e fe cf bb aa ca 8f 3d 5b 68 ad 3b
       -0.010429402 -0.006347484 0.07021077 0.005291981
000050 69 ca d8 3c 9d e3 ee bb 7c f1 ac 3d cd 9c d7 3c
       0.026463704 -0.007290317 0.08444497 0.026319886
000060 4a 1d a6 3d 06 8e d6 3d 58 2d 4c 3d 89 3e a7 3d
       0.08111055 0.104763076 0.04984793 0.081662245
000070 1d c0 bc bb 06 8b a7 3c a8 44 80 3d 04 8d 30 3c
       -0.0057602064 0.020452034 0.06263095 0.010775808
000080 c0 1e 3e 3d cd 6e 26 3d c8 99 90 3d 2a 4e 69 3d
       0.046416044 0.04063301 0.070605814 0.05695931
000090 d9 3f aa 3d cc 67 cf 3d c9 c2 5b 3d 28 72 13 3d
       0.08312959 0.101272196 0.05365256 0.03599754
0000a0 2b c7 98 3d 56 05 44 3d e9 cb 68 3d b0 13 6c 3c
       0.07459863 0.04785665 0.05683509 0.014408991
0000b0 13 48 59 3c 51 be 7e 3d 98 85 b6 3d c7 c7 a1 3d
       0.013261813 0.06219322 0.089122 0.07899433
0000c0 7b d2 b0 bc 52 f1 52 bc b1 fc bc 3d 2b d9 cb 3d
       -0.02158474 -0.012874918 0.092278846 0.09953531
0000d0 b5 2d 3b 3d da 69 ba 3d 30 71 25 3d d1 85 15 3c
       0.045697886 0.09102221 0.040391147 0.009126143
0000e0 a1 a6 68 3d d3 81 1a 3d 39 98 6f 3d 04 16 50 bd
       0.056799535 0.037721466 0.05849478 -0.050802246
0000f0 bf a2 25 3c fd d4 b0 3c e4 82 f4 bc 30 d2 be 3c
       0.0101096025 0.021585936 -0.02984757 0.023293585
000100 2a a1 2a 3c 91 d7 25 3d cb 9b a8 3d 50 8c af 3d
       0.010414401 0.040488783 0.0823284 0.08571684
000110 3d 78 66 3d 0a 90 9e 3c ba e3 10 3d d1 51 f0 3c
       0.056267012 0.019355793 0.035373427 0.029335888
000120 02 d4 07 3d 5f fd 1f 3d 1b 20 ca 3d 44 2a 5a 3d
       0.03316117 0.039059993 0.09869405 0.053262964
000130 72 ec f3 3c 9d 2c 46 3d 8f 89 11 3d 05 8c a9 3d
       0.029775832 0.04838239 0.035531577 0.0827866
000140 66 a1 02 3c 10 51 c4 3d 4e 23 22 3d 7a 13 c6 3d
       0.007973051 0.09585774 0.03958445 0.096716836
000150 6c 28 ae 3d 73 6c a8 bc 80 30 a2 3c eb e1 bc 3d
       0.085038036 -0.020559525 0.019798517 0.09222778
000160 df b3 57 bb d5 41 a5 3d 8d f3 a9 3c 14 53 55 3d
       -0.0032913608 0.08069197 0.020746017 0.052081183
000170 ea f8 81 3d 5a 1d 58 3d 7a fb 98 3d 9a 0b b9 3c
       0.06346305 0.052762367 0.0746984 0.02258854
000180 a0 0a 78 3d 7a 68 18 3d 69 bc 1e 3d 51 b5 18 3c
       0.060557008 0.03720901 0.0387539 0.009320573
