model/model.pth (torch, 799047 bytes, 6 tensors)

f0.0.weight f4 [256, 390]
-0.042780124 0.036054898 -0.011461779 -0.0029286128 0.035567123 0.021147875 0.022008475 -0.049850866
-0.04126877 0.032013156 0.03792478 -0.009184862 -0.060620148 0.035631858 -0.025290929 -0.04290037
-0.035937767 -0.00026638573 0.009714855 -0.011443584 -0.0070952536 0.013677196 -0.040863227 -0.029093599
-0.035365626 -0.06289472 -0.020425623 -0.048171926 -0.014895534 0.017079098 -0.011667245 0.04491732
-0.0060444195 -0.020127269 -0.042096317 0.014408493 -0.015455154 0.038558472 -0.046918284 0.005684572
0.043484375 -0.03951977 0.01034569 -0.0004577883 0.042090006 -0.012278186 -0.012072877 0.032391798
0.022079397 0.0025079963 -0.0075491546 0.023236576 0.020873161 -0.021748269 -0.013045972 -0.017508317
0.043969825 -0.06478076 0.031767175 0.010002769 -0.0025476236 -0.031876154 0.02794235 -0.038909357
0.028706297 -0.004139194 -0.028182777 0.01637929 0.01986233 -0.03599493 -0.015844002 0.031104848
0.000565425 0.020200176 -0.032773413 -0.022640632 0.0142725175 0.011083737 -0.032154754 -0.029857876
0.016475942 0.01348414 0.0027682132 -0.0063224076 0.011387903 0.024751408 -0.043705333 0.033357926
-0.03440139 0.046590313 -0.013439351 -0.018121144 -0.05174309 -0.027958805 0.005703605 0.031905346
-0.057629578 0.017154034 -0.008518721 -0.0018544819 0.021813245 0.016772643 0.036834378 -0.029995529
0.013932904 0.030566972 -0.02283677 0.011654611 0.012456765 0.026160937 -0.03555799 0.009983118
0.014193723 -0.040252484 0.001938038 0.03958544 0.026983425 -0.048387717 -0.041532952 -0.04680824
-0.016288295 -0.018842889 0.02622214 -0.020250028 0.01839444 -0.024350192 0.014855966 -0.0087725995
-0.013888802 -0.014311341 0.028145803 0.027548967 -0.005484198 -0.039786577 -0.013284317 -0.048165098
-0.0038658392 0.023140311 0.025579529 -0.024428437 -0.016520979 0.021692825 -0.022499288 2.181554e-05
-0.021186708 -0.008347432 -0.0133059155 -0.0354784 0.024839636 -0.03205722 0.030450378 0.013127848
-0.03109863 -0.036040895 -0.029087823 -0.0044913813 -0.020465102 0.006792208 -0.050625004 0.015022173
0.0018506809 0.031815574 -0.02518376 -0.011779326 -0.031369206 -0.004868076 -0.007521864 0.02100674
0.020784233 0.008461882 0.026623905 -0.013809035 0.04081687 -0.037799515 0.026945304 -0.038412638
0.01552012 0.0033454634 0.0058044367 -0.022972789 -0.05975105 0.027387537 0.013291235 0.028424762
0.0108745815 -0.0042168824 0.0047751954 -0.010313456 -0.05046887 0.040659938 0.03073428 0.019187817
-0.008243728 -0.03583836 -0.048335966 0.03012408 -0.024679936 0.013018782 0.029574117 0.026520522
-0.004598292 -0.028109705 0.0049000033 0.0015034673 0.034755178 0.011175937 0.030749703 0.02668685
-0.036414746 0.04167456 0.010078091 0.04295385 -0.0022313723 -0.04771325 0.039592646 -0.012537253
-0.008418015 -0.01947882 0.042450957 0.0052943453 -0.041925646 -0.012935094 0.0032691613 0.022372518
-0.03678195 -0.0104393875 -0.04381426 0.04828662 0.0014608409 0.010495472 0.017307842 0.0370935
-0.026652794 0.026010836 -0.0005816924 -0.044562727 0.02053199 -0.056773134 0.036421403 0.033095416
-0.014579054 0.012069167 -0.039660465 -0.063504435 0.014969166 -0.041664746 -0.045796175 -0.022789594
-0.05198551 -0.0002185909 0.004055246 0.04403893 0.023732178 -0.022741137 0.0072580613 0.004110199
00000000: 363a 2fbd 4dae 133d 2fca 3bbc f8ed 3fbb
00000010: d5ae 113d 4f3e ad3c 1e4b b43c 6c30 4cbd
00000020: 7109 29bd 3a20 033d 0457 1b3d 1a7c 16bc
00000030: d54c 78bd b6f2 113d ec2e cfbc 4cb8 2fbd
00000040: 7b33 13bd b0a9 8bb9 0e2b 1f3c df7d 3bbc
00000050: 4d7f e8bb 5116 603c 3360 27bd b355 eebc
00000060: 8cdb 10bd f2ce 80bd a353 a7bc ed4f 45bd
00000070: 660c 74bc 77e9 8b3c f927 3fbc 39fb 373d
00000080: 4410 c6bb f1e1 a4bc 306d 2cbd 9a11 6c3c
00000090: 9d37 7dbc 7def 1d3d 632d 40bd a545 ba3b
000000a0: ac1c 323d 7bdf 21bd f880 293c 4e03 f0b9
000000b0: 9266 2c3d 722a 49bc 51cd 45bc 43ad 043d
000000c0: dadf b43c 325d 243b e65e f7bb a25a be3c
000000d0: 31fe aa3c 6d29 b2bc c6be 55bc 9a6d 8fbc
000000e0: b419 343d c6ab 84bd 4c1e 023d a7e2 233c
000000f0: 08f6 26bb 9290 02bd 5be7 e43c 6b5f 1fbd
00000100: 7829 eb3c 13a2 87bb 91df e6bc dc2d 863c
00000110: 53b6 a23c 6b6f 13bd 48cb 81bc 98cf fe3c
00000120: 0839 143a d77a a53c 6a3d 06bd d978 b9bc
00000130: 47d7 693c 9098 353c b4b4 03bd 8198 f4bc
00000140: 8ef8 863c 95ec 5c3c e96a 353b 332c cfbb
00000150: 5494 3a3c 77c3 ca3c 5d04 33bd 52a2 083d
00000160: 79e8 0cbd 7cd5 3e3d b930 5cbc cb72 94bc
00000170: 90f0 53bd dd09 e5bc 4ee5 ba3b 2eaf 023d
00000180: fe0c 6cbd 9e86 8c3c 1b92 0bbc 1612 f3ba
00000190: b1b1 b23c c866 893c a5df 163d 2fb9 f5bc
000001a0: d646 643c 9667 fa3c 2e14 bbbc fbf2 3e3c
000001b0: 7617 4c3c 764f d63c 41a5 11bd 3b90 233c
000001c0: ca8c 683c cadf 24bd c405 fe3a 5824 223d
000001d0: 580c dd3c 3332 46bd 751e 2abd ffb9 3fbd
000001e0: 086f 85bc 675c 9abc d0cf d63c 63e3 a5bc
000001f0: f0af 963c 0e7a c7bc 7066 733c f3ba 0fbc
00000200: dc8d 63bc 1d7a 6abc 0792 e63c 5fae e13c
00000210: cab4 b3bb 40f7 22bd 77a6 59bc c448 45bd
00000220: 055a 7dbb c090 bd3c 298c d13c 251e c8bc
00000230: 0157 87bc 27b5 b13c 6d50 b8bc 8400 b737
00000240: bf8f adbc abc3 08bc 0e01 5abc cc51 11bd
00000250: 7e7c cb3c 6e4e 03bd 1273 f93c 2f16 573c
00000260: 8ec2 febc 9e9f 13bd 9649 eebc 702c 93bb
00000270: 6ea6 a7bc 2c91 de3b 2a5c 4fbd 8f1f 763c
00000280: 8c92 f23a 0c51 023d 2c4e cebc 13fe 40bc
00000290: ff7c 00bd 6284 9fbb f879 f6bb 5416 ac3c
000002a0: b243 aa3c b5a3 0a3c 601a da3c 4a3f 62bc
000002b0: 972f 273d aad3 1abd 66bc dc3c 9256 1dbd
000002c0: 1a48 7e3c 903f 5b3b 2533 be3b 6e31 bcbc
000002d0: 84bd 74bd d45b e03c 7bc3 593c 0cdb e83c
000002e0: 4d2b 323c c62d 8abb 3e79 9c3b c5f9 28bc
000002f0: 72b8 4ebd 098b 263d 75c6 fb3c c52f 9d3c
00000300: b410 07bc 3fcb 12bd effb 45bd c6c6 f63c
00000310: 942d cabc bb4c 553c 6b45 f23c 9141 d93c
00000320: 45ad 96bb 5346 e6bc 3590 a03b fe0f c53a
00000330: 725b 0e3d 471b 373c cde6 fb3c 619e da3c
00000340: a127 15bd f2b2 2a3d 941e 253c 60f0 2f3d
00000350: 373c 12bb f86e 43bd e62b 223d 0d69 4dbc
00000360: b7eb 09bc 0c92 9fbc 0ee1 2d3d 307c ad3b
00000370: 3aba 2bbd b7ed 53bc 6d3f 563b 9246 b73c
00000380: aca8 16bd f709 2bbc 9576 33bd 31c8 453d
00000390: b079 bf3a 33f5 2b3c 2dc9 8d3c 5bef 173d
000003a0: f656 dabc ad14 d53c b77c 18ba 6887 36bd
000003b0: b432 a83c f28a 68bd 9c2e 153d 0f8f 073d
000003c0: fcdc 6ebc c1bd 453c 0373 22bd 9d0e 82bd
000003d0: 3c41 753c a7a8 2abd c594 3bbd 3eb1 babc
000003e0: c2ee 54bd 8c35 65b9 dee1 843b 2a62 343d
000003f0: fc69 c23c 9f4b babc 08d5 ed3b d9ae 863b

f0.0.bias f4 [256]
-0.05677361 0.024999658 -0.038154695 0.03151225 0.004056057 -0.026334707 -0.019855784 0.0051008356
-0.017665993 -0.026599994 0.0038302257 -0.047030043 -0.051926464 -0.015590321 -0.0086743655 -0.014944307
-0.060786266 -0.038864754 -0.0077088512 0.011433215 -0.011917122 0.025062567 -0.023716329 -0.04028229
-0.0616203 0.02615595 -0.021711767 0.013530049 0.013413514 0.022270398 -0.007236476 0.023229476
-0.060537126 0.026617795 0.003942615 0.025145771 0.008045237 -0.03969062 -0.009141282 -0.028147293
-0.033069637 0.0015907816 0.021461094 -0.026933715 0.01658459 -0.018576467 0.023730673 0.06566055
-0.027127689 -0.071147986 -0.054797 -0.001082769 0.0053987172 -0.020531 -0.05620706 -0.034663778
-0.011578048 0.032162495 0.031589065 -0.021147205 0.033357114 -0.0668378 -0.044597484 -0.01663099
-0.06421666 -0.034482326 0.0013202692 -0.05976483 0.018179778 -0.024998266 -0.018398274 -0.061789554
-0.03929915 0.023241006 0.040956136 -0.014697884 -0.0049331277 -0.0059905127 -0.0067480225 -0.024712112
0.015250248 0.02763808 0.0074438234 -0.03272229 0.02955725 0.0024532292 -0.05694312 -0.010906326
0.016437933 -0.049044438 0.014073975 0.0020841258 0.024866961 -0.03369073 -0.04334322 -0.027184298
0.00301312 -0.06406167 -0.019527694 -0.028126376 -0.04544279 -0.002039934 -0.0185134 0.008642066
-0.045006014 -0.044522054 -0.03824043 -0.050115503 -0.030745901 -0.0064922557 0.056854185 -0.006858715
-0.06158033 -0.0002565951 -0.048896145 -0.05671878 0.040153943 -0.03710426 0.045105513 -0.05374118
-0.0134542445 -0.041836992 -0.012362548 0.007985732 -0.0136815375 0.020699043 -0.017609036 0.011487403
-0.022952305 0.01363252 0.035350423 -0.012362497 -0.058462285 -0.053001214 -0.013188212 0.012065683
-0.024119772 -0.029588379 -0.026886778 -0.01832375 -0.07275807 -0.006118882 -0.06484898 0.0038133466
-0.063651115 0.027795818 -0.010803619 -0.016424967 -0.0116974525 -0.005855049 -0.012275468 -0.0045979717
0.010910875 -0.036462057 -0.06232532 -0.00880995 -0.056353074 -0.05556363 -0.0079254685 -0.010740714
-0.0027493802 0.03606977 0.018668033 0.01748346 -0.04045796 0.021564722 -0.008281892 0.006551438
-0.05057701 0.017881531 -0.05033888 -0.0736475 0.02812387 -0.0334429 -0.044015948 -0.043962397
0.0025132066 0.014807035 -0.012791676 0.032910533 -0.0074288626 -0.0059740343 -0.042483527 0.013358297
-0.050275475 -0.030088736 -0.0080285845 -0.025052633 -0.0071872706 -0.058135673 0.0009172748 -0.0167628
0.030726487 0.022580052 -0.054157734 -0.015593623 -0.038859874 0.028477145 -0.035250515 0.018677816
-0.034641482 -0.031455886 0.032131534 0.0061381897 0.024506362 0.024167074 -0.05688881 0.009889016
-0.0028488378 -0.005489022 0.012191448 0.012279255 0.02016348 -0.05356029 0.028547086 -0.015588794
0.03305148 -0.024410253 0.015243683 -0.022777325 -0.05458118 0.018723303 -0.051396634 -0.037620068
-0.06272168 -0.029721413 -0.015563731 0.0017935553 0.016962886 0.017718403 -0.016523007 -0.0027652264
-0.051068857 -0.030479768 0.0060046655 -0.04040897 0.025318643 0.029343268 -0.035139427 0.023027457
-0.041164555 -0.07179439 0.04906589 -0.044031028 0.023402864 0.01724812 -0.0466841 -0.01575702
0.010551381 -0.025903229 -0.029543778 -0.047960818 -0.061866596 0.030428747 -0.021675713 -0.0108790165
00000000: 728b 68bd 15cc cc3c 1948 1cbd fd12 013d
00000010: ace8 843b e2bb d7bc 99a8 a2bc e924 a73b
00000020: 46b8 90bc 3be8 d9bc 8604 7b3b 93a2 40bd
00000030: d8b0 54bd 8c6e 7fbc ed1e 0ebc f7d8 74bc
00000040: 05fb 78bd a630 1fbd 889a fcbb 6152 3b3c
00000050: 0840 43bc 0350 cd3c bf48 c2bc 0bff 24bd
00000060: 9165 7cbd 0145 d63c e0dc b1bc 23ad 5d3c
00000070: 5bc4 5b3c 6970 b63c f61f edbb be4b be3c
00000080: c7f5 77bd 900d da3c 0d31 813b 81fe cd3c
00000090: 2bd0 033c a292 22bd 51c5 15bc 2795 e6bc
000000a0: 0774 07bd c681 d03a 2dcf af3c 18a4 dcbc
000000b0: 68dc 873c ad2d 98bc d466 c23c 0a79 863d
000000c0: e33a debc 09b6 91bd d272 60bd b3eb 8dba
000000d0: b9e7 b03b a130 a8bc 6039 66bd 9bfb 0dbd
000000e0: dab1 3dbc d2bc 033d 8963 013d e73c adbc
000000f0: 78a1 083d 42e2 88bd daab 36bd b73d 88bc
00000100: 0684 83bd 573d 0dbd e20c ad3a f7cb 74bd
00000110: c2ed 943c 2ac9 ccbc fab7 96bc 0b17 7dbd
00000120: 25f8 20bd ec63 be3c 9fc1 273d 65cf 70bc
00000130: 13a6 a1bb 104c c4bb 841e ddbb 0e71 cabc
00000140: 2ddc 793c 4169 e23c 51eb f33b cf07 06bd
00000150: 0c22 f23c 5bc6 203b 303d 69bd 72b0 32bc
00000160: d8a8 863c d2e2 48bd 8896 663c d495 083b
00000170: ccb5 cb3c 4aff 09bd a988 31bd 9bb1 debc
00000180: c477 453b c432 83bd 8bf8 9fbc 4969 e6bc
00000190: 3822 3abd 6ab0 05bb 6aa9 97bc 7497 0d3c
000001a0: 3a58 38bd c25c 36bd ffa1 1cbd ea45 4dbd
000001b0: d4de fbbc fdbc d4bb efdf 683d 12bf e0bb
000001c0: a83b 7cbd 9d87 86b9 5347 48bd f451 68bd
000001d0: 7678 243d a3fa 17bd 8fc0 383d b61f 5cbd
000001e0: 316f 5cbc 445d 2bbd 498c 4abc 96d6 023c
000001f0: 8728 60bc 0a91 a93c d340 90bc a935 3c3c
00000200: 7906 bcbc ef5a 5f3c 9bcb 103d 128c 4abc
00000210: 2676 6fbd cd17 59bd 5f13 58bc 24af 453c
00000220: d496 c5bc 5463 f2bc a941 dcbc b01b 96bc
00000230: 2f02 95bd e780 c8bb 8bcf 84bd 57e9 793b
00000240: 845b 82bd 0eb4 e33c aa01 31bc a78d 86bc
00000250: aca6 3fbc b6db bfbb 0b1f 49bc 95aa 96bb
00000260: 87c3 323c 3d59 15bd d648 7fbd 9c57 10bc
00000270: 7bd2 66bd b096 63bd d3d9 01bc d2f9 2fbc
00000280: f22e 34bb e5bd 133d b4ed 983c 7939 8f3c
00000290: 3fb7 25bd 80a8 b03c c6b0 07bc 72ad d63b
000002a0: d729 4fbd 4a7c 923c 2430 4ebd 80d4 96bd
000002b0: 0864 e63c 6cfb 08bd 114a 34bd ea11 34bd
000002c0: 9cb4 243b 3599 723c 2e94 51bc 32cd 063d
000002d0: d16d f3bb d5c1 c3bb 3503 2ebd c2dc 5a3c
000002e0: a8ed 4dbd a77c f6bc 538a 03bc 2e3b cdbc
000002f0: 3283 ebbb ac1f 6ebd 4575 703a 2452 89bc
00000300: 1db6 fb3c cdf9 b83c 80d4 5dbd 657c 7fbc
00000310: 882b 1fbd e748 e93c d862 10bd 3802 993c
00000320: 3ae4 0dbd e3d7 00bd 5b9c 033d de22 c93b
00000330: 91c1 c83c 07fa c53c 3e04 69bd 8a05 223c
00000340: 91b3 3abb 41dd b3bb a4be 473c ee2e 493c
00000350: e22d a53c 0962 5bbd 94db e93c 2468 7fbc
00000360: fd60 073d 03f8 c7bc a4c0 793c 8397 babc
00000370: 8490 5fbd 9d61 993c 4785 52bd 8017 1abd
00000380: 3974 80bd 527a f3bc 05ff 7ebc bb15 eb3a
00000390: c0f5 8a3c 2f26 913c 425b 87bc cd38 35bb
000003a0: 942d 51bd b5b0 f9bc c9c2 c43b e083 25bd
000003b0: 0b69 cf3c 4b61 f03c 5cee 0fbd 14a4 bc3c
000003c0: 2a9c 28bd f008 93bd 51f9 483d e159 34bd
000003d0: 5db7 bf3c ee4b 8d3c d437 3fbd de14 81bc
000003e0: b3df 2c3c 0233 d4bc cb05 f2bc 9072 44bd
000003f0: d467 7dbd b545 f93c 4491 b1bc e73d 32bc

f0.2.weight f4 [256, 256]
0.004260433 -0.038654357 0.0033245478 -0.044031437 0.038155362 -0.0049426774 0.041127086 -0.031303108
0.00675238 -0.025719214 -0.026682088 0.03461501 0.021118853 0.034346722 0.0019247655 -0.023493577
0.087724656 -0.0011338616 0.044696435 0.016996168 0.026741564 -0.01982273 -0.026886586 0.048397213
-0.0511135 -0.05933998 0.017577525 0.0037575262 0.0493244 -0.0065494864 0.0039009613 0.03664207
0.030073686 0.05269035 -0.03811631 -0.04482584 0.061831046 -0.02054979 -0.055864684 -0.03881675
-0.012762508 -0.024759522 -0.05241299 0.020256702 -0.065189995 -0.038225055 0.023647537 -0.06579708
0.009217454 0.048651993 0.016163072 0.02612938 -0.034683358 -0.021719744 -0.038537584 0.022709789
0.04836179 0.021852773 0.010839376 0.051458348 -0.027722294 -0.07981284 -0.013122932 0.018752865
-0.006645675 -0.01775199 -0.045446057 0.027399326 0.057496194 -0.047376905 0.028231345 -0.02180103
-0.00176018 0.010308024 0.034859825 0.034361728 0.009242684 0.021449415 0.029697446 -0.03198798
-0.022026801 0.020312471 0.013008006 0.04609944 -0.033477295 0.01706665 0.028556645 0.03727526
-0.010023162 0.018614806 -0.034408595 -0.04385911 0.042655762 -0.019861732 0.004381728 0.04377775
-0.05532268 -0.034908224 -0.033423148 -0.031069621 -0.05625358 -0.05310797 0.052100677 -0.016963731
-0.008899536 0.009556652 -0.022591392 0.063330635 0.046766207 0.024488602 -0.07487505 0.027220681
0.03358432 0.023426512 0.039801024 0.036816433 -0.0151238665 -0.0248064 -0.042937763 0.050592802
0.0026900296 0.00086978514 -0.036248907 0.03175184 0.012289863 0.012747973 -0.056553286 0.004945073
-0.0228126 -0.04062935 -0.06955844 -0.031266212 0.02142001 -0.021172447 -0.0041064513 0.030130098
-0.0016186431 0.052287143 0.03218087 0.012919245 0.02985373 -0.034151327 0.009716863 -0.012355506
0.048598524 0.065434344 0.0004507097 0.012394575 -0.004190162 -0.07127869 0.059571203 0.02757021
-0.05930157 -0.041263286 -0.0025566637 -0.023125803 0.015193554 0.014182401 0.049058527 -0.021652272
-0.042087127 -0.027430488 -0.0038410134 0.040114254 -0.058769587 -0.03283016 -0.08785171 0.004493321
-0.020342236 0.08007526 -0.043249708 -0.013555616 -0.004418763 -0.012017161 -0.027612897 0.025649898
0.005509822 -0.05656052 -0.005727532 0.036389902 -0.026657527 -0.08972722 0.007617901 -0.068145715
0.016834144 0.060355004 -0.042259593 -0.037662685 0.032806993 0.050408468 -0.019961538 0.055889845
0.027481396 0.060433615 -0.03951729 0.026600875 -0.0254394 0.0189183 -0.011027724 0.048724204
0.028801546 0.039524686 0.043154236 0.026234275 -0.020370128 0.01532414 -0.043992653 -0.05995999
0.030226445 0.013120276 0.01834936 -0.048064295 0.06561432 -0.017939119 -0.02597138 0.034252554
0.011683567 0.039468214 0.023742419 -0.04384162 -0.031520575 -0.08251292 0.020970868 0.04033652
0.039268248 0.022883728 0.02168681 0.039368805 0.049367953 -0.037497725 0.05161757 -0.04827224
-0.045468684 0.039397366 -0.066354826 0.034009278 0.00064818235 -0.033521887 -0.003197901 -0.03279217
-0.006431711 0.017865825 -0.039065354 -0.035698082 0.028150417 -0.06489079 -0.055041037 0.024169328
0.0044843443 0.051123403 -0.06514857 0.0500328 0.06261532 -0.027424684 -0.06854172 0.06989411
00000000: 1a9b 8b3b 0854 1ebd a8e0 593b 4f5a 34bd
00000010: cc48 1c3d 2ff6 a1bb e074 283d b037 00bd
00000020: 1243 dd3b 1ab1 d2bc 6594 dabc 78c8 0d3d
00000030: 7201 ad3c 26af 0c3d 6a48 fc3a 9a75 c0bc
00000040: fca8 b33d 159e 94ba 9c13 373d 8c3b 8b3c
00000050: 2011 db3c 4763 a2bc 4241 dcbc 283c 463d
00000060: 645c 51bd 7b0e 73bd befe 8f3c d440 763b
00000070: 6208 4a3d 139d d6bb 45a7 7f3b ff15 163d
00000080: 175d f63c d6d1 573d d91f 1cbd 4d9b 37bd
00000090: 8d42 7d3d 0858 a8bc 5ed2 64bd 50fe 1ebd
000000a0: d719 51bc 7bd4 cabc 01af 56bd 62f1 a53c
000000b0: 5582 85bd e091 1cbd 7bb8 c13c 9fc0 86bd
000000c0: ce04 173c 5047 473d 6b68 843c 480d d63c
000000d0: 2310 0ebd 9bed b1bc 96d9 1dbd e109 ba3c
000000e0: 0317 463d 9604 b33c a397 313c fdc5 523d
000000f0: dd19 e3bc ea74 a3bd 9101 57bc 9c9f 993c
00000100: f6c3 d9bb 9f6c 91bc a525 3abd 8d74 e03c
00000110: 2181 6b3d 490e 42bd 6c45 e73c 1398 b2bc
00000120: d7b5 e6ba fce2 283c 2dc9 0e3d e2be 0c3d
00000130: a06e 173c afb6 af3c 0f48 f33c d405 03bd
00000140: 8d71 b4bc 5766 a63c 881f 553c c4d2 3c3d
00000150: 7d1f 09bd 5ccf 8b3c a0ef e93c f1ad 183d
00000160: 3038 24bc 147e 983c 07f0 0cbd 9ca5 33bd
00000170: cfb7 2e3d 12b5 a2bc 9994 8f3b 4c50 333d
00000180: 099a 62bd edfb 0ebd b6e6 08bd b885 febc
00000190: 276a 66bd be87 59bd 8567 553d 86f7 8abc
000001a0: 5ccf 11bc 8193 1c3c 9511 b9bc 7eb3 813d
000001b0: ec8d 3f3d 529c c83c 1758 99bd e8fd de3c
000001c0: b68f 093d f5e8 bf3c 6606 233d d4cc 163d
000001d0: 18ca 77bc cb36 cbbc 82df 2fbd 663a 4f3d
000001e0: 354b 303b 4b02 643a bc79 14bd 380e 023d
000001f0: 6c5b 493c e0dc 503c 6ba4 67bd 470a a23b
00000200: 7de1 babc f66a 26bd a874 8ebd 0011 00bd
00000210: 0479 af3c d771 adbc 698f 86bb 65d3 f63c
00000220: a628 d4ba 0b2b 563d 17d0 033d 3eab 533c
00000230: cf8f f43c 43e2 0bbd 7a33 1f3c c06e 4abc
00000240: 3f0f 473d 7102 863d 3b4d ec39 9e12 4b3c
00000250: a04d 89bb 90fa 91bd ef00 743d ecda e13c
00000260: 34e6 72bd b103 29bd b38d 27bb 5372 bdbc
00000270: 62ee 783c 4d5d 683c 98f1 483d 1b60 b1bc
00000280: 8d63 2cbd e7b5 e0bc 83b9 7bbb d84e 243d
00000290: 61b8 70bd eb78 06bd 99eb b3bd b53c 933b
000002a0: c3a4 a6bc 7ffe a33d 9b26 31bd 6018 5ebc
000002b0: 45cb 90bb a0e3 44bc 7134 e2bc bc1f d23c
000002c0: bd8b b43b 01ac 67bd 05ae bbbb 940d 153d
000002d0: e360 dabc e8c2 b7bd 969f f93b fb8f 8bbd
000002e0: c2e7 893c cf36 773d 6518 2dbd 3044 1abd
000002f0: a060 063d 1c79 4e3d 6186 a3bc c0ec 643d
00000300: aa20 e13c 3d89 773d e2dc 21bd 14ea d93c
00000310: 4a66 d0bc 8dfa 9a3c a0ad 34bc 0893 473d
00000320: 38f1 eb3c a3e4 213d 7fc2 303d 43e9 d63c
00000330: 41df a6bc 1a12 7b3c a431 34bd 9b98 75bd
00000340: 739d f73c 6df6 563c 6651 963c 11df 44bd
00000350: cd60 863d 0ff5 92bc eec1 d4bc 684c 0c3d
00000360: 6f6c 3f3c 6ca9 213d 767f c23c 4593 33bd
00000370: b81b 01bd 89fc a8bd 19cb ab3c e837 253d
00000380: bed7 203d a876 bb3c 89a8 b13c 2f41 213d
00000390: 0d36 4a3d 3797 19bd f26c 533d 1db9 45bd
000003a0: 5f3d 3abd 225f 213d 0ae5 87bd 504d 0b3d
000003b0: c8ea 293a 3f4e 09bd e093 51bb 1551 06bd
000003c0: 1ac1 d2bb 5a5b 923c fe02 20bd 2738 12bd
000003d0: b49b e63c 76e5 84bd b672 61bd c1fe c53c
000003e0: 68f1 923b c666 513d 9d6c 85bd 31ef 4c3d
000003f0: 763c 803d bba9 e0bc 9a5f 8cbd a524 8f3d

f0.2.bias f4 [256]
0.023484001 -0.025906084 0.045170467 0.005592028 -0.032763578 -0.004912602 -0.0677947 -0.07324041
0.038901176 -0.04998247 -0.037747793 -0.038754333 -0.03098034 -0.04033148 -0.059865713 -0.0014898616
-0.06862604 -0.048899285 0.025676876 -0.013956884 -0.01629704 -0.033166096 0.026796663 -0.0514332
0.025598438 -0.04476932 0.047771797 0.051304262 -0.067397095 -0.012316985 -0.034576304 -0.07732219
-0.0056713824 0.042741835 -0.027195642 -0.022996388 -0.05464668 0.001537469 0.0027807963 0.03519017
-0.03558808 0.031120943 0.050150488 -0.011369702 -0.062287707 -0.094762765 -0.019028546 0.051115774
0.008248156 0.030463163 -0.0015190023 -0.038925353 -0.03814345 0.02684103 0.0040924293 0.019504074
-0.05469828 -0.016393468 -0.0010532883 0.03475277 -0.018673982 -0.07906907 0.015216829 0.013649317
-0.05071732 -0.067360096 -0.060269173 -0.051792502 -0.031133857 -0.07467012 -0.04048856 0.022234062
-0.020031935 0.059128664 -0.010602399 0.024912776 -0.023048034 -0.06848705 -0.035063073 -0.048934598
-0.08013874 0.019895008 0.035198953 -0.021680348 -0.029589627 0.032607473 -0.056482043 -0.06819404
0.0117028095 -0.054613583 -0.009937147 -0.05688217 -0.0501933 -0.018785423 -0.017493384 0.07529264
0.0023424302 0.04935961 0.03038998 -0.009233879 -0.06965913 -0.03761855 -0.02421382 0.026332686
-0.030303769 -0.08075591 0.016675854 -0.05594555 -0.00024107395 -0.0042857435 0.031144945 0.0027937554
0.02116955 -0.06069216 0.028742157 -0.060839668 -0.046238936 -0.02179808 -0.03910974 0.008053753
-0.057306353 -0.053797062 0.046776235 0.03707361 0.017748125 -0.008427033 0.039018437 0.037666023
0.008243795 -0.064269386 0.03414155 0.01711295 -0.036031887 -0.010109514 0.05137018 -0.045446083
0.042333152 -0.006336823 -0.026651826 0.0031535188 0.020547537 -0.051678218 -0.047114097 -0.07326789
-0.06851922 -0.03976374 -0.057429887 -0.026574828 -0.015308806 -0.05444102 0.017583333 0.019562833
-0.055711005 -0.025482457 -0.024606938 0.03299673 -0.0010400071 -0.013124674 -0.056881994 -0.0051403055
-0.038385738 -0.0020799227 0.022672245 -0.07206444 0.009065365 -0.032417536 -0.02836099 0.035395104
-0.06747783 0.04721951 -0.0044480297 -0.031183654 -0.018346595 0.009130732 0.012890142 -0.013682457
0.02730003 -0.016415378 -0.046431396 -0.03508376 0.018485354 0.0146175185 0.007398774 0.018083865
-0.002663713 0.012420111 0.032068737 0.024196362 -0.09126542 0.078665815 -0.0401686 0.04772934
-0.03396277 -0.008843375 -0.030830361 0.0035816291 0.03716285 0.02869527 -0.013551483 0.021474699
-0.045840062 -0.041575793 0.0094194785 -0.059499595 -0.061584823 0.021287736 -0.08493497 0.025410043
-0.032746043 -0.009481377 -0.0178765 -0.030969225 0.035549004 -0.017977828 -0.038511425 -0.07055998
0.042943127 -0.052121162 -0.05899804 0.03341755 -0.01067551 -0.009178539 -0.051076308 -0.06060596
-0.068176925 0.011543829 -0.0037688948 -0.061432023 -0.00046712914 -0.02616592 -0.012331696 0.032232847
0.016910303 -0.05921587 0.028537318 -0.011521548 -0.030947156 -0.010470988 -0.02642584 -0.06022282
-0.053393595 -0.051608343 -0.021800764 -0.05625223 -0.06672754 0.015044303 -0.032072067 -0.062007904
-0.047550656 0.053291712 -0.08937784 0.01951448 0.011821906 -0.0584333 -0.08033289 -0.056717794
00000000: 8561 c03c ff38 d4bc ab04 393d 553d b73b
00000010: 1a33 06bd e4f9 a0bb f3d7 8abd 11ff 95bd
00000020: d756 1f3d 6bba 4cbd 6e9d 1abd ddbc 1ebd
00000030: 7bca fdbc 9f32 25bd c035 75bd 7647 c3ba
00000040: cf8b 8cbd 9e4a 48bd 5058 d23c 6aab 64bc
00000050: 5f81 85bc 2cd9 07bd ad84 db3c 9eab 52bd
00000060: d1b3 d13c 0960 37bd 5cac 433d 6b24 523d
00000070: 7d07 8abd 2ecd 49bc e29f 0dbd 195b 9ebd
00000080: 01d7 b9bb 1012 2f3d 65c9 debc ec62 bcbc
00000090: 32d5 5fbd e684 c93a 053e 363b 9123 103d
000000a0: cec4 11bd 59f1 fe3c 996a 4d3d fd47 3abc
000000b0: 6521 7fbd fb12 c2bd c1e1 9bbc c65e 513d
000000c0: 4623 073c e28d f93c 4219 c7ba 3170 1fbd
000000d0: 4e3c 1cbd b8e1 db3c c919 863b 02c7 9f3c
000000e0: 4e0b 60bd 984b 86bc 7e0e 8aba ec58 0e3d
000000f0: 2efa 98bc f7ee a1bd 0250 793c 63a1 5f3c
00000100: f7bc 4fbd 17f4 89bd cfdc 76bd 6024 54bd
00000110: 6e0c ffbc a6ec 98bd 55d7 25bd 3524 b63c
00000120: 031a a4bc e630 723d afb5 2dbc e115 cc3c
00000130: 3bcf bcbc f042 8cbd 4c9e 0fbd a56f 48bd
00000140: c81f a4bd dbfa a23c c72c 103d fc9a b1bc
00000150: f265 f2bc 6a8f 053d b759 67bd 51a9 8bbd
00000160: 24bd 3f3c 7eb2 5fbd 6acf 22bc 47fd 68bd
00000170: 7d97 4dbd e3e3 99bc 494e 8fbc 0733 9a3d
00000180: 7583 193b 4d2d 4a3d 68f4 f83c b249 17bc
00000190: 72a9 8ebd e915 1abd 105c c6bc a5b7 d73c
000001a0: 9c3f f8bc 5b63 a5bd cd9b 883c 2927 65bd
000001b0: ccc8 7cb9 6c6f 8cbb af23 ff3c 7017 373b
000001c0: c46b ad3c 5898 78bd ac74 eb3c 0433 79bd
000001d0: 0a65 3dbd e391 b2bc 8931 20bd e3f3 033c
000001e0: 11ba 6abd 4f5a 5cbd 7098 3f3d 7fda 173d
000001f0: 8464 913c 8a11 0abc ccd1 1f3d b047 1a3d
00000200: fb10 073c ab9f 83bd 03d8 0b3d 7530 8c3c
00000210: 2c96 13bd 60a2 25bc 8a69 523d ac25 3abd
00000220: 8765 2d3d 20a5 cfbb ee54 dabc 44ab 4e3b
00000230: 4f53 a83c 8aac 53bd b6fa 40bd 7a0d 96bd
00000240: ce53 8cbd 4edf 22bd 9a3b 6bbd 74b3 d9bc
00000250: c9d1 7abc 8cfd 5ebd ec0a 903c 3c42 a03c
00000260: 3931 64bd 96c0 d0bc 7d94 c9bc 9427 073d
00000270: d950 88ba df08 57bc 18fd 68bd 0270 a8bb
00000280: 5d3a 1dbd 504f 08bb 25bb b93c 8596 93bd
00000290: e686 143c 40c8 04bd 4f55 e8bc 75fa 103d
000002a0: d131 8abd 3f69 413d c7c0 91bb dd74 ffbc
000002b0: 994b 96bc 1199 153c 2d31 533c 622c 60bc
000002c0: 50a4 df3c 8b79 86bc d92e 3ebd fdb3 0fbd
000002d0: 996e 973c 517e 6f3c 6a71 f23b 9d24 943c
000002e0: b091 2ebb b97d 4b3c 825a 033d 7337 c63c
000002f0: 5de9 babd 8b1b a13d d487 24bd d77f 433d
00000300: 8c1c 0bbd cee3 10bc f48f fcbc c4b9 6a3b
00000310: 1338 183d 5812 eb3c 0a07 5ebc b5eb af3c
00000320: cac2 3bbd 614b 2abd 2854 1a3c d9b5 73bd
00000330: 5e40 7cbd 9e63 ae3c 63f2 adbd b928 d03c
00000340: b720 06bd c757 1bbc bd71 92bc 2cb3 fdbc
00000350: d59b 113d 3d46 93bc 28be 1dbd c081 90bd
00000360: 22e5 2f3d 007d 55bd eea7 71bd d7e0 083d
00000370: 56e8 2ebc 9561 16bc 6435 51bd f53d 78bd
00000380: 58a0 8bbd 5422 3d3c 90ff 76bb 25a0 7bbd
00000390: 03e9 f4b9 e959 d6bc e20a 4abc 9706 043d
000003a0: 7a87 8a3c 578c 72bd 18c7 e93c e0c4 3cbc
000003b0: e484 fdbc 828e 2bbc 017b d8bc 34ac 76bd
000003c0: 3eb3 5abd 4563 53bd 8497 b2bc bd68 66bd
000003d0: 73a8 88bd 617c 763c 005e 03bd 00fc 7dbd
000003e0: 7ac4 42bd 6948 5a3d bb0b b7bd d5dc 9f3c
000003f0: abb0 413c c257 6fbd 9285 a4bd eb50 68bd

f0.4.weight f4 [130, 256]
-0.04034218 -0.0075832005 -0.0784086 0.028615126 -0.03936749 -0.049278505 -0.07222462 0.016630843
0.031408925 -0.03185405 0.09171034 0.0070404806 0.0058003934 -0.024067858 0.02745326 -0.0070393356
0.031503517 0.011556243 -0.038337395 -0.019009138 0.094632074 0.0256341 -0.0062296456 -0.026587749
-0.01087432 -0.01511802 -0.009583042 -0.010750198 -0.04064332 -0.00425742 0.052750636 0.030039188
-0.044731773 -0.046225958 0.0039919317 0.020541195 -0.033908956 -0.010959315 -0.06125024 0.045809947
-0.03010737 -0.007985723 -0.036281966 -0.0069860155 0.0130710285 0.08094583 -0.04260876 0.004406185
-0.08286455 -0.013266808 -0.06926387 -0.0741644 0.082561806 -0.060787518 0.047849312 0.048309993
-0.015019874 -0.006794626 -0.021625413 0.006401492 0.044616576 -0.0388608 0.042946756 0.019597545
-0.020197302 0.0038102865 -0.061895985 0.08729332 0.028672945 0.06507164 0.02841645 -0.012383145
0.022692746 -0.06123747 -0.03584847 0.047863077 0.03158807 0.041320987 0.02930284 0.053251147
-0.07052813 0.045574665 0.03859084 -0.08648854 0.014423039 -0.017822426 -0.01294442 0.05738226
0.012612296 -0.019190094 -0.025700308 -0.062554315 0.050220896 -0.02037819 -0.07139802 -0.060094643
-0.060186505 -0.02981331 0.0037559767 0.035372227 0.07208455 0.03396017 0.018153094 -0.023616092
0.03157547 -0.05549082 -0.045996476 0.020141618 -0.06371548 0.0373425 -0.049164724 0.02682454
-0.07749477 0.06124407 0.030191772 0.02206671 -0.05716872 -0.043238673 -0.05947929 0.023465365
0.021466793 -0.0359109 -0.012721387 -0.026496552 -0.0018835515 -0.008463319 -0.0049594548 0.017460365
-0.024524909 -0.06425503 -0.060556367 0.055687997 -0.067305855 -0.002583986 0.019011507 -0.004539653
-0.007435405 -0.007930024 0.025194367 0.029261312 -0.01463466 -0.004817687 -0.017458776 0.04355643
-0.10803629 -0.009864012 -0.0044538174 -0.035679612 0.013262505 0.028219732 -0.03833391 0.026008386
-0.053256914 0.027080385 0.01569781 0.020853067 0.09094813 -0.04104543 0.020349706 -0.0096547045
-0.029140329 0.050726414 -0.028494291 -0.020157553 0.026318455 -0.044337902 0.035511598 -0.028182888
0.15573627 0.023784738 0.01501148 -0.0022453528 -0.04316713 -0.02570112 -0.03221541 0.025988124
-0.026088823 -0.0758657 0.015148216 -0.055442348 0.027702142 -0.06363891 0.050077043 -0.0024336972
-0.02581039 -0.037391234 -0.040690996 0.040797893 -0.040944003 -0.048022397 0.064492464 -0.049550958
0.007172499 0.014774084 0.047556262 0.025489157 0.008630617 -0.04785247 0.02657201 0.02027725
-0.042223483 -0.0686715 -0.035836108 0.015784543 -0.054557897 0.041009024 0.026571123 0.03352185
0.0928235 0.022490226 0.03522437 0.03671048 -0.0021339376 0.023209618 -0.03680473 0.012579471
0.027370399 0.004188774 -0.032668278 -0.012315039 -0.010875412 -0.025424572 -0.034580126 0.004796123
0.026893605 -0.0036486422 0.028583482 0.029100178 0.03141488 -0.05194735 0.020981587 -0.07973974
-0.0015349321 -0.018746605 -0.004423831 -0.0673765 -0.017718934 0.039328083 -0.0040116594 -0.055224843
-0.031660948 0.021156518 -0.0041257483 0.04094259 0.0114255985 -0.0356793 0.046864044 0.03525086
0.037597675 0.033411074 -0.013409665 0.05677617 0.04378899 0.01937721 -0.050555456 -0.056818604
00000000: d73d 25bd 7f7c f8bb b094 a0bd 456a ea3c
00000010: ce3f 21bd 42d8 49bd 80ea 93bd 683d 883c
00000020: a5a6 003d 6479 02bd a1d2 bb3d d5b3 e63b
00000030: 3a11 be3b f529 c5bc a9e5 e03c 3aaa e6bb
00000040: d509 013d 6556 3d3c ac07 1dbd 0db9 9bbc
00000050: 76ce c13d 9bfe d13c 0e22 ccbb 8dce d9bc
00000060: 342a 32bc 92b1 77bc 3102 1dbc 9921 30bc
00000070: 9c79 26bd d481 8bbb 0d11 583d be14 f63c
00000080: aa38 37bd 6e57 3dbd c0ce 823b 0246 a83c
00000090: 1ee4 0abd b38e 33bc 88e1 7abd 36a3 3b3d
000000a0: bba3 f6bc 8dd6 02bc 669c 14bd f2ea e4bb
000000b0: de27 563c edc6 a53d 8686 2ebd c261 903b
000000c0: e4b4 a9bd 075d 59bc 37da 8dbd 81e3 97bd
000000d0: 2a16 a93d 55fc 78bd a4fd 433d b3e0 453d
000000e0: eb15 76bc 74a5 debb c727 b1bc 9bc3 d13b
000000f0: dfbf 363d 812c 1fbd f0e8 2f3d 088b a03c
00000100: d074 a5bc 00b6 793b a586 7dbd d7c6 b23d
00000110: 86e3 ea3c 4844 853d 9dc9 e83c ade2 4abc
00000120: 23e6 b93c 24d4 7abd d8d5 12bd 130c 443d
00000130: 7e62 013d 3240 293d 820c f03c e01d 5a3d
00000140: 0d71 90bd 80ac 3a3d 6e11 1e3d e720 b1bd
00000150: 9c4e 6c3c 5600 92bc d514 54bc a909 6b3d
00000160: cea3 4e3c 8b34 9dbc 7489 d2bc 7a1c 80bd
00000170: 6db4 4d3d 29f0 a6bc 2039 92bd cd25 76bd
00000180: 2086 76bd 0b3b f4bc d526 763b 78e2 103d
00000190: 11a1 933d d219 0b3d ccb5 943c 8976 c1bc
000001a0: 4855 013d 584a 63bd cd66 3cbd 0900 a53c
000001b0: 437d 82bd 73f4 183d f360 49bd 23bf db3c
000001c0: 94b5 9ebd 10db 7a3d bc54 f73c 3fc5 b43c
000001d0: bf29 6abd 091b 31bd 8ea0 73bd 703a c03c
000001e0: 21db af3c 4f17 13bd 5d6d 50bc 4c0f d9bc
000001f0: 80e1 f6ba bca9 0abc ec82 a2bb 0a09 8f3c
00000200: 76e8 c8bc 2498 83bd f409 78bd 1919 643d
00000210: a7d7 89bd 1758 29bb 05be 9b3c 5fc1 94bb
00000220: b3a4 f3bb eeec 01bc 6b64 ce3c 6bb5 ef3c
00000230: 37c6 6fbc b0dd 9dbb b505 8fbc 3a68 323d
00000240: 2142 ddbd aa9c 21bc 54f1 91bb c924 12bd
00000250: fa4a 593c 112d e73c 0504 1dbd 8a0f d53c
00000260: ec23 5abd afd7 dd3c b298 803c 0dd4 aa3c
00000270: 0343 ba3d 411f 28bd 6db4 a63c c42e 1ebc
00000280: b3b7 eebc 80c6 4f3d dc6c e9bc 7421 a5bc
00000290: cd99 d73c a99b 35bd 9c74 113d cddf e6bc
000002a0: 5479 1f3e 36d8 c23c b6f2 753c c526 13bb
000002b0: 04d0 30bd 288b d2bc 4ef4 03bd 0ce5 d43c
000002c0: 3ab8 d5bc 7a5f 9bbd 3930 783c 8417 63bd
000002d0: 9aef e23c 1e55 82bd 961d 4d3d aa7e 1fbb
000002e0: 5070 d3bc 8d27 19bd 9aab 26bd b11b 273d
000002f0: e6b4 27bd 22b3 44bd a014 843d f2f5 4abd
00000300: 4807 eb3b 000f 723c 5bca 423d a3ce d03c
00000310: 6e67 0d3c f400 44bd 8bad d93c 7a1c a63c
00000320: 88f2 2cbd a5a3 8cbd e2c8 12bd 964e 813c
00000330: 1a78 5fbd 14f9 273d afab d93c 354e 093d
00000340: 3f1a be3d 6c3d b83c 6e47 103d ba5d 163d
00000350: 88d9 0bbb 1922 be3c 8ec0 16bd 201a 4e3c
00000360: e337 e03c fc41 893b 2ccf 05bd 04c5 49bc
00000370: c92e 32bc 3147 d0bc e4a3 0dbd cc28 9d3b
00000380: fa4f dc3c 0f1e 6fbb e827 ea3c 7f63 ee3c
00000390: e4ac 003d bfc6 54bd 94e1 ab3c 974e a3bd
000003a0: c62f c9ba 7b92 99bc c9f5 90bb b1fc 89bd
000003b0: 4c27 91bc 7c16 213d 3d74 83bb 7233 62bd
000003c0: e9ae 01bd 6f50 ad3c 4931 87bb 6bb3 273d
000003d0: 6f32 3b3c 7524 12bd 83f4 3f3d 3563 103d
000003e0: 0500 1a3d 0dda 083d 36b4 5bbc 218e 683d
000003f0: 155c 333d f4bc 9e3c 3d13 4fbd a0ba 68bd

f0.4.bias f4 [130]
-0.027274534 -0.013660084 0.037231024 -0.07199698 0.0025815025 -0.028590629 -0.010636704 -0.03674458
0.019306043 0.019502334 -0.03533241 -0.06524008 -0.056430735 0.040188953 -0.07218317 0.009125117
0.05429201 -0.025992008 -0.03644937 -0.050853767 -0.07455347 0.025623085 0.018863436 0.04301218
0.05062057 -0.04224444 -0.05719034 -0.017122075 -0.054716673 -0.028523888 -0.047771107 -0.009663232
0.006246634 -0.05577786 0.0031299258 -0.046162255 0.007330261 -0.05301287 0.047582403 -0.06772591
0.01579376 -0.053131137 -0.020928107 0.023639815 -0.02004143 0.03902862 -0.06602184 -0.0041554845
-0.04099767 0.02867724 -0.018880844 -0.04021932 -0.0587461 -0.033126056 -0.043922383 -0.00213254
-0.021005092 -0.034426183 -0.01528862 -0.0024680123 -0.058942053 0.026068166 -0.03320407 0.037187237
0.03688171 0.020387728 -0.026894687 0.06196955 -0.03400942 -0.037797403 -0.0322679 0.020581853
-0.069977865 -0.012418479 -0.0017239532 0.041001447 -0.008418318 -0.0095527 0.043605894 -0.0044563753
-0.055591386 0.029660987 -0.007654649 0.019091628 -0.0005298207 -0.015669044 0.02090968 0.023699366
-0.07182633 0.021211445 0.006293698 0.019180119 0.010455538 -0.006944103 -0.026452385 0.027175121
-0.037580226 -0.05275534 0.025486317 -0.011727694 -0.019146336 0.03498724 0.04566537 0.026631648
0.02361397 0.00054635043 -0.05283398 -0.013700398 -0.012284164 -0.024582893 0.00038811174 -0.018087208
0.010657253 -0.04879541 -0.040335968 -0.028797025 0.027857373 -0.0149437785 0.009078992 0.021703383
0.047383867 -0.055061147 -0.00050376 -0.044568613 -0.039272852 -0.050486982 -0.061231945 -0.037019767
-0.04777765 -0.050827652
00000000: d86e dfbc 8cce 5fbc 8f7f 183d 2773 93bd
00000010: 6d2e 293b e536 eabc 9245 2ebc 7c81 16bd
00000020: b527 9e3c 5cc3 9f3c b8b8 10bd 979c 85bd
00000030: ea23 67bd 2c9d 243d c5d4 93bd 8481 153c
00000040: 4c61 5e3d 31ed d4bc ef4b 15bd 0a4c 50bd
00000050: 7daf 98bd 81e7 d13c 7e87 9a3c 8a2d 303d
00000060: 8457 4f3d 8208 2dbd 6b40 6abd 9843 8cbc
00000070: 971e 60bd eeaa e9bc a3ab 43bd 8852 1ebc
00000080: 90b0 cc3b 5377 64bd 711f 4d3b a214 3dbd
00000090: b032 f03b 0624 59bd c4e5 423d e2b3 8abd
000000a0: ea61 813c 09a0 59bd 6c71 abbc 49a8 c13c
000000b0: ed2d a4bc 79dc 1f3d 7536 87bd bb2a 88bb
000000c0: 2ced 27bd 88ec ea3c 00ac 9abc 04bd 24bd
000000d0: c09f 70bd 30af 07bd f5e7 33bd 16c2 0bbb
000000e0: df12 acbc 7802 0dbd 1f7d 7abc 60be 21bb
000000f0: 396d 71bd e88c d53c fe00 08bd a551 183d
00000100: 4711 173d 2a04 a73c 3f52 dcbc c8d3 7d3d
00000110: 764d 0bbd 73d1 1abd 582b 04bd 469b a83c
00000120: 8e50 8fbd e076 4bbc 45f6 e1ba 22f1 273d
00000130: fcec 09bc ee82 1cbc 189c 323d c906 92bb
00000140: cbb3 63bd 99fb f23c dad3 fabb 0c66 9c3c
00000150: aae3 0aba 5e5c 80bc c74a ab3c 2c25 c23c
00000160: af19 93bd a0c3 ad3c 5e3b ce3b a01f 9d3c
00000170: b44d 2b3c 5c8b e3bb acb2 d8bc 5c9e de3c
00000180: b9ed 19bd fc15 58bd aec8 d03c 8425 40bc
00000190: c7d8 9cbc c84e 0f3d 9c0b 3b3d 9d2a da3c
000001a0: 1672 c13c f538 0f3a 7268 58bd a277 60bc
000001b0: 8543 49bc 1062 c9bc 7a7b cb39 a02b 94bc
000001c0: c29b 2e3c b2dd 47bd 5437 25bd bde7 ebbc
000001d0: 2535 e43c c0d6 74bc 0dc0 143c 4bcb b13c
000001e0: 9615 423d cc87 61bd c30e 04ba 948d 36bd
000001f0: 92dc 20bd 70cb 4ebd 59ce 7abd 0aa2 17bd
00000200: 7fb2 43bd a830 50bd
