model/model.pth (torch, 504595 bytes, 4 tensors)

linear1.weight f4 [256, 390]
000000 de cf 14 3f b7 be 6d 3f c1 ae 1c bf 9b f6 82 3f
       0.5812968 0.9286913 -0.61204153 1.0231508
000010 cd ea 28 bd ce 91 d9 3c 86 30 af 3e 44 0f b6 3d
       -0.04123955 0.026558783 0.34216708 0.088896304
000020 02 54 92 bf d9 fd e6 3e dd 16 4a 3c c1 1e 9b 3d
       -1.1431887 0.45115545 0.012334553 0.07574225
000030 3f 4f e1 3d 44 97 54 3f 7c 01 91 3e 0b 27 65 3f
       0.11001443 0.83043313 0.28321445 0.895127
000040 dc dd f4 bc 99 18 c4 bc 7c c5 6c be 4a a4 6d 3e
       -0.029890947 -0.02393751 -0.2312221 0.23207203
000050 b1 9f 36 bf 72 b3 e4 bd bf f5 09 3c 6d 22 ef 3b
       -0.7133742 -0.11167039 0.008420407 0.007297805
000060 a0 c5 33 be 7f b0 65 3d 15 03 00 bc cd d2 42 bd
       -0.17555857 0.056076523 -0.007813235 -0.047564317
000070 fe 8a cf 3b bb 74 a6 3b 8a b1 3f 3e 3b f3 5e 3f
       0.006333708 0.0050798333 0.1872007 0.8708989
000080 59 a3 61 bf 1c 12 65 3e 78 eb 25 3e f6 0b 81 3c
       -0.88139874 0.2237019 0.16203105 0.015752774
000090 ff b7 3d 3e 62 4b 65 3e 0d 0c 10 bf 6c a3 88 3d
       0.1852722 0.22392038 -0.5626839 0.06671795
0000a0 3c ae 25 bb 6f c4 32 bc 8f 0c ef 3d 7a 9b 25 3c
       -0.0025280854 -0.010911091 0.11672317 0.010107869
0000b0 ff 63 65 bc a5 53 f0 3e d9 5d f8 bc a7 60 b9 3c
       -0.014000892 0.46938816 -0.030318188 0.022629095
0000c0 ee 95 f2 3c c5 8a 35 3d f2 8c 69 bc 9c 02 e1 3e
       0.029612508 0.044321794 -0.014254795 0.43947303
0000d0 26 51 03 3f 87 d3 c5 3c 0d 3b 88 3e 0b e8 7c 3d
       0.512957 0.024148716 0.26607552 0.06174473
0000e0 5c f5 4c 3e 26 2f 15 3e f2 ed 77 bf 5b 23 69 3f
       0.20015472 0.14568767 -0.9684745 0.91069573
0000f0 25 02 1c be 1a 9f bf 3c de c9 c8 3c e9 be ba 3e
       -0.15235193 0.023391295 0.02451032 0.36473778
000100 e4 3f 24 3f 72 49 80 bf 5b 21 83 3e 1c 83 15 3d
       0.6415999 -1.0022414 0.25611386 0.03650199
000110 5c 78 f9 3b e5 3e 0b 3e 9e e9 cd 3c d5 c8 03 bd
       0.007613225 0.13598211 0.025135811 -0.03217395
000120 78 bc 10 3f db 4d dd bc 5c d4 21 3d b4 8f 98 3d
       0.5653758 -0.027014663 0.039509162 0.07449284
000130 36 a7 92 bb 54 ed 5a bc 5a 7e 17 3f 34 0f c7 3e
       -0.0044754995 -0.0133622475 0.5917717 0.38878787
000140 28 06 55 3c d0 24 82 3f 12 c1 93 3c a7 57 01 3d
       0.013001956 1.0167484 0.018036399 0.031577732
000150 3a 43 c2 3e 8f 3b 84 3d 86 bb 1a 3d bb 31 d7 3e
       0.37941915 0.064566724 0.037776493 0.4203013
000160 d3 7b 84 3c de c9 a0 3c 2c ae ec 3d 81 47 13 3e
       0.016172325 0.019627508 0.11556658 0.14382745
000170 2f b7 0c 3e 83 c0 60 3f 03 19 e2 bb 8e bc e4 bc
       0.13741754 0.8779375 -0.0068999543 -0.027921941
000180 30 87 92 be 03 97 8f bb 83 71 3b 3d 09 47 01 be
       -0.28618765 -0.0043820157 0.04576255 -0.12624754
000190 25 c2 ac 3d 8a 40 69 bd d0 63 31 be 16 4f 73 be
       0.08435468 -0.056946315 -0.17323232 -0.23760638
0001a0 41 a7 f8 3e d2 68 8b 3c 5b 6d 19 bd 25 ce 48 bc
       0.48565105 0.017017756 -0.037457805 -0.01225618
0001b0 ea b8 40 3e 41 d7 de bb a6 c3 2d bd 5f 4c 74 3e
       0.18820539 -0.0068005626 -0.042422913 0.23857258
0001c0 4a 57 11 3f e2 81 90 be 55 50 4e 3e 8b a9 cb 3e
       0.5677382 -0.28224093 0.20147832 0.3977779
0001d0 25 a5 ca 3e f7 f5 71 3d 26 bd d5 3d 4b c4 93 3d
       0.3957912 0.05907246 0.10436468 0.07215174
0001e0 cb 32 38 3e 31 89 20 3e 00 08 06 bf 64 6e fc 3e
       0.17988126 0.15677334 -0.5235596 0.4930297
0001f0 51 f4 f4 3c f8 b8 2d bd 99 d8 7a 3c bc 8e 19 3d
       0.029901655 -0.042412728 0.01531043 0.037489638
000200 ed 1e ce bc 27 7a ea 3e c9 bd 19 3e 58 ef d7 3d
       -0.025161231 0.4579632 0.15013804 0.10543698
000210 d7 69 73 3e 75 7c 24 3c fc 5c 45 3d 1e 4e 2e 3e
       0.23770843 0.0100394385 0.04818438 0.17021987
000220 60 b9 a5 3d fd 26 8f ba 69 7b 6f be 82 1a 44 3e
       0.08091998 -0.0010921654 -0.23386921 0.19150737
000230 d9 23 0c be 81 a2 b8 3e 93 5a 20 3d 92 51 a5 bc
       -0.1368555 0.3606148 0.03914888 -0.020180497
000240 fd 9c 8d 3e 54 96 16 bc 96 c0 a3 bc d3 0f e3 3d
       0.27658835 -0.009191114 -0.019989293 0.110870026
000250 5e d1 43 3d 6e 76 20 3c e3 fc f5 3e 9c 86 4a 3d
       0.04780709 0.009793861 0.480445 0.04944478
000260 a3 42 08 bd b2 6f f9 3d 94 1e 80 bb 9b 31 22 bd
       -0.033266675 0.12179507 -0.003909895 -0.03959809
000270 f8 06 05 3f 11 35 03 3e 5c b6 97 bc 9d 36 8b 3f
       0.5196376 0.12813212 -0.018519573 1.0876042
000280 28 7c 84 3e ac ef 39 3f a2 fc bf 3e 9d d6 71 3c
       0.25875974 0.72631335 0.3749743 0.01476064
000290 f1 7e c7 3c 53 0b d6 3e c9 4c 38 bd 8e b4 a0 bc
       0.024352523 0.41805515 -0.044995103 -0.019617345
0002a0 05 6b 29 3d fd 88 7c 3d ea 15 43 3d 1b a2 5f 3f
       0.041361827 0.06165408 0.04762832 0.8735673
0002b0 91 15 ce 3c 9d 36 15 bd a2 f5 9f be ee 99 69 bd
       0.025156768 -0.036429036 -0.3124209 -0.057031564
0002c0 f1 c5 ba 3e 38 a1 e2 bd ff af d2 3c 16 cc 79 3c
       0.36479142 -0.11065906 0.025718687 0.015246412
0002d0 de ef 3f be 3a bd 92 bc d8 a4 94 3e 18 5c 56 bc
       -0.18743846 -0.017912496 0.29032016 -0.01308348
0002e0 45 e0 a9 3c 87 1f d7 bc 72 68 7f 3e 87 c1 5f 3c
       0.020736823 -0.02626015 0.24942186 0.01365698
0002f0 53 9a 1e bd 50 38 66 3e 4d ef fe 3e 94 a7 ae bf
       -0.038721394 0.22482419 0.49791947 -1.3644891
000300 b3 87 5a 3e a8 9f 9a 3c 85 07 a4 bd 57 51 1b 3d
       0.21340828 0.018874958 -0.08009247 0.03791937
000310 fa 77 6a 3d e9 bc 41 3d ef e9 2e 3e 45 3c 89 3d
       0.057243325 0.0472993 0.17081426 0.067009486
000320 83 4f 89 be e9 3f fe 3e d0 3f df 3c 2f 74 24 3e
       -0.26818475 0.49658135 0.027252108 0.16059946
000330 0b 76 05 3b 6f 91 02 bd d6 62 f4 bb 5a a4 e3 3e
       0.0020364549 -0.031876978 -0.007458071 0.44461328
000340 20 9e 57 3e cb 73 4d 3c 2d 41 8b 3e 4e 26 41 bd
       0.21056414 0.012539814 0.27198163 -0.04715567
000350 2c ab 90 bb 42 ed 28 3e f7 b6 08 3c a0 af 2b bc
       -0.0044149365 0.16496757 0.0083444035 -0.010478884
000360 45 2f 46 be 5e 1a a6 3d b0 65 42 3e f9 e1 8b 3e
       -0.1935397 0.08110498 0.18984103 0.2732084
000370 a4 41 8a 3d a8 b5 3e 3c 83 3f 9a 3e 80 e3 39 3d
       0.06750801 0.01163999 0.3012658 0.045382977
000380 f4 f3 4a bd 92 d3 12 3e 9c 9b 1a bd 38 54 7b 3c
       -0.049549058 0.1433852 -0.037746057 0.0153399035
000390 9a 9f 12 3f 2b ea 3c 3f a4 19 1f bf be 35 a2 3d
       0.5727478 0.7379481 -0.621485 0.07920407
0003a0 32 bb 96 3a 9e 83 be bc f8 f7 3f 3f 0c 4b bf 3d
       0.001149988 -0.02325612 0.74987745 0.09340486
0003b0 fa 08 92 bf 9a 3a 82 3f dc 61 f2 bc c3 c8 24 3d
       -1.140899 1.0174134 -0.029587679 0.040230524
0003c0 2e 90 cb 3e 0d c6 2c 3e f7 72 c3 be c3 a7 ee 3e
       0.39758438 0.16872425 -0.3817365 0.46612367
0003d0 e6 df 8a bc 25 46 8f bd 10 b1 84 3e 89 32 63 3e
       -0.016952466 -0.06995801 0.25916338 0.22187246
0003e0 22 01 db 3e fd 53 62 3f 12 f7 93 3f 6f 80 39 bf
       0.42774302 0.88409406 1.1559775 -0.724616
0003f0 be fc 95 be 33 6d c2 3c 52 af 93 bc 3a 4d 1f bd
       -0.2929439 0.02373371 -0.018027935 -0.03889201

linear1.bias f4 [256]
000000 53 b5 c4 3e e4 25 13 3f 62 56 9f 3e a4 05 ab 3e
       0.3841959 0.5747969 0.31120592 0.3340274
000010 98 47 e0 3e 02 86 0d 3f 27 62 98 3e bf a8 07 3f
       0.43804622 0.55282605 0.29762384 0.5299186
000020 22 0e 8f 3c 00 96 33 bd 33 d6 e1 3e 40 e4 a3 3e
       0.017462794 -0.043844223 0.44108734 0.32010078
000030 eb 19 c5 3e 6c 1b bc 3e cf 83 e0 3e 2c 38 a9 3e
       0.38496336 0.3673967 0.43850562 0.33050668
000040 d2 9c 23 3f de 6f 3f bd 40 f8 f9 3e 60 8a cc 3e
       0.63911164 -0.046737544 0.48822212 0.39949322
000050 24 4a 76 3e 7e 5f 79 bd 80 38 83 3e ae 1e 15 3f
       0.2405172 -0.060882084 0.25629044 0.5824994
000060 a2 41 86 3c 92 00 08 3f 05 d3 01 3f f4 74 a7 3e
       0.016388718 0.5312587 0.50712615 0.32706416
000070 aa 1c a5 3e bf 08 c4 3e a6 4e ad 3e 40 6a ad 3b
       0.3224843 0.38287923 0.33849066 0.005292207
000080 53 86 2b 3f 0b 76 53 bd c7 80 2c 3f 49 30 ac 3e
       0.6700184 -0.051626246 0.67384 0.3363059
000090 39 4b 13 3f 9f 76 05 3f 37 c7 04 3f 59 24 04 3f
       0.57536656 0.52134126 0.5186648 0.5161796
0000a0 45 57 c4 3c d3 13 00 bc 93 db e9 bb ed 25 da 3e
       0.023967395 -0.007817226 -0.007136771 0.4260706
0000b0 20 4a f9 bb f6 de e6 3e 95 c8 e3 3b de b3 aa 3e
       -0.0076077133 0.4509198 0.0069514015 0.33340353
0000c0 a3 07 ea 3e 9c 7f 12 3f 15 a9 f2 3e 9c d2 01 3f
       0.4570895 0.57225966 0.47394624 0.5071199
0000d0 e3 df 25 bc 5d aa d1 3e b6 e4 19 bd 7e 98 25 3f
       -0.01012418 0.4095029 -0.03757163 0.6468581
0000e0 43 57 96 3e 10 0f d1 bc f5 83 0c 3d cd 70 f6 3b
       0.2936345 -0.025519878 0.03430553 0.007520771
0000f0 d1 83 02 3f b1 4e e2 3e 7d 34 08 3f 8f 79 20 3f
       0.50982386 0.44200662 0.5320509 0.62685484
000100 30 d8 c8 3e 58 59 a3 bc bc 48 11 3f a9 3c 55 bc
       0.39227438 -0.019940063 0.5675161 -0.013014951
000110 80 9d 53 3f b6 8f eb 3e ba a7 b2 3c a1 6b cc 3e
       0.826622 0.4600808 0.021808494 0.39925864
000120 09 43 7a bd c8 7f 1d 3f 4e c3 f2 3e 5a 64 00 3f
       -0.061099086 0.61523104 0.4741463 0.50153124
000130 66 d4 07 3f 12 1a 11 3f 2b dc 98 bd e6 20 f5 3e
       0.5305847 0.56680405 -0.07463869 0.47876662
000140 33 02 8e 3e 2b 87 e0 3e 40 32 9d 3e 37 3f 9a 3e
       0.27736053 0.43853125 0.307024 0.30126354
000150 1d 6f fc 3e 8f db b8 3e b8 a5 ed 3e 77 cc 87 3e
       0.49303523 0.3610501 0.46415496 0.26523182
000160 ab e3 0a 3f 75 71 07 3f 8d e3 24 3f b9 05 f9 3e
       0.54253644 0.52907497 0.64409715 0.4863718
000170 76 fa df 3e 59 0a 04 3f e3 53 b6 3e 3a d4 e6 3d
       0.43745774 0.5157829 0.35610875 0.11270948
000180 20 d5 b7 3e d1 07 ac 3e 97 36 df 3e f2 bc 1e 3c
       0.3590479 0.33599713 0.43596336 0.009688603
000190 41 99 04 3f d8 93 cf 3e 3e 71 03 3f 35 a7 3e 3f
       0.51796347 0.40542483 0.5134467 0.7447389
0001a0 66 7b 04 3f 23 8a de bc e4 93 0f 3f 72 26 d6 3d
       0.5175079 -0.027165478 0.5608504 0.104565516
0001b0 72 c2 34 bd 3a 8c 12 3f b9 87 ed 3e 6e bc b1 3e
       -0.04413075 0.5724522 0.4639261 0.34714073
0001c0 85 2f 04 3f d4 de d3 3e 47 32 0e 3f 9e 11 02 bc
       0.5163501 0.41380942 0.5554547 -0.007938771
0001d0 80 31 10 3f 7f fe fc 3e f2 98 e8 3e 2f 99 04 3f
       0.5632553 0.49412915 0.45429188 0.5179624
0001e0 28 99 fe 3e 79 3d 4f 3e d3 a7 ab 3e c4 85 a9 3e
       0.49726224 0.20238294 0.33526477 0.33109868
0001f0 8c 38 95 3e 92 84 d7 3e 10 e9 2a 3f 29 dc 66 3d
       0.29144704 0.4209333 0.66761875 0.056362305
000200 0f 99 3e 3f e7 0a 2d 3f f0 08 58 bd b8 1a d6 3e
       0.744523 0.6759476 -0.0527429 0.4181726
000210 e8 ff a2 bb fd 9d a8 3d 58 8c c9 3e 7f 1b 39 3f
       -0.004974354 0.08233259 0.39364886 0.7230758
000220 52 9b e1 3e 79 e6 d0 3e 5f 34 ed 3e 5b dd 82 bd
       0.44063812 0.40800837 0.46329018 -0.063898765
000230 27 d4 0a 3f 9b a8 fe 3e a8 72 e3 3e 3a b4 b0 bd
       0.5422997 0.4973801 0.44423413 -0.086281255
000240 56 66 15 3f 6a 48 91 3e 20 64 12 3f 72 20 c4 3e
       0.5835928 0.2837556 0.5718403 0.38306004
000250 7c 42 84 3e 65 3f a4 3e 7a 10 29 3f 06 fb cf 3e
       0.25831974 0.32079616 0.66040766 0.40621203
000260 d3 b6 04 3f 25 ca a2 bd 5a 5d 27 3f d7 d3 c2 3e
       0.5184147 -0.07948712 0.6537682 0.38052246
000270 c7 b4 e0 3e e8 fe 02 bd f4 0e f0 bc 0d bd d8 bb
       0.43887922 -0.03198138 -0.029304005 -0.0066143335
000280 bf f5 c7 3e 63 d4 08 3f 3f 3a 7c 3e 94 b1 83 3e
       0.39054677 0.53449076 0.24631594 0.2572142
000290 e0 95 d0 3b 94 d8 eb 3e d3 df 2d 3e f1 a3 e5 3e
       0.0063655227 0.46063673 0.16979913 0.4485164
0002a0 9a c7 da 3e 88 f7 0a 3f d8 6d 15 3f 37 a9 a3 3e
       0.4273041 0.5428395 0.58370733 0.31965038
0002b0 fc fb eb 3e 99 85 3f 3c 4b 0b f2 3e db df 93 3c
       0.46090686 0.011689567 0.4727424 0.018051079
0002c0 9e c3 b7 3e 58 72 8b bb 8d ce 15 3f 7d e0 24 3f
       0.35891432 -0.004255574 0.58518296 0.6440504
0002d0 c5 0d b7 3e 21 b5 00 3f 13 ae 18 3f 0c 01 d9 3e
       0.35752693 0.5027638 0.59640616 0.4238361
0002e0 4b bc 15 3f 52 b8 3d bd 14 a3 f1 3e c1 16 b9 3e
       0.5849044 -0.04631836 0.4719473 0.36150172
0002f0 d5 35 09 3f 04 90 07 3f a3 66 9c 3e 86 97 ee 3e
       0.53597766 0.52954125 0.30547056 0.46599978
000300 f7 da 38 bd fd e6 d7 3e fb 30 8d 3e 98 45 0a 3f
       -0.045130696 0.42168418 0.27576432 0.5401244
000310 8e eb 0d 3f 5e 2b ef 3e 28 c8 22 3d 64 9b b1 3e
       0.5543755 0.46712774 0.039741665 0.34688866
000320 0c 04 07 3f ec 7b 72 3e 38 d4 be 3e 9e c9 3a 3c
       0.5274055 0.23680085 0.37271285 0.011400608
000330 cc de 31 bd 47 a2 c9 3e 77 ee 13 3f 49 43 e4 3e
       -0.043425366 0.3938162 0.57785743 0.44582585
000340 35 74 44 3e 8b 9d d5 3e b9 f5 06 3f 1c da aa 3e
       0.19184954 0.41721758 0.52718693 0.3336953
000350 29 9f 37 3f 2f fd 98 3e d0 6e ea 3e 34 1e 12 3f
       0.71727234 0.29880664 0.45787668 0.57077336
000360 8c 3e d8 3e 8c b4 54 3e 99 41 e8 bc 0e 68 dc 3e
       0.4223522 0.20771998 -0.028351592 0.43048137
000370 63 bc af 3c 74 b1 00 3f 60 16 ca 3e 0d 64 b5 3e
       0.021452134 0.5027077 0.39470196 0.35427895
000380 c2 fe 11 3f 20 05 56 3e 52 0d ab 3e 03 76 04 3f
       0.57029355 0.20900393 0.334086 0.5174257
000390 be 79 28 3f 5a e1 7c 3e d0 b3 c9 3e de 00 a0 3e
       0.65810764 0.2469534 0.39395 0.31250662
0003a0 b6 52 f3 3e a4 b2 0b 3f 51 ac 07 3f a1 76 79 bc
       0.4752404 0.5456946 0.5299731 -0.015226037
0003b0 d4 0e b2 3e f9 51 05 3f d1 ce ca 3e 02 c6 22 3f
       0.34776938 0.52078205 0.39610913 0.63583386
0003c0 6d 26 0e 3f 4e 37 8f 3e 67 d0 d4 3e d4 22 db 3e
       0.55527383 0.27971882 0.41565248 0.4280001
0003d0 d0 bf 3e 3c 46 58 10 3f 17 f8 a4 3e 6a e3 23 3e
       0.011642411 0.56384695 0.32220528 0.1600472
0003e0 6c 2f fb 3e 5b 0a 04 3f 45 ec 31 3f 0f 25 ab bc
       0.49059618 0.515783 0.69501144 -0.020891694
0003f0 e8 c9 09 3f 10 bc 06 3f a8 6e 4e 3f c3 ac b7 3e
       0.5382371 0.5263071 0.806376 0.35873994

linear2.weight f4 [100, 256]
000000 50 a6 40 bd 7c 31 26 3b 7f e5 20 3c 0f 40 fa 3c
       -0.047033608 0.0025359085 0.009820341 0.030548124
000010 7c e0 6e bd e0 ed c7 bb 7b a5 d4 3c 50 a8 29 bd
       -0.058319554 -0.006101355 0.025957813 -0.04142028
000020 60 78 ce bc 96 71 21 bd 42 e2 47 bd bd b2 16 be
       -0.025203884 -0.039414965 -0.04879976 -0.1471662
000030 1e 3f 1c be de 2b bc bc 6f 99 7e bc 33 82 16 bd
       -0.15258452 -0.022970136 -0.015539511 -0.03674526
000040 c4 a9 a5 bd f8 c5 74 bc 0a c5 ce bd 12 ba a9 3c
       -0.08089021 -0.014939778 -0.10096176 0.020718608
000050 cf 31 ec bc 4a a6 08 bd db 55 90 bc c4 41 d0 bc
       -0.028832344 -0.03336171 -0.017619064 -0.025421984
000060 1c ff 01 3d 83 3f a5 bd e1 3b 0b be a6 71 7c bd
       0.031737432 -0.080687545 -0.1359706 -0.06163182
000070 81 0e 1c be 6d 8b c9 3c cb c4 76 bd 06 11 5a bd
       -0.15239908 0.024602616 -0.06024627 -0.05323889
000080 b4 f0 05 bd 4a ee 33 bd 68 99 07 bd 4c f2 e8 bd
       -0.032700256 -0.043928422 -0.033105284 -0.113743395
000090 2c 8b c2 bd f9 ae e7 3c de e3 36 bd 56 b5 3e bd
       -0.09499201 0.028281676 -0.044650905 -0.046559654
0000a0 aa 3e 66 bd 20 38 3e bc b4 86 d5 3c 15 4a c8 bb
       -0.056212105 -0.011610061 0.026065208 -0.006112347
0000b0 a8 3e eb 3c 5b f8 31 bd ec c8 65 bd a9 18 76 bd
       0.0287164 -0.04344974 -0.056099817 -0.06008211
0000c0 4c 4b 8c bd d9 33 37 bc 7a 12 81 bd 00 f7 5d bd
       -0.06850299 -0.011181795 -0.06302352 -0.054190636
0000d0 c0 36 cd 3b 80 9e 36 3c a0 49 c9 bb af 4c 41 3d
       0.00626263 0.011146188 -0.00614281 0.04719227
0000e0 ae 86 0f be 20 58 47 3d 65 e9 02 bd d0 9e b5 3b
       -0.1401622 0.048668027 -0.031960864 0.0055426136
0000f0 51 58 62 3d f6 9d 6e 3d 17 ff 29 bd 9c fa 9e 3c
       0.055260006 0.058256112 -0.04150304 0.01940661
000100 ee 2d 89 3d 88 9c 6f bd d6 4a 33 bd fa e3 34 bd
       0.066982135 -0.05849889 -0.04377254 -0.044162728
000110 75 e6 a1 bd 51 ce 47 3d 7c 74 55 bd 7e 99 0c bd
       -0.07905284 0.048780743 -0.05211304 -0.03432607
000120 9c fe d5 3c 0c 1e fa 3c 03 ae 31 3c cf 30 90 bc
       0.026122384 0.030531906 0.01084471 -0.017601399
000130 ed c9 5d bc 08 9e 01 bc 1a 40 09 3d ee c2 0f 3d
       -0.013536912 -0.007911213 0.033508398 0.03509801
000140 27 8b 03 3b 72 8e 70 3d dc 20 d5 bd 65 76 0d be
       0.0020071955 0.058729596 -0.10406658 -0.13814695
000150 cd 07 2d 3d 36 15 43 bc da e7 32 3d 35 a8 84 bd
       0.042243768 -0.011906913 0.043678142 -0.064773954
000160 7d 0a aa 3b 6e 8b 65 bd 44 39 19 bd 8b 53 42 3b
       0.0051892386 -0.056041174 -0.03740813 0.0029651846
000170 47 d3 03 be 04 7c f0 bb 76 b5 c9 bd c3 1e 12 be
       -0.12873565 -0.0073390026 -0.09849064 -0.14269547
000180 ef 4b 8c 3d 73 71 a2 bd c7 32 8a 3d 68 5f 2a bc
       0.06850421 -0.07931795 0.06747966 -0.010398723
000190 c0 24 31 3b 00 e9 98 bd fd 76 8b bc bb 4d 3a bd
       0.0027029961 -0.07466316 -0.017024511 -0.045484286
0001a0 18 a4 1b bc 50 55 28 bc 0e 13 51 bc e8 ac 40 bd
       -0.009499572 -0.010274246 -0.012760891 -0.047039896
0001b0 08 55 1f bd bd b8 f4 3b 6d 0e 88 3c 2c 3f 3f 3d
       -0.03889945 0.0074683116 0.016608441 0.046691105
0001c0 55 c3 ec bd c0 2a a2 3c ee 6b 01 be 6c 61 d6 bc
       -0.11560694 0.019795775 -0.12638828 -0.026169501
0001d0 f0 1e f1 bb fe dd 4d bd c8 25 32 bc ee 96 70 bd
       -0.0073584244 -0.050260536 -0.010873266 -0.058737688
0001e0 af 72 1d bd 80 f8 23 bd 6f 4b 82 3d 1f ae 45 3b
       -0.03843945 -0.04003191 0.06362044 0.0030163599
0001f0 51 12 c9 bd c0 a4 4b bc a2 92 fa bd 96 84 85 bd
       -0.09817947 -0.012429416 -0.12234999 -0.065194294
000200 b6 5f ef 3c 8e dd a6 bd ca 7f 31 3d 4a d1 d1 bd
       0.029220443 -0.08147727 0.04333476 -0.10244997
000210 83 b3 cb bd a6 0b 0d be a1 2a 0f 3d 8a 06 84 3d
       -0.099463485 -0.13773975 0.034952763 0.0644656
000220 00 28 b5 bd 5d f0 83 3d f0 29 ed bb 12 69 4b 3d
       -0.0884552 0.0644233 -0.0072376654 0.04966075
000230 e4 e4 8d 3c 77 fe ce bd ba f9 19 be bc 49 5c bd
       0.017321058 -0.10107129 -0.1503667 -0.053781256
000240 36 93 66 bd 72 32 2b bd 66 5f d2 bd 78 81 08 be
       -0.056292735 -0.041796155 -0.10272102 -0.13330638
000250 14 47 58 3d 5e f5 0b bd 9b 97 5a 3d a0 11 32 bd
       0.05280216 -0.034169547 0.05336724 -0.04347384
000260 84 1f 57 bd a8 7a 87 bc 7d 18 f8 bc 1b 3b 77 bb
       -0.05252029 -0.01653798 -0.030285114 -0.0037724439
000270 85 ad 01 be e4 86 d6 bc 38 f6 8c bc 28 21 67 3c
       -0.12663849 -0.026187368 -0.01720725 0.014107026
000280 97 a9 28 3a 7f 9b 23 3d ad fd 40 3d be 48 26 3d
       0.0006433962 0.039943215 0.047116924 0.040596716
000290 00 f9 60 3d 8a 7f 57 3b 06 cd 74 bd c9 53 bb bd
       0.054924965 0.0032882416 -0.059765838 -0.0914684
0002a0 75 33 d5 bd 1a 38 05 bd 0e 4d 18 3c d1 c9 a8 bd
       -0.10410205 -0.032524206 0.009295715 -0.082416184
0002b0 4f 42 48 bc 64 21 10 bd 81 4a 14 bc b8 8b 43 bd
       -0.01222284 -0.035188094 -0.009050966 -0.047740668
0002c0 c2 e3 d3 3c 60 b9 47 bb 54 35 01 3b 0d 77 b8 3c
       0.02586544 -0.0030475482 0.0019715624 0.022517705
0002d0 62 c9 6e 3b bb 6d 65 bd 50 d6 d2 ba 32 d4 a3 3d
       0.0036435951 -0.05601285 -0.0016085599 0.079994574
0002e0 7e fe 1b 3d c0 f1 1f bb 40 42 0c bc 09 de 82 3d
       0.0380845 -0.002440557 -0.008560717 0.06390006
0002f0 29 66 34 3d 89 02 dc bd 98 40 1c be 0d 2d 32 3c
       0.04404274 -0.10742671 -0.15259016 0.010874999
000300 a8 13 bb bc c3 b6 98 3d cb 9b d8 3b 10 40 db bc
       -0.022836521 0.07456734 0.006610369 -0.026763946
000310 8e 06 2e bd a7 a3 13 be 78 09 21 3d c0 5f a0 3d
       -0.04248672 -0.14417897 0.03931567 0.07830763
000320 f4 3f 38 3d 1a 8b 1a bd ee 61 54 3d 8e 94 79 3d
       0.044982865 -0.037730314 0.051851206 0.06093269
000330 1c 9e 5f bd 5e 8d 88 3d 18 b0 2b 3d 18 b4 ef bd
       -0.054594144 0.06667589 0.041915983 -0.11704272
000340 50 62 19 be a9 2b 14 bd 89 bd 1d bd 09 b9 14 be
       -0.1497891 -0.03617445 -0.038510833 -0.1452371
000350 42 91 97 3b c4 a7 a0 bc ed cc 08 be 41 22 9e bd
       0.0046254704 -0.019611247 -0.13359423 -0.07721377
000360 66 c1 a7 bd 3f c6 8f bd 64 ef 02 bd 64 9d cf bc
       -0.08191185 -0.07020234 -0.031966582 -0.025343604
000370 60 9f 5f bb d2 2a 00 3d 93 74 90 3d d9 6e 22 3d
       -0.0034122095 0.031290837 0.07053485 0.039656494
000380 82 8a 9c ba 19 2b df bd a7 c7 4c bd e0 52 5c 3d
       -0.0011943134 -0.10896892 -0.04999509 0.053789973
000390 43 b7 43 bd 94 58 f6 3c c9 08 cc bc 89 aa 64 3d
       -0.047782194 0.030071534 -0.024906533 0.055826697
0003a0 a6 0d d3 bc f8 71 16 bc 09 c1 56 3d 14 32 50 3d
       -0.025763344 -0.009182446 0.052430186 0.05082901
0003b0 8b 39 e9 bc d2 76 1e 3d 94 5d ea 3c 14 c6 2f 3d
       -0.028469821 0.038687535 0.028609075 0.04291351
0003c0 50 33 02 3c 78 56 8e bd 71 be 41 3c 83 05 63 3c
       0.007946804 -0.06950086 0.01182519 0.013856295
0003d0 d4 8b b6 3c 70 38 90 3c 82 52 39 38 f8 86 a6 bd
       0.022283472 0.017605036 4.418428e-05 -0.08131212
0003e0 ae f9 c6 bc 67 21 b3 bd 9f a9 2a bd 22 ea 64 3d
       -0.024288978 -0.08746605 -0.04166567 0.05588735
0003f0 37 db 9a bd e7 76 08 bd b8 c8 41 bc 99 34 61 3d
       -0.07561343 -0.03331652 -0.01182764 0.0549818

linear2.bias f4 [100]
000000 8d d8 b1 bd 9e ca 8f bd cb c8 af 3e 63 1c 11 be
       -0.08683882 -0.07021068 0.3433288 -0.14170985
000010 08 6a 2b bd 6e 64 f0 bd ff 21 ad bd 6c f2 f4 bd
       -0.041849166 -0.117379054 -0.0845375 -0.11960301
000020 65 a6 ab bd 58 95 c9 bd 3c 65 0d be bb 57 58 bd
       -0.083813466 -0.09842938 -0.13808149 -0.05281804
000030 7b a8 87 bd 84 2c 0f be d8 f9 f4 bd dd e7 72 bd
       -0.06623932 -0.13981825 -0.119617164 -0.059303153
000040 65 a9 19 bd 91 38 6b bd 3c 5c 55 bd ab e4 00 be
       -0.037515063 -0.057426993 -0.052089915 -0.1258723
000050 c9 f4 04 bd ad 89 a8 bd 8f f2 80 bd dd a5 83 bd
       -0.032460008 -0.082293846 -0.062962644 -0.0642812
000060 b0 d0 2b be 79 37 19 be d1 cf 2e be 17 b5 aa bd
       -0.16778827 -0.14962567 -0.17071463 -0.083353214
000070 57 47 07 be 1e 58 16 be c3 9c 92 bd d4 4c 66 bd
       -0.13210808 -0.14682052 -0.07158806 -0.056225613
000080 d8 05 57 bd ca 4e 80 3e 45 ed fd bd c9 ff 15 be
       -0.052495807 0.2506011 -0.12398771 -0.14648356
000090 db 58 e9 bd fc eb 58 bd d9 f5 ad bd 8d 8b d6 bd
       -0.11393901 -0.052959427 -0.08494157 -0.10475836
0000a0 ee ff 0d be 52 88 14 be f1 8e 68 bd 4c 42 e8 3d
       -0.1386716 -0.14505127 -0.056776945 0.1134077
0000b0 93 31 1f 3e 88 cb 50 bd dc 58 5b bd 2e 02 de bd
       0.15546255 -0.050975353 -0.05355154 -0.108402595
0000c0 8f 36 c1 bd 10 78 e1 bd 65 69 01 be d6 4e 01 be
       -0.09434234 -0.11009228 -0.12637861 -0.1262773
0000d0 3b 63 8c bd e5 79 8a bd be d6 d1 bc 83 93 9f bd
       -0.06854864 -0.06761531 -0.025615092 -0.077918075
0000e0 a0 fd be bd f1 fc c4 bd fb 9d 85 bd 9e 53 70 bd
       -0.09325719 -0.09618557 -0.06524273 -0.058673494
0000f0 11 de 0a 3d b4 76 94 bd 72 9c 29 be 92 b4 00 be
       0.033903185 -0.07249203 -0.16563585 -0.12568882
000100 f3 24 7e bd bf 67 5b bd 9f 5d 07 be 12 18 c4 bd
       -0.062046956 -0.053565737 -0.13219307 -0.095749035
000110 10 b8 06 be 13 19 da bd f7 b2 20 be 76 bf 6d bd
       -0.13156152 -0.10649314 -0.1569327 -0.05804392
000120 81 a1 11 be c2 f2 34 bd 44 9a 0b be 5b de 9b bd
       -0.14221765 -0.044176824 -0.13633066 -0.0761077
000130 13 0c d1 bd 8e 1d 01 be e0 d1 7d 3e ba 38 95 bd
       -0.10207381 -0.1260893 0.24787092 -0.0728621
000140 42 98 85 3d 96 85 37 be a1 e3 b6 bd 0d c1 c3 bd
       0.065231815 -0.17922053 -0.089301355 -0.09558306
000150 02 5a ff bd d2 c2 d8 bd b8 6e 1b be 52 5a 65 bd
       -0.124683395 -0.10584034 -0.15178955 -0.05599434
000160 57 83 91 3e ce a7 0a be 7f 43 2e bd 65 9b 88 3e
       0.28420517 -0.13540575 -0.042544838 0.26681057
000170 70 9f f0 bd 22 eb fd bd 31 32 04 be db 62 7f 3e
       -0.1174916 -0.12398364 -0.12909772 0.24940054
000180 a9 9a f9 bd 20 f6 a5 bd ba 55 dc bd 49 14 27 be
       -0.12187702 -0.08103585 -0.107585385 -0.16316332
