model/model_0579.pth (torch, 768263 bytes, 6 tensors)

f0.0.weight f4 [256, 390]
000000 00 22 c9 80 40 2b 90 01 00 44 7d 80 80 66 19 81
       -1.8471132e-38 5.2959306e-38 -1.1503831e-38 -2.8175202e-38
000010 c0 77 ea 01 00 03 32 00 80 d7 28 81 c0 77 5a 02
       8.612986e-38 4.592851e-39 -3.101134e-38 1.6050477e-37
000020 c0 fa c8 81 20 78 29 02 c0 4a 87 81 80 a4 4c 01
       -7.3828206e-38 1.2450633e-37 -4.969843e-38 3.7586905e-38
000030 00 34 37 00 80 1a fe 81 e0 60 1a 82 c0 c8 e0 01
       5.069606e-39 -9.334289e-38 -1.1341935e-37 8.2572667e-38
000040 00 71 8c 00 40 c5 97 01 40 63 ee 01 00 7d 03 80
       1.2897506e-38 5.575168e-38 8.756981e-38 -3.20348e-40
000050 40 f0 a4 81 00 41 4c 81 a0 36 3a 82 e0 ab be 02
       -6.058883e-38 -3.7515518e-38 -1.3680798e-37 2.8016642e-37
000060 00 69 d2 00 80 30 23 01 40 93 21 82 8b 7d 0a 80
       1.9323121e-38 2.997317e-38 -1.1870671e-37 -9.63391e-40
000070 71 17 30 80 18 ef 17 00 c0 85 48 02 60 aa 08 02
       -4.416513e-39 2.197987e-39 1.4732064e-37 1.0040597e-37
000080 80 f0 77 01 00 32 8f 82 40 ff a9 81 c0 23 8f 01
       4.5539285e-38 -2.104066e-37 -6.244706e-38 5.25812e-38
000090 e0 a5 55 02 10 bc bd 82 00 89 bc 01 00 4c 5d 81
       1.5696372e-37 -2.7878997e-37 6.925688e-38 -4.0645817e-38
0000a0 00 88 50 81 00 61 b8 00 40 d2 bf 01 31 95 35 80
       -3.8301142e-38 1.6932528e-38 7.0464013e-38 -4.920801e-39
0000b0 de 8d 3d 80 00 27 0e 80 00 87 3f 00 00 7d 30 80
       -5.652858e-39 -1.299688e-39 5.834065e-39 -4.452945e-39
0000c0 80 7d 5b 82 99 d1 3a 80 c0 14 a4 81 90 15 cf 82
       -1.6125596e-37 -5.401648e-39 -6.027386e-38 -3.0428293e-37
0000d0 a0 81 11 82 c0 59 8e 81 e0 94 3d 82 00 dc af 81
       -1.0690118e-37 -5.2291347e-38 -1.3928252e-37 -6.460053e-38
0000e0 60 37 1d 02 80 1a 8f 01 80 66 28 02 00 0c 4b 82
       1.155043e-37 5.256793e-38 1.2372107e-37 -1.4917528e-37
0000f0 80 3c 60 02 80 76 24 01 00 e3 df 81 80 41 71 81
       1.6474284e-37 3.0207062e-38 -8.224299e-38 -4.4311703e-38
000100 80 2d ad 81 80 69 4a 01 00 04 6f 81 a0 2b 06 02
       -6.361545e-38 3.7177233e-38 -4.3900237e-38 9.857285e-38
000110 c0 b4 94 01 c0 30 84 81 f2 df 41 00 70 6f 2f 80
       5.462598e-38 -4.8559095e-38 6.049644e-39 -4.356245e-39
000120 00 95 64 81 6d 54 1d 80 f6 bf 8c 81 00 c0 b3 81
       -4.1983889e-38 -2.693516e-39 -5.170333e-38 -6.602972e-38
000130 80 d4 35 81 00 63 d6 80 00 22 c9 80 80 ba 5f 01
       -3.339691e-38 -1.968831e-38 -1.8471132e-38 4.1092438e-38
000140 c0 87 84 01 80 66 19 81 ee 9f 11 82 61 3f 13 80
       4.8683934e-38 -2.8175202e-38 -1.0698815e-37 -1.76761e-39
000150 80 d7 28 81 f8 5e 2d 00 80 ba 67 01 20 78 29 02
       -3.101134e-38 4.166666e-39 4.2561806e-38 1.2450633e-37
000160 80 ca c0 01 80 d4 0e 82 00 34 37 00 00 36 18 00
       7.0820234e-38 -1.0493497e-37 5.069606e-39 2.223423e-39
000170 40 43 fc 01 c0 c8 e0 01 66 2f 1e 00 29 3d 33 00
       9.266668e-38 8.2572667e-38 2.772068e-39 4.70555e-39
000180 40 63 ee 01 20 99 0a 82 c0 90 b5 01 00 41 4c 81
       8.756981e-38 -1.0182583e-37 6.6696605e-38 -3.7515518e-38
000190 00 cf 8d 81 80 f4 4f 02 00 69 d2 00 80 a8 b3 01
       -5.209225e-38 1.5278126e-37 1.9323121e-38 6.5996e-38
0001a0 80 43 b2 01 30 62 21 80 dd fa 2b 00 f2 af 2c 80
       6.548373e-38 -3.065794e-39 4.038919e-39 -4.103879e-39
0001b0 c0 85 48 02 83 8f 0d 80 da e1 38 80 00 32 8f 82
       1.4732064e-37 -1.245344e-39 -5.223808e-39 -2.104066e-37
0001c0 40 c5 a5 81 70 bf 8e 02 e0 a5 55 02 00 90 c2 00
       -6.089447e-38 2.0974904e-37 1.5696372e-37 1.7867744e-38
0001d0 c0 b2 f3 01 00 4c 5d 81 40 fb c2 81 00 cf 33 02
       8.9520596e-38 -4.0645817e-38 -7.162487e-38 1.3210249e-37
0001e0 40 d2 bf 01 80 8a 9b 81 c0 d9 77 82 00 27 0e 80
       7.0464013e-38 -5.7136745e-38 -1.8209185e-37 -1.299688e-39
0001f0 80 bb 5f 02 80 be 1b 81 80 7d 5b 82 02 21 0b 82
       1.6437262e-37 -2.860568e-38 -1.6125596e-37 -1.022158e-37
000200 5a 9b 03 80 90 15 cf 82 80 a8 87 81 00 b6 38 01
       -3.31236e-40 -3.0428293e-37 -4.9832954e-38 3.392604e-38
000210 e0 94 3d 82 59 d1 13 82 a8 55 2f 00 80 1a 8f 01
       -1.3928252e-37 -1.0859934e-37 4.346996e-39 5.256793e-38
000220 ab c6 28 00 8c 8e 3b 00 80 3c 60 02 f0 2b 87 02
       3.744688e-39 5.46943e-39 1.6474284e-37 1.9861686e-37
000230 80 d7 b2 01 80 41 71 81 c0 ca 51 02 78 d5 0e 83
       6.56961e-38 -4.4311703e-38 1.5413081e-37 -4.19751e-37
000240 00 04 6f 81 40 90 37 82 00 ac 48 82 c0 30 84 81
       -4.3900237e-38 -1.3486114e-37 -1.4743041e-37 -4.8559095e-38
000250 c0 86 d8 01 00 a9 25 01 00 95 64 81 20 70 0b 02
       7.9539225e-38 3.0426965e-38 -4.1983889e-38 1.0244285e-37
000260 c0 55 39 02 00 c0 b3 81 3b 4e 34 00 b1 2a 4a 00
       1.3616262e-37 -6.602972e-38 4.80351e-39 6.811142e-39
000270 c0 e5 99 81 c0 65 43 82 00 6f b6 00 80 66 19 81
       -5.6533e-38 -1.4355538e-37 1.675388e-38 -2.8175202e-38
000280 00 4f 40 80 00 32 b5 81 80 d7 28 81 80 61 33 01
       -5.905812e-39 -6.6560646e-38 -3.101134e-38 3.294706e-38
000290 80 38 ea 01 20 78 29 02 80 07 3a 81 40 a5 c9 01
       8.60391e-38 1.2450633e-37 -3.4168186e-38 7.407286e-38
0002a0 00 34 37 00 60 2e 55 02 00 a9 9b 00 c0 c8 e0 01
       5.069606e-39 1.5662078e-37 1.4295128e-38 8.2572667e-38
0002b0 00 92 40 02 00 66 29 01 40 63 ee 01 80 32 24 01
       1.4147832e-37 3.111358e-38 8.756981e-38 3.0158275e-38
0002c0 20 94 4d 82 00 41 4c 81 88 a7 1d 00 f6 e8 d4 81
       -1.5103531e-37 -3.7515518e-38 2.723328e-39 -7.8210783e-38
0002d0 00 42 a6 01 80 cd ad 01 80 ea cc 81 7f 36 00 80
       6.1073475e-38 6.384504e-38 -7.5274256e-38 -1.955e-41
0002e0 56 54 4c 00 3c 52 41 80 c0 85 48 02 5e 94 32 00
       7.009752e-39 -5.998807e-39 1.4732064e-37 4.644999e-39
0002f0 3f f5 45 00 00 32 8f 82 80 e0 ed 01 00 f6 f5 01
       6.424627e-39 -2.104066e-37 8.738219e-38 9.035178e-38
000300 e0 a5 55 02 00 c3 1e 00 e0 29 2c 02 00 4c 5d 81
       1.5696372e-37 2.825018e-39 1.2648582e-37 -4.0645817e-38
000310 00 76 86 01 d0 0f ae 02 60 8a 7d 82 00 7e 88 80
       4.939315e-38 2.5576078e-37 -1.8627216e-37 -1.2534828e-38
000320 e0 a4 12 02 00 27 0e 80 80 db 4d 01 00 00 99 81
       1.0773703e-37 -1.299688e-39 3.7810037e-38 -5.6203324e-38
000330 80 7d 5b 82 bd f3 13 80 7d eb 08 00 90 15 cf 82
       -1.6125596e-37 -1.832311e-39 8.19161e-40 -3.0428293e-37
000340 00 8a 28 00 80 2b 8e 01 80 43 7e 81 00 5d 38 01
       3.722925e-39 5.222498e-38 -4.670086e-38 3.3862187e-38
000350 00 c2 50 81 80 1a 8f 01 00 6e b2 80 c0 bf 51 02
       -3.8342755e-38 5.256793e-38 -1.6386179e-38 1.5409925e-37
000360 80 3c 60 02 00 47 9a 81 80 0d 8e 01 80 41 71 81
       1.6474284e-37 -5.6672546e-38 5.2181933e-38 -4.4311703e-38
000370 80 77 4b 81 00 ff d9 80 00 04 6f 81 9c aa 30 80
       -3.7370948e-38 -2.001978e-38 -4.3900237e-38 -4.469307e-39
000380 00 95 38 80 c0 30 84 81 62 7d f1 01 58 54 8d 01
       -5.196239e-39 -4.8559095e-38 8.8709334e-38 5.1916247e-38
000390 00 95 64 81 60 77 7f 82 c0 87 18 02 00 c0 b3 81
       -4.1983889e-38 -1.87687e-37 1.1206155e-37 -6.602972e-38
0003a0 80 ee 5a 82 00 e3 df 81 c0 aa 15 02 20 50 3b 02
       -1.6084557e-37 -8.224299e-38 1.0995794e-37 1.3761585e-37
0003b0 c0 b6 1c 02 80 66 19 81 7d f9 03 80 91 1a 37 00
       1.1513517e-37 -2.8175202e-38 -3.65006e-40 5.060483e-39
0003c0 80 d7 28 81 00 88 c6 81 00 23 f3 80 20 78 29 02
       -3.101134e-38 -7.2928863e-38 -2.2328581e-38 1.2450633e-37
0003d0 80 19 9c 01 78 d5 0e 83 00 fe 8f 01 00 4b 31 82
       5.734194e-38 -4.19751e-37 5.2894376e-38 -1.302543e-37
0003e0 00 57 15 02 00 c0 80 80 00 cb 44 80 00 c4 00 00
       1.0971759e-37 -1.182382e-38 -6.317636e-39 7.0312e-41
0003f0 a0 26 65 02 80 b4 cf 01 10 3d d1 02 00 41 4c 81
       1.6835348e-37 7.6298796e-38 3.0744838e-37 -3.7515518e-38

f0.0.bias f4 [256]
000000 60 94 9e 82 00 07 01 00 80 12 6b 81 00 28 dc 81
       -2.3301177e-37 9.4347e-41 -4.3175956e-38 -8.0872634e-38
000010 00 54 50 81 80 e3 1d 81 40 fc 03 82 00 c8 15 80
       -3.8263833e-38 -2.899957e-38 -9.696752e-38 -2.000292e-39
000020 00 45 96 81 40 0a f9 81 20 9b 31 82 00 86 03 82
       -5.520031e-38 -9.148286e-38 -1.3048425e-37 -9.662816e-38
000030 a0 3f 34 02 00 c7 cd 81 00 b7 1a 01 00 49 06 00
       1.3242571e-37 -7.559066e-38 2.841663e-38 5.772e-40
000040 80 f5 78 01 00 e2 00 81 c0 af b0 81 60 37 33 82
       4.5726544e-38 -2.3672034e-38 -6.490438e-38 -1.3166735e-37
000050 40 7b 31 82 40 81 90 81 40 fa 50 82 40 e2 17 02
       -1.3039277e-37 -5.308271e-38 -1.5353245e-37 1.1158659e-37
000060 00 34 ae 81 00 b2 bd 01 a0 50 32 02 80 fd c8 01
       -6.399212e-38 6.968305e-38 1.3100513e-37 7.383215e-38
000070 40 d8 9e 81 80 76 a7 01 e0 8b 4f 82 00 fd 45 01
       -5.8350337e-38 6.151615e-38 -1.52481e-37 3.6364704e-38
000080 00 8f 82 80 00 dc 92 81 00 d5 aa 80 00 14 25 00
       -1.1989913e-38 -5.3947614e-38 -1.5688444e-38 3.405088e-39
000090 80 48 ac 81 c0 dd 4e 82 00 4b 17 01 e0 87 54 82
       -6.3286854e-38 -1.5198129e-37 2.778813e-38 -1.5614294e-37
0000a0 40 63 94 01 c0 4c 5c 82 00 bd 97 01 80 ae 88 01
       5.450903e-38 -1.6185073e-37 5.573984e-38 5.0208905e-38
0000b0 20 e7 50 82 80 82 31 82 00 eb c6 81 80 de d5 81
       -1.5347756e-37 -1.3041358e-37 -7.307092e-38 -7.8563115e-38
0000c0 80 7f 36 01 00 4b 80 80 80 92 26 02 00 69 40 00
       3.3519597e-38 -1.1781848e-38 1.2237797e-37 5.915139e-39
0000d0 c0 a9 08 02 00 f7 fb 01 00 3a 15 80 80 19 94 01
       1.0040418e-37 9.2557266e-38 -1.949352e-39 5.4403204e-38
0000e0 b0 09 bf 82 40 95 ea 81 80 90 c3 01 00 e2 42 80
       -2.8070488e-37 -8.617219e-38 7.1839034e-38 -6.142216e-39
0000f0 00 aa c1 00 00 1a a9 81 00 47 67 00 80 dd 22 81
       1.7785235e-38 -6.2118104e-38 9.484526e-39 -2.991362e-38
000100 00 3b 06 81 00 2d d0 00 00 73 88 01 a0 57 37 82
       -2.4654243e-38 1.9117926e-38 5.0123527e-38 -1.3469864e-37
000110 80 59 25 81 60 18 38 82 80 f4 de 81 40 e1 ae 01
       -3.0369927e-38 -1.352518e-37 -8.190076e-38 6.4240723e-38
000120 00 10 08 80 00 81 3e 01 80 fc b9 01 20 ed 22 02
       -7.40424e-40 3.4990042e-38 6.8320587e-38 1.1969932e-37
000130 00 7b 25 01 00 db e5 00 c0 93 43 02 80 87 a8 81
       3.0393962e-38 2.1108891e-38 1.436874e-37 -6.1907886e-38
000140 80 a6 51 01 c0 c2 06 82 00 e5 16 01 a0 59 31 02
       3.8506695e-38 -9.900656e-38 2.7714948e-38 1.3029627e-37
000150 00 d7 e2 00 40 1b 93 01 80 6d 0e 01 c0 0c c4 81
       2.083195e-38 5.4038374e-38 2.6159843e-38 -7.2017324e-38
000160 80 0b 13 02 00 3d 28 80 40 07 ab 81 00 5c 20 81
       1.0803155e-37 -3.695303e-39 -6.282588e-38 -2.9453366e-38
000170 20 0a 38 82 80 2a 53 01 c0 9f 85 01 00 3c d5 00
       -1.3521091e-37 3.8785072e-38 4.9085714e-38 1.9582485e-38
000180 c0 23 f9 01 00 92 c1 01 20 1c 18 02 40 0e 19 82
       9.1519453e-38 7.11065e-38 1.1175268e-37 -1.1244754e-37
000190 40 16 9e 81 80 1a 5e 01 00 0f 22 80 40 02 d5 81
       -5.807196e-38 4.0793973e-38 -3.127788e-39 -7.824707e-38
0001a0 00 6f 92 01 80 c3 bb 81 00 4c 49 01 90 75 ae 82
       5.3791207e-38 -6.897348e-38 3.6972397e-38 -2.563448e-37
0001b0 00 a1 b6 00 80 df dd 01 80 fb 13 81 00 86 3b 82
       1.6771816e-38 8.1503285e-38 -2.7180078e-38 -1.3777046e-37
0001c0 c0 e4 c2 81 40 bb bb 01 00 dd 8b 80 20 14 18 82
       -7.1592585e-38 6.896164e-38 -1.2844414e-38 -1.1172972e-37
0001d0 00 c0 4d 80 00 49 21 80 a0 b6 58 82 00 b0 b9 00
       -7.14021e-39 -3.056759e-39 -1.5921585e-37 1.7052704e-38
0001e0 00 4f 18 81 00 0c 5a 82 40 15 80 82 20 9a 2e 02
       -2.797467e-38 -1.6019554e-37 -1.8820107e-37 1.2827733e-37
0001f0 e0 95 63 02 a0 79 1a 82 80 da 50 82 80 6e 50 81
       1.6720338e-37 -1.1349038e-37 -1.5344133e-37 -3.8282846e-38
000200 80 6b b6 81 00 bf 3e 80 00 51 4d 02 20 52 13 82
       -6.7010496e-38 -5.762319e-39 1.5084267e-37 -1.0823423e-37
000210 00 58 31 80 00 ce 25 01 00 98 b3 01 00 79 de 80
       -4.531508e-39 3.0453511e-38 6.5972325e-38 -2.0430887e-38
000220 00 48 77 80 a0 28 35 02 c0 6f 03 82 00 cc 8f 81
       -1.0954253e-38 1.3309439e-37 -9.656431e-38 -5.282263e-38
000230 00 ab bd 01 40 cf 10 82 00 74 29 00 a0 f4 54 82
       6.967301e-38 -1.0638927e-37 3.806868e-39 -1.5645504e-37
000240 00 73 37 81 00 0d ae 81 40 ca 60 82 c0 1f b2 01
       -3.36943e-38 -6.393616e-38 -1.6514964e-37 6.543243e-38
000250 20 53 3c 82 60 c5 35 82 a0 b4 66 82 40 bc bd 81
       -1.3835914e-37 -1.3354424e-37 -1.6949568e-37 -6.969776e-38
000260 80 81 21 01 00 fe 8a 81 00 f6 d5 00 80 f6 8d 01
       2.9663941e-38 -5.1057666e-38 1.9649209e-38 5.214893e-38
000270 20 c3 62 82 00 a8 a9 01 00 59 68 01 00 2b 3b 00
       -1.6659856e-37 6.2321864e-38 4.2675525e-38 5.43372e-39
000280 20 c4 73 82 80 d5 50 02 80 55 25 81 40 ba 20 02
       -1.7909106e-37 1.5342698e-37 -3.0367057e-38 1.1808395e-37
000290 c0 5b 11 82 80 c9 0e 81 80 b0 74 01 80 21 5e 82
       -1.0679249e-37 -2.622585e-38 4.4942355e-38 -1.6319598e-37
0002a0 00 04 42 00 00 2a c4 80 00 b0 38 80 00 f1 cc 81
       6.062578e-39 -1.8014824e-38 -5.205925e-39 -7.5283583e-38
0002b0 00 f1 b0 81 40 63 cc 81 00 9c ae 81 20 aa 0c 02
       -6.499801e-38 -7.508018e-38 -6.4141354e-38 1.0334399e-37
0002c0 20 e1 61 02 00 f2 74 81 80 0f 09 82 c0 d9 30 02
       1.6594997e-37 -4.498935e-38 -1.0069619e-37 1.2992929e-37
0002d0 00 b9 83 80 00 39 20 02 00 fd 74 01 40 94 83 81
       -1.2096815e-38 1.1771302e-37 4.499724e-38 -4.833453e-38
0002e0 00 52 ef 81 40 df 92 81 00 00 4b 81 80 8b 0d 81
       -8.79124e-38 -5.395228e-38 -3.7285211e-38 -2.5997696e-38
0002f0 80 f2 40 81 00 9b 41 00 00 1c a6 01 00 cb df 81
       -3.5438816e-38 6.024911e-39 6.101895e-38 -8.2208553e-38
000300 c0 15 d8 01 00 d0 a3 80 00 f5 4a 01 00 fe de 80
       7.937708e-38 -1.5043802e-38 3.727732e-38 -2.0478598e-38
000310 20 90 0b 82 00 1c 2e 81 c0 5e 93 81 80 e5 39 82
       -1.0253469e-37 -3.1978842e-38 -5.413523e-38 -1.3657517e-37
000320 00 ce 4a 02 80 ee ad 81 80 01 51 82 00 e6 32 01
       1.4899735e-37 -6.3892394e-38 -1.5355325e-37 3.2858454e-38
000330 a0 e6 40 82 00 2d a8 01 40 fe 1f 02 00 14 c3 00
       -1.4172118e-37 6.1778025e-38 1.1754441e-37 1.7915096e-38
000340 00 62 2e 80 60 51 53 82 00 f0 e0 00 80 b8 23 01
       -4.259589e-39 -1.5525185e-37 2.0657247e-38 3.0070744e-38
000350 00 78 14 02 80 92 6f 81 80 8a 3c 01 c0 06 86 01
       1.0907761e-37 -4.4002476e-38 3.4629515e-38 4.923351e-38
000360 e0 90 2c 82 20 92 1b 82 c0 91 9d 01 00 39 2f 00
       -1.2678141e-37 -1.1429537e-37 5.788183e-38 4.336716e-39
000370 00 30 5f 81 80 c0 83 81 00 7f 16 82 a0 b2 42 82
       -4.099307e-38 -4.8398024e-38 -1.1056707e-37 -1.4304132e-37
000380 80 7e 28 01 20 0d 0a 02 80 f1 0e 81 60 f4 44 82
       3.0947486e-38 1.0142405e-37 -2.625455e-38 -1.4469938e-37
000390 40 84 0e 82 80 be 68 01 a0 7f 35 02 00 44 c8 00
       -1.0470466e-37 4.2748347e-38 1.3334406e-37 1.8391493e-38
0003a0 e0 b7 20 02 e0 4f 31 02 00 7b b8 01 80 08 41 81
       1.1807713e-37 1.3026829e-37 6.776742e-38 -3.54546e-38
0003b0 80 a0 3e 81 e0 13 0c 82 00 5b 5d 81 e0 6d 1a 82
       -3.5012642e-38 -1.0291279e-37 -4.065658e-38 -1.1345666e-37
0003c0 00 ce e4 81 00 3d 37 00 00 2f e6 81 40 eb c2 81
       -8.404957e-38 5.072835e-39 -8.45561e-38 -7.160191e-38
0003d0 00 df 9a 80 00 cb 40 80 c0 67 18 82 80 77 1b 81
       -1.4222664e-38 -5.950294e-39 -1.1196971e-37 -2.855474e-38
0003e0 e0 0d 00 82 80 eb 12 82 00 f4 15 02 00 e1 4c 01
       -9.407937e-38 -1.0793971e-37 1.1016816e-37 3.7630312e-38
0003f0 80 d5 89 81 c0 86 6a 82 80 8e 08 82 00 3e 5f 81
       -5.063221e-38 -1.7230276e-37 -1.0032597e-37 -4.1003114e-38

f0.2.weight f4 [256, 256]
000000 41 f8 13 82 ae 3e be 01 5b 2e 46 02 fb 38 af 02
       -1.08711e-37 6.988492e-38 1.4560046e-37 2.5746644e-37
000010 1b 03 66 82 63 40 08 00 c0 d0 cd 81 42 9b a1 81
       -1.6898623e-37 7.57782e-40 -7.560465e-38 -5.9364844e-38
000020 3e 12 b0 01 de c2 16 02 f0 18 54 81 88 02 01 82
       6.4678366e-38 1.1076184e-37 -3.8956142e-38 -9.47815e-38
000030 24 ac 9d 81 80 58 4c 81 24 6d ae 82 8e 0a d1 01
       -5.79197e-38 -3.7532378e-38 -2.5629646e-37 7.678962e-38
000040 c0 eb 22 80 1d 60 11 02 07 e3 6a 82 d8 c7 6e 81
       -3.206978e-39 1.0680501e-37 -1.7256759e-37 -4.3857077e-38
000050 a0 cb d5 80 f8 0c 04 82 00 e5 fb 81 8e 95 f5 01
       -1.9634008e-38 -9.70155e-38 -9.2531437e-38 9.0213387e-38
000060 34 2d 33 02 d8 a8 8b 00 c8 cd 30 82 f9 b2 54 02
       1.3163816e-37 1.2825704e-38 -1.2989494e-37 1.5626663e-37
000070 f0 72 a4 01 74 2b 13 81 80 58 69 01 dc c4 7f 82
       6.040901e-38 -2.7030812e-38 4.2858837e-38 -1.8790937e-37
000080 00 7d 74 00 80 2d 46 80 e4 57 2e 01 c0 21 16 80
       1.0697759e-38 -6.444807e-39 3.202181e-38 -2.032488e-39
000090 5c 85 50 02 00 6c 6e 80 26 30 9f 82 c0 17 b2 01
       1.5319699e-37 -1.0140648e-38 -2.3390586e-37 6.5420953e-38
0000a0 5a 81 5c 82 40 bf a5 81 d6 ee f2 01 be 1c f2 01
       -1.6200169e-37 -6.088586e-38 8.9239473e-38 8.8938003e-38
0000b0 a0 26 1c 82 88 3e 39 82 80 fc 0c 82 c8 52 4e 02
       -1.1472155e-37 -1.3609599e-37 -1.035804e-37 1.5158247e-37
0000c0 c0 a5 1e 01 5e 70 21 02 30 6d 05 82 00 7d 20 01
       2.9138937e-38 1.186066e-37 -9.802632e-38 2.9477042e-38
0000d0 ce 9b a3 01 48 c5 33 82 02 1f c7 81 d7 47 2d 02
       6.010031e-38 -1.320746e-37 -7.314555e-38 1.273065e-37
0000e0 50 9f 37 80 7e ea 2c 82 c9 6d 18 02 08 52 3c 82
       -5.108103e-39 -1.270386e-37 1.1198703e-37 -1.38356e-37
0000f0 ce db f1 81 eb 62 34 82 68 82 39 80 c0 22 99 01
       -8.884482e-38 -1.32527e-37 -5.281404e-39 5.625319e-38
000100 b8 d3 da 01 d1 1e 5b 02 00 e2 2e 81 26 57 45 82
       8.0384354e-38 1.6098423e-37 -3.21209e-38 -1.4498285e-37
000110 fa 9c bc 82 12 1c 22 82 08 50 75 81 54 e0 da 81
       -2.7714217e-37 -1.1909936e-37 -4.5056813e-38 -8.040245e-38
000120 a0 2c 2c 80 2f af 47 82 00 87 bd 80 17 99 33 02
       -4.05677e-39 -1.4670486e-37 -1.7405338e-38 1.3194778e-37
000130 01 c1 1a 82 ba 05 46 82 a6 0b ac 01 e6 3e e6 81
       -1.1369523e-37 -1.4548386e-37 6.3199536e-38 -8.457891e-38
000140 5d 52 56 02 d8 bf cd 80 cc dd a3 81 a4 5c 06 82
       1.5745874e-37 -1.8895097e-38 -6.0195006e-38 -9.871352e-38
000150 02 e0 72 02 80 e1 d2 81 60 13 6f 01 f5 37 00 82
       1.7843639e-37 -7.7465393e-38 4.3911268e-38 -9.420014e-38
000160 44 7e 57 81 b2 2b 8b 01 7d ca 41 82 58 79 95 81
       -3.9579854e-38 5.1123236e-38 -1.4237512e-37 -5.4908075e-38
000170 90 c1 a1 81 a4 e3 9f 01 20 c9 4b 81 44 31 32 81
       -5.941981e-38 5.8734024e-38 -3.7429512e-38 -3.2728783e-38
000180 ba 84 aa 01 40 aa c0 02 50 1e 38 80 40 4a e9 81
       6.263859e-38 2.8309583e-37 -5.153662e-39 -8.5697226e-38
000190 54 ee ab 81 bc af e6 81 da 6d 89 81 0c 94 09 02
       -6.3157463e-38 -8.4740823e-38 -5.048348e-38 1.0107658e-37
0001a0 40 39 c2 81 36 cb bf 02 7f b7 05 82 0c 00 e1 01
       -7.1346495e-38 2.8181565e-37 -9.823958e-38 8.2652014e-38
0001b0 57 3c 57 02 80 57 6d 81 ee 56 c4 81 1a 0a a1 81
       1.5813022e-37 -4.3592803e-38 -7.2123767e-38 -5.9156555e-38
0001c0 b0 16 02 82 08 47 76 00 e0 62 78 00 7e 82 62 82
       -9.557403e-38 1.086207e-38 1.1055729e-38 -1.6641307e-37
0001d0 58 87 4c 81 5c b0 57 01 88 b3 7e 02 02 21 cd 01
       -3.7565987e-38 3.9615795e-38 1.8712496e-37 7.535247e-38
0001e0 00 e2 af 80 ca 00 84 01 a0 67 22 82 9c c8 96 01
       -1.6152285e-38 4.8490274e-38 -1.1931619e-37 5.538916e-38
0001f0 b0 02 1f 01 e3 1d 90 82 d4 3f 21 82 22 a3 dd 01
       2.9205616e-38 -2.1176052e-37 -1.184673e-37 8.141666e-38
000200 48 30 93 81 36 c3 f4 01 9f ea ae 02 c0 c0 72 01
       -5.406855e-38 8.991156e-38 2.5701668e-37 4.4586671e-38
000210 00 52 8d 01 c8 b1 0e 03 f8 bb ca 00 58 2b 00 80
       5.1912884e-38 4.1934132e-37 1.8618201e-38 -1.5549e-41
000220 c8 47 2a 81 de be 9b 01 24 1c 3b 81 40 b0 0d 82
       -3.127557e-38 5.721189e-38 -3.4366665e-38 -1.0409625e-37
000230 28 5b 70 00 8d f1 4f 02 28 0c 2f 01 d0 9b cd 80
       1.0318276e-38 1.527728e-37 3.2151145e-38 -1.8882172e-38
000240 88 c8 2d 82 3c c0 d5 81 ca cd a4 81 92 58 f3 01
       -1.2767582e-37 -7.8519686e-38 -6.053938e-38 8.9391194e-38
000250 a8 f2 5b 82 64 5c c5 81 d0 a9 e4 81 8c 5b 43 01
       -1.6159218e-37 -7.2498945e-38 -8.399764e-38 3.5881525e-38
000260 50 f5 25 01 00 b3 38 80 40 d0 cd 01 ae 34 65 82
       3.0481717e-38 -5.207001e-39 7.560393e-38 -1.6839381e-37
000270 16 08 d8 81 e0 10 41 82 88 50 bd 80 30 2a 56 00
       -7.935747e-38 -1.4184243e-37 -1.7385798e-38 7.912987e-39
000280 4e 3d a0 01 6a 79 e3 81 db 45 72 02 60 a2 35 81
       5.8862685e-38 -8.356085e-38 1.77994e-37 -3.3360948e-38
000290 18 c3 d5 80 20 92 ae 01 00 db c5 00 d0 22 b1 00
       -1.9630947e-38 6.4127184e-38 1.8170155e-38 1.6267371e-38
0002a0 44 40 31 82 80 16 78 01 c6 40 11 82 80 52 05 02
       -1.302235e-37 4.556655e-38 -1.0671507e-37 9.794973e-38
0002b0 fa 0d b2 81 80 35 4b 81 ce e7 ec 01 40 4d 7b 02
       -6.540693e-38 -3.7323596e-38 8.702533e-38 1.8462737e-37
0002c0 20 68 7e 02 ba 12 b8 81 60 ab 0b 82 30 b4 27 82
       1.8690855e-37 -6.7617796e-38 -1.0261289e-37 -1.2320934e-37
0002d0 16 fc 30 02 04 d5 6b 81 d8 05 04 01 78 87 70 01
       1.3002783e-37 -4.3315514e-38 2.4248764e-38 4.4178232e-38
0002e0 df 63 18 82 2c c8 35 82 d8 20 c6 01 70 4e 90 82
       -1.1195858e-37 -1.3355226e-37 7.278084e-38 -2.120392e-37
0002f0 56 27 b6 81 d4 4c 2a 01 b4 fd 98 01 04 2a d8 81
       -6.6912686e-38 3.127919e-38 5.620003e-38 -7.940616e-38
000300 11 72 2d 82 01 3c 4f 02 80 46 c4 81 18 f3 b6 81
       -1.2742768e-37 1.5225178e-37 -7.210019e-38 -6.7205064e-38
000310 94 84 d8 01 c0 d0 d8 01 e0 65 51 82 ee 07 24 82
       7.953611e-38 7.964541e-38 -1.5384132e-37 -1.2051093e-37
000320 e0 2e 3d 81 40 6f 63 81 40 8d 5f 82 40 e1 c0 81
       -3.474745e-38 -4.1773133e-38 -1.6423989e-37 -7.085288e-38
000330 8b 4d 2e 82 50 6f 6d 80 fc 9f bd 82 e0 26 3d 82
       -1.2805755e-37 -1.005e-38 -2.786288e-37 -1.3896684e-37
000340 76 4c 5d 02 3c 52 58 81 0f 7e 18 82 5e 0a e1 01
       1.6258459e-37 -3.9731935e-38 -1.1203373e-37 8.266682e-38
000350 6c b4 4c 81 50 d0 8a 01 f8 af e5 01 60 0c b6 01
       -3.759833e-38 5.099211e-38 8.437382e-38 6.6874e-38
000360 01 27 33 82 96 e0 c0 82 8a 83 a1 81 f8 0c 55 80
       -1.3162037e-37 -2.834077e-37 -5.933081e-38 -7.81067e-39
000370 16 99 a9 81 f4 84 db 81 cd 19 2d 82 55 fd 0d 82
       -6.2300463e-38 -8.0638673e-38 -1.2717437e-37 -1.0431747e-37
000380 00 d3 df 01 50 8e bc 82 a4 18 1a 02 69 5e 48 82
       8.222003e-38 -2.77058e-37 1.1321205e-37 -1.4720774e-37
000390 fb fb 3b 82 98 cd 67 00 19 c6 57 02 c0 1c 9d 01
       -1.3810905e-37 9.532809e-39 1.5852557e-37 5.7713946e-38
0003a0 30 f8 28 80 4c a7 34 01 18 06 2e 80 1c d4 bb 81
       -3.762453e-39 3.3180808e-38 -4.226619e-39 -6.8997313e-38
0003b0 80 ca 2c 81 db 32 38 82 d6 f5 c3 81 65 10 57 02
       -3.1736697e-38 -1.353278e-37 -7.1984444e-38 1.580041e-37
0003c0 0d ca 16 02 ef 08 4b 02 c8 61 c5 01 50 40 14 00
       1.1078245e-37 1.4916648e-37 7.250668e-38 1.859781e-39
0003d0 30 d9 0f 01 9f 7d 09 02 ad 16 97 02 20 18 46 02
       2.6420776e-38 1.0101222e-37 2.2200471e-37 1.4553666e-37
0003e0 00 7b 05 81 ac d9 04 82 3a 15 b3 81 3c d9 9b 01
       -2.451649e-38 -9.760297e-38 -6.5784674e-38 5.7249724e-38
0003f0 c4 b5 1f 02 40 1b 3d 02 58 8c a6 81 6c e5 35 81
       1.1733639e-37 1.3893347e-37 -6.1180153e-38 -3.3409052e-38

f0.2.bias f4 [256]
000000 53 f7 06 80 61 fe 28 80 82 cc 40 80 f2 1e 0d 80
       -6.39736e-40 -3.764674e-39 -5.950835e-39 -1.204963e-39
000010 80 f6 0f 80 f3 21 35 80 60 09 05 80 66 68 4c 80
       -1.46596e-39 -4.87946e-39 -4.6254e-40 -7.016949e-39
000020 7a 36 14 80 e8 15 03 80 d5 f1 14 80 9e 7b 19 80
       -1.856252e-39 -2.83365e-40 -1.923463e-39 -2.340233e-39
000030 e9 20 1a 80 57 d7 16 80 11 2d 1f 80 b6 47 14 80
       -2.399529e-39 -2.09763e-39 -2.863067e-39 -1.862435e-39
000040 e5 60 03 80 02 cb 15 80 e5 2a 29 80 23 17 11 80
       -3.10266e-40 -2.001371e-39 -3.780643e-39 -1.569503e-39
000050 1f ed 23 80 56 24 00 80 6d c8 04 80 a2 f7 2d 80
       -3.299305e-39 -1.3035e-41 -4.39241e-40 -4.221431e-39
000060 44 b6 07 80 36 81 4a 80 68 2d 0e 80 ef 6e 34 80
       -7.08233e-40 -6.842179e-39 -1.301986e-39 -4.815241e-39
000070 b4 16 2f 80 1e 43 09 80 da 83 0b 80 a5 8d 33 80
       -4.324413e-39 -8.50597e-40 -1.05749e-39 -4.734423e-39
000080 b7 31 1f 80 9b 51 1e 80 7a 02 16 80 a2 c4 27 80
       -2.864735e-39 -2.78434e-39 -2.02127e-39 -3.652123e-39
000090 48 fe 39 80 0b 4b 2e 80 4a f7 2b 80 e8 fd 31 80
       -5.325842e-39 -4.251353e-39 -4.037637e-39 -4.591024e-39
0000a0 2e e3 33 80 29 15 08 80 86 26 1a 80 3d 36 0f 80
       -4.765107e-39 -7.42275e-40 -2.401543e-39 -1.39699e-39
0000b0 46 75 03 80 f8 7b 1d 80 cd 07 17 80 1d 1c 32 80
       -3.17576e-40 -2.707701e-39 -2.115015e-39 -4.60186e-39
0000c0 70 ab 0b 80 eb 13 3d 80 ed 71 29 80 7f d9 09 80
       -1.07169e-39 -5.60911e-39 -3.806124e-39 -9.04542e-40
0000d0 f4 41 18 80 a5 86 2b 80 98 b4 34 80 24 ff 3d 80
       -2.227711e-39 -3.997228e-39 -4.84023e-39 -5.693492e-39
0000e0 34 c0 3e 80 96 7b 14 80 1d ca 38 80 d7 6a 13 80
       -5.76275e-39 -1.881044e-39 -5.215292e-39 -1.783201e-39
0000f0 b1 b3 10 80 c2 02 0c 80 d3 b8 07 80 c3 6e 0b 80
       -1.533829e-39 -1.103015e-39 -7.09151e-40 -1.049924e-39
000100 c4 1c 2f 80 ea 77 2b 80 b8 de 0b 80 68 08 01 80
       -4.326587e-39 -3.991943e-39 -1.090087e-39 -9.4851e-41
000110 ca 2f 10 80 5b eb 19 80 a9 7c 30 80 31 2f 19 80
       -1.486511e-39 -2.380317e-39 -4.452823e-39 -2.312816e-39
000120 e3 74 04 80 be 18 0a 80 68 11 32 80 9b 39 02 80
       -4.09273e-40 -9.27231e-40 -4.598019e-39 -2.04336e-40
000130 40 3f 44 80 7b 93 08 80 79 91 3e 80 a1 6d 0e 80
       -6.267504e-39 -7.8759e-40 -5.745987e-39 -1.325024e-39
000140 53 37 06 80 d1 6b 00 80 85 2b 26 80 23 49 38 80
       -5.7086e-40 -3.8677e-41 -3.505361e-39 -5.169024e-39
000150 60 a6 04 80 47 7a 17 80 f8 f1 18 80 c7 47 23 80
       -4.27026e-40 -2.156081e-39 -2.290854e-39 -3.239991e-39
000160 b0 7e 15 80 cf 34 08 80 6a dc 07 80 fe 32 38 80
       -1.973992e-39 -7.53628e-40 -7.21918e-40 -5.16108e-39
000170 a9 13 0f 80 b2 9f 3c 80 e7 74 0c 80 a9 17 1c 80
       -1.384585e-39 -5.567418e-39 -1.143963e-39 -2.579882e-39
000180 ef b0 4c 80 8f 5d 21 80 ae a2 20 80 d4 e5 0d 80
       -7.04297e-39 -3.064134e-39 -2.997094e-39 -1.276308e-39
000190 ca da 00 80 14 f0 1e 80 3a 0e 25 80 95 d9 17 80
       -7.8487e-41 -2.841189e-39 -3.403017e-39 -2.19027e-39
0001a0 af 9f 40 80 ba 25 2f 80 cc 90 22 80 6a 85 03 80
       -5.934755e-39 -4.329802e-39 -3.17435e-39 -3.23366e-40
0001b0 48 31 1f 80 ef de 3a 80 53 15 0a 80 ff 83 16 80
       -2.864579e-39 -5.406432e-39 -9.26005e-40 -2.067732e-39
0001c0 23 f5 39 80 0f ad 2d 80 d2 6c 02 80 43 c9 2b 80
       -5.322562e-39 -4.194679e-39 -2.22708e-40 -4.021125e-39
0001d0 8f 91 3c 80 17 55 19 80 2a 3e 22 80 db ff 10 80
       -5.562346e-39 -2.326412e-39 -3.144707e-39 -1.561152e-39
0001e0 a2 90 0a 80 2d 47 0f 80 a4 2d 14 80 ff d5 24 80
       -9.7024e-40 -1.403066e-39 -1.853083e-39 -3.382845e-39
0001f0 f3 1e 2b 80 5d b6 00 80 0e a0 00 80 24 f0 27 80
       -3.960029e-39 -6.542e-41 -5.7417e-41 -3.66773e-39
000200 7e cf 29 80 fa 09 22 80 26 dd 0d 80 4f fb 07 80
       -3.83969e-39 -3.125986e-39 -1.273195e-39 -7.33001e-40
000210 f0 c0 48 80 47 3f 38 80 2c 2f 43 80 d7 2e 0b 80
       -6.681369e-39 -5.165487e-39 -6.1699e-39 -1.026993e-39
000220 5d ca 28 80 0d 36 00 80 f2 e0 06 80 d5 f3 0e 80
       -3.746014e-39 -1.939e-41 -6.31708e-40 -1.373167e-39
000230 58 84 22 80 4b 9f 3f 80 e4 1e 03 80 0a a0 1c 80
       -3.169883e-39 -5.84278e-39 -2.86588e-40 -2.628805e-39
000240 d1 fe 06 80 a9 c4 2e 80 d9 e2 00 80 c2 1d 48 80
       -6.42424e-40 -4.294981e-39 -8.1378e-41 -6.622831e-39
000250 ab 48 15 80 b0 c7 28 80 0b 5c 11 80 14 c2 19 80
       -1.954614e-39 -3.745054e-39 -1.594222e-39 -2.36551e-39
000260 41 0e 13 80 61 d8 1a 80 cb 97 34 80 27 b7 0d 80
       -1.749988e-39 -2.465345e-39 -4.829899e-39 -1.259564e-39
000270 c1 55 03 80 72 5a 00 80 96 02 07 80 5f fe 0e 80
       -3.06269e-40 -3.2446e-41 -6.43776e-40 -1.376948e-39
000280 9f 6f 2a 80 5f 9d 06 80 78 ff 3e 80 54 dc 33 80
       -3.897133e-39 -6.07467e-40 -5.785446e-39 -4.762649e-39
000290 ba 4f 0b 80 db 7e 03 80 70 c5 4a 80 66 b4 24 80
       -1.038791e-39 -3.21014e-40 -6.866654e-39 -3.370793e-39
0002a0 46 c9 02 80 40 d0 31 80 63 92 37 80 5b be 46 80
       -2.55874e-40 -4.574645e-39 -5.103466e-39 -6.496771e-39
0002b0 89 b1 16 80 de 31 0b 80 aa 50 09 80 11 fe 13 80
       -2.084069e-39 -1.02808e-39 -8.55456e-40 -1.836016e-39
0002c0 dd cb 28 80 28 70 02 80 70 3e 0b 80 e0 84 33 80
       -3.746552e-39 -2.23905e-40 -1.032589e-39 -4.731277e-39
0002d0 1a 58 1c 80 7e 95 4a 80 65 64 14 80 80 bd 37 80
       -2.602999e-39 -6.849454e-39 -1.872725e-39 -5.118932e-39
0002e0 91 86 24 80 2b c1 1e 80 9e 98 04 80 bb 93 16 80
       -3.354351e-39 -2.82436e-39 -4.22091e-40 -2.073377e-39
0002f0 04 61 2f 80 c8 56 02 80 9b c5 08 80 84 41 32 80
       -4.351071e-39 -2.14802e-40 -8.05571e-40 -4.615277e-39
000300 52 f5 26 80 b8 0d 49 80 13 db 46 80 18 02 14 80
       -3.577753e-39 -6.708913e-39 -6.507074e-39 -1.837461e-39
000310 74 62 11 80 65 db 13 80 6c 4c 13 80 d7 71 4c 80
       -1.596522e-39 -1.823578e-39 -1.77229e-39 -7.020336e-39
000320 6d 11 03 80 c8 04 29 80 cc 3f 3f 80 bf 70 01 80
       -2.81758e-40 -3.76697e-39 -5.808522e-39 -1.32281e-40
000330 d0 0b 02 80 49 73 30 80 47 b9 34 80 c7 ec 21 80
       -1.87909e-40 -4.44946e-39 -4.841911e-39 -3.115511e-39
000340 82 83 15 80 7c 9e 0e 80 29 6a 39 80 7d b4 18 80
       -1.975722e-39 -1.34255e-39 -5.272706e-39 -2.268799e-39
000350 44 bb 07 80 3b aa 08 80 9f e0 00 80 1a ee 47 80
       -7.10027e-40 -7.95751e-40 -8.0579e-41 -6.605735e-39
000360 a1 5c 09 80 34 4c 41 80 08 3c 14 80 d3 3e 0a 80
       -8.59748e-40 -5.996644e-39 -1.858245e-39 -9.40892e-40
000370 a2 71 23 80 c7 bc 12 80 b2 20 00 80 79 7a 20 80
       -3.255006e-39 -1.72076e-39 -1.1729e-41 -2.982671e-39
000380 e7 67 29 80 69 f7 1b 80 42 57 44 80 56 08 05 80
       -3.802528e-39 -2.568312e-39 -6.276116e-39 -4.62168e-40
000390 f4 8e 33 80 a4 d4 12 80 69 44 19 80 4e 0d 19 80
       -4.734892e-39 -1.72932e-39 -2.320428e-39 -2.30066e-39
0003a0 e5 c7 39 80 75 b2 0f 80 73 6d 27 80 9c d1 22 80
       -5.306332e-39 -1.441551e-39 -3.620847e-39 -3.1976e-39
0003b0 f9 22 39 80 3c 6d 10 80 bd 8b 17 80 78 30 16 80
       -5.247169e-39 -1.508554e-39 -2.162345e-39 -2.037768e-39
0003c0 f2 70 07 80 7e fd 1d 80 37 68 20 80 92 82 15 80
       -6.83366e-40 -2.754165e-39 -2.976121e-39 -1.975385e-39
0003d0 5e 76 2c 80 13 99 03 80 3c 51 31 80 c4 fc 19 80
       -4.083224e-39 -3.30419e-40 -4.529081e-39 -2.386563e-39
0003e0 3b 87 42 80 b6 6c 1b 80 5a 83 19 80 f0 b8 3e 80
       -6.109654e-39 -2.518557e-39 -2.343007e-39 -5.760144e-39
0003f0 38 6a 36 80 ef 8e 30 80 2b 60 00 80 6b cc 1a 80
       -4.997221e-39 -4.459379e-39 -3.4499e-41 -2.461054e-39

f0.4.weight f4 [100, 256]
000000 66 28 48 80 c5 88 11 80 9e fa d6 01 a0 98 05 80
       -6.626648e-39 -1.610267e-39 7.89708e-38 -5.13929e-40
000010 91 d1 10 00 1b 8b 2f 00 24 1f 3d 01 08 b6 09 80
       1.544546e-39 4.36617e-39 3.473616e-38 -8.9182e-40
000020 ea 0f 15 80 fb 64 2b 80 57 1f ce 81 36 ab 34 80
       -1.934254e-39 -3.985151e-39 -7.571742e-38 -4.836865e-39
000030 e6 2b 1f 00 47 0a c3 81 4b 2b 37 80 e3 e6 35 00
       2.862648e-39 -7.1646434e-38 -5.066483e-39 4.950108e-39
000040 fa 29 8d 01 52 71 35 80 e8 e7 33 00 53 ec 35 80
       5.1855453e-38 -4.907933e-39 4.766803e-39 -4.952058e-39
000050 03 19 1c 80 bc f7 3a 00 86 77 b2 81 f1 cd 02 80
       -2.580366e-39 5.415329e-39 -6.555838e-38 -2.57549e-40
000060 86 ab 04 80 a7 91 03 00 d2 82 ae 81 e9 30 40 00
       -4.28873e-40 3.27757e-40 -6.4105223e-38 5.895017e-39
000070 32 42 29 00 ee 13 43 00 83 3f 06 80 02 f4 1f 00
       3.789002e-39 6.160128e-39 -5.73797e-40 2.934434e-39
000080 f0 77 05 00 cc 19 0b 82 70 9b 3a 00 40 66 36 80
       5.02203e-40 -1.021951e-37 5.382219e-39 -4.995797e-39
000090 5e e1 eb 01 74 3d 7b 81 33 3d 03 80 cf 07 07 00
       8.664875e-38 -4.614551e-38 -2.9746e-40 6.4565e-40
0000a0 0b c1 2c 00 2a 60 3f 00 05 bc 44 80 00 43 30 80
       4.110013e-39 5.820133e-39 -6.312262e-39 -4.432139e-39
0000b0 89 ae 0d 00 77 11 2c 80 ea f6 29 00 18 b4 9a 01
       1.256473e-39 -4.047027e-39 3.853831e-39 5.682909e-38
0000c0 92 a4 40 00 0b 37 45 00 b4 d1 91 01 44 9e 28 80
       5.936508e-39 6.356395e-39 5.3565497e-38 -3.730195e-39
0000d0 11 26 31 00 94 fb 1a 00 9b 27 a4 81 75 02 2e 80
       4.513595e-39 2.477972e-39 -6.0300917e-38 -4.225314e-39
0000e0 b3 7b 2e 00 87 36 26 00 d6 0e 4a 80 e6 2c 35 80
       4.268808e-39 3.50931e-39 -6.801149e-39 -4.883388e-39
0000f0 60 59 3d 00 71 b5 22 80 e9 c1 2f 00 61 aa 1d 00
       5.634027e-39 -3.187496e-39 4.38583e-39 2.72435e-39
000100 36 1f 4c 80 7d 32 4c 00 6d b6 cb 01 26 5a 08 80
       -6.990694e-39 6.99761e-39 7.483219e-38 -7.67023e-40
000110 24 8d 47 00 2c 3b 02 80 d5 79 46 80 b4 37 4e 81
       6.570952e-39 -2.04898e-40 -6.47219e-39 -3.787619e-38
000120 2b 58 3a 80 3c 0a 2f 80 fe e2 fd 81 9e 67 15 80
       -5.358087e-39 -4.31994e-39 -9.326324e-38 -1.965716e-39
000130 cf 4f be 01 e4 f1 3a 00 87 90 36 00 1b f4 cb 01
       6.9909497e-38 5.413233e-39 5.010963e-39 7.4920697e-38
000140 e8 a5 a5 81 38 8b 26 00 a7 92 30 00 6b b3 a4 81
       -6.084949e-38 3.539691e-39 4.460713e-39 -6.050154e-38
000150 b9 3a 41 00 76 c5 40 00 fa 0a 3a 00 0c 9b 12 80
       5.990373e-39 5.948307e-39 5.330396e-39 -1.708659e-39
000160 48 66 e9 81 9e 4a 3b 00 9f d8 a3 01 74 4c e4 01
       -8.573745e-38 5.445062e-39 6.018758e-38 8.386368e-38
000170 d1 b3 45 00 4d 83 39 00 4c ef 04 02 b3 23 c1 01
       6.401155e-39 5.281725e-39 9.766503e-38 7.094823e-38
000180 e8 0d 2b 00 66 a2 24 00 d9 9e 0f 80 03 b6 bb 01
       3.953915e-39 3.364335e-39 -1.434516e-39 6.8954125e-38
000190 5d ce 31 00 8c 35 db 01 0d b5 24 80 b1 5d 44 00
       4.573969e-39 8.052473e-38 -3.371027e-39 6.278424e-39
0001a0 4f c0 39 00 3a 74 1c 00 28 ee 06 02 f5 d0 19 80
       5.30361e-39 2.613088e-39 9.913113e-38 -2.370847e-39
0001b0 18 53 2f 00 e5 2a 05 80 ca 4a 04 80 ac c9 ed 81
       4.346077e-39 -4.74565e-40 -3.94171e-40 -8.7349435e-38
0001c0 42 53 1e 80 2e 34 1e 80 de 13 3d 00 67 72 40 80
       -2.784932e-39 -2.773783e-39 5.609092e-39 -5.918512e-39
0001d0 d6 25 6d 82 56 db 3b 80 46 db 04 00 49 de d9 81
       -1.7422868e-37 -5.496977e-39 4.46002e-40 -8.0032174e-38
0001e0 77 87 17 00 09 48 08 00 22 bb 80 01 fe e4 a7 01
       2.160812e-39 7.60525e-40 4.7288296e-38 6.16747e-38
0001f0 53 e0 1b 00 2e a2 0d 80 f9 b9 a1 01 c2 23 21 00
       2.560031e-39 -1.25204e-39 5.940892e-38 3.043399e-39
000200 ab e9 21 80 08 28 3f 00 2e 8d 0e 80 81 95 02 80
       -3.114396e-39 5.799997e-39 -1.336343e-39 -2.37303e-40
000210 7f 5d 2b 80 36 07 0a 80 51 13 35 82 4b 31 0a 80
       -3.982466e-39 -9.20942e-40 -1.3303323e-37 -9.36038e-40
000220 84 b7 1f 00 4a f5 b6 81 34 29 03 80 64 d3 80 81
       2.912733e-39 -6.7208214e-38 -2.90287e-40 -4.7323105e-38
000230 cc ae 4a 80 28 61 d0 81 b4 a0 0e 80 e8 6f 69 01
       -6.858532e-39 -7.6546545e-38 -1.343346e-39 4.287563e-38
000240 a2 30 c9 01 42 9a 21 80 04 33 2d 00 c7 1d b3 81
       7.3905524e-38 -3.085909e-39 4.150898e-39 -6.5796944e-38
000250 c6 70 44 80 ab f7 1b 80 14 15 1d 00 2a 9d 32 00
       -6.285269e-39 -2.568405e-39 2.670791e-39 4.648155e-39
000260 52 79 02 80 38 17 25 80 81 4b 45 80 2a f7 02 00
       -2.27193e-40 -3.406243e-39 -6.363735e-39 2.72337e-40
000270 a5 82 a9 81 45 91 40 80 4b ca 9f 81 d2 0b ee 81
       -6.226826e-38 -5.929585e-39 -5.869765e-38 -8.7444354e-38
000280 90 85 98 81 b0 87 cf 81 e7 59 ae 01 23 b6 27 00
       -5.6027634e-38 -7.6234493e-38 6.404651e-38 3.646923e-39
000290 47 51 09 00 82 2f 21 80 24 59 54 81 ba 50 0b 80
       8.55676e-40 -3.047614e-39 -3.9002206e-38 -1.03915e-39
0002a0 d6 b8 3b 80 9c 74 21 00 81 35 c9 01 41 ac dd 01
       -5.484601e-39 3.072403e-39 7.3912513e-38 8.142975e-38
0002b0 1a 4d 11 00 a8 b9 b2 01 a8 d8 4a 80 64 93 7f 81
       1.588862e-39 6.5653277e-38 -6.873548e-39 -4.694185e-38
0002c0 83 cc 19 80 c2 e7 0a 02 4b 31 22 00 5e 85 12 00
       -2.369252e-39 1.020515e-37 3.14009e-39 1.700882e-39
0002d0 fd 5e 23 00 8f 01 43 00 17 ef 19 00 39 cb 09 00
       3.248318e-39 6.153537e-39 2.381657e-39 8.99422e-40
0002e0 fa c2 28 00 a4 6a 09 80 6e 1a f1 81 66 2d 3b 80
       3.743364e-39 -8.64775e-40 -8.8567343e-38 -5.43458e-39
0002f0 de 5f e1 01 2a 44 3b 00 e7 48 3c 00 c9 93 3d 00
       8.278951e-38 5.442747e-39 5.536282e-39 5.65498e-39
000300 10 c1 b2 81 bc a7 09 80 be d9 b5 81 16 ea 15 80
       -6.5663904e-38 -8.86691e-40 -6.6801344e-38 -2.01252e-39
000310 5a a9 00 80 9c bb 05 00 7c 4f 43 80 43 54 26 80
       -6.0752e-41 5.26479e-40 -6.181492e-39 -3.519976e-39
000320 6c 4b 45 80 c6 d3 25 00 86 b8 4b 80 de 7a e6 01
       -6.363706e-39 3.473883e-39 -6.953857e-39 8.466496e-38
000330 64 eb 13 00 8a 14 3a 80 20 44 3d 01 e2 44 37 00
       1.829317e-39 -5.333827e-39 3.4762695e-38 5.075663e-39
000340 fa 06 20 00 44 64 f0 81 a6 38 80 81 d4 d9 5e 01
       2.941239e-39 -8.830595e-38 -4.710106e-38 4.0931244e-38
000350 76 6c 39 00 a5 b8 1d 00 36 66 3b 80 e4 6c 8c 01
       5.273532e-39 2.729467e-39 -5.45496e-39 5.158413e-38
000360 43 a4 04 02 34 ec 4b 00 a1 ef 27 00 4e 95 11 00
       9.744969e-38 6.972396e-39 3.667547e-39 1.614764e-39
000370 73 0d 24 00 2a 34 37 80 54 c6 04 80 12 c6 45 00
       3.310903e-39 -5.069665e-39 -4.38489e-40 6.407703e-39
000380 b6 f2 49 00 a1 f8 25 80 5c dd 22 00 86 55 99 81
       6.79106e-39 -3.487105e-39 3.201816e-39 -5.6326044e-38
000390 76 f4 8f 81 f2 d1 9b 01 81 5e 34 00 0b 1f 09 82
       -5.288069e-38 5.7239264e-38 4.809347e-39 -1.0074079e-37
0003a0 4b 8e 0e 00 6c b0 0b 00 37 50 38 00 88 12 14 80
       1.336742e-39 1.073479e-39 5.171563e-39 -1.843358e-39
0003b0 e3 5c 20 80 cf 94 23 00 05 13 a7 01 a4 11 4d 81
       -2.972057e-39 3.267625e-39 6.1373403e-38 -3.766521e-38
0003c0 d8 41 13 00 c4 07 28 00 6c e4 aa 01 11 ba a8 01
       1.768495e-39 3.676206e-39 6.2775907e-38 6.1980446e-38
0003d0 cb 4f 43 00 40 5d 30 00 0b d0 b3 81 4f cb 09 00
       6.181603e-39 4.441556e-39 -6.605274e-38 8.99453e-40
0003e0 b4 5f 0e 80 db a7 2f 00 eb 75 11 80 f9 4a 14 00
       -1.320029e-39 4.376484e-39 -1.603504e-39 1.863605e-39
0003f0 b6 f5 0f 00 bb 80 24 00 f5 ed 17 80 f0 06 16 00
       1.465677e-39 3.352258e-39 -2.19758e-39 2.02287e-39

f0.4.bias f4 [100]
000000 78 22 ce 3c d7 0d 64 bc 15 fe 29 ba 0a 3e ec 3d
       0.02516292 -0.013919315 -0.00064846996 0.115352705
000010 4b 55 fd 3b db 10 3a 3d 57 f4 28 3d 60 cc 79 3d
       0.007731115 0.04542623 0.041248646 0.060985923
000020 5a b6 9b 3c 0c 9b ba 3b b4 a2 a2 3c f3 bc 69 3c
       0.01900785 0.0056947526 0.019852974 0.01426624
000030 2c 20 c6 3c 76 20 8a 3d e8 a7 69 3d af 5c 2f 3d
       0.024185263 0.06744473 0.057044894 0.042813
000040 07 fe 50 3c 34 e0 a5 bc 15 79 26 bb fe a5 46 3d
       0.012755877 -0.02024851 -0.002540176 0.048498146
000050 1f 67 e7 bb 7e d0 a0 3d f8 d2 b7 3d ba 43 dd bc
       -0.0070618535 0.07852267 0.08975786 -0.027009834
000060 92 b4 15 3e 00 f2 30 bd a4 78 96 3d ef 86 ce 3d
       0.14619663 -0.04319954 0.07347229 0.1008433
000070 92 c5 6b 3d 20 1d ab 3c d0 44 be 3c db 7e cd 3b
       0.057561465 0.020887911 0.023226172 0.006271226
000080 5b 79 96 3c 72 a8 3e bd d7 60 a8 3c 97 da 29 3d
       0.018368414 -0.04654736 0.02055399 0.04146823
000090 7a 87 45 39 b8 d9 c3 3c 17 9a 17 3d 8b 33 a2 3c
       0.00018837853 0.023907527 0.037012186 0.019799968
0000a0 92 14 8b 3d 1a f5 c4 bc d8 95 2a bb 91 f6 33 3d
       0.06791033 -0.024042655 -0.0026029255 0.043936316
0000b0 c9 b6 d5 3d a6 2e c2 3c 11 ff af bc 73 e2 82 3d
       0.10435254 0.023703884 -0.02148393 0.06390848
0000c0 a5 a5 9f 3d 49 f2 6f 3d 52 5f a7 bc df e7 bb 3d
       0.07795266 0.05858067 -0.020431194 0.09175085
0000d0 a8 5e 9f 3c 71 5d 9b 3d fa 2a b6 3c 6d 66 5c bc
       0.019454315 0.07586182 0.02223729 -0.013452155
0000e0 bf 0c cf 3c 02 8f 92 3b b8 4b 70 bc 74 94 ab 3d
       0.025274632 0.0044726143 -0.01466649 0.083779246
0000f0 dc f8 4d 3d e6 b5 99 3d d2 90 19 bd 17 b9 20 3d
       0.05028616 0.075053975 -0.037491627 0.039239015
000100 2f 3d 05 3d b6 b1 76 3b 20 78 05 3d 3b 16 f2 3b
       0.032529052 0.0037642545 0.032585263 0.007387904
000110 8e a0 83 3d b8 0e 3d bd f9 0a 92 ba 22 5d 87 3d
       0.06427108 -0.046156615 -0.0011142186 0.066095605
000120 34 40 a8 3c e0 20 17 3c 49 01 a4 3c d2 19 22 bd
       0.020538427 0.009224147 0.020020144 -0.039575405
000130 ea e2 4f 3d dd ab b2 3d fb 8c e0 3a 56 2f 57 bb
       0.05075351 0.087241866 0.0017131859 -0.003283461
000140 9a 38 40 3d b1 03 03 3d 75 e9 9e 3d 4f c3 7a 3d
       0.04692898 0.031985942 0.07759372 0.061221417
000150 76 d0 de bb 8b 82 a1 3d cb b3 18 3d 25 1d 55 bc
       -0.006799753 0.07886227 0.03728084 -0.013007437
000160 f3 11 59 3d 89 d4 77 3d ed 1e d3 3c 15 f2 32 bd
       0.052995633 0.060505424 0.025771582 -0.0436879
000170 3d 2d d5 3d 88 1b a1 3d 4e 12 fa 3b d7 d0 76 bc
       0.10409019 0.07866579 0.0076315766 -0.01506444
000180 41 29 64 3c 1b df 1a 3d 2e 20 a4 3b c0 6b 81 3c
       0.013925851 0.037810426 0.005008719 0.01579845
