model/model.pth (torch, 799047 bytes, 6 tensors)

f0.0.weight f4 [256, 390]
000000 d7 d8 ba bc 63 ae 26 3d 00 d8 33 bd c9 36 37 3d
       -0.022808475 0.040693652 -0.043907166 0.04472998
000010 45 d4 3b bd 94 c8 77 3c d4 48 22 3d 64 29 18 bc
       -0.045856733 0.015123505 0.039620236 -0.009287212
000020 05 c3 60 3b 94 d4 60 bc 36 4a ea bc 1e f4 44 3c
       0.0034295928 -0.013722558 -0.02859984 0.012021093
000030 03 37 17 3d db 0d d1 3c b8 71 ea bc 8d 34 83 bb
       0.036917698 0.025519302 -0.028618678 -0.0040040673
000040 44 73 45 3d a1 39 1d bd 4a 61 5a 3d ca b3 ee bc
       0.04820563 -0.038385037 0.05331544 -0.029138464
000050 a1 2d af 3d 11 f1 b5 3d a1 b5 08 3c ff 97 19 bc
       0.08553625 0.088838704 0.008344085 -0.009374618
000060 4a 44 80 3d db 74 d1 bb 4a d2 25 3c f2 6b 7a 3c
       0.06263025 -0.006392104 0.010120938 0.015284525
000070 b5 a5 34 bd c2 05 3a bd 15 1a 8b 3c a4 62 14 ba
       -0.044103343 -0.045415647 0.01698021 -0.00056604506
000080 99 dd 31 bc 8c 69 47 3b c0 f8 bd bc 37 67 90 3c
       -0.010856056 0.00304279 -0.023189902 0.017627342
000090 c8 9c 87 3d 69 d4 c0 3c 04 fe 1a 3d c3 8b 16 3d
       0.066217005 0.023538785 0.037839904 0.03675438
0000a0 6b 79 1b 3d cb e4 fa bb 98 6b c6 bc fa be 89 3c
       0.03795759 -0.007656669 -0.024221227 0.016814698
0000b0 24 a2 11 bd 1d 23 9e bb 22 61 21 3d b2 41 19 3d
       -0.03555502 -0.004825963 0.039399274 0.037416168
0000c0 c5 70 66 3d 0e bd c3 3c 75 0e 2d bd bb 06 2f bd
       0.05625989 0.02389386 -0.042250115 -0.042731028
0000d0 4d e7 d3 3c 28 d1 9e bc 7d 14 02 3c f6 82 df 3c
       0.025867129 -0.019386843 0.007939455 0.027284127
0000e0 f5 44 a2 bb da 01 39 3d 29 69 1d 3d 38 30 0d bd
       -0.004952068 0.04516778 0.038430367 -0.034469813
0000f0 aa 91 12 3d c0 da 99 bc ed fd af 3c 6f ce ca 3c
       0.035783447 -0.018781066 0.021483386 0.024756638
000100 d1 71 7b bc a7 f0 36 bd c9 22 bb 3c 8c f1 c1 3b
       -0.01534696 -0.044663098 0.022843735 0.005918687
000110 85 a3 74 3c bf c1 3c 3d 6e 2b 3b bd d8 76 eb 3c
       0.014931564 0.04608321 -0.045695715 0.028743193
000120 29 6f e7 3a 9e da 13 3d d6 b8 cb 39 51 fc 29 bd
       0.001765703 0.03609716 0.0003885689 -0.041500393
000130 0b 7c dc bc 8f 66 25 bc 65 87 58 3d 31 41 15 3c
       -0.026914617 -0.010095253 0.052863497 0.009109781
000140 65 7a 3e 3b 1a b6 d4 ba 74 6a 44 bd 92 94 81 bc
       0.0029064652 -0.0016228587 -0.047953084 -0.015817914
000150 07 65 1c 3d b3 1f cb 3c ae 7a 70 bc a7 6a 9e 3c
       0.038182285 0.024795389 -0.014677687 0.019337965
000160 fa f5 9d 3c e2 2b 57 3c f9 fc d2 bc 67 f9 09 bd
       0.01928233 0.013133021 -0.025755392 -0.033685114
000170 c2 f9 24 3d a6 c7 02 3c 43 77 db 3c 05 cc f2 3c
       0.04027725 0.00798217 0.026790267 0.0296383
000180 06 4a 5d 3d 9f 0f eb bc 03 96 fd bc 65 52 21 3d
       0.054025672 -0.028693972 -0.03095532 0.03938522
000190 b3 71 73 3d 75 d3 33 bd 5c ff 64 3d 2d ba a3 3d
       0.059434604 -0.043902833 0.055907592 0.079944946
0001a0 a8 7f 2d 3d 23 fa 66 3d 63 2a dd bc c1 bf db 3c
       0.04235807 0.056390893 -0.02699775 0.026824834
0001b0 43 0d fc 3c 75 d5 cc 3c 93 62 23 bd db 4c 20 bc
       0.030768042 0.025004128 -0.03988893 -0.009783949
0001c0 b6 6c 3d bd c2 a5 21 3d 8d ed 94 3d 53 6f d3 bb
       -0.046246253 0.03946472 0.07271872 -0.00645248
0001d0 46 7d 20 bd e1 68 4d bd da 44 5e bd 32 ef 41 bc
       -0.03918197 -0.05014885 -0.05426488 -0.011836814
0001e0 c7 fb 87 bc 5d af 81 bc f2 4f 5a bd ce a4 ae 3c
       -0.016599549 -0.01583069 -0.053298898 0.02131882
0001f0 ff 9a 00 3d 38 49 3c 3d 5b d5 7a 3d 8c 69 ad 3c
       0.031397816 0.045968264 0.061238628 0.021168493
000200 25 ea 78 bc 15 05 f5 3c 43 90 3d 3b aa 2b 29 bd
       -0.015192543 0.02990965 0.0028925098 -0.041301407
000210 fe 5f 61 bc 0e 7d 0a 3d 3e 7e 29 3d 97 80 9e 3d
       -0.0137557965 0.033810668 0.04138016 0.0773937
000220 7b 8e 16 bd 48 6e af bc f6 ee 63 3d 00 ee 14 3d
       -0.036756974 -0.02141489 0.055647813 0.036359787
000230 58 e3 1d 3c 89 6c a1 3c e6 bb 56 3b 40 10 f9 bb
       0.0096367225 0.019705074 0.0032765805 -0.007600814
000240 c1 41 a2 3d 32 a6 80 3c f4 db 4d bd 8e 03 2d 3d
       0.07922698 0.015704248 -0.05025859 0.04223972
000250 2e 15 c0 bc d6 62 26 bd 41 13 ea 3c f4 55 db bc
       -0.0234476 -0.0406216 0.028573634 -0.026774384
000260 5d 81 d6 bb cd db 1c 3d f4 54 f6 3b 28 34 58 bc
       -0.006546183 0.038295556 0.0075174514 -0.013196029
000270 5a df 00 3d 89 90 4f bb 49 63 03 bd b3 73 44 3d
       0.031463005 -0.0031671843 -0.032077108 0.047961902
000280 66 62 32 bd fa 5d a7 3c ea a1 e6 bb b9 57 23 bd
       -0.04355087 0.020430554 -0.0070383446 -0.03987858
000290 a7 2b 4d 3d 43 3c 7f 3c 58 3f 39 3a 6f 95 43 3b
       0.05009046 0.015578332 0.0007066629 0.0029843708
0002a0 94 bb 45 3d 1b e1 8d 3c bf c6 6e bd ea d6 80 3c
       0.04827459 0.017319253 -0.058295008 0.015727479
0002b0 66 94 af 3c 99 14 cb bc f1 4e b9 bc a7 91 05 3d
       0.021433067 -0.024790095 -0.02262065 0.032609608
0002c0 b8 71 9e 3c de a6 60 3c 50 33 35 3d d6 db 40 3d
       0.019341335 0.013711659 0.04423839 0.047084652
0002d0 b3 99 92 3d cd b6 25 3c 88 bf d4 3c b4 dd 3c 3b
       0.07158222 0.010114384 0.025970235 0.0028818669
0002e0 48 de 17 bd fe 4c c9 bb 6e da d2 3c 5d ab 1e 3d
       -0.03707722 -0.0061432114 0.025738921 0.038737644
0002f0 37 e2 40 3d 4a 0e 00 bd a2 2b 89 3d 0b 48 06 bd
       0.047090735 -0.031263627 0.066977754 -0.03278355
000300 a3 96 29 3d a5 e2 d2 3c ec b1 62 3c 20 b8 30 bd
       0.041403424 0.025742838 0.013836365 -0.043144345
000310 8f 92 73 3d 81 75 d5 3c 65 a0 f6 bb bf 4c bd 3d
       0.05946594 0.026057007 -0.0075264447 0.09243154
000320 35 c5 4d 3d 27 28 a1 3d 85 53 3a 3b a4 16 11 bd
       0.0502369 0.078689866 0.002843113 -0.035421982
000330 b6 eb a9 3c 5b d4 2f bd c4 20 42 bd 5b da 5c 3c
       0.020742279 -0.042927127 -0.04739453 0.013479794
000340 04 be a8 3c 89 9c 1c 3d 19 e4 8a 3d 61 5c 1c 3d
       0.020598419 0.03823522 0.067817874 0.038174037
000350 38 10 fa bb 8a 36 81 3d 59 4d 05 3d 05 84 16 bd
       -0.007631328 0.063092306 0.032544468 -0.036746997
000360 f9 9e b0 bb b0 47 51 3c ce 6a 36 bd 6e ce 48 bc
       -0.005390045 0.012773439 -0.04453545 -0.012256248
000370 0d ad 1c bd c7 a0 f4 bc 3e 10 ec 3c c0 11 40 bd
       -0.03825097 -0.02986182 0.028816339 -0.046891928
000380 1c 64 c8 3c 7f c1 27 3d d7 f0 45 bd 79 ed 02 bd
       0.024461798 0.040956017 -0.048325386 -0.031964753
000390 07 78 e8 bb ed 88 ef bc 26 0b 9a bc 0c d3 df bc
       -0.0070943865 -0.029240096 -0.018804144 -0.027322315
0003a0 c7 71 d9 bc 9b ff f5 3c 2a cc 3e bd 6d 28 e6 3b
       -0.026543511 0.030029109 -0.046581425 0.007023862
0003b0 74 8a 82 bc 09 94 45 3d 0b fc 44 bb 2d fa 0b 3d
       -0.01593516 0.04823688 -0.0030057456 0.034174133
0003c0 55 26 47 3d 52 b3 56 3d 65 e8 93 bc 67 ed e9 bb
       0.04862054 0.052417107 -0.01805515 -0.0071388963
0003d0 0b d2 47 3c 31 53 22 3d 68 e4 29 bd 2b 33 08 3d
       0.012196074 0.03963012 -0.04147759 0.033251923
0003e0 6d 65 51 3b 39 ab 97 3c f8 1a b2 bc 89 03 ab bc
       0.0031951324 0.018514263 -0.021741375 -0.02087571
0003f0 0c 1e 97 3d 20 b6 8d ba e2 59 a8 bc 6c 04 c1 3d
       0.07378778 -0.0010811724 -0.020550672 0.094246715

f0.0.bias f4 [256]
000000 1d a1 35 bd 60 40 5c bc 73 d4 1c 3d e2 16 79 bd
       -0.044343103 -0.013443083 0.038288545 -0.06081284
000010 88 f5 2d bd d4 2a 02 bd 1a 4b ca bc 87 8e d3 bc
       -0.042470485 -0.031779125 -0.024694014 -0.025824798
000020 b6 28 ab 3c 06 52 61 bd 04 bd 0c bd 2f 2c 32 bd
       0.020893436 -0.055009864 -0.034359947 -0.043499168
000030 74 f4 7d 3d fc af 78 bd 17 3d 5e bc 3f bf 59 bc
       0.062000707 -0.060714707 -0.01356437 -0.0132902255
000040 99 39 15 bd 1c be 55 bd 64 61 7e bc 08 30 60 3b
       -0.036431883 -0.052183256 -0.015526149 0.0034208316
000050 b4 7e 38 bd 54 65 87 bc fb b4 8a bc 0b 74 b3 3c
       -0.04504271 -0.01652781 -0.016932001 0.02190592
000060 8e b6 10 bd 10 9f 5c 3c e7 06 b0 3d b4 e1 89 bd
       -0.035330348 0.013465658 0.085950665 -0.067325026
000070 24 42 24 bd 6c a3 cd 3b fd f3 57 bd ea 35 2f bd
       -0.04010214 0.006275585 -0.05272292 -0.042776026
000080 97 25 5d 3d 3a 94 7f bc d0 3f 02 3d ea f8 2f 3c
       0.053990927 -0.015599305 0.031799138 0.010740498
000090 01 52 8d 3c 54 05 ef bc 50 b4 4c bd 95 4f 47 bd
       0.017251017 -0.029177345 -0.049976647 -0.04865988
0000a0 ae 6a 33 bc a7 82 91 3d 43 58 92 bd 0f c1 83 3d
       -0.010950727 0.07104998 -0.07145741 0.064333074
0000b0 c3 60 8e bd 53 8d e2 3b 7c d7 b2 3d 0a 36 da bc
       -0.069520496 0.00691382 0.08732507 -0.026637096
0000c0 b4 53 b8 bc 5d 36 e7 3a 93 7d b0 bc c3 ed 24 bc
       -0.02250085 0.0017640103 -0.021544253 -0.010066452
0000d0 2b 50 2a bd 73 88 a9 bc bf 3c 33 3b 76 c1 90 bd
       -0.04158036 -0.020694947 0.002734944 -0.0706815
0000e0 ab 14 4c bc 81 a9 d7 bc 3f 35 b4 3c 0c 2f 33 3b
       -0.0124560995 -0.026325943 0.021998046 0.0027341275
0000f0 0b 62 c9 bb 3a f1 88 3d 29 6a e5 bc 5b 57 95 bd
       -0.006145721 0.06686635 -0.028004723 -0.07292052
000100 90 ae df 3b 46 56 f6 bc 97 ba ec bc 64 08 8f 3d
       0.0068262294 -0.030070435 -0.028897567 0.06984022
000110 7b d7 d9 bc e5 98 76 bd ca 7f b2 3b 5a 77 3a bd
       -0.026592007 -0.060204405 0.0054473625 -0.04552398
000120 39 18 b3 3d d5 35 97 3d 0f 6d 9f bc bd 93 7f 3d
       0.087448545 0.073833145 -0.019461183 0.062396754
000130 3a 15 01 bd 9b a8 a1 3d 49 52 ad 3d e4 6f a8 bb
       -0.031514384 0.07893487 0.0846296 -0.0051402915
000140 a0 80 fd bc 6a bc 09 bb 3e b7 d7 3c 70 27 7c 3d
       -0.030945122 -0.0021016845 0.026332494 0.061561048
000150 3e 70 2a 3c ae 71 93 bc 5b 66 a4 3d 20 c1 4b 3a
       0.010402737 -0.017998543 0.08027335 0.00077726133
000160 57 17 b1 3c 37 df b6 3b 3e 06 82 3c 7d 2d 43 bd
       0.021617575 0.0055808085 0.015872117 -0.047650803
000170 73 46 63 bd 94 07 2f bb fa 92 d0 39 dd 62 db bc
       -0.055487107 -0.0026707398 0.00039782358 -0.02678054
000180 15 53 a0 3d e0 64 14 3c 0c 02 1f 3c eb 14 c4 3c
       0.07828347 0.009057254 0.009705078 0.023935756
000190 76 95 88 bd 60 b3 a4 3b 4e 02 97 bd 3d 90 c6 bd
       -0.066691324 0.005026266 -0.073734865 -0.0969548
0001a0 7f 3b ff bb 08 1f 3e 3d 29 6e 1b bd ff 38 37 bd
       -0.007789075 0.046416312 -0.037946854 -0.04473209
0001b0 16 e0 2f bd 56 81 9f bd 6c ec 05 bd c2 b1 c1 bc
       -0.042938314 -0.07788341 -0.032696173 -0.023644332
0001c0 b9 7e c9 bb ea f7 8e bc b3 cf 8d 3a 9d c2 96 bd
       -0.0061491397 -0.017452199 0.0010819345 -0.07361338
0001d0 a8 94 90 bc 52 50 0c 3d 5a b7 69 bd 29 c9 e3 bc
       -0.01764901 0.034256287 -0.057059623 -0.027805882
0001e0 b7 1c 88 bd ee bc 48 3d d4 20 7f 3c 20 d9 bb 3d
       -0.06646102 0.049008302 0.015571792 0.09172273
0001f0 c8 6a 9b bd c5 34 9b bc 80 04 b6 3b 12 07 d4 bd
       -0.07588726 -0.01894606 0.0055547357 -0.10352911
000200 ba b3 81 3c d4 16 4b bd 16 bd 43 bd 38 db 43 bd
       0.01583277 -0.049582317 -0.04778775 -0.047816485
000210 12 41 7e bc 8e f0 a8 3c 92 59 04 3d 09 a0 57 bd
       -0.015518444 0.020622518 0.032311983 -0.052642856
000220 f5 90 cf 3d 3a 84 ba 3c d2 12 38 3d 94 df 7a bd
       0.1013507 0.022768129 0.044939823 -0.061248377
000230 5b 1f 3a bd 3f 27 21 3d ce 0c 30 bd 5c 48 df ba
       -0.04544006 0.03934407 -0.04298096 -0.0017035115
000240 af 8b ba bd 62 4d 57 3c 75 6d 96 3d f0 50 04 3d
       -0.09108674 0.013141008 0.07345096 0.03230375
000250 ff 1e 41 3d 3d 21 24 3d d6 68 63 bd bb 8f 8c 3d
       0.0471487 0.04007076 -0.0555199 0.06863352
000260 2c 7f 0e bd 40 ca 0a 3d 00 a1 e4 bc 33 c4 06 bd
       -0.03478925 0.033884287 -0.027908802 -0.032901954
000270 93 09 41 bd 82 9e 8a bc c5 46 04 bd 9f d3 21 bd
       -0.04712827 -0.016921286 -0.032294054 -0.03950846
000280 4b 3a ac bc 82 11 91 bc d5 58 da bc 31 51 13 bd
       -0.02102389 -0.017708544 -0.026653687 -0.035966102
000290 62 b4 29 bd 9c 54 a9 3b a1 98 39 bd 91 b0 b6 bb
       -0.041431792 0.005167557 -0.045311574 -0.0055752476
0002a0 ab 20 cb bc 46 bd 2b bc 15 12 84 bc 62 58 86 bd
       -0.02479585 -0.010482138 -0.016121903 -0.065598264
0002b0 0c c3 d7 3c 77 f4 6d bd 8e 88 43 bc 43 50 5a 3d
       0.026338123 -0.058094468 -0.011934413 0.0532992
0002c0 04 df 5a bd 6f 06 7e 3c 26 ba ca bc ef f7 a8 bb
       -0.05343534 0.015504464 -0.024746966 -0.005156509
0002d0 a5 90 c3 bb be a0 37 bd df 9a ac 3c 08 af c8 3c
       -0.0059681707 -0.04483103 0.021069942 0.024497524
0002e0 99 1e 23 bd 42 32 3b bd ba 4d a4 bd d5 76 9d bd
       -0.039824102 -0.045702226 -0.08022638 -0.07688681
0002f0 b3 60 73 bd 34 3a 51 bc 2b 37 00 bd 84 36 72 3d
       -0.05941839 -0.012770224 -0.031302612 0.05913402
000300 bd ea 54 bc b9 e5 d3 bc a3 ee 45 bc 35 a4 a4 3b
       -0.012995419 -0.025866376 -0.012080821 0.005024458
000310 1b 67 6f bd e1 3b 12 bd 7a e5 91 bd 25 23 36 bd
       -0.05844794 -0.035701636 -0.07123847 -0.04446711
000320 2f 96 85 bd bf d3 4b bd a0 0f a4 bd 38 66 1e 3b
       -0.06522786 -0.049762484 -0.08010793 0.0024169814
000330 c9 b8 cb 3c 2b 07 af 3d f8 39 c7 bc da b3 97 bc
       0.024868386 0.08546289 -0.024319634 -0.018518377
000340 e2 54 a7 bc 4a 4a cc bd e5 7d 26 bc 1f 49 51 bd
       -0.020426217 -0.09975107 -0.0101618515 -0.051095124
000350 b1 ec 9b bd 4c 11 9d bd e4 24 36 bc 40 0c 3c bd
       -0.07613505 -0.07669315 -0.011117194 -0.04591012
000360 5c 79 73 3d 62 c6 7d 3b da 8d 03 3c 5e cb 1b bd
       0.05944191 0.0038722982 0.0080294255 -0.038035743
000370 20 04 25 bd 24 03 09 bd fb aa f2 bc 39 bf ad ba
       -0.040287137 -0.03345026 -0.029622545 -0.0013255841
000380 d6 b8 85 3c 99 3e 71 bd 67 92 5b bd 17 58 08 3d
       0.016323488 -0.05889759 -0.053606417 0.033287134
000390 a8 a9 19 3d 27 95 bd 3b 42 e3 ae 3b 6f 62 fb bc
       0.037515312 0.0057856026 0.00533715 -0.030686585
0003a0 79 72 8e bd cc d0 bb bc 19 63 a4 bd 1e b5 03 bd
       -0.06955428 -0.02292671 -0.08026714 -0.03215515
0003b0 51 f1 a2 3c 2c 13 8e 3b 91 91 a7 bc 83 cf 88 bd
       0.01989046 0.0043357816 -0.020455154 -0.06680205
0003c0 c1 a9 64 3d 0b 6b 30 bd 0f 7d ae bc 74 e8 8b bd
       0.055825952 -0.043070834 -0.021299867 -0.06831446
0003d0 1d 4a 66 3d 24 82 8a bd 11 82 39 bd fb 99 9e bd
       0.056223024 -0.067631036 -0.045290057 -0.07744213
0003e0 73 bc ce bc 9f b8 7a 3d e8 df da bd 74 49 2b 3c
       -0.025236344 0.061211225 -0.10687238 0.010454524
0003f0 6d de cd bc 3c c1 1b ba 36 3e 18 bd b2 23 51 3d
       -0.025130475 -0.0005941575 -0.037168704 0.051059432

f0.2.weight f4 [256, 256]
000000 c4 30 f7 3c 25 78 41 bc 39 20 3f 3c 59 09 c8 bb
       0.03017462 -0.01180843 0.011665397 -0.00610463
000010 3e e4 dd bd 2e fd 06 3c 0d 57 ba bd 48 10 81 3d
       -0.10834549 0.008239074 -0.09098635 0.063019335
000020 6f 18 35 3d cd c2 a1 bd 03 b9 36 3c e2 62 3b bd
       0.044212755 -0.078984834 0.011152509 -0.0457486
000030 56 97 91 3d 7e c0 bd bd 7c ef ef bc eb 8b 6f 3d
       0.07108943 -0.092652306 -0.029289 0.058483046
000040 70 c9 dc 3c 16 bc 15 bd 49 56 24 bd 33 bf 04 3e
       0.026951522 -0.036556326 -0.04012135 0.12963562
000050 f2 c1 95 3d 31 68 5d 3e 24 72 8a bd 3c 6b ca bb
       0.07312383 0.21621777 -0.06760052 -0.006177334
000060 57 f0 6a bd 4b 95 7f 3d 8f 79 87 bc 74 0b de 3b
       -0.057358112 0.062398236 -0.016537456 0.0067762677
000070 a9 8b 71 3d a3 86 c7 bc 73 5e ab bb f6 8a 17 bd
       0.05897108 -0.024356192 -0.005229765 -0.036997758
000080 6f de aa 3d 00 37 7e bd 97 29 87 3d 9a 72 b8 bd
       0.08343207 -0.06206417 0.065997295 -0.090062335
000090 43 73 63 3d 37 70 5e bb 37 83 03 3c f4 0f e8 bc
       0.055529844 -0.0033941397 0.0080268895 -0.02832792
0000a0 9c bc df 3d c5 09 0f 3e 38 38 a2 bc f6 d4 fd bc
       0.10924646 0.1396857 -0.019802198 -0.030985337
0000b0 bb a2 8b 3e bf d4 a4 bd d9 97 45 3e d0 c0 a1 bd
       0.2727259 -0.080483906 0.19296207 -0.07898104
0000c0 7d 60 a5 bd bd 43 c3 bd 2a 7d db 3b 6e fc 27 bd
       -0.08075044 -0.095344044 0.0066982703 -0.04101222
0000d0 43 d3 40 3d a4 ae a4 3c 46 ab 76 3e 1e b4 a4 bd
       0.047076475 0.020102806 0.24088773 -0.08042167
0000e0 88 dc 05 bd 76 9c ab bd 4a 96 06 3e 64 e3 56 3d
       -0.032681018 -0.08379452 0.13143268 0.05246295
0000f0 f4 7e ac bd f9 93 8a 3d 40 78 12 3d 7b 5e 2a bd
       -0.08422652 0.06766505 0.03575921 -0.04159401
000100 94 9e 34 3d 33 73 f2 bc 36 0a 82 bd 93 93 ec 3d
       0.044096544 -0.029595947 -0.06349604 0.11551585
000110 43 b5 46 3e a1 46 99 bd 60 08 0c 3e d1 ef 36 bb
       0.19405083 -0.074841745 0.1367507 -0.0027913938
000120 5b ef 91 3d 11 58 87 bc df 0b 38 bc 13 51 d3 3c
       0.071257316 -0.016521486 -0.011233299 0.025795495
000130 e3 be 8c ba 56 74 6a 3d b1 f6 f0 bb e2 63 1c bd
       -0.0010738041 0.057239853 -0.0073536267 -0.038181193
000140 0c 38 ed 3b c1 09 0c 3c 1e 32 02 3d 7b 31 19 3e
       0.0072393473 0.008547247 0.031786077 0.14960282
000150 47 22 df 3d 71 cf 1b bc bc c6 ea bc 73 22 bd 3d
       0.1089521 -0.009509907 -0.028659217 0.09235086
000160 8f bc 34 3e 02 ff f2 bc 1f 31 29 bb 16 90 94 3c
       0.17650054 -0.029662613 -0.0025816632 0.018135112
000170 62 28 ed bc f1 23 35 3d 7b a6 13 3e a2 b1 73 3c
       -0.02894992 0.04422373 0.14418976 0.014873894
000180 77 73 58 bc 4b 9e 1b bd ad 35 0b 3d 16 3b 0e 3d
       -0.013211123 -0.037992757 0.033986736 0.034724317
000190 a5 91 31 bd 65 72 86 3d cd 9f 70 3c 92 39 f6 3c
       -0.043351788 0.06564788 0.014686537 0.030056749
0001a0 05 49 04 bd 54 b4 22 3e c8 69 0e bd 72 61 a8 bc
       -0.0322962 0.15889102 -0.03476885 -0.020554278
0001b0 d7 eb 4d bd 58 2c b6 bc 71 d3 cf bc 62 94 5a bd
       -0.050273743 -0.022237942 -0.025369378 -0.053364165
0001c0 23 af e9 3a bb 0c 99 bd 10 a0 96 bc a1 de 5c bd
       0.0017828684 -0.07473131 -0.01838687 -0.053923253
0001d0 7f 7f b4 bd 9f 05 1a 3e 13 3a 8e bd 55 a6 2d bd
       -0.088133805 0.15041207 -0.069446705 -0.042394955
0001e0 28 9e a7 3c 7e 34 92 3d 99 a2 0e 3e 6c 33 e3 3d
       0.020461157 0.07138918 0.13929214 0.11093792
0001f0 dd ee ad bd 9e f5 82 3d 3f 97 a0 bd 48 dd 73 3d
       -0.08492825 0.06394504 -0.07841348 0.059537202
000200 4b 9d f1 3d ef 7c 99 3b c3 ce f9 3b 87 4b 87 bd
       0.117975794 0.0046840827 0.007623525 -0.066062026
000210 2f 92 5a bd a2 e8 4e bd df 78 15 3e cb 2c 7e bd
       -0.053362068 -0.050514825 0.1459689 -0.062054437
000220 b6 34 34 3e 54 ad 78 bd 1d a1 c0 3d 13 74 a5 bc
       0.17598233 -0.060712174 0.0940573 -0.02019695
000230 7c 76 ae 3c 5c 01 8e 3d da 67 99 3d 4e cf c0 3c
       0.021296732 0.06933853 0.07490511 0.02353635
000240 9e f5 1d 3d f6 1f c6 3d 13 af 6d 3d c9 9b 67 3e
       0.038564317 0.09674065 0.058028292 0.22618021
000250 52 87 99 3b cb f8 38 3d 66 2d 52 bd 93 5b f1 3d
       0.004685321 0.045159142 -0.051312827 0.117850445
000260 83 ce a5 3d a8 eb 37 3b 4d 95 82 bd af 08 3a be
       0.080960296 0.0028064046 -0.06376133 -0.18167375
000270 47 89 73 bd 20 9c 73 bd 18 0e 6e bd 2e ce f9 3b
       -0.05945709 -0.059475064 -0.05811891 0.0076234555
000280 fc 56 ff bc 8c b9 81 bd 73 6d e4 bb be 7f d5 bc
       -0.031169407 -0.063342184 -0.006971055 -0.026061889
000290 3c 95 d4 bd b7 8f 3c bc 2a 15 9d bd 42 ae 71 3d
       -0.10380027 -0.011508874 -0.07670052 0.059004076
0002a0 a9 ac c7 bd 3f 21 43 3c ce 03 e4 3c 7c f5 29 3c
       -0.09749729 0.011909782 0.027833845 0.010373469
0002b0 71 f4 9b 3d 54 17 80 bd 72 52 b6 bd e0 ef 05 3b
       0.07614983 -0.062544495 -0.08902444 0.0020437166
0002c0 39 41 30 bd 43 bd 44 3c 04 7e b1 bd da 6a f9 3d
       -0.04303095 0.012008014 -0.08666614 0.121785834
0002d0 51 ce 3f bd fe c9 33 3c 30 63 28 3e f6 97 ae 3d
       -0.046827618 0.010973452 0.16444087 0.08525078
0002e0 51 9f f1 3c 0a f7 d9 3b 75 ae 89 bd 23 1a 39 bc
       0.029494913 0.006651764 -0.06722728 -0.011297735
0002f0 d0 a9 0f bb 46 bf 1c 3c c1 1d 9f bd 55 9b 8f 3e
       -0.0021921284 0.0095670875 -0.07769347 0.28048196
000300 0f f7 4a bd 32 47 a7 3d 1b 6e d3 3d 23 b6 9f ba
       -0.04955202 0.08167876 0.10323735 -0.0012185018
000310 c3 5e 65 bd b5 ef ab bc 40 5f 87 bd ba ac 3b bd
       -0.055998575 -0.020988325 -0.06609964 -0.04581902
000320 a3 75 1c bd f6 5c d6 bc e0 eb 17 3d 13 ea e1 3d
       -0.038198125 -0.026167374 0.037090182 0.11030974
000330 f7 e5 c7 3d d4 3a d4 3d c3 65 db bd ad e3 9b bd
       0.09760659 0.10362783 -0.10712769 -0.07611785
000340 53 da e1 bc 53 5b fd 3c 86 9c ac bd 42 07 a4 bc
       -0.027569925 0.030927336 -0.08428292 -0.020022992
000350 b0 05 08 3c 92 b9 96 bd be ee b4 bd ff 1a c4 3c
       0.008302137 -0.073596135 -0.08834599 0.023938654
000360 b5 4a 1a 3e f9 8d c9 3b 85 c7 f5 3c 20 31 db 3b
       0.15067561 0.0061509577 0.030002365 0.0066892058
000370 10 81 4a bd 76 35 e0 bc 17 4a 58 3c f4 0c 3c 3d
       -0.04943949 -0.027369242 0.013201258 0.04591079
000380 f9 a9 91 3d 02 49 c4 bd 31 21 79 3c d9 a1 d5 3d
       0.07112498 -0.09584238 0.015205667 0.104312606
000390 90 57 06 3e 7f 6a 4c 3d 8b 56 78 3c 40 39 75 bb
       0.1311934 0.04990625 0.015157352 -0.0037418157
0003a0 ba 61 77 bd cb 9a 62 3c 4c fe 9e bc 99 3c 1b bd
       -0.060395934 0.013830851 -0.019408368 -0.037899587
0003b0 c3 77 4c 3d 93 66 bd 3b 42 1d e4 3c 35 ef 04 3d
       0.0499189 0.00578005 0.027845982 0.032454688
0003c0 2e ec 6d 3c 0e 8c d5 39 f0 61 b1 bd 44 85 42 bc
       0.014521642 0.00040730875 -0.08661258 -0.011872593
0003d0 5c 1a a9 3d e1 2c 93 bb 4e 38 bd bc 75 d0 c2 3c
       0.08256981 -0.004491434 -0.023098137 0.02378104
0003e0 dc 54 6d bb 45 55 91 bd 90 ca bd 3c b2 9f c4 bc
       -0.003621391 -0.07096342 0.023167878 -0.02400193
0003f0 b9 45 c0 bc 42 70 8c 3d a2 0f 11 bd ba 02 3c 3d
       -0.023470746 0.06857349 -0.0354153 0.045901038

f0.2.bias f4 [256]
000000 75 1d 11 bd 21 8f e2 3c 61 43 2c bd 7c a1 0d 3d
       -0.035428483 0.02765614 -0.042056445 0.03457783
000010 14 65 6f bd f6 2b 08 bd bf 10 54 bd 3d 73 c9 3c
       -0.058446005 -0.03324505 -0.051773783 0.024591083
000020 2d 0b 00 3d 2b 3b 62 bd 06 1d 02 3d c2 23 ee bc
       0.031260658 -0.05523221 0.03176596 -0.029069785
000030 31 38 5b bc a7 4b 91 bc ee 13 7e bc d6 3e 8a 3d
       -0.013380096 -0.01773627 -0.015507681 0.06750266
000040 27 86 66 bd fd 3b 27 bd 06 42 28 bc 1d 5a 65 bd
       -0.05628028 -0.040828694 -0.010269647 -0.05599414
000050 64 16 05 3d a3 4a 95 bd bf ec 90 bc a1 01 99 b9
       0.032492056 -0.072896264 -0.017691014 -0.00029183648
000060 35 4a a3 bb b7 c1 97 bc 09 34 5f 3c 1a cc fe 3c
       -0.0049832114 -0.018524988 0.013623246 0.031103183
000070 46 e2 5f bc 1d e9 90 bd 96 22 ce bb 10 11 46 bd
       -0.013664788 -0.07075713 -0.006290744 -0.048356116
000080 a5 d1 17 3c 60 46 14 bd 65 6c 5f bd 3f ec c5 bc
       0.009266292 -0.036199927 -0.054546732 -0.024160502
000090 86 6e e9 bc 78 9e 65 bd e9 0e 18 3d 13 34 b1 39
       -0.028495084 -0.05605933 0.037123594 0.0003379887
0000a0 c6 9b 9e 3b 6e 1f 29 bd a2 ee 6d bd 36 6e b7 bc
       0.004840347 -0.04128974 -0.058088906 -0.02239142
0000b0 82 98 3e bd 8b 4d 1c 3d c3 38 6e bd c7 ab 8b bd
       -0.04653216 0.03815989 -0.0581596 -0.06819873
0000c0 44 0f 31 bd 2f a5 3d 3d a5 dc 18 3c 85 6b a0 b9
       -0.04322745 0.04630011 0.0093299495 -0.00030597686
0000d0 d7 37 4f 39 f0 2f 5b 3d ed ce 98 bd 83 00 ac bc
       0.0001976186 0.053512514 -0.07461343 -0.020996338
0000e0 fa 8b a2 3c 7c 96 f4 3c b6 75 93 bc 5a 14 20 3d
       0.019842137 0.029856913 -0.018000465 0.03908191
0000f0 74 d2 70 bc 90 c8 fd 3c 07 79 2f 3d 37 2f 0b 3d
       -0.014698613 0.030979425 0.04284003 0.033980574
000100 fd ad ca 3c 81 b3 cd 3c e7 78 26 3b 43 ad 03 3d
       0.024741167 0.025110008 0.0025401653 0.032147657
000110 7f df 11 bc 93 46 80 3d cb ec 80 3d 4a 08 61 bd
       -0.008903383 0.06263461 0.06295165 -0.054939546
000120 39 8a 17 3d 94 35 b4 bc e0 f0 43 3d de 17 d8 bc
       0.036997054 -0.021998204 0.04783714 -0.026378568
000130 b0 73 8e 3d 8b 05 2f bd 56 22 cf bb 8b f2 ab 3c
       0.069556594 -0.042729896 -0.006321232 0.020989677
000140 6d 2f 30 bd f9 c9 57 bc 0a 5d bf 3c a0 e9 57 bd
       -0.04301398 -0.013170713 0.023359794 -0.052713037
000150 fe 5c 9c bd 99 48 42 3b dc b8 37 bd 30 fc 36 bd
       -0.07634924 0.0029645322 -0.04485403 -0.0446741
000160 53 95 ed 3c 2e c8 34 bd 6d 27 e1 ba 41 92 49 3d
       0.029001867 -0.04413622 -0.0017177887 0.049211744
000170 83 94 9d bc 80 63 cb 3c 1f ce 66 3c 26 0d db 3b
       -0.019235855 0.024827719 0.014087229 0.006684917
000180 f3 b5 b3 bc 7b 91 18 bd f9 27 42 3c 41 7c a9 bb
       -0.021937346 -0.037248116 0.011850351 -0.005172283
000190 0e 9d 02 3c b8 eb 49 bc 36 66 92 39 9a ae 6a bd
       0.007972015 -0.012324266 0.00027923443 -0.05729542
0001a0 32 ba 6c bd ec 50 12 bd 72 49 c7 bc 8f 8f bb 3c
       -0.057794757 -0.035721704 -0.024327014 0.022895603
0001b0 2a 01 d7 bc be a7 75 bc 68 27 28 3d 99 bc cf bb
       -0.026245672 -0.014993606 0.041053206 -0.0063396213
0001c0 e2 d6 5f 3c e0 b1 75 3b bb 7d 89 bd 81 e6 7f 3c
       0.013662072 0.0037490055 -0.06713434 0.015618921
0001d0 9d a2 38 3c e1 fe 33 bc b6 b5 63 3d 06 1d 8f bc
       0.011269239 -0.010986061 0.055593215 -0.017469894
0001e0 f4 df 17 3d ff 65 42 bd 5c 1c 32 3d b1 b8 d1 bc
       0.037078813 -0.047460552 0.043484077 -0.025600763
0001f0 d4 04 84 3c 91 1e 83 3d 47 9b 37 3c df 5c 2f 3c
       0.016115583 0.064023145 0.011206455 0.010703295
000200 59 9a b8 3c 95 9d 4b bc 1c 8f 0b bd cd b4 37 3d
       0.022534536 -0.012427707 -0.034072027 0.04485016
000210 c1 48 ee 3c 17 80 77 bd 3d 63 07 3c 82 98 9a 3d
       0.029087426 -0.06042489 0.008263406 0.0754862
000220 1f 20 44 3c 08 e3 85 3c dd c8 0c bd d7 9a 8b 3d
       0.011970549 0.016343608 -0.034371246 0.06816643
000230 f1 67 8f bd 34 f4 3c bd 93 02 86 bc c3 20 b6 3d
       -0.07002247 -0.046131328 -0.01635865 0.088929676
000240 03 93 16 bd dd 24 85 bb 76 79 2a bd 80 4b 80 3c
       -0.036761295 -0.0040632323 -0.04161974 0.015661001
000250 ef 4e 77 3c 0e b2 0a bd b8 36 a8 3c 02 fd ab 3b
       0.015094503 -0.033861212 0.020533904 0.0052486667
000260 4d e9 e4 bc 6e 68 ab 3a b3 06 36 3d 8f 32 c0 bc
       -0.027943278 0.0013077387 0.044439983 -0.023461608
000270 26 90 31 3d 0f eb a8 3d f0 f6 27 bd df 76 51 3c
       0.04335036 0.08247959 -0.041006982 0.012784689
000280 f6 6a 18 bd 26 5e 15 bd ef e8 5f bc 7e 7d 9e bd
       -0.03721138 -0.03646674 -0.013666376 -0.077387795
000290 15 86 28 3d 62 72 b0 3c 76 1c 41 3d de 85 19 3c
       0.041143496 0.021538917 0.047146283 0.009370295
0002a0 9c 95 93 bd c4 3e 52 bd 37 a5 c4 bb 8d f9 0c bc
       -0.0720627 -0.05132939 -0.0060011405 -0.008604419
0002b0 6c f6 bc bc ea c5 35 bd 60 2d 82 3c 54 5c 40 3d
       -0.023066722 -0.0443782 0.015890777 0.04696305
0002c0 05 73 9c 3d 7d 76 26 bc c0 0e 24 bd d7 e2 7b bc
       0.07639126 -0.010160086 -0.04005313 -0.015373907
0002d0 c1 a8 dc 3c 26 f9 7d bc 28 f8 16 3d 8f d6 57 bd
       0.026935937 -0.015501296 0.036857754 -0.052694853
0002e0 12 34 42 bd 68 58 20 3d f0 4c aa bc 61 8a 5b 3d
       -0.04741294 0.03914681 -0.02078864 0.053598765
0002f0 89 d5 44 bc 81 4f 59 bd 56 84 21 bd c7 14 89 bc
       -0.012013801 -0.053054336 -0.039432846 -0.01673354
000300 97 16 87 bd 5c a7 00 bd 4b b4 98 bd 1a ce 91 3c
       -0.065961055 -0.031409606 -0.07456263 0.017798472
000310 46 2d 77 bd 59 54 25 3d f2 3e 63 bd 44 86 08 3c
       -0.06034591 0.040363643 -0.05547995 0.008332793
000320 72 a5 9c bd 3b 6f 73 3c e6 78 4c bd a2 b0 5a bc
       -0.07648744 0.014858062 -0.049919985 -0.013347777
000330 b0 cd 62 bd 71 34 31 bb e9 22 f0 3c 94 de 4f 3d
       -0.05537194 -0.0027039314 0.029313521 0.050749376
000340 07 af 37 3c 78 c5 35 bd f4 53 19 3d 4c 6f 80 bd
       0.011211163 -0.044377774 0.03743358 -0.06271228
000350 a3 24 64 bc d2 7b 8b bd 85 88 f3 3c 1d 2a 1c bc
       -0.0139247505 -0.06810726 0.029728184 -0.009531525
000360 e0 0e 3f 3d 83 3a fc bc 44 63 89 bd 3b 68 18 bd
       0.046645045 -0.03078962 -0.067083865 -0.037208777
000370 ae e0 56 3c 57 a2 e4 3c f1 5c 59 bd 85 76 41 bd
       0.013115091 0.02790944 -0.05306715 -0.04723217
000380 d8 fb 4e 38 0a df 29 3d 91 2e 6a bc d6 32 42 bd
       4.9348775e-05 0.041472472 -0.014293329 -0.047411762
000390 37 73 69 bd dc b7 be bc 31 f5 30 3d 15 6b fa 3c
       -0.056994643 -0.02328103 0.043202583 0.030568639
0003a0 53 fb 7f bd 55 20 12 bd 4d ff a7 bd 3d 53 29 bd
       -0.06249554 -0.035675365 -0.08202992 -0.041339148
0003b0 33 1c 2a 3d 13 a0 e0 bb 69 45 e9 3c db 78 6b bd
       0.0415308 -0.00685502 0.02847548 -0.057488304
0003c0 d6 00 35 bd 03 fa 4b 3d 1c 55 9c 3c 0e 16 24 3c
       -0.04419025 0.049798977 0.019083552 0.010015024
0003d0 7a 01 6f bd f1 cc 91 bd b0 1a 2a 3d 0d 2d 04 bd
       -0.058351018 -0.071191676 0.041529357 -0.032269526
0003e0 f2 fd c6 3c f1 80 3f bd 9a 95 a8 3d 42 b2 3a 3d
       0.024291012 -0.046753827 0.08231659 0.045580156
0003f0 90 25 1d 3d 69 43 8e bd a3 e9 4f 3d ec 93 f5 3c
       0.0383659 -0.06946451 0.050759923 0.029977761

f0.4.weight f4 [130, 256]
000000 8f 5d d1 3d 37 2f 30 bc 34 63 0b 3d c2 e2 2a bc
       0.10222923 -0.010753444 0.034030154 -0.01043004
000010 a4 3e b1 3d 40 34 21 3c e0 02 6d bc 92 a0 87 3d
       0.08654526 0.0098391175 -0.0144660175 0.06622423
000020 00 c0 82 3b da 9b 3d bd 47 71 9f bb b4 70 43 bc
       0.0039901733 -0.04629121 -0.0048657986 -0.011928726
000030 50 4d e9 3d 75 72 52 3d 78 ff 69 bd 5a 0f 6d bc
       0.11391699 0.051378686 -0.0571284 -0.014468992
000040 0f 46 7b bd bc ad e0 3a 86 a2 a6 3c dc f9 34 3d
       -0.06134611 0.0017141621 0.02034117 0.044183597
000050 b7 fc 80 3d 78 8a e7 bc f2 e8 00 bd 25 7e c6 bc
       0.062982015 -0.02826427 -0.031472154 -0.024230072
000060 44 91 e1 bc 00 95 d0 3d 0b 8c 0b bc cd 76 51 bd
       -0.027535088 0.101846695 -0.008517276 -0.051138688
000070 3c 66 d2 bc 93 15 7e bc 5b 0f 2e bd 8d 85 eb bc
       -0.025683515 -0.015508073 -0.042495113 -0.028750205
000080 1a b3 86 3b e9 4e 98 bc 65 e3 0c bc 84 80 4a bd
       0.004110706 -0.018592315 -0.008599137 -0.04943897
000090 dc df da 3d d8 5f 0e 3c 6c 68 4d 3d 8d 1c 1a bc
       0.10687229 0.008689843 0.050148413 -0.009406221
0000a0 b6 2d ff bc 83 96 89 bc 87 d2 fe bc 47 c5 b2 3c
       -0.031149726 -0.016795402 -0.031106247 0.021822585
0000b0 02 67 f5 bc 80 56 8e 3d 3a 35 21 bd dc 2b 7f 3d
       -0.029956345 0.06950092 -0.0393574 0.062297687
0000c0 42 71 80 bd e2 0c 32 bc 11 53 69 bd 51 6a f2 bc
       -0.06271602 -0.010867329 -0.056963984 -0.029591711
0000d0 d6 0d 1a bd 10 c4 5b 3d e0 72 6a 3b c6 a8 4b bd
       -0.03761085 0.053653777 0.0035774037 -0.0497215
0000e0 80 d5 06 bd 0e 50 ce 3d f0 cc 89 bd 3a 7e 6d bd
       -0.032918453 0.10073863 -0.06728542 -0.057981707
0000f0 c5 70 8f 3c 24 80 3f 3d 81 89 a2 bc f0 88 dc 3c
       0.017509827 0.046753064 -0.019840958 0.026920766
000100 f1 7e f8 bc 98 82 e0 3c c9 61 94 bb c4 d7 99 3c
       -0.030333968 0.027406022 -0.0045282585 0.018779643
000110 b6 cf 6b bd 42 c9 a5 3d 27 da 50 3d 34 21 41 bd
       -0.057571135 0.080950275 0.050989296 -0.047150806
000120 5a 11 70 3d 0b 2b f8 ba eb 75 50 3d a5 9e 16 bd
       0.058610298 -0.0018933726 0.050893705 -0.03677239
000130 94 18 17 3d aa b8 c1 bc 6b c8 72 bd f4 35 49 bb
       0.036888674 -0.023647625 -0.059273165 -0.0030702325
000140 70 87 05 bd d1 c9 08 3d 5e 54 22 3d af f3 4e 3c
       -0.032599866 0.033395592 0.03963124 0.012631341
000150 cf ec 95 bd 85 60 19 3e c4 00 4f bd 88 fd 47 bb
       -0.07320558 0.14978226 -0.05053784 -0.0030516107
000160 c1 6c 80 bd bb 4d 29 3c 42 9e 30 bc 7a 4c 6a 3c
       -0.06270743 0.010333474 -0.010779919 0.01430046
000170 53 11 8c bd bf 19 62 3c 06 42 d4 3a ac 01 a4 bd
       -0.06839242 0.013800084 0.0016193993 -0.080081314
000180 3b c4 97 3d d4 54 3a 3d db 9a 49 3c 42 c4 e9 bc
       0.07410475 0.045491055 0.012304987 -0.028535966
000190 77 fe 39 bd 52 9a ea 3c d3 c8 01 bd d4 fa 2a 3d
       -0.045408692 0.028638039 -0.03168566 0.041743115
0001a0 3a 01 93 bd c3 98 09 3d 58 59 90 3b cf c0 ac 3d
       -0.07177968 0.03359295 0.004405182 0.08435213
0001b0 44 db 90 3c 4a 84 a9 bd 03 b0 25 3c d6 75 3e 3d
       0.017682679 -0.08277185 0.010112765 0.046499096
0001c0 eb b4 33 3d 6c cc 8a bc 27 9b 92 bd 32 c2 7a bd
       0.04387371 -0.01694318 -0.07158499 -0.061220355
0001d0 52 aa 19 3d 77 e6 fc bc 38 6b cb bc 78 44 9b 3c
       0.037515946 -0.030871613 -0.0248314 0.018953547
0001e0 32 bd 4a 3d 42 9c 94 bd 73 d2 a3 bc 00 53 16 bd
       0.049496837 -0.07256366 -0.019997811 -0.03670025
0001f0 53 ea f4 bb ac 44 6b 3d 13 cc 22 bd 2a 1d a7 bc
       -0.0074742227 0.057438537 -0.0397454 -0.020399649
000200 f1 8e dc 3c d5 b1 5d 3d 6d 6a 4b bd 5e 69 8b bd
       0.026923629 0.054124672 -0.049662042 -0.068072066
000210 ae 21 ba 3c bb 00 b8 bc 7f 40 57 bd ef bb 6c 3c
       0.022721138 -0.022461286 -0.052551743 0.014449104
000220 f3 be 40 3d fa 11 59 bd a8 0f a1 3c d5 d4 2a bd
       0.047057103 -0.05299566 0.019660786 -0.04170688
000230 fc 3d 18 3d 76 95 3d b9 8d 0c 63 bc 95 d7 0e 3e
       0.037168488 -0.00018080123 -0.013857973 0.13949426
000240 2a 89 dd bc e1 39 31 3d c0 96 1e 3e b3 ca 83 bd
       -0.027042944 0.04326809 0.15487194 -0.06435146
000250 0f fe 32 3d 58 a5 81 3d cd 7c 30 b9 1a 84 51 bd
       0.04369932 0.06330365 -0.0001683116 -0.051151372
000260 d7 9e 46 bd 4a 8a 99 bd 87 9e af bd c5 36 c9 bc
       -0.048491325 -0.0749708 -0.085751586 -0.024562249
000270 c7 d8 ac bc d7 b6 0c 3e 55 e1 04 bd c0 a4 39 bb
       -0.021099461 0.13741623 -0.032441456 -0.0028326958
000280 5e 45 13 3c 8b 4b 03 bd b1 0a 8f bd 90 8a 11 bd
       0.008988706 -0.032054465 -0.06984461 -0.035532534
000290 d6 00 6f bd 5a a6 14 3d 48 83 8a 3c 7a 30 32 3d
       -0.058350407 0.036291458 0.016908303 0.043503262
0002a0 2d a3 65 3d b7 1e d5 bc af f2 10 3d 10 17 4e 3c
       0.05606382 -0.026015623 0.03538769 0.012578741
0002b0 80 6f d5 bc 22 e4 22 bb e6 62 a8 3c 87 37 99 bd
       -0.026054144 -0.0024855216 0.020554971 -0.07481294
0002c0 10 b7 63 bd 36 8d 66 bc 1a 0a f1 3c b0 cc bf bb
       -0.055594504 -0.014071753 0.029423762 -0.005853258
0002d0 04 92 09 3d 15 f4 6c bd 20 f1 a5 3c 68 eb c6 bc
       0.033586517 -0.057849962 0.020256579 -0.024282172
0002e0 10 ce 88 3c 0f 09 12 bd be 61 0c 3c a4 2c d8 3d
       0.01669982 -0.03565317 0.008568225 0.105553895
0002f0 2a 82 29 bd 92 c0 23 bd e9 a1 45 3d 87 05 60 bd
       -0.0413839 -0.03997857 0.048250113 -0.05469277
000300 09 8b 16 3d e6 2d 47 3c 56 c6 35 bd 23 2d 8c bd
       0.036753688 0.012156939 -0.0443786 -0.06844547
000310 bc 3e 3f 3d 07 d4 c1 3d 49 dc eb 3c 92 31 6f 3d
       0.046690688 0.09464269 0.028791564 0.058396883
000320 01 39 ce bb d0 46 28 3d 18 d7 89 bd b0 ca 97 bd
       -0.0062934165 0.041083157 -0.06730479 -0.074117064
000330 1e a4 3f bc c0 ae 97 bb 1d 19 94 bb 23 c8 34 3d
       -0.011696843 -0.004628986 -0.0045195953 0.044136178
000340 7b a1 61 3c 5a 2e 09 3d 9a 5d 38 3d 22 74 db 3c
       0.01377141 0.03349147 0.04501114 0.026788775
000350 bc 59 26 3d fe 81 be bb 36 c2 1d 3d 74 aa 2f bd
       0.04061292 -0.005813836 0.038515292 -0.042887166
000360 c9 0a 5b 3b 4c c3 1c bc d8 6a bd 3c 2a b1 5f bd
       0.0033423177 -0.009568047 0.023122236 -0.054612316
000370 9e a3 9d bd d2 2a b8 3a d2 05 8d 3c b9 ba 66 38
       -0.07697223 0.0014050847 0.01721469 5.5010172e-05
000380 c6 27 eb bb 87 0c 7b bd 10 a9 f1 3c 23 93 a7 3b
       -0.007176372 -0.061291244 0.02949956 0.0051139756
000390 f0 53 ce 3c 0a ff cb 3c 66 de 3b 3d b0 e3 39 3d
       0.025186509 0.024901886 0.045866393 0.045383155
0003a0 21 d4 bd 3b b1 d3 40 bc 0a 3c 00 3d 72 63 2a 3d
       0.00579311 -0.011769221 0.031307258 0.041598745
0003b0 ea 4e 16 bd ec 89 66 3d 55 05 33 bd af db 3b bd
       -0.036696352 0.056283876 -0.043706257 -0.045863803
0003c0 94 63 1b 3e ce 5c 65 bc fc fd c3 3c 05 57 3a bd
       0.15174705 -0.013999177 0.02392482 -0.045493145
0003d0 95 e0 97 bc 05 74 43 bc 22 1c 60 bd f9 1a ae 3c
       -0.018539706 -0.011929517 -0.05471433 0.021253096
0003e0 46 e8 24 bc 00 6a 39 b9 4d 41 d4 3d 77 68 39 3c
       -0.010065144 -0.00017682463 0.10364018 0.01131641
0003f0 97 35 d7 bc c6 f5 30 bd 0e 35 50 3d da 06 52 3d
       -0.02627067 -0.043203138 0.050831847 0.051276065

f0.4.bias f4 [130]
000000 10 59 1f ba 50 51 4b bd fa a9 b5 bc 20 81 b1 bc
       -0.000607864 -0.049638093 -0.022175778 -0.021668017
000010 74 8c 3b 3b 34 8d 44 bb 0b 1c 0b 3d 41 61 39 3d
       0.0028617652 -0.002999139 0.03396229 0.045258764
000020 b0 b4 8c 3c a0 80 69 bb ed 46 97 3c 73 60 1a 3d
       0.017176002 -0.0035629645 0.018466437 0.037689637
000030 05 f6 a9 bd ac 1b 60 bc c8 32 0a bd f8 13 b3 bc
       -0.082988776 -0.0136784725 -0.033739835 -0.021860108
000040 9f 7a 6a 3d d9 8d 36 bb 18 b7 98 bd 39 ab 54 bd
       0.057245847 -0.0027855544 -0.07456797 -0.051921103
000050 2c 52 19 bd 68 0a bd 3c d5 ce 9e 3c 18 9c 1a bd
       -0.03743188 0.023076251 0.019385735 -0.03774652
000060 f2 19 24 bd 78 10 32 bc 5c 0b 92 bc a8 24 a1 bc
       -0.040063806 -0.010868184 -0.017827682 -0.0196708
000070 50 a7 68 3c 9a f4 67 bd 02 71 bc bd 05 1d a8 bc
       0.014200047 -0.056629755 -0.09201242 -0.02052165
000080 ae 2a 74 3d bc d6 ba bd 4e d3 52 3b 48 c9 40 bc
       0.059611015 -0.091229886 0.0032169404 -0.011766739
000090 24 69 8e 3c c7 a4 81 bd d2 d1 64 3d ff 78 df bb
       0.01738412 -0.06330257 0.055864163 -0.006819844
0000a0 29 81 4d bc e6 96 1b bd ef 1c ca 3b 00 ca 7d bd
       -0.012543001 -0.037985705 0.006168 -0.06196022
0000b0 08 cb 30 3c 74 bc 26 bd d9 1b 70 3c c0 3e a4 3c
       0.010790594 -0.040707067 0.014655077 0.020049453
0000c0 58 73 63 bb 08 56 66 bc 77 9c 35 bc d8 81 58 3d
       -0.0034706201 -0.014058597 -0.011084667 0.052858204
0000d0 67 3d ca bc 87 0c 85 bd ec d2 aa 3c 71 26 9b bd
       -0.024687482 -0.0649653 0.020852529 -0.075756915
0000e0 d3 7b 30 bb 50 66 fc 3c f6 88 22 bd 60 24 16 3b
       -0.0026929274 0.030810505 -0.039681397 0.0022909865
0000f0 98 a7 a3 bd 38 70 ff 3c 10 f7 9c 3c f4 e2 f8 bb
       -0.0799095 0.03118144 0.019160777 -0.0075954143
000100 a0 c6 8b bd 87 93 22 3d ca 1d 7a ba 40 5d 66 3d
       -0.06824994 0.039691474 -0.0009541182 0.056241274
000110 30 6e 0c bd 50 a5 10 3d 22 9c cc bc aa 55 fc 3c
       -0.03428477 0.035313904 -0.024976794 0.030802567
000120 89 d3 23 bd 39 de 8e bd 20 24 eb bb fa eb 12 3c
       -0.039996658 -0.06975979 -0.0071759373 0.008967394
000130 f8 16 d0 3c 10 1b 3e 3c ce c6 4f bd 44 cd a7 bd
       0.025401577 0.011603132 -0.050726704 -0.08193448
000140 42 bc 3f bb 76 69 72 3d f0 be 16 3d 38 92 f5 bc
       -0.0029256498 0.059182607 0.036803186 -0.02997695
000150 68 df 9a bd a2 c0 45 3d 95 f6 3e 3d 16 2e 47 bd
       -0.075621426 0.048279412 0.046621878 -0.048627935
000160 da 89 c3 bb 5c a6 16 bd ff 43 22 bc b0 e7 56 38
       -0.005967361 -0.036779746 -0.009903907 5.123735e-05
000170 5f 86 ec bc 51 0a 6c bd 38 f5 c0 bc d8 90 36 3d
       -0.028872667 -0.057627026 -0.02355443 0.044571728
000180 a9 b3 f8 3b 61 da f8 bc 4b cd 19 bd 44 4a 94 3b
       0.0075897765 -0.030377569 -0.0375493 0.0045254547
000190 19 d2 a3 3c e3 ed ef bc 63 da 1d 3c 4e 5e 34 3d
       0.019997643 -0.029288238 0.009634587 0.04403525
0001a0 9f 2b 64 bd de a1 70 bd fc e0 75 3d 8b 7a 9a b8
       -0.055705663 -0.05874812 0.060029015 -7.366118e-05
0001b0 8b 3d ec 3c 19 87 1c bd 44 69 98 bb b0 dc ee bc
       0.02883794 -0.038214777 -0.0046512205 -0.029157966
0001c0 6c 6f dc bc f4 11 13 bd b3 d1 1d 3d 05 4e 00 3d
       -0.026908599 -0.035905793 0.038530063 0.031324405
0001d0 32 df 82 bc 9b 51 2b bd be 8b 56 3d cc 0b 1b 3d
       -0.015975568 -0.041825872 0.052379362 0.037853047
0001e0 80 97 45 bc b2 4d 19 bc bb 1a 78 bd 23 3c 5a 3c
       -0.012060046 -0.009356903 -0.060572367 0.013320002
0001f0 b8 c8 e2 3c 34 06 9e bc 30 11 2e bd 1c ef 7a bd
       0.0276836 -0.019290067 -0.04249686 -0.06126319
000200 5d 46 cd bb d0 86 7b bd
       -0.0062644915 -0.061407864
